imitation_learning/logs/run_20240528142356/checkpoints/ckpt_latest.pt (torch, 15664 bytes, 4 tensors)

bias f4 [32]
0	0xbe1cf5a6	-0.15328082
1	0xbeb00f6b	-0.34386763
2	0x3dd23f47	0.102659754
3	0x3e58d29a	0.21174088
4	0xbed906a1	-0.4238787
5	0x3d69e787	0.057105567
6	0x3d4725b2	0.048619933
7	0xbd63ba38	-0.055597514
8	0xbe3c3c7d	-0.1838245
9	0xbd479ef6	-0.04873558
10	0xbe1eb0a1	-0.15497066
11	0xbda6fb0e	-0.08153354
12	0xbd0db1b0	-0.034593284
13	0x3d813a8b	0.06309994
14	0x3e1e3683	0.15450482
15	0x3e80c93b	0.25153527
16	0x3e074927	0.13211499
17	0x3e26fe80	0.16308022
18	0x3c84c306	0.016206276
19	0xbbb5fc5f	-0.0055537666
20	0xbd685369	-0.05672017
21	0xbc2ea7a4	-0.010660086
22	0xbdc1bcf5	-0.09459869
23	0xbe1c6ceb	-0.15275924
24	0xbe0f5e83	-0.14000897
25	0xbd15bfa2	-0.03655971
26	0x3d98317f	0.07431316
27	0xbc0d52aa	-0.008625666
28	0x3d749ae3	0.059718024
29	0x3eb4f813	0.35345516
30	0x3d9c3e2f	0.07629048
31	0x3e06459a	0.13112488

weight f4 [32, 10]
0	0x3ad06e25	0.0015901966
1	0x3fdc0c31	1.719122
2	0x3e938792	0.2881437
3	0xbfc550bc	-1.5415263
4	0x3ee8c984	0.45466244
5	0xbeacba06	-0.33735675
6	0xbedcc9ba	-0.43122655
7	0xbfee1b86	-1.860215
8	0xc0054f4c	-2.082965
9	0xbf520810	-0.8204355
10	0x3e1c2aee	0.15250751
11	0x3fac60ff	1.3467101
12	0x3f9b424f	1.2129611
13	0x3e683739	0.22677316
14	0xbe5d46f0	-0.21609092
15	0xbff0ae0c	-1.8803115
16	0xbe6d2a68	-0.23160708
17	0x3e8de334	0.27712405
18	0xbe9da3ce	-0.30789036
19	0x3ef5b41f	0.47988984
20	0x3f19c24b	0.6006209
21	0xc004142b	-2.063731
22	0xbe604e47	-0.2190486
23	0x3f9fe155	1.2490641
24	0x3e7e15af	0.24812959
25	0xbf04bc93	-0.5185024
26	0x3e9a9d11	0.30197957
27	0x3e153c02	0.14573672
28	0x3d57a4b8	0.052647322
29	0x3f08a9b0	0.5338392
30	0xbf3c8b29	-0.7364984
31	0x3fc88942	1.5666888
32	0x3efefb35	0.4980103
33	0xbf961933	-1.172644
34	0x3e891b0a	0.26778442
35	0x3d104426	0.03522124
36	0xbf87a055	-1.0595804
37	0xbf191e57	-0.5981192
38	0x3e6e2cc7	0.23259269
39	0xbe9110fb	-0.28333268
40	0xbf88c435	-1.0684878
41	0x3f9ea655	1.239451
42	0x3f0cd7ee	0.5501698
43	0x3ef7e185	0.48414245
44	0x3e8a9ed2	0.27074295
45	0x3fdec6b6	1.7404392
46	0xb9fe7241	-0.0004853178
47	0x3f7c6c96	0.9860319
48	0xbfc8e6c0	-1.5695419
49	0xbf53fb8f	-0.8280572
50	0xbdfb7314	-0.12277809
51	0x3f34b663	0.705908
52	0xbf3e90e9	-0.74439865
53	0x3f8e2f5f	1.1108207
54	0x3ec857e6	0.3912956
55	0xbfaf14fe	-1.3678281
56	0xbd0502fc	-0.03247355
57	0xbee7531c	-0.45180595
58	0x3e7d3864	0.24728543
59	0xbf321304	-0.69560266
60	0x3eebbb43	0.46041307
61	0xbf7c7dd1	-0.9862948
62	0xbe5d0ab5	-0.21586116
63	0xbddd9fc2	-0.10821487
64	0x3ed5b131	0.4173675
65	0x3fcef5e1	1.6168786
66	0xbfa5afa4	-1.2944226
67	0x3dd1bf02	0.1024151
68	0xc00af4e1	-2.1711962
69	0xbea16a9f	-0.31526658
70	0xbfd39683	-1.6530308
71	0x403d039d	2.9533455
72	0x3ebaf00e	0.36511272
73	0xc000fa3d	-2.0152733
74	0xbe3a0e6a	-0.18169561
75	0x3f03c213	0.5146801
76	0x3f0c15d4	0.5472081
77	0x3f60e702	0.8785249
78	0xbf5bf2b0	-0.85917187
79	0xbf2573cf	-0.64629835
80	0xbc9b2737	-0.018939598
81	0xbd56b6ce	-0.05242043
82	0xbed5aad5	-0.41731897
83	0x3dbca2f8	0.09210771
84	0x3e1da5bc	0.15395254
85	0x3fa1bbee	1.2635477
86	0x3e2677f1	0.16256692
87	0x3f0b7d0d	0.5448769
88	0xbee7110e	-0.451302
89	0xbfbbd1ef	-1.4673442
90	0xbed6b92a	-0.41938144
91	0x3f070275	0.52738124
92	0x3daf3148	0.085543215
93	0x3e3cf0cd	0.18451233
94	0x3e931cc1	0.28732875
95	0xbf8f6b1b	-1.1204561
96	0x3f0f7314	0.5603497
97	0xbfccac34	-1.5990052
98	0xbe912bbb	-0.28353676
99	0xbf02bb5f	-0.51067156
100	0xbebe61de	-0.37184042
101	0xbf914025	-1.13477
102	0x3f03eeb2	0.51536095
103	0x3f8840d8	1.0644789
104	0xbdf7bdf4	-0.120967776
105	0x3f3c44dc	0.7354257
106	0x3f43e927	0.7652764
107	0xbe343da3	-0.17601638
108	0xbfb3c123	-1.4043316
109	0x3f96aca0	1.1771431
110	0x3c6d4c4f	0.014483525
111	0xbf030749	-0.5118299
112	0x3ec9b5e6	0.3939659
113	0x3f49b2d7	0.7878851
114	0xbac33add	-0.0014894862
115	0xbfc1c23f	-1.5137404
116	0x3edcf645	0.4315664
117	0xbf9a48f6	-1.2053516
118	0xbede5cdf	-0.4343023
119	0xbf7a75f4	-0.9783623
120	0xbe94c7e2	-0.29058748
121	0x3ff57f75	1.9179522
122	0x3d82b50c	0.06382188
123	0xbd74a188	-0.05972436
124	0x3eeac395	0.45852342
125	0x3fa29050	1.2700291
126	0xbb38c1a2	-0.0028191586
127	0xbf76d5a6	-0.9641975
128	0xbf00a447	-0.5025067
129	0xbe8eb3e3	-0.27871618
130	0xbe1561fc	-0.1458816
131	0xbecd890a	-0.40143615
132	0xbeb8a418	-0.36062694
133	0x3f9d433e	1.2286146
134	0x3ec43b69	0.38326576
135	0x403f2016	2.9863334
136	0x3df979f7	0.12181466
137	0xbfc45fc9	-1.5341731
138	0xbf3653dc	-0.7122171
139	0xbeae9661	-0.34099105
140	0x3eb1e5ea	0.34745723
141	0xbf161f16	-0.58641183
142	0x3dc1a8e4	0.094560415
143	0x3d2d7327	0.042346146
144	0x3ea1ac7d	0.3157691
145	0xbfdef078	-1.7417135
146	0xbdef6794	-0.11689678
147	0xc0172c24	-2.3620691
148	0x3e91458e	0.2837338
149	0x3f8c0263	1.0938228
150	0x3e64b191	0.22333361
151	0xbf5dae6c	-0.8659427
152	0x3e04a6dd	0.12954278
153	0x3f47277c	0.77794623
154	0x3daa42ec	0.083135456
155	0x3fac31bd	1.3452679
156	0xbd2a6599	-0.041600797
157	0x3f05c365	0.52251273
158	0x3ecb9efd	0.39769736
159	0x3ffa75e0	1.9567223
160	0xbd0bb341	-0.034106497
161	0x3f098637	0.5372042
162	0xbe7cbedb	-0.2468218
163	0xbec95e3e	-0.39329714
164	0x3ef39272	0.47572666
165	0xbf359586	-0.7093128
166	0xbd588855	-0.05286439
167	0x3eacebdb	0.33773693
168	0xbe24e4fd	-0.16102977
169	0x3f1d4b09	0.6144262
170	0xbee143b2	-0.4399696
171	0xbfc30387	-1.5235451
172	0xbe91c166	-0.28467864
173	0xbeb88d47	-0.36045286
174	0x3e6823ca	0.22669902
175	0x3f4f50ac	0.8098247
176	0x3e8242a3	0.25441465
177	0x3f5b8d0a	0.85762084
178	0x3fb3fc2e	1.4061334
179	0x3f1f6496	0.62262857
180	0xbee57b3c	-0.44820583
181	0x3f6f4765	0.93468314
182	0xbd791a29	-0.060815964
183	0xbd4000ae	-0.04687565
184	0x3efeb702	0.49749
185	0xbb3455da	-0.0027516992
186	0x3df3734b	0.11887225
187	0x3dfe2f1f	0.124113314
188	0xbde64d6a	-0.11245234
189	0x3fa216d0	1.2663212
190	0xbeb0c1c8	-0.34522843
191	0xc012e663	-2.2953117
192	0x3eddbd7a	0.43308622
193	0x3e8d7c79	0.27634028
194	0xbf397b5d	-0.7245386
195	0x3f608d5e	0.8771571
196	0x3f51d661	0.8196774
197	0xbdd48b27	-0.10378104
198	0x4005ffbc	2.0937338
199	0x3ef922e0	0.4865942
200	0xbe5ef07d	-0.21771426
201	0xbf128ecc	-0.5724914
202	0xbed9d71e	-0.42546934
203	0xbfd742ca	-1.6817257
204	0x3eafd590	0.34342623
205	0xbf6e1e5e	-0.93015087
206	0x3db6ff8b	0.0893546
207	0xbf5e44fb	-0.86824006
208	0xbf1f129f	-0.6213779
209	0xbe8e4af0	-0.27791548
210	0xbe8b40df	-0.2719793
211	0x3d870202	0.0659218
212	0x3e374614	0.17897826
213	0xbda85be6	-0.08220653
214	0xbeb50268	-0.35353398
215	0x3cb4e7fb	0.022083273
216	0xbe0c3c1d	-0.13694806
217	0x3e5220f5	0.20520385
218	0x3d03c4fc	0.03217028
219	0xbe811d7a	-0.252178
220	0x3f61edd8	0.88253546
221	0xbece6b2a	-0.40316135
222	0x3d6041b7	0.05475017
223	0xbfed59cb	-1.8543028
224	0x3e0e7971	0.13913514
225	0x3f6d2fe1	0.9265118
226	0x3ef99a64	0.48750603
227	0x3e7c2001	0.24621584
228	0x3f44dabe	0.76896274
229	0xbe520767	-0.20510636
230	0xbe8109f2	-0.252029
231	0xbfa447b9	-1.2834388
232	0xbedc2851	-0.4299951
233	0x400c36e4	2.1908503
234	0x3eec3191	0.46131566
235	0xbe2e3f2c	-0.17016286
236	0xbe23ff46	-0.16015348
237	0x3fcd3447	1.6031579
238	0x3f88e5cf	1.0695132
239	0xbf82353d	-1.0172497
240	0x3d4c3db1	0.04986352
241	0x4024bee0	2.57415
242	0xbde33d48	-0.11095673
243	0xbf3117b4	-0.69176793
244	0xbee8ea2b	-0.45491156
245	0x3eace1c6	0.33766
246	0x3f80ec76	1.0072162
247	0xbe1bd83a	-0.15219203
248	0xbf31831d	-0.6934069
249	0xbf33e515	-0.70271426
250	0x3ef61538	0.48063064
251	0xbf092942	-0.5357858
252	0x3f011e8d	0.5043724
253	0x408e27b6	4.4423475
254	0xbd942838	-0.072342336
255	0x3f07bfb9	0.5302692

bias f4 [8]
0	0xbcc2d3b1	-0.023782583
1	0x3e161971	0.14658143
2	0x3d2df263	0.042467486
3	0xbdd94110	-0.10608113
4	0x3ccb9413	0.02485088
5	0xbca0ebfc	-0.019643776
6	0x3e1efb5f	0.15525578
7	0x3d083b99	0.03325996

weight f4 [8, 32]
0	0xbef023b3	-0.46902236
1	0xbef6a588	-0.48173165
2	0xbea22f68	-0.31676793
3	0x3e0ab2e6	0.13544807
4	0xbdf8d5f5	-0.12150184
5	0x3dcfdff0	0.101501346
6	0x3ede2994	0.43391097
7	0xbe09d67a	-0.13460723
8	0x3d7cc10d	0.061707545
9	0x3e627328	0.22114241
10	0xbe935458	-0.28775287
11	0xbd796f78	-0.06089732
12	0xbe5088dc	-0.20364708
13	0x3ea4f205	0.32215896
14	0x3e076369	0.13221516
15	0xbe49eedb	-0.19720022
16	0xbd2e3de1	-0.04253948
17	0xbda031f3	-0.07822027
18	0x3e01fde3	0.12694506
19	0xbe6c5b7d	-0.23081775
20	0xbdd8c419	-0.10584278
21	0x3ebbc97d	0.3667716
22	0xbe47462b	-0.1946036
23	0x3e4894c2	0.19587997
24	0x3e18473c	0.14870924
25	0x3d828870	0.0637368
26	0xbd28253a	-0.041051127
27	0xbe6e4631	-0.23268963
28	0xbdcf7fca	-0.10131796
29	0x3f89e88a	1.077409
30	0x3df8081e	0.12110923
31	0x3ec3ad23	0.3821803
32	0x3fa15ebe	1.2607038
33	0x3cf7a482	0.03022981
34	0x3d761d9e	0.06008684
35	0xbf42e4b3	-0.7613022
36	0x3f908bc1	1.129265
37	0xbf04e0db	-0.519056
38	0x3f3827c1	0.7193566
39	0x3fccf269	1.6011478
40	0xbf956188	-1.1670389
41	0x3d8d4d18	0.0689947
42	0xc007580d	-2.1147492
43	0x3e39f5d1	0.18160178
44	0xbeaebcf0	-0.34128523
45	0xbf243cba	-0.6415516
46	0xbe276cce	-0.163501
47	0x3f5f71cb	0.8728301
48	0xbf0180b5	-0.50587016
49	0xbd31af4c	-0.043380067
50	0xbf9019d8	-1.1257887
51	0x3f9c1c1f	1.2196082
52	0xbced8d58	-0.028998062
53	0xbdb880ce	-0.090089425
54	0x3ed4eb09	0.41585568
55	0xbeec6c02	-0.46176153
56	0x3fd168d4	1.6360116
57	0x3e86fb6e	0.263637
58	0xbeeb0995	-0.45905748
59	0x3e392b55	0.18082936
60	0x3e8440df	0.25830743
61	0xc092c751	-4.5868306
62	0xbf0ed18f	-0.5578851
63	0x3d78d564	0.06075038
64	0xbea62daf	-0.3245673
65	0x3ff9eb60	1.9524956
66	0xbf118ff5	-0.56860286
67	0xbe8ad38b	-0.2711452
68	0x3c971157	0.018440885
69	0x3e4df276	0.20112023
70	0x3f6d8d40	0.92793655
71	0xbecead19	-0.40366438
72	0x3f2f4156	0.6845907
73	0xbe61e022	-0.22058156
74	0x3dc69167	0.09695702
75	0xbe97c319	-0.29641035
76	0x3f50fbfb	0.8163449
77	0xbeb592a3	-0.35463437
78	0x3ee4014a	0.44532233
79	0xbee6dce3	-0.45090398
80	0x3ef78089	0.48340252
81	0x3e483a9a	0.19553605
82	0x3ed265bf	0.4109325
83	0xbdb91d3c	-0.09038779
84	0xbc8522be	-0.016251918
85	0xbdfb055d	-0.12256882
86	0x3e1bb829	0.1520697
87	0xbf012de6	-0.5046066
88	0xbf67f6da	-0.9061104
89	0xbec15e71	-0.37767366
90	0xbec5fbd3	-0.3866869
91	0xbea517da	-0.3224476
92	0x3e637939	0.22214212
93	0x3fc3c559	1.5294601
94	0x3e037284	0.12836653
95	0xbe47dc94	-0.19517738
96	0x3dee2d9e	0.116297945
97	0x40035883	2.0522773
98	0x3f490dfa	0.7853695
99	0x3f35bb61	0.7098904
100	0x3fdeaee8	1.7397127
101	0xbdc3933f	-0.09549569
102	0xbebef35a	-0.37295038
103	0x3f9b0668	1.211133
104	0xbf292ff2	-0.66088784
105	0x3dc4aa6e	0.096028194
106	0xbfc1ca66	-1.5139892
107	0x3f0ecbf1	0.5577994
108	0x3e0804a2	0.13283017
109	0xbe2eb742	-0.17062095
110	0xbf02a259	-0.5102897
111	0x3fa97d04	1.3241277
112	0xbec2e499	-0.3806503
113	0xbf80ba4e	-1.0056856
114	0xbdf20662	-0.11817624
115	0xc0046c59	-2.069113
116	0x3f07fe49	0.53122383
117	0x3de18cde	0.110131964
118	0x3f1bf276	0.6091684
119	0xbf3a6fd7	-0.72826904
120	0xbf361b2c	-0.7113521
121	0x3f8745af	1.0568141
122	0x3f28a1fd	0.65872175
123	0xbebe50ff	-0.3717117
124	0xbe60d616	-0.21956667
125	0xc077acf2	-3.8699307
126	0xbfa1ff93	-1.265612
127	0xbf62ec9d	-0.88642293
128	0x3dd96d04	0.10616496
129	0xbff45330	-1.9087887
130	0xbea8a415	-0.32937685
131	0xbe595f35	-0.21227725
132	0xbf04322f	-0.51639074
133	0x3f969e69	1.1767093
134	0x3f173ad0	0.59074116
135	0x3c0c3ffb	0.008560176
136	0xbea80fbf	-0.32824513
137	0xbefd4458	-0.49466205
138	0xbde4e65c	-0.1117675
139	0xbf02427b	-0.5088269
140	0x3db26691	0.08710969
141	0x3e9ca717	0.3059623
142	0xbefbac8d	-0.49155083
143	0xbdd35f0f	-0.10320865
144	0x3d4dd82f	0.050254997
145	0xbecb3230	-0.39686728
146	0x3f0da215	0.5532544
147	0x3d9ff6be	0.07810734
148	0x3f1f61ea	0.6225878
149	0x3e45720b	0.19281785
150	0x3e4f6bd8	0.20255983
151	0xbeb4ec26	-0.35336417
152	0xbf007442	-0.50177395
153	0xbe8a9cf5	-0.27072874
154	0x3da74481	0.08167363
155	0xbccd1479	-0.025034176
156	0xbecafdf8	-0.39646888
157	0x3ff84d7f	1.939865
158	0x3f0bda9e	0.5463046
159	0x3e3e575a	0.1858801
160	0x3cb3eeee	0.021964516
161	0xbea7ec3d	-0.32797423
162	0xbf3c2bd8	-0.735044
163	0xc01e28c0	-2.4712372
164	0xbf1841ac	-0.5947521
165	0xbf35bd0d	-0.70991594
166	0x3f2ebf04	0.68260217
167	0xbf14cf23	-0.58128566
168	0xbfba348a	-1.4547284
169	0x3f2333ea	0.6375109
170	0xbceac982	-0.02866054
171	0x3f1462b7	0.57963127
172	0x3f2c8451	0.673894
173	0x3e9417c1	0.28924373
174	0xbdf3b50d	-0.11899767
175	0x3ea053ed	0.3131403
176	0x3d9902ef	0.07471263
177	0x3f23108b	0.6369712
178	0xbeb93d94	-0.36179793
179	0x400a6657	2.1624963
180	0xbf3204d4	-0.6953862
181	0xbe74bdd3	-0.23900537
182	0x3e05ea23	0.13077597
183	0x3f996c67	1.1986207
184	0x403bddc7	2.9354112
185	0xbfb9d333	-1.4517578
186	0xbf98b178	-1.1929159
187	0x3e6ae37d	0.22938342
188	0x3f1f29ee	0.62173355
189	0xbfdeebda	-1.7415726
190	0x3ecc434a	0.39895087
191	0x3eb63648	0.35588288
192	0x3ef488a8	0.4776051
193	0x3ffae9ca	1.9602597
194	0xbf0aba43	-0.5419046
195	0x3ec864f2	0.39139515
196	0x3d2a2a8a	0.041544475
197	0xbe527097	-0.20550762
198	0x3f37c2bd	0.7178152
199	0xbf1949f9	-0.598785
200	0x3f3a13bf	0.7268638
201	0x3db5851b	0.088632785
202	0xbe9d6318	-0.30739665
203	0xbf0aa9cf	-0.5416536
204	0x3d8b50fd	0.06802557
205	0xbef8d8bf	-0.48602864
206	0xbf1730af	-0.5905866
207	0xbe6db6df	-0.23214291
208	0x3ed0404f	0.40674064
209	0x3eccb33d	0.39980498
210	0x3f233f68	0.63768625
211	0x3def4252	0.116825715
212	0x3f1de263	0.61673564
213	0x3e95551e	0.29166502
214	0x3eede05c	0.46460235
215	0xbf7dffbf	-0.9921836
216	0xbfaa2405	-1.3292242
217	0xbee97746	-0.4559881
218	0xbecadb29	-0.3962033
219	0xbe5313d5	-0.20613034
220	0xbbbf6524	-0.0058409143
221	0x3fd29491	1.6451589
222	0x3f17677f	0.591423
223	0x3eb82c80	0.3597145
224	0x3bf23d5e	0.0073925694
225	0xbd13228d	-0.035921622
226	0xbc5418cd	-0.012945366
227	0x3d9f047f	0.077645294
228	0xbd2df9ff	-0.042474743
229	0x3bfc760b	0.0077045015
230	0xbbd69b39	-0.0065492657
231	0x3da81f42	0.08209087
232	0xbc457e3b	-0.0120540215
233	0xbd9b82b7	-0.07593291
234	0xbcec336d	-0.028833115
235	0x3e53fa86	0.20701036
236	0xbca2f5c6	-0.019892585
237	0x3cd637e4	0.026149698
238	0x3d4a6901	0.049416546
239	0xbbc89f31	-0.0061224927
240	0x3e3091d6	0.17243132
241	0x3d3d72ec	0.046252176
242	0xbc44c550	-0.012009934
243	0x3d00d723	0.03145517
244	0x3d0003b9	0.03125355
245	0xbe875cd2	-0.26438004
246	0xbda988e7	-0.08278065
247	0xbd0572b7	-0.032580104
248	0xbd520afc	-0.051280007
249	0xbd48d205	-0.049028415
250	0xbc5928a2	-0.0132543165
251	0x3dc50fda	0.09622164
252	0xbe9092e4	-0.2823707
253	0x3cb3335c	0.021875076
254	0xbb988cdb	-0.004655463
255	0x3e00b14b	0.12567632
