imitation_learning/logs/run_20240528142356/checkpoints/ckpt_16000.pt (torch, 15656 bytes, 4 tensors)

bias f4 [32]
-0.103420764 -0.31952155 0.08021733 0.19367053 -0.22941424 0.044855304 0.026805438 -0.07685606
-0.12729032 -0.056668837 -0.09115935 -0.034622364 -0.038585994 0.03372199 0.04805007 0.1904141
0.08413372 0.14193395 -0.006690875 -0.062083088 -0.057311833 -0.010660086 -0.08504882 -0.08275927
-0.10872121 0.0025013417 0.030405363 -0.008625666 0.054944366 0.31837314 0.08807904 0.09090404
00000000: 44ce d3bd 5498 a3be fc48 a43d 9151 463e
00000010: 91eb 6abe 32ba 373d 1497 db3c b666 9dbd
00000020: 6558 02be 951d 68bd c1b1 babd 2ed0 0dbd
00000030: 590c 1ebd 1220 0a3d 26d0 443d eafb 423e
00000040: 4d4e ac3d 2257 113e 213f dbbb d64a 7ebd
00000050: d0bf 6abd a4a7 2ebc 132e aebd b17d a9bd
00000060: 3aa9 debd 8ded 233b ab14 f93c aa52 0dbc
00000070: 580d 613d ce01 a33e c962 b43d e62b ba3d

weight f4 [32, 10]
0.00052894594 1.6132656 0.24492235 -1.4466194 0.37510872 -0.44485137 -0.38506773 -1.4021338
-1.7089416 -0.63866603 0.062322162 1.1258708 1.3015089 0.13081296 -0.12403364 -1.3135785
-0.25913188 0.47153595 -0.27592683 0.36540678 0.53021246 -1.6872611 -0.28790402 0.69866115
0.2381554 -0.7028443 0.2779859 0.17772146 -0.10956414 0.45260286 -0.6524653 1.4981245
0.40950432 -0.6033076 0.27103192 -0.16756731 -1.0128088 -0.7532081 0.23074874 -0.31658438
-0.87511647 1.2725316 0.40028647 0.263168 0.16599515 0.8873242 -0.06820611 0.735198
-1.6018592 -0.4542444 -0.07729426 0.38424256 -0.43858415 1.3920661 0.3620228 -0.6232889
-0.13861114 -0.37159824 -0.1307144 -0.5013744 0.3092027 -0.87042445 -0.2929527 -0.11402275
0.37534115 1.1205482 -1.002867 0.1061268 -2.0093865 -0.53319657 -1.5100524 2.6143267
0.3047589 -1.9105134 -0.1046803 0.26828393 0.49326128 1.0630888 -0.1074498 -0.24403068
-0.018682612 -0.012434667 -0.43827644 -0.088403404 0.104667984 0.39100668 0.16036862 0.82655865
-0.07353546 -1.4685094 -0.36969405 0.43438512 0.044824343 -0.14666133 0.26439855 -0.40858123
0.545411 -1.1481123 -0.4985262 -0.39950743 -0.32874662 -1.0951617 0.33125797 1.2099409
-0.1422797 0.46017784 0.6967693 -0.29825923 -1.2600268 1.0163053 0.0021858346 -0.183445
0.34639898 0.3980254 0.017136531 -1.0280972 0.45132804 -0.7341979 -0.4341467 -0.71812665
-0.28502336 1.5471307 0.08709829 -0.13774587 0.382265 0.17021579 0.025442138 -0.81099385
-0.37785426 -0.18128468 -0.13245034 -0.13022648 -0.4513715 0.7812855 0.32621938 1.6779667
0.13598564 -1.39159 -0.5135746 -0.19587542 0.261137 -0.3580545 0.04531146 0.17031077
0.3347162 -1.3313084 -0.03737909 -1.9054784 0.27355963 0.9145168 0.37714538 -1.0033988
0.21662778 0.29700664 0.07163504 0.24816516 -0.013540126 0.67156434 0.6594282 1.8264034
0.058931462 0.32406384 -0.2445338 -0.20379293 0.42442146 -0.54619384 -0.041588582 0.10789339
-0.052915324 0.4188003 -0.45136046 -1.3037876 -0.2732274 0.13701753 0.24781375 0.1841445
0.17849651 0.61547464 1.1928908 0.59202003 -0.35025203 0.9558987 -0.05652614 0.18055409
0.44987458 0.32969606 0.08230341 -0.034866862 -0.18750572 1.0936934 -0.30562258 -2.4878597
0.48094356 0.51691645 -0.5846696 0.4977185 0.6677857 0.31951252 1.789289 0.25971952
-0.15242225 -0.328953 -0.3628435 -1.7286259 0.26372758 -0.34407234 0.101116695 -0.5505115
-0.5772603 -0.18296504 -0.2719793 0.0659218 0.17897826 -0.08220653 -0.35353398 0.022083273
-0.13694806 0.20520385 0.03217028 -0.252178 0.6672525 -0.02494642 0.12325949 -1.1655465
0.19596517 0.64333075 0.43596703 -0.13228792 0.22003242 -0.3245688 -0.14432259 -1.4739848
-0.41874278 2.2186937 0.39147067 -0.37320268 -0.13110673 1.0199778 1.361268 -0.57046753
0.028646892 2.3091073 -0.12689461 -0.6000319 -0.42490387 0.29333332 0.8984053 -0.25732014
-0.6408299 -0.73192334 0.5625326 -0.73110044 0.37023175 3.8958414 -0.045430027 1.1738235
00000000: f6a8 0a3a 7d7f ce3f edcc 7a3e d32a b9bf
00000010: 400e c03e 8fc3 e3be 9927 c5be 1f79 b3bf
00000020: 99be dabf 9e7f 23bf 8645 7f3d 891c 903f
00000030: d897 a63f d5f3 053e 5905 febd 5723 a8bf
00000040: efac 84be 296d f13e 4846 8dbe 9916 bb3e
00000050: 01bc 073f 2cf8 d7bf 2868 93be 75db 323f
00000060: 02df 733e 9bed 33bf 2b54 8e3e 9dfc 353e
00000070: 2a63 e0bd 90bb e73e f707 27bf 8bc2 bf3f
00000080: 8daa d13e 5e72 1abf b2c4 8a3e c496 2bbe
00000090: b8a3 81bf 3fd2 40bf 6649 6c3e 5917 a2be
000000a0: a207 60bf 51e2 a23f 59f2 cc3e f5bd 863e
000000b0: a2fa 293e ae27 633f a5af 8bbd f035 3c3f
000000c0: b909 cdbf b992 e8be 744c 9ebd 71bb c43e
000000d0: 1a8e e0be 392f b23f 0d5b b93e dd8f 1fbf
000000e0: 14f0 0dbe 2042 bebe ffd9 05be 135a 00bf
000000f0: d14f 9e3e 23d4 5ebf e5fd 95be c284 e9bd
00000100: b72c c03e 206e 8f3f f25d 80bf 0259 d93d
00000110: ca99 00c0 927f 08bf 6649 c1bf 2151 2740
00000120: 5c09 9c3e b48b f4bf a062 d6bd 835c 893e
00000130: be8c fc3e 4b13 883f a40e dcbd 2ee3 79be
00000140: 470c 99bc c6ba 4bbc c565 e0be d80c b5bd
00000150: 2b5c d63d 0732 c83e ac37 243e 5999 533f
00000160: c299 96bd 1ef8 bbbf 8a48 bdbe ba67 de3e
00000170: bb99 373d 632e 16be 3f5f 873e 8f31 d1be
00000180: 0ea0 0b3f 58f5 92bf d33e ffbe 3d8c ccbe
00000190: 7a51 a8be 422e 8cbf a59a a93e 58df 9a3f
000001a0: c5b1 11be 6e9c eb3e 795f 323f 6fb5 98be
000001b0: 8f48 a1bf 4b16 823f 3840 0f3b 02d9 3bbe
000001c0: 355b b13e fcc9 cb3e e961 8c3c b098 83bf
000001d0: 7814 e73e 65f4 3bbf 7a48 debe 26d7 37bf
000001e0: 95ee 91be 6108 c63f 9760 b23d 410d 0dbe
000001f0: 3db8 c33e 0c4d 2e3e 086c d03c 4b9d 4fbf
00000200: 1d76 c1be b1a2 39be 10a1 07be 175a 05be
00000210: 2a1a e7be 5402 483f 3a06 a73e 9dc7 d63f
00000220: d23f 0b3e 9f1f b2bf a079 03bf 9193 48be
00000230: c0b3 853e eb52 b7be 8298 393d f265 2e3e
00000240: ec5f ab3e 5068 aabf d11a 19bd b7e6 f3bf
00000250: 0210 8c3e c61d 6a3f 3319 c13e 5f6f 80bf
00000260: acd3 5d3e 4111 983e 64b5 923d 021f 7e3e
00000270: 68d7 5dbc a4eb 2b3f 49d0 283f 96c7 e93f
00000280: 1e62 713d b2eb a53e 1267 7abe 18af 50be
00000290: c54d d93e 5cd3 0bbf ca58 2abd 36f7 dc3d
000002a0: bdbd 58bd fe6c d63e b818 e7be 83e2 a6bf
000002b0: 76e4 8bbe 534e 0c3e e3c2 7d3e 6090 3c3e
000002c0: cac7 363e bf8f 1d3f a5b0 983f a08e 173f
000002d0: 3c54 b3be c7b5 743f f487 67bd 2ce3 383e
000002e0: f655 e63e eccd a83e b18e a83d 8ed0 0ebd
000002f0: 8001 40be 25fe 8b3f 907a 9cbe 1839 1fc0
00000300: 3c3e f63e a354 043f e8ac 15bf f6d4 fe3e
00000310: 01f4 2a3f 2597 a33e 6c07 e53f f5f9 843e
00000320: 9414 1cbe 876c a8be a0c6 b9be 9d43 ddbf
00000330: 4d07 873e 402a b0be 4516 cf3d 52ee 0cbf
00000340: 55c7 13bf 305b 3bbe df40 8bbe 0202 873d
00000350: 1446 373e e65b a8bd 6802 b5be fbe7 b43c
00000360: 1d3c 0cbe f520 523e fcc4 033d 7a1d 81be
00000370: 0fd1 2a3f 6f5c ccbc 796f fc3d a130 95bf
00000380: 18ab 483e 53b1 243f 1237 df3e 7c76 07be
00000390: 2e50 613e e22d a6be 4dc9 13be 89ab bcbf
000003a0: 7465 d6be 14ff 0d40 d86e c83e 6c14 bfbe
000003b0: d840 06be a28e 823f 083e ae3f 290a 12bf
000003c0: e3ac ea3c 6ac8 1340 a9f0 01be b19b 19bf
000003d0: 008d d9be c92f 963e e4fd 653f 77bf 83be
000003e0: 6e0d 24bf 545f 3bbf 2302 103f 6629 3bbf
000003f0: 048f bd3e 7755 7940 d614 3abd d93f 963f

bias f4 [8]
-0.025800908 0.12112133 0.0317477 -0.10408422 0.0072999396 0.030693082 0.08552387 0.037094407
00000000: 6d5c d3bc 760e f83d e009 023d 1c2a d5bd
00000010: 5534 ef3b 0f70 fb3c 2427 af3d 4ef0 173d

weight f4 [8, 32]
-0.47894722 -0.5778129 -0.28901854 -0.046672598 -0.0020305675 0.26002324 0.36820108 -0.049651973
0.119252235 0.1651016 -0.22776793 -0.08960483 -0.21129292 0.2694782 0.26075837 -0.2167508
-0.02239149 -0.22180939 0.16239041 -0.13571636 -0.10735907 0.3667716 -0.20632404 0.30501458
0.25375322 0.04470465 -0.07282542 -0.23268963 -0.10722599 0.895484 0.15727098 0.353967
0.93256515 0.5350805 -0.12505798 -0.9223991 0.54539746 -0.31332046 0.8464284 1.4300898
-1.3913889 0.14864956 -1.9288919 0.25770664 -0.1598568 -0.61042833 -0.33406627 0.8897129
-0.37590227 -0.032435477 -0.9700139 0.7687625 0.14753649 -0.090089425 0.38712382 -0.45762682
1.3412392 0.32905313 -0.5322476 0.18082936 0.36914626 -4.3783245 -0.41378328 0.042887073
-0.2876645 1.4787399 -0.5369797 -0.24496053 0.12443148 0.36095136 0.7271317 -0.2569424
0.2580665 -0.19416994 -0.02382404 -0.210693 0.5241577 -0.24907938 0.45867163 -0.22241619
0.38750458 0.00052889343 0.4255562 -0.0082119405 -0.008976926 -0.12256882 0.17805049 -0.3722272
-0.58270997 -0.45104977 -0.31864268 -0.3224476 0.19088426 1.5303445 0.0064122104 -0.22783059
0.037525248 2.0570207 0.5879845 0.84385335 1.3668607 -0.13121152 -0.25759858 1.0643651
-0.025444511 0.11220196 -1.4705471 0.3483073 0.12852477 -0.18720838 -0.3543839 1.3213693
-0.3724235 -0.8663401 0.015827576 -2.0061245 0.5409568 0.110131964 0.42926246 -0.81506264
-0.89390373 0.9864577 0.50431275 -0.3717117 -0.14372955 -4.0573897 -1.0639732 -0.7611748
-0.036288816 -1.6724275 -0.3346026 -0.09033194 -0.31320575 0.817648 0.45639688 0.1518244
-0.13159013 -0.43843406 -0.20887783 -0.40731236 0.1840462 0.23066497 -0.19224924 -0.07807382
0.057849415 -0.35805666 0.383693 0.15795752 0.42343864 0.19281785 0.17069194 -0.1061214
-0.27692175 -0.36391982 -0.053160142 -0.025034176 -0.32976797 1.5201795 0.45943063 0.2499178
0.14453802 -0.42580357 -0.69937044 -2.2561238 -0.6573364 -0.6202273 0.85346574 -0.7144151
-1.4994868 0.50611454 -0.18297838 0.471077 0.6867804 0.22685474 -0.28963777 0.22937472
0.12283809 0.69366425 -0.25971526 2.1086073 -0.59873754 -0.23900537 0.13675772 1.0170565
2.8962007 -1.4091154 -1.0565593 0.22938342 0.5107316 -1.517062 0.34369543 0.360745
0.30434677 1.5656403 -0.44455943 0.23529723 0.30485064 -0.10139838 0.52779424 -0.33375272
0.31573057 0.16047777 -0.42978123 -0.43295294 -0.14887406 -0.31306428 -0.34535915 -0.0684922
0.2995511 0.278802 0.61159664 0.15293872 0.42009944 0.29166502 0.39512587 -0.73444587
-1.0148218 -0.5783044 -0.31509337 -0.20613034 -0.03388523 1.4673647 0.5775763 0.19776057
0.09022558 -0.027227024 0.017982917 0.08538609 -0.092296116 -0.018501107 -0.06909354 0.16627535
0.07527374 -0.14162695 -0.058617678 0.25082195 -0.00094688777 0.095846936 0.055720795 -0.011490636
0.19100206 0.09205779 -0.04558652 0.03754583 0.019616455 -0.26438004 -0.1750625 -0.05252314
-0.079061665 -0.026208997 0.0058755404 0.09622164 -0.3590676 -0.049763013 -0.04135104 0.23620549
00000000: 9238 f5be 8ceb 13bf 3dfa 93be c42b 3fbd
00000010: 4513 05bb c421 853e da84 bc3e de5f 4bbd
00000020: 843a f43d 6510 293e ff3b 69be bd82 b7bd
00000030: 2c5d 58be 0cf9 893e 1f82 853e ecf3 5dbe
00000040: 5c6e b7bc 0022 63be ac49 263e 3bf9 0abe
00000050: 12df dbbd 7dc9 bb3e 9c46 53be df2a 9c3e
00000060: f1eb 813e 391c 373d 7e25 95bd 3146 6ebe
00000070: 4d99 dbbd 703e 653f a50b 213e 2a3b b53e
00000080: 97bc 6e3f 09fb 083f 330f 00be 5922 6cbf
00000090: 2b9f 0b3f 8a6b a0be 88af 583f 2f0d b73f
000000a0: 0819 b2bf 9737 183e eee5 f6bf 20f2 833e
000000b0: 80b1 23be 0845 1cbf bc0a abbe 3ac4 633f
000000c0: 4376 c0be 10db 04bd d552 78bf 9fcd 443f
000000d0: ce13 173e ce80 b8bd 1835 c63e 104e eabe
000000e0: baad ab3f a779 a83e 6141 08bf 552b 393e
000000f0: bd00 bd3e 3c1b 8cc0 67db d3be 5baa 2f3d
00000100: c348 93be 5947 bd3f 8077 09bf efd6 7abe
00000110: efd5 fe3d 9ece b83e 4e25 3a3f f48d 83be
00000120: 4b21 843e 7cd4 46be a22a c3bc e8bf 57be
00000130: 332f 063f aa0e 7fbe 02d7 ea3e 12c1 63be
00000140: 0067 c63e 70a5 0a3a 81e2 d93e 608b 06bc
00000150: f513 13bc 5d05 fbbd de52 363e 9094 bebe
00000160: 7b2c 15bf ffef e6be 2225 a3be da17 a5be
00000170: 2a77 433e 54e2 c33f 851d d23b 6c4c 69be
00000180: 13b4 193d 3aa6 0340 2786 163f c606 583f
00000190: 4bf5 ae3f 505c 06be f6e3 83be 1e3d 883f
000001a0: 0271 d0bc 24ca e53d e33a bcbf 5655 b23e
000001b0: ff9b 033e 8eb3 3fbe ce71 b5be a122 a93f
000001c0: 4bae bebe 77c8 5dbf d5a8 813c 5864 00c0
000001d0: 257c 0a3f de8c e13d 4ac8 db3e f2a7 50bf
000001e0: e0d6 64bf 7e88 7c3f a41a 013f ff50 bebe
000001f0: d72d 13be 23d6 81c0 4630 88bf 5adc 42bf
00000200: 95a3 14bd 1b12 d6bf 0851 abbe f4ff b8bd
00000210: 815c a0be 6151 513f daac e93e db77 1b3e
00000220: 90bf 06be 6e7a e0be 12e4 55be 3f8b d0be
00000230: 9b76 3c3e 7033 6c3e fcdc 44be 2be5 9fbd
00000240: 82f3 6c3d 3453 b7be 6973 c43e 9ebf 213e
00000250: f3cc d83e 0b72 453e dec9 2e3e 2d56 d9bd
00000260: b0c8 8dbe b353 babe 73be 59bd 7914 cdbc
00000270: 59d7 a8be 3e95 c23f 7e3a eb3e 74ea 7f3e
00000280: c601 143e ed02 dabe f109 33bf 5564 10c0
00000290: 3347 28bf 37c7 1ebf bb7c 5a3f e8e3 36bf
000002a0: 2fef bfbf b990 013f af5e 3bbe 0131 f13e
000002b0: d7d0 2f3f 9c4c 683e 674b 94be 35e1 6a3e
000002c0: 8992 fb3d fb93 313f 66f9 84be 6cf3 0640
000002d0: dd46 19bf d3bd 74be 370a 0c3e e82e 823f
000002e0: 5a5b 3940 e55d b4bf 563d 87bf 7de3 6a3e
000002f0: 4ebf 023f 162f c2bf d9f8 af3e 92b3 b83e
00000300: 57d3 9b3e e766 c83f 4b9d e3be c2f1 703e
00000310: 6215 9c3e f4a9 cfbd 861d 073f a3e1 aabe
00000320: 70a7 a13e 4954 243e 490c dcbe 02ac ddbe
00000330: 7172 18be f649 a0be ead2 b0be a345 8cbd
00000340: c35e 993e 23bf 8e3e 9991 1c3f f89b 1c3e
00000350: 4617 d73e 1e55 953e f04d ca3e a504 3cbf
00000360: aee5 81bf c20b 14bf eb53 a1be d513 53be
00000370: 3dcb 0abd 9bd2 bb3f 0adc 133f bf81 4a3e
00000380: 30c8 b83d 350b dfbc e950 933c e7de ae3d
00000390: bf05 bdbd a28f 97bc ea80 8dbd 1644 2a3e
000003a0: 1e29 9a3d a806 11be 1719 70bd bc6b 803e
000003b0: 9038 78ba 664b c43d 7d3b 643d 3843 3cbc
000003c0: 0b96 433e cb88 bc3d eeb8 3abd a8c9 193d
000003d0: b0b2 a03c d25c 87be 9643 33be 8122 57bd
000003e0: 15eb a1bd 40b4 d6bc 9b87 c03b da0f c53d
000003f0: b5d7 b7be 4dd4 4bbd b55f 29bd dadf 713e
