imitation_learning/logs/run_20240528142356/checkpoints/ckpt_28000.pt (torch, 15656 bytes, 4 tensors)

bias f4 [32]
00000000: 52f7 17be 92c4 aebe 5cd6 cb3d ff6d 573e
00000010: b7af cdbe 2ffc 693d 20a0 3e3d 35c2 72bd
00000020: 8dca 33be f2ca 40bd bc4c 17be 56cd a0bd
00000030: ba80 10bd 46d9 793d e42a 103e 0af3 7e3e
00000040: dd83 023e fb3f 253e 5c46 723c 9827 47bc
00000050: 0f00 61bd a4a7 2ebc 539c aebd f49a 16be
00000060: f13c 0abe c0a9 01bd 3475 8a3d aa52 0dbc
00000070: 6429 653d 683f b33e fbb2 a23d 5660 003e
-0.14840439 -0.34134346 0.09952995 0.21038054 -0.40173122 0.057125267 0.046539426 -0.05926724
-0.17557736 -0.047068544 -0.14775366 -0.07851665 -0.035279013 0.060998224 0.14078861 0.248974
0.12745614 0.16137688 0.014787283 -0.012155436 -0.054931697 -0.010660086 -0.0852591 -0.14707547
-0.1349981 -0.031656027 0.06760636 -0.008625666 0.055947676 0.35009313 0.07944294 0.12536749

weight f4 [32, 10]
00000000: 211d 663a 007d da3f fd52 913e d00b c3bf
00000010: 378b e33e ec4d b7be 46da d8be 1c35 ecbf
00000020: 950b 03c0 324f 4cbf 9d5a 0a3e 06b4 a83f
00000030: d0f6 9d3f 5cf0 5d3e f36d 56be 70bb e2bf
00000040: feaa 66be 7eac 823e cae4 a6be 2867 d13e
00000050: abf3 183f 1949 02c0 1f61 68be ee87 983f
00000060: 147e 7c3e c01f 10bf f74f 9a3e ef10 0c3e
00000070: 5f97 043d 2ad3 043f 9049 3bbf 41ef c63f
00000080: 81b3 f83e d6b8 8ebf 1572 893e fed3 763c
00000090: cdea 86bf 8a35 20bf 6633 713e 6a6f 93be
000000a0: d255 86bf 5cb8 a03f a8d0 073f 7b54 ed3e
000000b0: 0b0f 853e 292b d23f 962d efbb e03b 773f
000000c0: f5a8 cbbf a99b 4abf 8c70 f4bd 370c 323f
000000d0: d49d 34bf b9f6 913f 51a6 c63e 8a0a aabf
000000e0: f1ca 3ebd 893e eabe 0dbc 703e 48f9 2abf
000000f0: c402 e33e d4be 77bf ba99 65be 00e8 11be
00000100: d006 d33e 1134 cd3f 20c5 a1bf e044 cd3d
00000110: 4438 0bc0 ec97 afbe e5a4 d1bf 8279 3a40
00000120: f6f2 b73e e739 01c0 a0af 30be 5063 013f
00000130: 2d25 0b3f 49fd 683f b41a 3ebf 797c 18bf
00000140: 15a7 acbc 0f98 70bd 6a1f d9be 400d b23d
00000150: 0f26 163e f4ec 9b3f 634b 263e 9da7 0d3f
00000160: 8cc8 c5be 298b bbbf 5243 d7be a13c 053f
00000170: 8b71 a53d 044c 173e 4520 923e e64d 87bf
00000180: 118d 103f e730 c6bf 3906 97be 565e ffbe
00000190: a698 bcbe 5a30 91bf 67b1 fb3e 4668 893f
000001a0: c2d8 f9bd a9ad 343f ad43 423f 8eba 2cbe
000001b0: 2874 b4bf e9b1 943f 50c0 bd3b e2a6 dcbe
000001c0: 95af c53e d6e7 3e3f 0468 c6bb c026 bcbf
000001d0: 5c7c e33e 516a 93bf 6254 cdbe 9feb 73bf
000001e0: a51e 96be d1f1 ee3f 3ed2 893d c2f3 9dbd
000001f0: 7642 e63e a62b 953f 0102 5dbb 119d 70bf
00000200: 2242 01bf 4dad 8abe 39fb 19be dc0c babe
00000210: 6110 bcbe 2d62 983f 0684 c13e 0e9c 3140
00000220: e7a7 003e 4790 cabf 9413 32bf 956c a4be
00000230: f871 aa3e ed3e 0ebf 7604 b23d 134b 123d
00000240: b053 a33e 4afc dbbf f761 d6bd 7867 15c0
00000250: 36fd 843e 3844 8a3f 5563 713e 2a7f 60bf
00000260: cc8e 0a3e 5b13 2b3f d950 a93d 537d a33f
00000270: 8858 0ebd b3f8 073f 99f4 d63e dbb6 fa3f
00000280: 9f50 dabc 0ef9 033f e2ab 7cbe 3180 c0be
00000290: 952c f13e 1991 30bf 5c6d 57bd 0347 9f3e
000002a0: e208 0abe 1eb8 183f d575 e3be 9ba5 c0bf
000002b0: de98 92be 0f6c a3be e090 6d3e e2dc 2f3f
000002c0: 06be 763e 60c3 5b3f fc8e b03f 8aa1 223f
000002d0: bfec e0be eef8 703f 36d5 6fbd 8086 2fbd
000002e0: 2c4c fd3e b8b8 28bc 6478 e83d 5fa3 c93d
000002f0: 1446 0ebe 0175 a03f 14eb aebe 0862 13c0
00000300: 101c e43e 588d 9e3e 5a5e 34bf a9cf 623f
00000310: 095a 4d3f 4ae0 aebd 59e8 0340 1100 f93e
00000320: 1a8f 5cbe e310 0fbf b95d d4be 7c17 d8bf
00000330: 55be aa3e 16a5 60bf f215 b03d 57b0 55bf
00000340: f188 21bf 3552 87be df40 8bbe 0202 873d
00000350: 1446 373e e65b a8bd 6802 b5be fbe7 b43c
00000360: 1d3c 0cbe f520 523e fcc4 033d 7a1d 81be
00000370: 4e23 5a3f cd2a aabe 46c7 953d b02e eabf
00000380: b49b 1e3e 1afd 5b3f 1d4b ff3e fb42 023e
00000390: 9042 373f cd73 74be 3d39 68be 1ccc a9bf
000003a0: 06ab ddbe 1ded 0940 9777 e93e c49e 33be
000003b0: c1de 21be a15b c53f 66c8 8e3f 00c4 7bbf
000003c0: 624b 4a3d 3952 2340 b32a e3bd 68da 2dbf
000003d0: 2cf4 e7be f257 ab3e 82f8 7e3f c414 2cbe
000003e0: feb6 31bf 0c2e 32bf baa1 fa3e a8d0 0dbf
000003f0: 471d f63e bb76 8d40 27d1 90bd 9a7d 0e3f
0.0008778144 1.7069397 0.28383628 -1.523798 0.4444215 -0.35801637 -0.4235403 -1.8453708
-2.047582 -0.7980834 0.13511129 1.3179939 1.2340946 0.21673721 -0.2094038 -1.7713451
-0.22526166 0.25522226 -0.32596427 0.40899014 0.5974681 -2.0357115 -0.22693299 1.1916482
0.2465747 -0.56298447 0.30139133 0.13678335 0.03237092 0.5188471 -0.7315912 1.5541764
0.4857445 -1.1150157 0.2684485 0.015065191 -1.0540406 -0.62581694 0.23554763 -0.2879594
-1.049494 1.2556262 0.5305276 0.46353516 0.2598804 1.6419421 -0.0072991354 0.96575737
-1.5910937 -0.7914377 -0.11935529 0.6954989 -0.70553327 1.1403419 0.38798764 -1.3284466
-0.04658026 -0.45750836 0.23509236 -0.66786623 0.44338048 -0.96775556 -0.22421923 -0.14248657
0.41216135 1.6031514 -1.2638283 0.100229025 -2.1753092 -0.34295595 -1.6378447 2.9136662
0.35927552 -2.019159 -0.17254496 0.50542164 0.543536 0.9101148 -0.74259496 -0.5956493
-0.021075765 -0.058738764 -0.4240678 0.086939335 0.14662956 1.2181687 0.16239695 0.5533388
-0.38629568 -1.4651843 -0.4204355 0.5204564 0.08078297 0.14775091 0.28540245 -1.0570648
0.5646525 -1.5483674 -0.29496935 -0.4987666 -0.36835212 -1.1342881 0.49158785 1.0734947
-0.121995464 0.70577484 0.75884515 -0.1686804 -1.4097948 1.1616794 0.0057907477 -0.4309607
0.3861052 0.74572504 -0.00605488 -1.4699326 0.44430816 -1.151682 -0.4010344 -0.95281404
-0.29320255 1.8667547 0.06729554 -0.07712509 0.4497258 1.1653945 -0.0033723118 -0.93989664
-0.50491536 -0.27085343 -0.1503724 -0.36337936 -0.36731246 1.1904961 0.37796038 2.7751498
0.1256405 -1.582528 -0.69561124 -0.32114092 0.33290076 -0.5556477 0.08692257 0.035716128
0.31899786 -1.7186368 -0.10467904 -2.3344402 0.25974435 1.0802069 0.23573048 -0.87694037
0.13531035 0.6682641 0.082673736 1.2772621 -0.0347524 0.5311386 0.41983488 1.9587053
-0.026649771 0.515519 -0.24674943 -0.37597802 0.47104326 -0.689714 -0.052594528 0.31108865
-0.13479951 0.5965594 -0.44425836 -1.5050539 -0.28632253 -0.3191838 0.23199797 0.68696415
0.24095926 0.85844994 1.3793635 0.6352774 -0.43930623 0.94129837 -0.058552943 -0.04285288
0.49472177 -0.010297947 0.11351088 0.09845614 -0.1389392 1.2535707 -0.34163725 -2.3028584
0.4455266 0.30967212 -0.7045647 0.88598114 0.8021551 -0.085388735 2.0610564 0.48632863
-0.21538964 -0.5588514 -0.41477755 -1.6882167 0.33348337 -0.877519 0.08597936 -0.834722
-0.6309958 -0.26429906 -0.2719793 0.0659218 0.17897826 -0.08220653 -0.35353398 0.022083273
-0.13694806 0.20520385 0.03217028 -0.252178 0.8521012 -0.3323578 0.07313399 -1.8295498
0.15489084 0.8593308 0.49861994 0.12720864 0.7158594 -0.238723 -0.22678085 -1.3265414
-0.43294543 2.1550972 0.45599052 -0.17541033 -0.1580763 1.5418588 1.1154907 -0.9834595
0.049388297 2.5518935 -0.110921286 -0.67911386 -0.45303476 0.33465534 0.9959794 -0.16804796
-0.6941985 -0.6960151 0.48951513 -0.5539651 0.48069212 4.4207435 -0.07071143 0.556604

bias f4 [8]
00000000: 0f37 c7bc c805 133e 8e3c 2f3d 2508 dabd
00000010: 5182 9b3c 1148 5fbc 09fe 143e 4422 023d
-0.024318246 0.14357674 0.04278236 -0.10646085 0.018983038 -0.013628022 0.14550032 0.03177096

weight f4 [8, 32]
00000000: 33b1 f3be a93d f6be 518a a0be a9b9 ed3d
00000010: d36d d9bd 9a3e ed3d 4dcc dc3e 47e2 01be
00000020: 28eb 893d 0e06 5a3e bfe5 8dbe b806 86bd
00000030: dd6a 53be b663 a83e 626e 113e 0fd7 4bbe
00000040: 0d03 2dbd 813d acbd 4f7b fd3d a827 6abe
00000050: 342b dabd 7dc9 bb3e 1488 47be a664 513e
00000060: 2901 223e 34bb 753d 952a 34bd 3146 6ebe
00000070: 1b50 cebd 4d83 873f 14a9 053e ae47 c33e
00000080: bae0 9c3f ff33 c63d bcac 2e3d 4f0c 49bf
00000090: 608e 893f 6f24 fbbe 4ae8 3b3f dbac ca3f
000000a0: 7c30 9abf 097c 9b3d d626 06c0 43cb 453e
000000b0: 72f3 a8be ba7f 24bf b4c4 40be 0a34 623f
000000c0: a089 fbbe e397 45bd 2d19 8fbf 4a0e 953f
000000d0: a1b7 7dbb ce80 b8bd 63f8 d23e 0d31 f0be
000000e0: 1c92 cc3f 3b80 883e 7603 eebe 552b 393e
000000f0: b5f6 873e 8346 92c0 f7f4 09bf 051c 5b3d
00000100: 1ad5 a7be e5a1 f33f 1f8d 11bf e21b 8cbe
00000110: dd00 183d 37f6 663e 4463 683f 4319 c9be
00000120: 08c4 243f 4cbf 62be 3913 933d fd89 96be
00000130: 0ef5 473f ee3b adbe 5696 e73e b391 dabe
00000140: 8f8e f33e e9f7 343e 124c d63e 03da a3bd
00000150: 90e9 29bc 5d05 fbbd 1c0b 293e 5103 ffbe
00000160: 5ffa 5fbf 3452 c4be 2de7 c4be da17 a5be
00000170: fc20 5c3e b413 c43f 4df3 013e 322a 43be
00000180: d260 cf3d 8856 0140 12ca 443f ca23 393f
00000190: 9244 d93f a7f8 bcbd a848 babe 430d 983f
000001a0: d085 18bf 67f4 cd3d 7dda c0bf 36d0 063f
000001b0: c2cb fe3d b75a 36be d751 00bf 7fd7 a93f
000001c0: 5e86 c3be 8052 80bf 55d2 d9bd de2a 04c0
000001d0: cbcf 0a3f de8c e13d bcfb 173f e400 41bf
000001e0: ee0f 3bbf 3d18 873f b71b 243f ff50 bebe
000001f0: fddc 52be bf6e 7ac0 96e7 9fbf f839 5fbf
00000200: 57cd c13d 80ab f4bf 3654 abbe 302c 4fbe
00000210: 7601 fbbe 988d 913f adcf 143f af7d c13c
00000220: 9e64 a1be 3077 fdbe c6cf fabd 47ef f9be
00000230: 7ace df3d aac2 933e dfd3 f0be 3deb cabd
00000240: c615 403d 31ad c7be 0985 083f e6c5 c03d
00000250: 6d67 1a3f 0b72 453e 4144 463e 9cde a5be
00000260: 439a f7be 9945 95be 848b 8f3d 7914 cdbc
00000270: 2b5c c9be a4b5 f43f 8d1c 083f 4e49 443e
00000280: 2a86 283d 9496 98be 2fd9 3bbf ec9a 1cc0
00000290: e008 19bf 9aa3 31bf 4839 343f e0cc 19bf
000002a0: f750 b8bf d6be 1f3f 87cb 34bd f8d0 0e3f
000002b0: b470 2c3f 810e 8e3e b9c2 04be c163 9a3e
000002c0: be35 a33d 9701 253f b7c4 b2be 419f 0940
000002d0: 4d7f 2cbf d3bd 74be 620b 033e fbe3 973f
000002e0: 0cf7 3b40 195c b7bf 3323 97bf 7de3 6a3e
000002f0: 1045 1b3f 038d e1bf 76e7 c93e 2a5e b23e
00000300: 18c4 ea3e 2449 f43f 41fb 07bf 52e1 bc3e
00000310: 96d1 933d 76aa 48be 7013 333f 486a 12bf
00000320: b519 313f 045d c43d d9ec aabe f338 0abf
00000330: b926 223d 07ca efbe 4a1f 11bf 6386 5cbe
00000340: f0b6 c93e 88c7 c63e 7d39 243f 2e57 ed3d
00000350: 54ae 183f 1e55 953e 08c3 ea3e d87c 76bf
00000360: 5631 a7bf fd44 f0be 1556 cabe d513 53be
00000370: c6c4 32bc e5d9 d03f f840 193f 315d b23e
00000380: 3967 143c b716 19bd 3f73 f2bb 1089 a53d
00000390: 7bb8 33bd eb55 ba3b 2aa1 7fbc 1398 bf3d
000003a0: 2d03 58bc a95e bebd da2c 0bbd 59ef 793e
000003b0: 56db 93bc 5302 0d3d a4d1 413d 7696 82bb
000003c0: 7493 323e 5a4c 473d e5ae 2bbc 9cbd 0e3d
000003d0: b3c3 253d d25c 87be 72f3 cabd bc7e 10bd
000003e0: 8402 69bd 133b 5cbd c2e6 11bc da0f c53d
000003f0: 2d65 9bbe b8b5 a23c c0f2 17bc c6c3 153e
-0.4759613 -0.48093918 -0.31355527 0.116076775 -0.106166504 0.11584206 0.4312462 -0.12683974
0.067343056 0.21291372 -0.27714345 -0.0654425 -0.20646234 0.32888573 0.14202264 -0.19906257
-0.042239238 -0.084101684 0.12377035 -0.2286669 -0.106527716 0.3667716 -0.19485503 0.2044855
0.15820755 0.059992984 -0.043985922 -0.23268963 -0.10073873 1.0586945 0.1305278 0.38140625
1.2256081 0.09677886 0.0426452 -0.78534406 1.0746574 -0.49051234 0.7340132 1.5834001
-1.2046046 0.07592017 -2.0961204 0.1931582 -0.32998234 -0.64257395 -0.18825036 0.88360655
-0.49128437 -0.048240554 -1.1179558 1.1644986 -0.0038714188 -0.090089425 0.4120513 -0.46912423
1.5982089 0.26660332 -0.46487015 0.18082936 0.2655541 -4.5711074 -0.5388941 0.05349352
-0.3277977 1.9033781 -0.5685596 -0.27365023 0.0371102 0.22554861 0.9077647 -0.39277086
0.6436162 -0.22143286 0.07181401 -0.29402152 0.781083 -0.33834785 0.45231885 -0.42689285
0.475697 0.17672695 0.41854912 -0.08000567 -0.010370627 -0.12256882 0.16508144 -0.49807218
-0.8749141 -0.38343966 -0.38457623 -0.3224476 0.21496958 1.5318513 0.12690468 -0.19059065
0.10125889 2.0209064 0.76870835 0.72320235 1.6974051 -0.09227114 -0.36383557 1.1879047
-0.5957918 0.10056382 -1.5066677 0.52661455 0.124412075 -0.17808042 -0.5012488 1.3268889
-0.38188452 -1.0025177 -0.10635821 -2.0651164 0.54223317 0.110131964 0.5936849 -0.75391984
-0.7307118 1.0554272 0.6410479 -0.3717117 -0.20592113 -3.9130094 -1.249255 -0.8719783
0.094629936 -1.9114838 -0.33462685 -0.202317 -0.49024552 1.1371336 0.5812939 0.0236195
-0.31522077 -0.49504995 -0.12246661 -0.48815367 0.10928054 0.28859454 -0.47036645 -0.099081494
0.046895765 -0.38999322 0.53327996 0.09412746 0.60314065 0.19281785 0.19361974 -0.323964
-0.4835988 -0.2915466 0.07009032 -0.025034176 -0.3932813 1.9117932 0.53168565 0.19168589
0.041143574 -0.29802382 -0.7337827 -2.4469557 -0.5977917 -0.6939026 0.70399904 -0.6007824
-1.4399709 0.6240057 -0.04413941 0.5578761 0.6735947 0.2774544 -0.12964906 0.3015423
0.07969235 0.6445555 -0.34915707 2.150345 -0.67381746 -0.23900537 0.12797311 1.1866449
2.9369535 -1.4324981 -1.1807617 0.22938342 0.60652256 -1.7621158 0.39434403 0.34837466
0.45852733 1.9084821 -0.5311776 0.36890656 0.0721771 -0.19596276 0.69951534 -0.5719342
0.6917985 0.09588054 -0.33383825 -0.5399315 0.03958771 -0.46833822 -0.5668837 -0.2153564
0.39397383 0.38824105 0.6415022 0.11588894 0.59641004 0.29166502 0.45851922 -0.96284246
-1.3061931 -0.46927634 -0.395188 -0.20613034 -0.010911172 1.6316496 0.5986476 0.34836724
0.009057813 -0.03737518 -0.0073989923 0.08082783 -0.043877106 0.0056865118 -0.015602389 0.09355178
-0.013184351 -0.09295399 -0.03397832 0.2440771 -0.018048923 0.034426045 0.04731907 -0.0039852215
0.17439061 0.0486568 -0.01047871 0.034848794 0.040469836 -0.26438004 -0.09909715 -0.035277113
-0.056887165 -0.053767275 -0.008905115 0.09622164 -0.30350628 0.01986204 -0.009274185 0.14625463
