imitation_learning/logs/run_20240528130129/checkpoints/ckpt_12000.pt (torch, 15656 bytes, 4 tensors)

bias f4 [32]
0.020322632 0.1412116 -0.024418995 -0.006528591 0.072056316 0.10093895 -0.21529648 0.10645048
0.0075102034 0.071525276 -0.033749487 0.1932034 0.24221137 -0.05448013 0.060316678 0.12918086
0.04667655 -0.048200626 0.11123722 0.14671005 0.14417121 -0.14242058 0.11760097 0.10879576
-0.019663412 -0.15955818 -0.055749074 0.018467363 -0.09792367 0.13002305 -0.1574905 -0.083957545
00000000: a67b a63c c699 103e 580a c8bc caed d5bb
00000010: 4392 933d 15b9 ce3d ae76 5cbe b602 da3d
00000020: 2718 f63b d87b 923d e73c 0abd 1dd7 453e
00000030: 4206 783e 8f26 5fbd 9f0e 773d fd47 043e
00000040: e92f 3f3d 056e 45bd 57d0 e33d 293b 163e
00000050: 9ea1 133e b3d6 11be c7d8 f03d 50d0 de3d
00000060: 2a15 a1bc 3863 23be 2459 64bd de48 973c
00000070: 358c c8bd c324 053e 3145 21be eff1 abbd

weight f4 [32, 10]
-0.4583822 -0.73987526 -0.1974532 -0.08475518 -0.43783343 -1.1680222 0.48719922 -1.4890035
1.5453905 1.5658729 0.26429465 0.8097397 -0.48318654 -1.4807287 -0.17297943 -0.78027546
0.4225652 0.16853857 -1.8459576 1.1780975 0.060213245 -0.11780193 -0.33558285 0.1798063
-0.08589166 -0.23418881 -0.04421826 -0.11797356 -0.249889 -0.01633766 0.41061994 -1.458471
0.27469558 0.26587963 -0.1205234 -0.012483901 0.30855262 0.115234576 -0.039371423 0.83750457
0.036349274 0.8702789 0.015349009 -2.1592402 -0.13361937 0.69056904 -0.116747655 -0.0606874
-1.0148021 -0.544758 0.73314583 -0.89630306 -0.63198555 0.103060104 -0.13773587 2.5400302
-0.7642454 -0.95402914 1.4583153 2.4438639 -1.4479285 3.008212 0.2128451 -1.5875108
0.006146048 -0.13567859 0.4975954 0.6290657 -1.1457621 -0.4204843 -0.8578349 -2.0780094
0.19833717 0.81212246 -0.3252603 1.172448 0.77403426 1.1602614 2.2975848 0.53050005
-0.31144825 0.66217166 0.6562139 -0.551706 0.12358404 0.8764316 0.31810176 -0.9878826
-0.062197033 2.402381 -0.46014568 0.589509 0.02355792 0.88962865 0.30140215 0.10378131
0.0007840654 0.5421292 0.28994372 -0.19034241 0.012178386 0.5108993 0.62229425 -0.17120188
-0.2485949 0.072711885 -0.071411945 0.039783884 -0.86070734 -1.2443422 -0.55745995 -0.68582815
-0.29476488 1.2732189 0.20163545 -0.62734944 0.17773885 0.21976502 0.5875208 0.2199573
-0.092675835 -0.18657437 0.17778176 1.0158987 0.3084218 -0.6493336 0.09791961 -0.0005620046
0.14633016 -0.2970951 0.75913644 -1.3247076 -0.37793636 0.24605465 -0.2333469 -0.3163363
0.39042875 -0.83964074 2.5780237 0.29306033 -0.04628116 0.110340774 1.0733863 0.5008402
-0.35442483 -0.47197315 -0.78892016 0.4118619 -0.15938185 0.6198068 -0.27365807 1.6246635
0.5304282 0.20155618 -0.6274067 -0.34660703 0.9930181 0.5578532 0.5651265 0.41023192
-0.57343715 0.6053928 0.27072915 0.1437349 0.18351084 0.27953097 0.035942245 -1.3860269
0.065192506 0.79551744 0.10754148 1.1472523 0.5039078 0.26172623 -0.27864462 0.44967353
0.3637074 -1.5266818 -0.083141215 -0.6087325 -0.33424586 1.0022588 0.35773006 -0.80254316
0.25186658 0.9941264 -0.20814578 0.54841495 -0.3131764 0.5193899 -0.25956008 -0.41885504
-0.069428 2.2710173 0.30763838 0.046176326 0.08401106 0.23277684 0.9750921 -0.081342936
0.4339894 1.3023931 -0.016099902 -2.6318672 -0.018025376 -0.7810339 -0.5800146 -0.23031834
-0.85170096 -0.54837954 0.16232298 -0.3833844 0.42613423 1.3973664 -0.17186005 -0.99186385
-1.2461135 -1.9736578 0.7580212 -0.16927183 0.08336484 -0.32085386 0.5059177 2.0966809
-0.15801185 -0.7765892 -0.14962764 -0.47708625 0.8576636 1.3463753 -0.6090999 0.13023171
0.103475064 0.82349235 0.15321013 -0.8966544 -0.5068512 -1.7083995 1.6051332 -0.1595269
0.88973445 0.068705656 -0.31798834 0.9671913 0.33838204 0.67179453 -0.11148225 -1.257233
0.1470453 0.081465274 0.38872632 2.070796 0.13960455 -2.1416826 -0.4804356 -0.54308707
00000000: 12b1 eabe 7768 3dbf 2c31 4abe 2094 adbd
00000010: b42b e0be c081 95bf 2d72 f93e ab97 bebf
00000020: 5bcf c53f 866e c83f a151 873e 1a4b 4f3f
00000030: 3a64 f7be 8588 bdbf 8521 31be 22c0 47bf
00000040: 775a d83e 6095 2c3e 5748 ecbf e6cb 963f
00000050: 2aa2 763d 2342 f1bd 84d1 abbe 251f 383e
00000060: f7e7 afbd 31cf 6fbe 351e 35bd 1f9c f1bd
00000070: e7e2 7fbe 8ed6 85bc c73c d23e 2daf babf
00000080: e6a4 8c3e 6021 883e f9d4 f6bd 4789 4cbc
00000090: 9cfa 9d3e 1b00 ec3d ee43 21bd b366 563f
000000a0: fae2 143d 99ca 5e3f 697a 7b3c fe30 0ac0
000000b0: 84d3 08be 22c9 303f 6519 efbd 5a93 78bd
000000c0: 09e5 81bf 4375 0bbf 72af 3b3f 1e74 65bf
000000d0: cec9 21bf 2d11 d33d a20a 0dbe db8f 2240
000000e0: 96a5 43bf 413b 74bf 13aa ba3f 4468 1c40
000000f0: b955 b9bf 8c86 4040 11f4 593e 8e33 cbbf
00000100: ca64 c93b 54ef 0abe d3c4 fe3e 730a 213f
00000110: 55a8 92bf b849 d7be 119b 5bbf 1bfe 04c0
00000120: e618 4b3e 42e7 4f3f 8588 a6be c712 963f
00000130: 1c27 463f 7283 943f a10b 1340 dace 073f
00000140: 2576 9fbe 1584 293f a2fd 273f 9b3c 0dbf
00000150: a119 fd3d d25d 603f 3cde a23e e0e5 7cbf
00000160: 51c2 7ebd 9cc0 1940 3798 ebbe 10ea 163f
00000170: 8afc c03c b4be 633f 6251 9a3e 4c8b d43d
00000180: bd89 4d3a fbc8 0a3f 8173 943e 1fe9 42be
00000190: da87 473c 4cca 023f ad4e 1f3f 8c4f 2fbe
000001a0: a98f 7ebe f8e9 943d 6d40 92bd 6df4 223d
000001b0: 5157 5cbf 9b46 9fbf b2b5 0ebf 6f92 2fbf
000001c0: 6ceb 96be d6f8 a23f 8679 4e3e f999 20bf
000001d0: 2c01 363e 150a 613e c367 163f 7d3c 613e
000001e0: d4cc bdbd 5a0d 3fbe 6c0c 363e f808 823f
000001f0: 76e9 9d3e ba3a 26bf 148a c83d 7e53 13ba
00000200: 93d7 153e d91c 98be c456 423f 0590 a9bf
00000210: e080 c1be c0f5 7b3e 7df2 6ebe d5f6 a1be
00000220: 47e6 c73e b2f2 56bf 57fe 2440 010c 963e
00000230: 5091 3dbd 58fa e13d b964 893f 1037 003f
00000240: 2c77 b5be 77a6 f1be acf6 49bf 90df d23e
00000250: ff34 23be a9ab 1e3f e91c 8cbe f9f4 cf3f
00000260: 24ca 073f be64 4e3e ba9d 20bf 7a76 b1be
00000270: 6f36 7e3f 78cf 0e3f 21ac 103f eb09 d23e
00000280: c7cc 12bf 06fb 1a3f 039d 8a3e 3e2f 133e
00000290: 44ea 3b3e af1e 8f3e 2d38 133d 5469 b1bf
000002a0: a683 853d 08a7 4b3f b53e dc3d 2ad9 923f
000002b0: 1a00 013f fb00 863e 82aa 8ebe 9c3b e63e
000002c0: db37 ba3e 4f6a c3bf f145 aabd e5d5 1bbf
000002d0: 4622 abbe 044a 803f 6528 b73e 7873 4dbf
000002e0: a8f4 803e 117f 7e3f 2b24 55be ec64 0c3f
000002f0: a858 a0be bdf6 043f 0fe5 84be 2b74 d6be
00000300: 4430 8ebd 5958 1140 c782 9d3e 6323 3d3d
00000310: fe0d ac3d 0d5d 6e3e a39f 793f 2097 a6bd
00000320: dc33 de3e d1b4 a63f f1e3 83bc 8370 28c0
00000330: f4a9 93bc d6f1 47bf d67b 14bf 92d8 6bbe
00000340: 1309 5abf 9a62 0cbf ff37 263e f64a c4be
00000350: 442e da3e e7dc b23f 15fc 2fbe caea 7dbf
00000360: a680 9fbf d2a0 fcbf ad0d 423f 9855 2dbe
00000370: 2fbb aa3d f546 a4be d383 013f 0530 0640
00000380: dccd 21be 8dce 46bf fd37 19be a644 f4be
00000390: d78f 5b3f 0756 ac3f f9ed 1bbf 765b 053e
000003a0: bcea d33d 65d0 523f 1ee3 1c3e 258b 65bf
000003b0: 00c1 01bf d6ac dabf 0175 cd3f 055b 23be
000003c0: a3c5 633f 8db5 8c3d 5ecf a2be d999 773f
000003d0: 6940 ad3e bafa 2b3f ce50 e4bd 03ed a0bf
000003e0: 0b93 163e 44d7 a63d 2307 c73e ec87 0440
000003f0: 7ff4 0e3e 5411 09c0 a8fb f5be c107 0bbf

bias f4 [8]
-0.16756588 -0.23652191 -0.08202742 -0.03782855 -0.040795796 -0.04876597 0.0025923247 0.09630684
00000000: 6496 2bbe cd32 72be fefd a7bd 1cf2 1abd
00000010: 7e19 27bd d3be 47bd fee3 293b 853c c53d

weight f4 [8, 32]
-0.14841457 0.12265637 0.045754388 -0.22181654 0.13386239 0.34142372 0.14591223 -0.044683598
-0.2147747 0.40053818 0.17756228 -0.37702194 -0.18025926 -0.30600873 -0.12457365 -0.07778238
0.32314956 -0.22373997 -0.21913315 0.29182214 -0.88035023 -0.4075528 0.20067345 0.1986463
0.08354732 0.8078272 -0.3512959 0.5695466 0.37256 -0.13054985 -0.023297962 0.27081475
0.994209 -0.605163 0.16251788 -0.018326242 -0.09447891 -3.085725 1.4708457 0.3389621
-0.5464961 -0.2535322 -0.5288735 -0.3506094 -0.48004794 1.2408046 2.0585523 1.8620882
-0.5493953 1.3103147 -0.4725558 -0.57335323 -0.09073665 1.9837781 -0.7044852 -1.270259
-0.0172752 -0.23539959 1.173104 0.873639 0.102151394 0.22599332 0.40574783 0.015313064
0.93230194 0.8146896 -0.2792822 -0.29861474 0.54139847 2.2551441 -0.07656221 -0.15927683
0.024874853 -0.29220468 0.23169982 -0.35702887 0.24530141 0.1022404 -0.30647254 1.7847029
0.29128465 -0.03742266 -0.38484892 -0.027410557 -0.07872272 -0.04894234 0.09699632 0.17558195
-0.70881695 0.7596223 -0.8457369 0.29179582 -0.23873225 -1.2959024 -0.2121677 -0.35735676
-1.0709199 -1.3746932 -0.27198923 0.5075801 -0.8682969 -2.1884134 2.3297904 -1.0713205
-0.25432882 -0.23508435 1.3679649 -0.56582195 -0.12427141 1.0668286 1.0546604 0.014534441
0.062575065 -0.26941693 0.22037463 -0.4337935 -0.89664984 0.27060252 0.2867557 -0.046654887
0.5494968 -2.18548 0.6659416 -0.4324566 -0.10710996 2.182834 0.7430843 0.31694138
-1.3842322 -0.30755624 -0.2260035 -0.37931207 0.9798515 1.2883224 0.050225124 -0.028308086
0.7962739 0.04223287 -0.1261691 -0.13010412 -0.3068315 0.664419 -0.42979598 0.78785414
0.18518916 -0.2823817 -0.10883379 -0.20575269 0.70363355 -0.7859777 -1.0765448 0.4696767
-0.43111855 0.43186867 0.3471314 0.51188165 0.28580406 -0.620272 -0.21022417 -0.48167777
1.0128143 0.4441819 -0.123425916 -0.19773951 1.116847 -0.7477554 -1.0131463 0.86823523
0.46890426 0.073208 -1.7390051 0.71087956 -0.082340196 -1.4693323 0.88592345 0.8572645
-0.9284042 1.2184238 -0.6603068 -0.12995508 0.70614 1.418105 -1.3181872 -0.81907874
-0.87009543 2.824922 0.3141392 0.8571869 -0.28328195 -0.65249485 0.045047652 0.16521657
-0.32244322 0.5688876 -0.12829696 -0.28489035 -0.53573877 0.46965864 -0.32053718 0.5932369
-0.5261764 0.0033779212 0.9386591 -0.045309182 -0.39892945 -0.2239353 -0.1313864 0.94101435
0.20281796 -0.3638344 0.45914337 -0.58221066 -0.08198681 -0.51151663 1.0457108 0.44571695
0.120077915 0.07757873 -0.6395481 -0.043864254 -0.5453182 -0.1542754 0.5278295 -0.0180435
-0.02001781 0.012638848 0.20604363 0.0023883758 -0.036803454 0.0016992912 0.019819288 -0.03832757
0.007994355 -0.14518471 0.034171294 0.0987419 -0.0787598 -0.00869827 -0.0087748505 0.035997465
-0.005048897 -0.0035033056 0.005422043 0.10463968 0.090140305 -0.023790414 -0.008153822 -0.005725649
-0.03851715 -0.03814662 0.0068045165 0.0069131413 0.019164022 -0.0053245686 0.05405735 0.05733335
00000000: fdf9 17be 4333 fb3d f468 3b3d e023 63be
00000010: 3913 093e 17cf ae3e 046a 153e 2606 37bd
00000020: e6ed 5bbe 5713 cd3e e3d2 353e 0509 c1be
00000030: e295 38be 2dad 9cbe 7820 ffbd 5e4c 9fbd
00000040: dc73 a53e 171c 65be 7164 60be b669 953e
00000050: a25e 61bf c3aa d0be 577d 4d3e f069 4b3e
00000060: db1a ab3d c3cd 4e3f 0edd b3be cecd 113f
00000070: 2fc0 be3e dcae 05be 5edb bebc 3ba8 8a3e
00000080: 7b84 7e3f f6eb 1abf 166b 263e ea20 96bc
00000090: 297e c1bd 857c 45c0 ac44 bc3f 718c ad3e
000000a0: 2be7 0bbf f9ce 81be 4164 07bf 1383 b3be
000000b0: d8c8 f5be afd2 9e3f 52bf 0340 e858 ee3f
000000c0: 2ca5 0cbf 64b8 a73f d5f2 f1be 47c7 12bf
000000d0: 23d4 b9bd 71ec fd3f 2459 34bf d997 a2bf
000000e0: b884 8dbc 970c 71be 4628 963f cea6 5f3f
000000f0: c034 d13d cb6a 673e 2ebe cf3e a5e3 7a3c
00000100: 57ab 6e3f 7f8f 503f 14fe 8ebe 08e4 98be
00000110: 1799 0a3f 4854 1040 a6cc 9cbd 7719 23be
00000120: 59c6 cb3c da9b 95be b842 6d3e 7dcc b6be
00000130: 4b30 7b3e 6a63 d13d f8e9 9cbe 2571 e43f
00000140: 4323 953e 8148 19bd eb0a c5be 1b8c e0bc
00000150: 6139 a1bd c377 48bd 02a6 c63d c1cb 333e
00000160: 0775 35bf 9b76 423f 3782 58bf 4366 953e
00000170: 3a76 74be 21e0 a5bf 7d42 59be 77f7 b6be
00000180: e713 89bf f2f5 afbf 2c42 8bbe c5f0 013f
00000190: b548 5ebf f70e 0cc0 491b 1540 0821 89bf
000001a0: 6337 82be f4b9 70be 7919 af3f b5d9 10bf
000001b0: 0282 febd d78d 883f 1dff 863f dd21 6e3c
000001c0: 5b27 803d 04f1 89be e3a9 613e 2e1a debe
000001d0: d88a 65bf 6a8c 8a3e a5d1 923e 3219 3fbd
000001e0: d3ab 0c3f e8de 0bc0 267b 2a3f f46a ddbe
000001f0: 775c dbbd 8db3 0b40 c63a 3e3f 2446 a23e
00000200: 852e b1bf 0378 9dbe 766d 67be 3135 c2be
00000210: 8cd7 7a3f c0e7 a43f dcb8 4d3d 5ce6 e7bc
00000220: 9bd8 4b3f 60fc 2c3d 7932 01be 043a 05be
00000230: 0519 9dbe 5d17 2a3f 380e dcbe cfb0 493f
00000240: 3aa2 3d3e 5694 90be 40e4 debd d5b0 52be
00000250: 5421 343f d635 49bf 38cc 89bf 7779 f03e
00000260: 92bb dcbe e41d dd3e 35bb b13e ad0a 033f
00000270: e954 923e 25ca 1ebf 0145 57be 789e f6be
00000280: e6a3 813f cf6b e33e bac6 fcbd 3a7c 4abe
00000290: d8f4 8e3f e66c 3fbf c7ae 81bf aa44 5e3f
000002a0: 3814 f03e 13ee 953d b897 debf 34fc 353f
000002b0: faa1 a8bd 1513 bcbf e1cb 623f b075 5b3f
000002c0: e6ab 6dbf 50f5 9b3f de09 29bf f212 05be
000002d0: 97c5 343f 7784 b53f 5cba a8bf 25af 51bf
000002e0: 93be 5ebf 86cb 3440 dad6 a03e 9a70 5b3f
000002f0: 550a 91be e709 27bf e383 383d 882e 293e
00000300: 4717 a5be 9ea2 113f 4760 03be 26dd 91be
00000310: 2d26 09bf 1977 f03e 731d a4be 60de 173f
00000320: 7fb3 06bf 1d60 5d3b f64b 703f 1f96 39bd
00000330: 7b40 ccbe 4c4f 65be 288a 06be 51e6 703f
00000340: 83af 4f3e 8148 babe d714 eb3e c20b 15bf
00000350: b3e8 a7bd c1f2 02bf dad9 853f 0335 e43e
00000360: 69eb f53d 99e1 9e3d 6db9 23bf 01ab 33bd
00000370: f999 0bbf 5ffa 1dbe d61f 073f f6cf 93bc
00000380: 64fc a3bc 2c13 4f3c 1afd 523e 4c86 1c3b
00000390: 38bf 16bd c0ba de3a 0f5c a23c 5ffd 1cbd
000003a0: c1fa 023c 4dab 14be 33f7 0b3d 3139 ca3d
000003b0: d14c a1bd 3083 0ebc 64c4 0fbc 1472 133d
000003c0: 3871 a5bb b797 65bb 65ab b13b 544d d63d
000003d0: 7b9b b83d 1de4 c2bc 9c97 05bc 3a9e bbbb
000003e0: 29c4 1dbd a13f 1cbd 6cf8 de3b a287 e23b
000003f0: defd 9c3c b879 aebb 3d6b 5d3d 60d6 6a3d
