imitation_learning/logs/run_20240528130129/checkpoints/ckpt_36000.pt (torch, 15656 bytes, 4 tensors)

bias f4 [32]
00000000: 16fe 0c3d 9246 3a3e 580a c8bc e947 e13d
00000010: 0de0 623e 100a 463e 2d56 8cbe a252 293e
00000020: fe3a 263d ecf9 743e dc7c c0bd c5cf 8e3e
00000030: 5699 e73e f0fb cd3d 0bd4 ae3d 6407 af3d
00000040: 678e d03d f269 cbbc e022 673e d167 593e
00000050: e1b3 053e cd3e 41be d2ec 5f3e d443 3d3e
00000060: d994 96bc 6c2b 74be 6fb4 92bd bf61 7bbc
00000070: 8dba 01be 7eb2 d03d 1503 69be 31d1 61bd
0.034422003 0.18190983 -0.024418995 0.11000044 0.22155781 0.19339776 -0.27409497 0.16535428
0.040583603 0.23923463 -0.09398815 0.2789289 0.45234174 0.10057819 0.08536538 0.085463315
0.10183411 -0.024830792 0.22571898 0.21231009 0.130569 -0.18871613 0.21867684 0.18482906
-0.018381523 -0.23844689 -0.07163321 -0.015343129 -0.1266882 0.10190295 -0.22755082 -0.05513114

weight f4 [32, 10]
00000000: e2de dcbe d804 22bf d528 17be 5734 01bd
00000010: 3dff 20bf 55ba 0cc0 cff8 3d3f c0f3 98bf
00000020: f450 903f 56b4 a23f 132a 8d3e fd7b 943e
00000030: 3748 bdbe 96d6 59c0 6ff3 36be eae7 adbf
00000040: 6902 fd3e 5317 813f 0083 e5bf d481 9e3f
00000050: 2aa2 763d 2342 f1bd 84d1 abbe 251f 383e
00000060: f7e7 afbd 31cf 6fbe 351e 35bd 1f9c f1bd
00000070: e7e2 7fbe 8ed6 85bc 7b06 9b3e 9ef9 a0bf
00000080: 552a 593e e838 5b3e 71a0 31be 69a9 d6be
00000090: 7321 f03e bb31 9a3f 4751 21bf 3b57 c73f
000000a0: 144c c7bc 1caf 9a3f 064b 5b3d 5de9 e8bf
000000b0: 1340 8cbe 02fb 7b3e 25a3 83be e9f5 b4be
000000c0: a6ce a3bf 9b18 22bf 2d93 353f b64b 3bbf
000000d0: 6471 15bf e9a8 10c0 40f6 70be c8ce aa40
000000e0: 634f 9cbf efc8 6fbf 91df 9b3f 68a1 0840
000000f0: 4102 eabf 61cf 3b40 5d9e 013f b326 4ebf
00000100: 6f5c 623d 966d 1abf 0236 293f cfb4 1e3f
00000110: 8149 debf 54ca 44bf 0b54 99bf 9662 32c0
00000120: bdee 5f3e d2ea b63f 03fd d8be 666e 963f
00000130: 26d9 873f d57d 983f 7f4e 3c40 8aea 863f
00000140: 1dc8 e6be baa2 2e3f 6105 383f 5ddd 943d
00000150: 9860 0d3e 01a8 cb3f bf26 e13e fff1 043d
00000160: bbe3 453f d24e 4240 985e 3bbf 9d3f bc3f
00000170: 6e05 05bc 6472 863d edf5 ca3e d66f a8bf
00000180: 7ad0 94bd 56f4 153f 05e5 633f 6bc1 0fbf
00000190: 9a98 aebb 6b46 533f 0fb2 453f bcbf 69be
000001a0: 4c7f 44be 5a29 acbe bc2f 0dbe e712 3dbf
000001b0: 4e8f 83bf defa 94bf ca99 2bbf 5ad9 57bf
000001c0: f712 92be 70c1 1440 16a7 7c3e 840e c8bf
000001d0: 2d53 563e 2c49 6dbf 2178 f73e 58d5 913e
000001e0: c9db 6ebe 2a83 39be 3a88 873e 81df 773f
000001f0: 7301 de3e 07d1 a83e a46c 483e d3a8 2fbf
00000200: 8907 99be 8641 0bbf 389c 753f 4418 c9bf
00000210: 44fd 32bf 33ad 903e a930 0abf 2c48 5f3e
00000220: 10d9 ec3e 137c 8b3e 70d5 3240 12eb 2b3f
00000230: 84cb e4bd a995 c63e d86d 8c3f d422 92bf
00000240: ef6f abbe 90c2 6d40 9a62 35bf d343 4d3f
00000250: 1863 7a3d ca38 493f 6d0e a3be 0e74 1040
00000260: 9a18 0c3f 5a71 0bbf b729 35bf 840a dc3c
00000270: 148a bc3f 1d06 bbbd 1d99 053f 7de6 993e
00000280: 80ad 51bf c984 893e 25ee 6d3d e805 0d3f
00000290: 4e62 6b3e e43a d83f ec7f 2c3e a540 18c0
000002a0: af76 df3e d7a4 653f 1258 0c3e 44c3 b23f
000002b0: d35a 183f 3250 223f 86a7 b8be 19e6 9e3d
000002c0: 4440 ce3e 501b d9bf 32e7 5abe e1d6 38bf
000002d0: b992 e4be 77c2 d63f 0b8b 5c3e e861 c2bf
000002e0: 5f16 c73e cfb3 553f ce8c 9fbe 8025 7c3d
000002f0: c8dc 4dbf dd90 1d3f e265 15be 9fd3 87bf
00000300: b6fc 663c fa91 6c40 f753 9c3e 8a3c 133f
00000310: 6d04 eb3d ca70 d53c c9b1 c33f 8e74 9f3e
00000320: 4bc0 3c3f 6985 ee3f a9aa 98bb cdc5 86c0
00000330: 64af 143d 0181 babd b23d 57bf 2784 de3e
00000340: 3a31 42bf d8de 30bf 620b 583e 4fb7 fbbe
00000350: c54a 223f bd03 ee3f 4649 80be da72 9ac0
00000360: 684d ddbf 6f7a 1cc0 d6b9 733f eff1 75be
00000370: c339 1e3e bf58 b7be 733c f73e 8a8e 0c40
00000380: d637 85be 638b 16bf b8d6 e2bd f2b8 71be
00000390: 1df1 bb3f 2dd2 d63f 6afa 0dbf bb97 2c3e
000003a0: d2d2 c7bd 9bb7 813f 2511 033e 18a9 5fc0
000003b0: 75a7 edbe 034d c8bf 4796 943f 717e 0a3e
000003c0: 33fd a13f 8aab 50be ac6c ffbe c3f1 0140
000003d0: 8d50 cf3e 919a 5e3f da56 acbd 0626 68bf
000003e0: ea5b 943e 0f89 863d 7b99 073f 1849 e23f
000003f0: 9706 a13e 2895 1ec0 b19f 06bf 92ff d03d
-0.43138796 -0.6328864 -0.1476167 -0.031544056 -0.6288946 -2.1988728 0.74207777 -1.1949387
1.1274705 1.2711284 0.27571163 0.29000846 -0.36969158 -3.4037223 -0.178663 -1.35864
0.494159 1.0085243 -1.7930603 1.238337 0.060213245 -0.11780193 -0.33558285 0.1798063
-0.08589166 -0.23418881 -0.04421826 -0.11797356 -0.249889 -0.01633766 0.30278382 -1.2576177
0.21207555 0.21408427 -0.1734636 -0.41926125 0.4690052 1.2046427 -0.63014644 1.5573496
-0.024328269 1.2084689 0.053538345 -1.8196217 -0.27392635 0.2460747 -0.25710407 -0.35343865
-1.2797439 -0.63318795 0.709277 -0.731624 -0.58376145 -2.2603095 -0.23531437 5.337742
-1.2211727 -0.93665975 1.2177602 2.1348515 -1.8281938 2.9345324 0.5063227 -0.805278
0.055263933 -0.60323465 0.66098034 0.6199464 -1.7366182 -0.7687123 -1.1978773 -2.7872672
0.21868415 1.4290411 -0.42380533 1.1752441 1.0613143 1.1913401 2.942291 1.0540326
-0.4507455 0.6821705 0.7188321 0.07268784 0.13806379 1.5910646 0.43974873 0.032457348
0.77300614 3.0360608 -0.73191214 1.4706913 -0.00811897 0.06564787 0.3964075 -1.315913
-0.07266326 0.5857595 0.8902133 -0.5615451 -0.00532825 0.82529324 0.7722482 -0.22827047
-0.19189185 -0.336253 -0.1378774 -0.7385697 -1.0278108 -1.1639059 -0.6703154 -0.8431603
-0.28530094 2.3243065 0.24673113 -1.562943 0.20930167 -0.92689776 0.4833384 0.2848308
-0.23326029 -0.18116441 0.2647112 0.96825415 0.4336048 0.32971975 0.19572693 -0.6861698
-0.2988856 -0.54396856 0.95941496 -1.571053 -0.699177 0.2825714 -0.539805 0.21804875
0.46259356 0.272431 2.7942772 0.67155564 -0.1117163 0.38786057 1.0971022 -1.1416879
-0.33483836 3.7150002 -0.7085358 0.80181617 0.06112966 0.7860228 -0.31846943 2.2570834
0.5472504 -0.54469836 -0.70766777 0.026860483 1.4729638 -0.091320254 0.5218676 0.3005866
-0.81905365 0.2685912 0.05808844 0.5508714 0.22986719 1.6892972 0.16845673 -2.3789456
0.43645236 0.8970465 0.13705471 1.396584 0.59513587 0.6340362 -0.3606531 0.077587314
0.40283406 -1.696146 -0.21377257 -0.7220288 -0.4464319 1.6778096 0.21537416 -1.5186129
0.38884255 0.8347749 -0.31162113 0.0615592 -0.8041501 0.6154917 -0.14589646 -1.0611457
0.014098337 3.6964097 0.3053281 0.5751425 0.114754535 0.026054759 1.5288631 0.31143612
0.73730916 1.8634464 -0.004659016 -4.2116456 0.036300078 -0.09106637 -0.84078515 0.434602
-0.75856364 -0.6909003 0.21098092 -0.4916329 0.6339534 1.8594891 -0.25055903 -4.82652
-1.7289248 -2.4449728 0.9520544 -0.24018072 0.15451722 -0.35809895 0.48288307 2.1962
-0.26019162 -0.5880644 -0.110761106 -0.23605707 1.4682957 1.678289 -0.55460227 0.16854756
-0.09757008 1.0134157 0.12799509 -3.4946957 -0.46416822 -1.5648502 1.1608361 0.13524796
1.2655395 -0.20377937 -0.49887598 2.030381 0.40491143 0.869546 -0.08415003 -0.9068302
0.28976375 0.065691106 0.5296857 1.7678556 0.3145034 -2.4778538 -0.5258742 0.10204996

bias f4 [8]
00000000: fb2c c2be dfb0 ddbe f272 a5bd 8f26 0bbd
00000010: 561e 81bc 8543 25be 09a1 24bd 378b 033e
-0.37924942 -0.43299004 -0.08078565 -0.03397232 -0.015761536 -0.16139038 -0.040192638 0.12846075

weight f4 [8, 32]
00000000: ecb0 aebe 765a 8f3e f468 3b3d 49ee 56be
00000010: dc82 bf3e 2199 9e3d cbe6 2e3e 9834 2b3d
00000020: bf26 c5bd 1901 473f 533b 293d 67e3 e0be
00000030: 61ff bdbe 83e4 1bbf 1190 e8bd 4476 adbe
00000040: 5400 c53e e924 44be 406e ccbe edc8 243f
00000050: de6a 8ebf 59b5 73bf 38d8 093e 2716 653e
00000060: a1d4 373e cafa 8b3f 187d bdbe f8b8 7a3f
00000070: 875d f53d ddb9 11bd 08b9 5abe cbc7 af3e
00000080: 26d0 5c3f bb37 d1bf 166b 263e 0dcd 9a3e
00000090: efb1 b8be a2f6 43c0 4b86 fc3f afb1 183f
000000a0: a266 58bf 0458 15bf 3b33 33bf 1285 c1bd
000000b0: 80d2 17bf 65e8 1340 a9de 1f40 dd7d 1540
000000c0: 4b9f 6abf 51d4 c13f 8d99 1ebf 7ea5 15bf
000000d0: c667 aabe 882f 3f40 5bde 58bf b37e 9ebf
000000e0: 39a2 e0be 61e2 f43e d2f2 c23f 221b 8a3f
000000f0: c7fb 4fbc d4a0 863e ebdd 783f c533 993c
00000100: 333f ad3f 017a a63f 14fe 8ebe 19c0 10bf
00000110: 5f83 4d3f 4db1 4140 eaec 25bf d59f 17be
00000120: 7113 bbbd 4cdb 1f3e b9e8 babc 20c2 13bf
00000130: e041 973e 18d6 ec3e e2ec 54bf 8f90 0b40
00000140: 66cc 6d3e 404e 77be 28a0 ebbe 77a6 ad3d
00000150: 3cfc 16bd 4474 74bf b2e3 353f 29dc 663e
00000160: c4ec 5fbf c512 793f 0142 cfbf 1173 033f
00000170: 1069 dcbd 4539 c1bf c609 acbe 28ae 05bf
00000180: e3b6 81bf e059 91bf 2c42 8bbe 2e0b 403f
00000190: 27bb 6dbf 0848 08c0 5f9a 1440 cf94 a1bf
000001a0: 8043 7ebd 3345 8ebe 3957 563f f600 fbbe
000001b0: 12ff c3bd 99a1 a83f 38fe 6f3f ed56 bfbe
000001c0: 539d 2abe 0c28 fb3b 0518 913e c29c dbbe
000001d0: 0dab 72bf 48dd 8a3f 918e 6dbd 5520 72be
000001e0: 0594 283f 580f 27c0 d0eb 213f b912 04bf
000001f0: c15b bbbe eed5 1740 a236 a63f 050d c13e
00000200: 905d e4bf 29d1 ee3e 766d 67be 4816 19bf
00000210: 947b a13f 79bf d43f 4232 6fbe 462f 5ebe
00000220: d98b 783f 7ee6 363c b1bc 84be 23a4 673c
00000230: af16 83be c653 1b3f 24f4 70bf 9920 803f
00000240: a694 5b3e 3e51 95be 3a4b 88bd 1c7d b1be
00000250: 805d a63f 31e3 c0bf 789b 64bf 7af2 593f
00000260: c202 dfbe b144 063e 9133 2b3e 4b3a cd3e
00000270: b6c2 393f b603 42bf b1f4 9fbe ed0c 6dbf
00000280: 8de7 c13f 9782 f2be bac6 fcbd 2b4f 84bc
00000290: 5873 433f b906 68bf a5d6 55bf a6e8 8e3f
000002a0: 3743 c23e e371 713c 0bbd c4bf 2915 803f
000002b0: ef0f 1abe 7397 b8bf e931 843f b5c3 7d3f
000002c0: 616b 62bf 3f44 af3f b3b9 83bf 946d 88be
000002d0: 129f 673f c879 d73f 4a79 d4bf a75f 4bbf
000002e0: 21ab 9dbf 710c 4e40 8273 993e c196 6a3f
000002f0: ad27 edbe a8bb babd 78c7 923e e35b 1c3e
00000300: 8dc9 25bf d56a 1e3f 4760 03be ba7a 40bd
00000310: 89f9 e0bf 0c1f 143e 54bb 3dbf 7103 6e3f
00000320: 4114 2cbf 5917 c23c 3d98 fa3f 371b d53b
00000330: 9951 f2be 46d2 83be ebba 74be 1a8e 883f
00000340: 4e60 de3e 7561 4ebf eca6 2e3f ff63 3dbf
00000350: c441 59bd 3ae9 73bf 4f2b c33f 87e3 bf3e
00000360: 4280 783e a6e4 70be 3a5f 41bf c776 5d3e
00000370: 13f5 81bf 8afb 7e3e 2842 413f ae0b ff3d
00000380: c46a 4abb 892d 7dbb 1afd 523e 1c5d ae39
00000390: 0dc8 fc3a e568 60ba 343e 283a 7b47 49ba
000003a0: eb0a 383a 9ace 44bb 32bc 9c3b 6573 193b
000003b0: dd38 98bc ead1 a4b8 8415 e839 78ec 46bb
000003c0: df65 db3a 1866 6f3b 2b31 7fbb ffd4 113a
000003d0: 55dd 51bb 298a 82bb a417 17bb 10e8 b8b8
000003e0: 2091 c2ba 3a0e 0abb 84a6 0fbb 2a2c a2ba
000003f0: d0dd 06bb fa12 6bbb 5684 793b 74d2 e23a
-0.34119356 0.27998704 0.045754388 -0.20989336 0.37404525 0.07744051 0.17080228 0.041798204
-0.09626531 0.7773605 0.04131634 -0.43923494 -0.371089 -0.60895556 -0.113556035 -0.33879292
0.38476813 -0.19154705 -0.39927864 0.6436909 -1.1126363 -0.9519859 0.13461387 0.22371732
0.17952205 1.093591 -0.370095 0.9793849 0.119807296 -0.035577644 -0.21359646 0.34332117
0.8625511 -1.6345133 0.16251788 0.30234566 -0.36073253 -3.0619283 1.9728483 0.59646124
-0.84531605 -0.58337426 -0.70000046 -0.09449209 -0.5930557 2.3110592 2.497965 2.335807
-0.9164931 1.5142919 -0.6195305 -0.58455646 -0.33282298 2.987276 -0.8471429 -1.2382416
-0.43873766 0.47828963 1.5230353 1.078953 -0.012694306 0.26294577 0.9721362 0.018701443
1.3534912 1.3005983 -0.2792822 -0.5654312 0.8027858 3.0264466 -0.6481463 -0.14807065
-0.091345675 0.15610999 -0.022816049 -0.57718086 0.29542446 0.4625709 -0.83173954 2.1806982
0.23222503 -0.24150944 -0.46020627 0.08479016 -0.036861643 -0.9548991 0.7105056 0.22544922
-0.8747065 0.97294265 -1.6192018 0.5134745 -0.107622266 -1.5095602 -0.33601207 -0.52218866
-1.0133938 -1.1355553 -0.27198923 0.7501706 -0.92863697 -2.1293964 2.321922 -1.2623538
-0.06207609 -0.2778717 0.8372684 -0.4902417 -0.09570135 1.3174316 0.9374728 -0.37371007
-0.16661577 0.007664686 0.28338638 -0.42893034 -0.9479225 1.084878 -0.05799729 -0.23645146
0.6585086 -2.6103115 0.63250446 -0.5159107 -0.3659344 2.3724322 1.2985423 0.37705246
-1.7841053 0.46643952 -0.2260035 -0.59799623 1.2615838 1.6620933 -0.23359016 -0.21697721
0.9708839 0.011163352 -0.2592521 0.014138254 -0.25603244 0.60674703 -0.9412253 1.0009948
0.21443424 -0.29163545 -0.06654973 -0.34665763 1.2997284 -1.5069333 -0.89299726 0.85135615
-0.43556792 0.13112141 0.1671889 0.40083537 0.7256273 -0.7578691 -0.31241372 -0.9259785
1.5148789 -0.47365257 -0.123425916 -0.016151031 0.76347876 -0.9063526 -0.83530647 1.1164749
0.37941906 0.014736625 -1.5370191 1.0006458 -0.1504514 -1.4421219 1.0327731 0.9912675
-0.884451 1.3692702 -1.0291046 -0.266461 0.904771 1.683404 -1.6599514 -0.7944283
-1.2317849 3.2195094 0.29970938 0.9163628 -0.46319333 -0.09117824 0.28667808 0.15269427
-0.6476067 0.6188176 -0.12829696 -0.04699204 -1.7576152 0.14464968 -0.74113965 0.92974
-0.67218405 0.023692774 1.957771 0.0065034884 -0.4732788 -0.25746363 -0.23899429 1.0668366
0.4343285 -0.8061746 0.6822345 -0.73980707 -0.053041235 -0.9527775 1.5247592 0.37478277
0.24267676 -0.23524722 -0.7553593 0.21627341 -1.0152916 0.24900642 0.7549157 0.124533996
-0.0030886391 -0.0038631877 0.20604363 0.00033257238 0.0019285694 -0.00085605524 0.00064179604 -0.0007678193
0.000702067 -0.003003037 0.004783177 0.0023414728 -0.018581802 -7.859229e-05 0.0004426652 -0.0030353349
0.0016738734 0.0036529358 -0.0038939219 0.000556305 -0.0032022793 -0.003983755 -0.0023054862 -8.817029e-05
-0.0014844276 -0.0021065609 -0.002191932 -0.0012372781 -0.0020578988 -0.0035869465 0.0038073263 0.0017305152
