imitation_learning/logs/run_20240528130129/checkpoints/ckpt_20000.pt (torch, 15656 bytes, 4 tensors)

bias f4 [32]
0.07047468 0.17057402 -0.024418995 0.012609728 0.13718413 0.123700604 -0.24510898 0.12082117
0.021259844 0.1399981 -0.07926552 0.2353654 0.35569775 0.01811861 0.07352106 0.12683198
0.07734149 -0.055072486 0.15916674 0.16970535 0.14885609 -0.2020973 0.16753258 0.1171718
-0.0170742 -0.1962068 -0.05473882 0.009861907 -0.099042475 0.12688516 -0.19564316 -0.07000264
00000000: 0755 903d f5aa 2e3e 580a c8bc 0899 4e3c
00000010: ff79 0c3e be56 fd3d d9fd 7abe 1771 f73d
00000020: 2029 ae3c a95b 0f3e f655 a2bd a103 713e
00000030: 041e b63e 7b6d 943c 3692 963d 3ee0 013e
00000040: 3765 9e3d b093 61bd 9bfc 223e 3dc7 2d3e
00000050: bb6d 183e 98f2 4ebe a98d 2b3e c5f7 ef3d
00000060: 31df 8bbc 6fea 48be d035 60bd d693 213c
00000070: c8d6 cabd 2fee 013e ae56 48be 8b5d 8fbd

weight f4 [32, 10]
-0.44092518 -0.7650649 -0.17892888 0.17972358 -0.5139576 -1.5424584 0.592045 -1.5005273
1.5049454 1.5902677 0.31903 0.47749475 -0.48851863 -2.4014397 -0.15160878 -1.1305263
0.37164548 0.6534707 -1.7802823 1.4950777 0.060213245 -0.11780193 -0.33558285 0.1798063
-0.08589166 -0.23418881 -0.04421826 -0.11797356 -0.249889 -0.01633766 0.36038926 -1.489247
0.26153687 0.81229043 -0.122483805 -0.057615787 0.31896505 0.62420356 -0.07114288 1.0679572
-0.018102078 1.16379 0.0759272 -1.8630168 -0.19543871 0.5542025 -0.22305538 -0.22946873
-1.2484529 -0.6678036 0.71769965 -0.9050084 -0.6405236 -0.96509695 -0.1585934 2.900848
-0.9946798 -0.95339525 1.4819142 2.386277 -1.6013176 2.8666456 0.3289958 -1.3788724
0.042869393 -0.33303222 0.6120765 0.8430026 -1.422491 -0.56217736 -0.97522557 -2.5739875
0.21830465 1.2471062 -0.40057617 1.5564866 0.8996367 1.2296801 2.3811903 0.8910427
-0.3971584 0.7130646 0.738522 -0.3083194 0.1290071 1.2658966 0.4020658 -0.46383253
0.3711313 2.7966645 -0.54398525 0.9081883 0.02944641 0.63689995 0.3564742 -0.5101986
-0.04819309 0.78945833 0.7662172 -0.29170915 0.0054010046 0.75050783 0.6866359 -0.25460273
-0.2021154 -0.07249028 -0.1109168 -0.36690214 -0.97301775 -1.2433336 -0.5686955 -0.8663228
-0.33857584 1.5317392 0.22097003 -1.3683888 0.17178904 -0.39317873 0.50967926 0.22302866
-0.094888866 -0.2594875 0.18345852 1.005411 0.3838059 0.011058131 0.16195665 -0.23014697
-0.028184291 -0.40854657 0.85599077 -1.4400221 -0.5414374 0.32637647 -0.34726346 -0.63661903
0.42421627 -0.6660621 2.9507842 0.5326904 -0.08908592 0.32035443 1.0968128 -0.50667363
-0.33428997 1.8625234 -0.56897616 0.62521756 -0.16427526 0.8573133 -0.2933672 1.9347476
0.5253903 -0.13596816 -0.68296134 -0.069431715 1.2186503 0.34106416 0.5817511 0.37915203
-0.7467456 0.39852938 0.17749903 0.352509 0.20495102 0.9095742 0.09733177 -1.9976149
0.12403963 0.7739523 0.13538986 1.241957 0.57932824 0.54559386 -0.3121182 0.31712404
0.39437094 -1.6718203 -0.18421033 -0.7535839 -0.38456127 1.2887965 0.29382133 -1.0811119
0.32529035 0.98446846 -0.26139486 0.6331224 -0.61496025 0.5897938 -0.2089972 -0.72912526
-0.035601232 2.935899 0.32864648 0.2898014 0.057242222 0.116841644 1.2450321 0.0678477
0.5561119 1.5642631 0.019117838 -3.313844 0.0053279945 -0.73190916 -0.71871287 0.11371134
-0.7531056 -0.5833332 0.2220688 -0.46352547 0.64542735 1.6322618 -0.242146 -2.62189
-1.4775214 -2.186132 0.9878299 -0.31375533 0.13964385 -0.38697124 0.48948818 2.2185578
-0.20762257 -0.72356784 -0.121469736 -0.37216204 1.2740277 1.6164277 -0.54819286 0.15673965
0.064818926 0.9018888 0.13956934 -1.7973274 -0.47712216 -1.9892141 1.650808 -0.1079009
1.0425923 0.06624219 -0.38253582 1.4460176 0.3886216 1.0107673 -0.11010578 -1.1489258
0.038354684 0.10529102 0.44476077 1.8768687 0.22176737 -2.2533038 -0.49423254 -0.3063796
00000000: f2c0 e1be 4bdb 43bf 2239 37be 7509 383e
00000010: ba92 03bf 476f c5bf 4390 173f 4711 c0bf
00000020: 0da2 c03f e48d cb3f e657 a33e 317a f43e
00000030: 1d1f fabe 30b1 19c0 553f 1bbe 16b5 90bf
00000040: 5148 be3e db49 273f 4ae0 e3bf b55e bf3f
00000050: 2aa2 763d 2342 f1bd 84d1 abbe 251f 383e
00000060: f7e7 afbd 31cf 6fbe 351e 35bd 1f9c f1bd
00000070: e7e2 7fbe 8ed6 85bc f184 b83e a59f bebf
00000080: 29e8 853e 44f2 4f3f cad8 fabd 88fe 6bbd
00000090: 634f a33e cecb 1f3f 5cb3 91bd d2b2 883f
000000a0: cf4a 94bc 12f7 943f b87f 9b3d 5677 eebf
000000b0: 1621 48be 37e0 0d3f a168 64be daf9 6abe
000000c0: 4ecd 9fbf 2df5 2abf 2abb 373f a1ae 67bf
000000d0: 5bf9 23bf 9810 77bf 4f66 22be 7ea7 3940
000000e0: 56a3 7ebf b611 74bf 5daf bd3f c3b8 1840
000000f0: faf7 ccbf 1f77 3740 2372 a83e e47e b0bf
00000100: d197 2f3d 3383 aabe 0cb1 1c3f 05cf 573f
00000110: 2f14 b6bf dbea 0fbf 62a8 79bf 36bc 24c0
00000120: 418b 5f3e 2da1 9f3f 5218 cdbe f43a c73f
00000130: 974e 663f 2866 9d3f 6c65 1840 601b 643f
00000140: 5958 cbbe 678b 363f c70f 3d3f 0adc 9dbe
00000150: 701a 043e e608 a23f 92db cd3e 757b edbe
00000160: ec04 be3e 8dfc 3240 9e42 0bbf 077f 683f
00000170: 9939 f13c e00b 233f c983 b63e 609c 02bf
00000180: 1e66 45bd f119 4a3f cf26 443f e75a 95be
00000190: e9fa b03b 4821 403f 5fc7 2f3f 4a5b 82be
000001a0: 57f7 4ebe c975 94bd 5928 e3bd 99da bbbe
000001b0: b117 79bf 8e25 9fbf 0796 11bf 55c7 5dbf
000001c0: d059 adbe 0810 c43f f845 623e 5d27 afbf
000001d0: 77e9 2f3e b94e c9be 577a 023f a061 643e
000001e0: 1855 c2bd 8cdb 84be 8ddc 3b3e 4fb1 803f
000001f0: 3582 c43e 2a2d 353c f7d7 253e a6ab 6bbe
00000200: bee2 e6bc 042d d1be 3622 5b3f a552 b8bf
00000210: a49b 0abf d11a a73e 84cc b1be 77f9 22bf
00000220: e032 d93e 0c83 2abf a6d9 3c40 665e 083f
00000230: ae72 b6bd 7f05 a43e 5d64 8c3f 5db5 01bf
00000240: 0e28 abbe 2b67 ee3f 6ca8 11bf 420e 203f
00000250: c637 28be e278 5b3f 3a34 96be cfa5 f73f
00000260: fb7f 063f 3d3b 0bbe 8ed6 2ebf 3732 8ebd
00000270: bcfc 9b3f f69f ae3e a4ed 143f 3720 c23e
00000280: b82a 3fbf 0b0c cc3e 4ec2 353e 0f7c b43e
00000290: aede 513e dbd9 683f e155 c73d d8b1 ffbf
000002a0: 7d08 fe3d bd21 463f a4a3 0a3e 72f8 9e3f
000002b0: db4e 143f 0aac 0b3f f5cd 9fbe 155e a23e
000002c0: fdea c93e 35fe d5bf a2a1 3cbe e0ea 40bf
000002d0: 37e5 c4be 49f7 a43f c06f 963e e061 8abf
000002e0: 758c a63e 2006 7c3f 8cd5 85be 4f14 223f
000002f0: 096e 1dbf bafc 163f 5d03 56be f4a7 3abf
00000300: 99d2 11bd c5e5 3b40 5a44 a83e d960 943e
00000310: d276 6a3d ac4a ef3d 365d 9f3f bcf3 8a3d
00000320: 595d 0e3f c639 c83f 039d 9c3c 0516 54c0
00000330: 7596 ae3b 665e 3bbf 91fd 37bf 7ee1 e83d
00000340: 87cb 40bf 5355 15bf 0166 633e 3653 edbe
00000350: ba3a 253f f4ed d03f 1ff5 77be 0ccd 27c0
00000360: 6c1f bdbf 96e9 0bc0 6ce2 7c3f 8aa4 a0be
00000370: ccfe 0e3e 1821 c6be 329e fa3e dafc 0d40
00000380: 039b 54be be3b 39bf 20c5 f8bd 068c bebe
00000390: 5713 a33f 1ae7 ce3f 5e56 0cbf 5c80 203e
000003a0: c9bf 843d 2fe2 663f 44eb 0e3e d30e e6bf
000003b0: 5b49 f4be 919e febf ad4d d33f 26fb dcbd
000003c0: aa73 853f fca9 873d bcdb c3be 1b17 b93f
000003d0: 69f9 c63e d360 813f 247f e1bd 0010 93bf
000003e0: cd19 1d3d d1a2 d73d afb7 e33e 3c3d f03f
000003f0: fc16 633e 2136 10c0 0c0c fdbe c9dd 9cbe

bias f4 [8]
-0.29243222 -0.32211152 -0.089611456 -0.033317227 -0.02042744 -0.11034759 -0.027820786 0.13686697
00000000: adb9 95be cdeb a4be 3686 b7bd a577 08bd
00000010: 7257 a7bc ebfd e1bd 6be8 e3bc db26 0c3e

weight f4 [8, 32]
-0.20618118 0.31866837 0.045754388 -0.24905583 0.33650103 0.1990022 0.15402015 -0.022427725
-0.18923078 0.6086264 0.014464523 -0.42309248 -0.27106568 -0.4306982 -0.13195117 -0.19539748
0.3484189 -0.18056345 -0.30123433 0.45350492 -1.0018288 -0.9084372 0.23167755 0.2293853
0.14174208 0.87496096 -0.42317146 0.79909784 0.3235854 -0.09642579 -0.16150874 0.30061403
1.0199802 -1.1198502 0.16251788 0.0334142 -0.23907459 -3.0452087 1.6893704 0.47354534
-0.6818218 -0.4056703 -0.68845993 -0.36427745 -0.5401896 1.768644 2.1773179 2.153263
-0.67516875 1.4801166 -0.50649434 -0.635085 -0.23023921 2.7371721 -0.8362434 -1.2818491
-0.18472901 0.05708434 1.3668587 1.0351027 0.029784484 0.17592812 0.7241374 -0.04095408
1.1496518 1.1532698 -0.2792822 -0.32845464 0.5513997 2.6877728 -0.30416897 -0.158198
-0.057229213 -0.12890734 0.017334485 -0.43357143 0.23999904 0.117540255 -0.6675597 1.9779102
0.17876813 -0.10887867 -0.39702094 0.0031505995 -0.011532699 -0.64315414 0.5233977 0.21059665
-0.79217017 0.9213669 -1.2754515 0.4215122 -0.35540715 -1.4150044 -0.12628427 -0.40958557
-1.2300984 -1.3420511 -0.27198923 0.6086014 -0.94754773 -2.1555219 2.3797965 -1.1666986
-0.14064431 -0.22408453 1.1611576 -0.48382068 -0.10677141 1.2839648 0.9806636 -0.2630389
-0.15111084 -0.27493045 0.26283416 -0.40908527 -0.92107695 1.0349778 0.1618259 -0.15151025
0.5702447 -2.3821814 0.73363715 -0.51476735 -0.18397027 2.294336 0.97689754 0.36750135
-1.4911298 -0.033457533 -0.2260035 -0.466387 1.1886041 1.3967079 -0.145828 -0.12473572
0.9078129 0.009197987 -0.2854911 -0.08922473 -0.2762494 0.6697501 -0.6949067 0.8284497
0.20982873 -0.29445574 -0.1334826 -0.26644605 0.93870956 -1.3320477 -0.9508089 0.69804883
-0.43399546 0.30288008 0.22825071 0.4967076 0.42721006 -0.52768964 -0.15266894 -0.6869103
1.4159409 -0.013139841 -0.123425916 -0.09862636 1.1604924 -0.6302401 -0.94669265 1.0087317
0.51676685 0.06384976 -1.6949708 0.85353804 -0.12437119 -1.5337716 0.8415971 0.9006471
-0.95127857 1.3668716 -0.8176611 -0.1864302 0.83028185 1.5505344 -1.7007085 -0.8072461
-1.0460993 3.0428965 0.18273614 0.84954137 -0.4133942 -0.39935273 0.13539489 0.15644032
-0.46237305 0.52748805 -0.12829696 -0.20585841 -1.2821013 0.26311034 -0.45463368 0.76821333
-0.6457145 0.043987196 1.5329156 -0.012123186 -0.4509204 -0.17376083 -0.09732215 1.0200987
0.31677115 -0.5931815 0.6001305 -0.6524135 -0.02884271 -0.78340423 1.303935 0.41807473
0.20514768 -0.020537985 -0.59879124 0.053930484 -0.77236474 0.07201177 0.6868104 0.032118514
-0.0059025586 0.0018598152 0.20604363 0.0031650935 -0.009866585 -0.005763325 0.012362109 -0.009136986
0.00056132465 -0.038298298 0.013920651 0.0047198525 -0.04476404 -0.0029212225 -0.0020649477 0.005001439
0.001202529 -0.0024900374 -0.011167675 0.05090572 0.026678596 -0.0063800826 -0.00024311297 -6.716867e-06
-0.019655168 -0.008780478 0.0001003752 -0.003038918 -0.005151869 -0.0020857607 0.012249693 0.0092761265
00000000: 2921 53be 8028 a33e f468 3b3d 7e08 7fbe
00000010: dd49 ac3e 3cc7 4b3e 75b7 1d3e 59ba b7bc
00000020: b7c5 41be f1ce 1b3f 9bfc 6c3c 949f d8be
00000030: 1fc9 8abe 7984 dcbe 351e 07be 4716 48be
00000040: f663 b23e a0e5 38be 633b 9abe cc31 e83e
00000050: ed3b 80bf 578f 68bf e13c 6d3e fbe3 6a3e
00000060: d624 113e 71fd 5f3f eea9 d8be ad91 4c3f
00000070: fcac a53e e27a c5bd 8c62 25be 15ea 993e
00000080: b68e 823f 4057 8fbf 166b 263e 54dd 083d
00000090: f8cf 74be b3e4 42c0 4a3d d83f 8974 f23e
000000a0: e08b 2ebf 04b4 cfbe e93e 30bf 9382 babe
000000b0: de49 0abf ed62 e23f 2d59 0b40 10cf 0940
000000c0: dcd7 2cbf 7674 bd3f 9da9 01bf ee94 22bf
000000d0: d4c3 6bbe d42d 2f40 0c14 56bf a213 a4bf
000000e0: 9a29 3dbe 45d1 693d 3af5 ae3f 3f7e 843f
000000f0: 97fe f33c 8026 343e 1261 393f 77bf 27bd
00000100: ca27 933f 589e 933f 14fe 8ebe 352b a8be
00000110: 8828 0d3f 7804 2c40 09bc 9bbe a8fe 21be
00000120: 2e69 6abd 4900 04be 0d01 8e3c 13fd ddbe
00000130: 4fc2 753e f2b8 f03d 31e5 2abf 292c fd3f
00000140: fe0e 373e c8fb debd 5446 cbbe 4a7a 4e3b
00000150: a5f3 3cbc c0a5 24bf 64fd 053f a6a6 573e
00000160: aacb 4abf b3de 6b3f ff41 a3bf 72d0 d73e
00000170: edf7 b5be dd1e b5bf aa50 01be 33b5 d1be
00000180: dd73 9dbf 55c8 abbf 2c42 8bbe 4dcd 1b3f
00000190: 7d92 72bf 12f4 09c0 964e 1840 6156 95bf
000001a0: 1005 10be 6a76 65be d0a0 943f 58b7 f7be
000001b0: f8aa dabd f558 a43f c50c 7b3f 09ad 86be
000001c0: cdbc 1abe afc3 8cbe 3392 863e a073 d1be
000001d0: b3cb 6bbf 277a 843f b0b5 253e 8125 1bbe
000001e0: 8ffb 113f a975 18c0 a5cf 3b3f cbc7 03bf
000001f0: b462 3cbe 67d6 1240 f515 7a3f 2329 bc3e
00000200: 57dd bebf c40a 09bd 766d 67be 47ca eebe
00000210: 2e24 983f 53c7 b23f ef53 15be 7175 ffbd
00000220: 6d66 683f 27b3 163c e42b 92be 75bb b6bd
00000230: 9070 8dbe be74 2b3f 68e5 31bf 4815 543f
00000240: 58dd 563e e7c2 96be aaaf 08be 9e6b 88be
00000250: 454f 703f 8a80 aabf 3668 73bf 54b3 323f
00000260: a734 debe 1913 9b3e 8eba 693e 7550 fe3e
00000270: 47bb da3e ab16 07bf 3f55 1cbe 5ad9 2fbf
00000280: 8d3d b53f 7d48 57bc bac6 fcbd 9efc c9bd
00000290: 048b 943f 6a57 21bf 735a 72bf 1f1e 813f
000002a0: d54a 043f aac3 823d cef4 d8bf 7881 5a3f
000002b0: 53b6 febd a152 c4bf e872 573f cf90 663f
000002c0: fe86 73bf a6f5 ae3f 3d52 51bf 8fe7 3ebe
000002d0: 5a8d 543f e977 c63f d1b0 d9bf aea7 4ebf
000002e0: 95e6 85bf d1be 4240 2f1f 3b3e 8b7b 593f
000002f0: 68a8 d3be f677 ccbe f5a4 0a3e e431 203e
00000300: 29bc ecbe 7509 073f 4760 03be 8ccc 52be
00000310: e51b a4bf 66b6 863e bfc5 e8be a1a9 443f
00000320: 8c4d 25bf eb2b 343d 9436 c43f 54a0 46bc
00000330: 0adf e6be 5cee 31be d650 c7bd 9892 823f
00000340: d42f a23e beda 17bf 27a2 193f 9204 27bf
00000350: 8c47 ecbc 2e8d 48bf 58e7 a63f e40d d63e
00000360: 3c12 523e 473f a8bc 624a 19bf 36e6 5c3d
00000370: b2b9 45bf e87a 933d ced2 2f3f b48e 033d
00000380: 406a c1bb 0bc5 f33a 1afd 523e 756d 4f3b
00000390: 75a7 21bc 46da bcbb 718a 4a3c 4cb3 15bc
000003a0: dc25 133a adde 1cbd 7113 643c fea8 9a3b
000003b0: 7f5a 37bd fb71 3fbb 1354 07bb 1ce3 a33b
000003c0: 2d9e 9d3a e52f 23bb a0f8 36bc 8482 503d
000003d0: 128d da3c 0310 d1bb 24ec 7eb9 7361 e1b6
000003e0: e003 a1bc fedb 0fbc 8680 d238 9528 47bb
000003f0: 02d1 a8bb 42b1 08bb f0b2 483c e5fa 173c
