logs/full_space/checkpoints/ckpt_10000.pt (torch, 166052 bytes, 8 tensors)

bias f4 [128]
00000000: 07ef 043e 34d9 f3bc f20d 23bc a5d2 e23c
00000010: 9e6c af3c 0d8d fdbc 2481 80bd b3b1 c7bd
00000020: 377e b3bc b35f 503d a2f8 583d d355 21bc
00000030: 2945 363c c925 22bc f94e 9cbd e029 303c
00000040: c0b9 29bd 4b71 4c3c f043 933c 0b5b f23d
00000050: 7bf3 563d 49f1 32bc 9e44 723d a4f5 d7bd
00000060: 67f2 a2bc 7f6d 853d d183 4d3d 7260 a33a
00000070: f807 933d 5dac 8d3e 9ff9 20bd 2895 19bd
00000080: 33a4 28ba bec0 7b3c 0eba cd3d 0bf9 00bd
00000090: 84a2 69bd dfad b9bc d3d7 96bc 77a1 1c3d
000000a0: 29c4 83bd ab0a 803d b529 efbc a65f cd3c
000000b0: 8a9c 013d 8dab 833c 9b7a 34bd 0db3 4cbd
000000c0: 3b70 22bd f128 813d 2816 b0bc 1537 9b39
000000d0: dbc8 003d d30c 2b3d 3128 1fbd fd7e 703c
000000e0: 0e69 af3c 3cf9 013c 44b9 38bd 457f 913d
000000f0: dc7a 3d3c 4dd9 a1bc b5ce 7fbd 629a 233c
00000100: 92c6 f73c 008f 09bd 080b 493d 4e3f f8bb
00000110: 3bba e2bb 0df2 d93b cce0 df3c 3865 10bb
00000120: 92f7 05bc 1b47 86bd 648c 50bc 8f9e 5dbd
00000130: 314d 0e3c 5c62 c03c 02c4 6a3c fc99 233d
00000140: 89cd 21bd 452e 313d 650b 223d 6ba2 cabc
00000150: 15f3 38ba d6e5 cebc 67c3 febd c201 01be
00000160: 859a d13c 218c c33a 0e53 8ebd e014 2f3e
00000170: 4a1a 7dbd 24ba 3b3c 44bd 17bd a248 4abc
00000180: cd24 ca3d 491e 293c b8bf 33bd 0a0b 39bd
00000190: 1909 2f3d 8204 a0bc 97c8 d43d e60b a6bc
000001a0: 9c57 b3bc 90fd 92bc 2e86 5d3b a795 8e3d
000001b0: 8340 9d3d 4b4a 363c 4988 67bd eab6 d33b
000001c0: cb26 6abc 07be 5dbc 5a53 61bd a3c9 a1bc
000001d0: cb2d e33b 52d4 97bd 6459 963d 0123 fc3c
000001e0: df74 27bc f289 88bd 1647 66bd c981 abbc
000001f0: 7302 8fbd 4a63 e03d c819 443d 0008 82bc
0.12981807 -0.029766656 -0.009952055 0.027688334 0.021414097 -0.030951047 -0.062746316 -0.0975069
-0.02191077 0.050872516 0.05297149 -0.009847122 0.0111248875 -0.009896704 -0.0763225 0.010752171
-0.04143691 0.012478183 0.017976731 0.11833771 0.052478295 -0.010921785 0.05914747 -0.10544899
-0.019890977 0.06515025 0.050174538 0.0012464656 0.07179254 0.27670565 -0.039300557 -0.037495762
-0.0006433159 0.015365778 0.10045253 -0.031487506 -0.057039753 -0.022665916 -0.01841346 0.038239922
-0.06433899 0.06252035 -0.029194692 0.025070023 0.031643428 0.016073013 -0.04406224 -0.049975444
-0.039657813 0.06306637 -0.02149494 0.00029604943 0.03144155 0.041760277 -0.03885669 0.014678714
0.021412399 0.007932957 -0.045098558 0.07104353 0.0115649365 -0.019756937 -0.06245299 0.009985538
0.030246053 -0.03358364 0.049082786 -0.007575906 -0.006919173 0.006651169 0.027328871 -0.0022032987
-0.008176701 -0.06556531 -0.012728784 -0.05410629 0.008685396 0.023484401 0.0143289585 0.039941773
-0.039502654 0.043257017 0.039561648 -0.02473565 -0.0007055265 -0.025256079 -0.12439614 -0.12598327
0.025586376 0.0014919081 -0.06949435 0.17097807 -0.06179265 0.011457954 -0.037045732 -0.012346419
0.098703004 0.010322162 -0.04388401 -0.045176543 0.042733286 -0.0195334 0.10389822 -0.020269345
-0.021892361 -0.017943174 0.00338019 0.06962138 0.0767832 0.011126111 -0.056526456 0.006461014
-0.0142914755 -0.013534076 -0.05501113 -0.019749468 0.006932949 -0.07413544 0.07341269 0.03077841
-0.010220735 -0.06666936 -0.056220137 -0.02093591 -0.06982889 0.10956438 0.04787615 -0.015872955

weight f4 [128, 26]
00000000: 1a58 00bd 1d1b 1ebe 8a46 223d 7601 9a3d
00000010: bd19 323e 003f cebd 7ebc 1bbe 6fb6 613c
00000020: 643f 413e 35b5 0dbc e1f4 c3be e93c a3be
00000030: 82c8 92bd 4ed1 6bbb 63d8 003e 6cfd 853e
00000040: adfd d63d 1954 5a3e 1117 233e 92dd 253c
00000050: 01f4 d73c c3e5 f63d d176 43be 177d 283e
00000060: 6d43 233f b78e 0a3f ea9c 523d 41e3 7fbe
00000070: d294 b13d ddc6 10be f036 8c3d 12f1 e33d
00000080: f6cf 453e 1eda 01be 54bf 5a3d 1067 7f3d
00000090: 6094 1ebe 067a 383c 5d06 933e 690e ab3d
000000a0: 0c73 1abe 1ff3 883e 4d43 53be 987b a13d
000000b0: 00a9 693e c034 d03c 707c 08be 1c9c b8bc
000000c0: fb00 09be 02bc 41be 07a2 073f af69 fc3d
000000d0: 082a 2a3e de7b 5abe d8bf 253e 9277 003e
000000e0: 78b5 47be a84e 5e3d 93e6 b13d 0222 d4bd
000000f0: d89d bebd 754a 4dbe 4f1b dabd fa7e 933d
00000100: cfd1 41bd 3c6e bd3d e885 303d 1063 b1be
00000110: 297e 64bd 117f 56bd bef6 733c dd54 393e
00000120: 4618 e2b9 379f 113e b91f 373e 7aa5 453e
00000130: 81f1 853e d106 50be 1bbf 9abe c69c d03e
00000140: f4bd 6dbd dae1 cfbd 961f b0bd ae8d 0d3d
00000150: 34ad 133e efff 533d 06ff 1fbd b0ba e43d
00000160: 2ea0 40be 3948 5b3c 3eb6 a3bd 9ee1 afbd
00000170: 2b82 723d cea6 c53e e3b9 163e 927a 5dbe
00000180: 336e 6c3e c442 613d d409 d6bd 3b98 273e
00000190: 79fe 233e 4060 75be 3a51 92be b819 a13e
000001a0: 3638 253d 6807 5bbf 5868 ec3c ae6f 9f3d
000001b0: 18cc d03d 3680 41bb ebaa 443e 714b f3bd
000001c0: 2708 153e eb31 7ebe 9aa4 9e3d 6384 433d
000001d0: 3f48 983e 7fc4 373e d360 203e 2690 2abd
000001e0: 88c1 21bd bcbd da3c b000 80be 8ea6 debd
000001f0: 3b62 f2bd 6106 443d b77b 3b3e a035 f23d
00000200: 3940 923e d5e5 85be 4af7 923e 292c 743f
00000210: 960d c23d 4cc2 1cbe 4138 aebd 1788 81bd
00000220: cf2e 133e 7923 733d 6c42 a9bd 9ebf e9bc
00000230: 3eac dabe f2a8 86bd 348e f7bc e62d ae3c
00000240: 4cdd 71bd 1223 083d e2ff 02be 08fa a4be
00000250: 7de6 95be 29eb 61bd 92ca 183d 8c29 f13d
00000260: cdb5 27be 0294 a3be 0c9a 853d 1dbf f03d
00000270: 7e90 71bc c99e 533f 8fe8 0dbd a876 b93d
00000280: e263 8bbd 00a2 debc 5177 11be e24c 17bd
00000290: f3c0 96bd ef79 dd3d 4fa3 ba3e df32 1dbe
000002a0: 4b73 2a3c 0c87 30bc 8805 b1be 70fc 9c3d
000002b0: 4c01 f2bd 4f2e 48be 1dc1 143e 58f8 2abe
000002c0: 58c6 023e e5e8 adbb 6b71 db3d 3cd4 63bd
000002d0: 961f c0be 9c9d 953d aecf 69bd 35fb c93e
000002e0: 543f 023e 16a8 15be 3be5 293d cba5 a03d
000002f0: 8618 743d f273 3dbe eb97 9dbc e701 a3bc
00000300: 6ac0 21be f3ac 2a3e 0717 bcbb b8c3 a3bd
00000310: c21b 75be dc97 aabd fc3e 61be e999 bebd
00000320: d116 f8bc 7e0b 603b cfcb b53d 9de1 29be
00000330: c9ac 5e3d efe1 173e 37f1 a63e 58c5 293e
00000340: 0dbd b03d 4baa 93be 96f2 c53d 976e 243d
00000350: 3cd4 29be d678 c7bc 7669 c9bd 631f cb3d
00000360: 9f6f cfbd a516 99bd 479a 933d 8297 753e
00000370: feac 3e3e 35a0 203e c94c 35be 9633 a53d
00000380: 88c6 f6bb 7965 2bbe 83e6 81bd 55c0 323e
00000390: 3766 e7bc 8115 da3b 486c 3c3c 0345 b3be
000003a0: b603 08be 22e0 8abe 9bf1 70bd 2ee2 043e
000003b0: ba4e 02be 0fef d73a ac26 0d3c 692d 6bbd
000003c0: b627 ed3d 6328 eebc 7c03 7d3d c63d 46be
000003d0: 9dcf 23bd 9cac 0dbd e4cf 13be 4e9f a4bd
000003e0: 0486 fc3e 8c72 c43e f8e0 b1bd fcef 963e
000003f0: 221f d73d c8e8 fe3d 9298 3f3e 7f55 3b3e
-0.03133402 -0.1544003 0.039618053 0.0751981 0.17392631 -0.1007061 -0.15208623 0.013776406
0.18871838 -0.00864916 -0.38272765 -0.31882408 -0.0716715 -0.003598291 0.12582545 0.26169908
0.104976036 0.21321143 0.15926768 0.010123627 0.026361467 0.12055542 -0.19088294 0.16453968
0.6377476 0.54124016 0.051419176 -0.24989034 0.08670963 -0.1413836 0.06846416 0.11129965
0.19317612 -0.12680861 0.05340512 0.062354147 -0.15486288 0.011259561 0.28715792 0.08352358
-0.1508295 0.26747987 -0.20631142 0.07884902 0.22818375 0.025415778 -0.13328719 -0.022535376
-0.1337928 -0.18919376 0.5298161 0.12324845 0.16617596 -0.21336314 0.16186464 0.12545612
-0.19502819 0.05427423 0.08686557 -0.10358049 -0.0930745 -0.20047934 -0.1064974 0.07201953
-0.04731923 0.09249541 0.043096453 -0.3464589 -0.05578438 -0.052367274 0.014890371 0.18098779
-0.00043124164 0.14220892 0.17883195 0.19301406 0.26160815 -0.203151 -0.30223927 0.4074461
-0.05804248 -0.101505 -0.085997745 0.034558944 0.1442154 0.05175775 -0.03906157 0.1116842
-0.18811104 0.013383918 -0.07993744 -0.08587955 0.05920617 0.38603824 0.14719348 -0.21628788
0.23088913 0.054995313 -0.10451093 0.16366665 0.16015042 -0.23962498 -0.28577596 0.31464934
0.04033681 -0.85558176 0.028858349 0.07784973 0.10195178 -0.0029525883 0.19205825 -0.11879624
0.14553891 -0.2482373 0.07746239 0.047733676 0.2974262 0.17946051 0.15661936 -0.041641377
-0.039491206 0.0267018 -0.25000525 -0.108716115 -0.11835142 0.047857646 0.18308912 0.118266344
0.28564623 -0.2615191 0.28704292 0.95379883 0.094752476 -0.15308493 -0.08506823 -0.06324785
0.14373325 0.05936 -0.08264622 -0.028533753 -0.42709535 -0.065751925 -0.030219175 0.02126212
-0.059048936 0.03323657 -0.12792924 -0.3222201 -0.2927741 -0.055155907 0.03730256 0.117755026
-0.16377945 -0.31948858 0.06523523 0.11755202 -0.014743922 0.8266416 -0.034645613 0.09055835
-0.068061605 -0.027176857 -0.14205672 -0.036938556 -0.07361021 0.108142726 0.3645272 -0.15351437
0.010403465 -0.010774385 -0.34574533 0.07665336 -0.118166536 -0.19548915 0.14526792 -0.16696298
0.12770975 -0.005307304 0.10714992 -0.055622324 -0.37524098 0.07305452 -0.057082824 0.39449468
0.1271947 -0.14614901 0.041478377 0.078441225 0.0595937 -0.18501261 -0.01923748 -0.019898368
-0.15796056 0.16667537 -0.0057400498 -0.07996315 -0.2393637 -0.08329746 -0.21996683 -0.093067
-0.030284317 0.0034186537 0.08876764 -0.16589971 0.054364 0.1483228 0.32605907 0.16579187
0.086298086 -0.2884086 0.0966541 0.04014453 -0.16584867 -0.024349611 -0.09834568 0.09918096
-0.10128712 -0.07475022 0.072071604 0.23983577 0.18620679 0.15686114 -0.17705072 0.0806648
-0.007530991 -0.16737927 -0.06342795 0.17456181 -0.028246982 0.0066553955 0.011500426 -0.3501359
-0.13282666 -0.27124125 -0.058824163 0.12976906 -0.12725344 0.0016474443 0.008615177 -0.057416353
0.1157984 -0.029071992 0.0617709 -0.19359502 -0.039992917 -0.03458844 -0.14434773 -0.080381975
0.49320996 0.38368642 -0.086854875 0.2947997 0.10503985 0.12446743 0.18710545 0.18294333

bias f4 [128]
00000000: 75c3 2f3c 8042 143d a464 773c f63c ac3c
00000010: a98d 4ebd 07e8 65bd 81ba 6f3c ce9f 9cbc
00000020: 116e 9dbc c848 c8bc 33c9 f83c 51b6 7dbc
00000030: 361a 25bd d7d0 7e3d 6477 b23c a732 083d
00000040: e573 4dbc a8b0 25bd 57e5 64bd 7ca6 5d3c
00000050: 1d29 52bc 3dac 953b 4bad cebc 1f80 b3bd
00000060: dff9 74bb 7311 0f3e 2703 23bd 8fb8 babc
00000070: 8032 083d c9ed ddbc f325 0a3d 7525 293d
00000080: a112 87bc d657 b6bc c1a6 633d 04c7 b5bc
00000090: 4fef 2dbc ef89 26bb 1cad a83b 2876 893d
000000a0: 7b9b 5cbc 17e6 763d ab23 bf3c bc7c e33b
000000b0: e22d a2bc ac9f 393d aa05 053d 98c1 243c
000000c0: 95de dabc 7a8f 7b3d 5ec0 043d db19 123d
000000d0: 2b7a 85bd e727 eebc b41d a83d 5e57 babc
000000e0: 0418 00bd bd2a 7f3c 2287 06bc 1c9f 063c
000000f0: 478b 17bd 788b 513d 0e26 bf3c 7b38 f53c
00000100: 773f a53c f0aa b33c 9faa 14bd 3924 8f3c
00000110: 67d2 d5bc 848c 3bbc 5305 19bd 687c 52bc
00000120: db9f 8f3c 5e12 ac3d df1c 81bc c9eb b63c
00000130: 67ab 89bc bf95 08bd 0230 c2bd 8f48 413d
00000140: 4f65 8b3b f886 9c3d 6c0b c93c 5114 b7bb
00000150: dc70 acbb a37b 32bd c1c9 c4bb ffda 00bc
00000160: 2248 27bc 8ec9 853d f96f 1a3d 5054 b6bc
00000170: a5fa 16bc 6110 813d 34af a0bc c32d 1d3d
00000180: b9de ef3c 4a9b e9bc b07c e8ba c69a 053d
00000190: da95 a1bd cfdb e2bc 02be 1ebd 0e2d 8e3d
000001a0: ea8a 83bd ed9f 1c3d 5f63 d2bc 8918 803c
000001b0: 3e50 58bc 6efb ff3c 5c76 0bbd ed83 67bc
000001c0: 2a96 9fbd b262 69bd 1a65 e4bc 0435 ffbc
000001d0: 4fda 15bd 0a3e 853d fc84 d03c 224a 123d
000001e0: 623b 56bc d586 89bc 6b8c 62bc 876f af3c
000001f0: 3425 5abd 4bfd 8dbc ebf6 cfbb 3c8a 3dbd
0.010727753 0.03619623 0.015099678 0.021025162 -0.050428066 -0.05612948 0.014631868 -0.01911917
-0.019217523 -0.024448767 0.030369377 -0.015485362 -0.0403082 0.062210884 0.021785446 0.03325143
-0.012539838 -0.040451676 -0.055882778 0.0135284625 -0.012827185 0.0045676515 -0.025229117 -0.087646715
-0.003738038 0.139715 -0.03979793 -0.022793083 0.033251286 -0.027090924 0.033727597 0.041295487
-0.016488375 -0.02225868 0.05557895 -0.022189625 -0.010616138 -0.0025411805 0.0051475894 0.0671199
-0.013464804 0.060278025 0.023332438 0.0069423597 -0.01979727 0.04531829 0.032476105 0.010055922
-0.026717464 0.061416127 0.03241002 0.03566919 -0.06517442 -0.029071761 0.082087904 -0.022746738
-0.031272903 0.015574154 -0.008210929 0.008216646 -0.03699806 0.0511584 0.023333576 0.029934159
0.020171864 0.021932095 -0.03629553 0.017473327 -0.026101304 -0.011447076 -0.037358593 -0.012847044
0.01753228 0.08401941 -0.015760837 0.022329228 -0.016805364 -0.033345934 -0.09481813 0.047188338
0.0042540203 0.07642931 0.02454158 -0.0055871387 -0.0052624773 -0.04357494 -0.0060054963 -0.007864713
-0.010210069 0.06532584 0.03770444 -0.022257 -0.009215032 0.06301952 -0.019614793 0.03837372
0.029281007 -0.02851643 -0.0017737355 0.032618307 -0.0788991 -0.027692704 -0.038755424 0.06942187
-0.0642298 0.038238455 -0.02568215 0.0156367 -0.013202725 0.03124782 -0.034048423 -0.014130575
-0.077923134 -0.05697889 -0.02788024 -0.03115321 -0.03658515 0.06505974 0.025454037 0.03571523
-0.013075681 -0.016787926 -0.013827424 0.021415485 -0.053258136 -0.017332694 -0.0063465736 -0.04627441

weight f4 [128, 128]
00000000: 4589 11bf 010e 1bbe 0f36 85bd 190b 083d
00000010: 0079 dd3b 533a 883c 61b8 4f3e 7d70 2dbd
00000020: 86ad 71bc b7ff 89be c120 83be 3905 40be
00000030: 4097 4ebd 05d4 b5bc 20d4 143e 37b9 2c3c
00000040: 1753 9fbe c09c ca3c b0d7 c13c ed0c dcbd
00000050: 2c25 95be 8a36 283d 0959 233d 6902 92bd
00000060: 0915 1dbc b782 c8bc 1898 36be 8708 233e
00000070: da4c 8e3c 82d1 0d3d c657 233e 9d4e 14be
00000080: c399 9cbd 4ce8 3e3e 14d3 3539 fe3d 24be
00000090: d663 6c3b bbfd 1e3f c56a 00be dce7 e1bc
000000a0: 36c6 383e e4ec 103e 5b86 4b3e 64c9 863e
000000b0: e6d2 2abe 6d60 36bd 2a1f 193e d4ee 80bd
000000c0: 33b2 ec3d 89f8 66be 72f2 b43d 72b8 be3d
000000d0: a74e 3a3e 47f0 08be 7f7e fe3c fc54 1a3c
000000e0: afbc 203c 9d4a ecbc e097 26bd dfb0 3bbe
000000f0: fb7c b93e 7248 113e efb1 823b e75e 213e
00000100: 783f 61bd 21ab 303e 01c4 4cbe cd92 213e
00000110: 3b8d 12be 70d7 ad3d 79e0 dabd 519e 96bd
00000120: 4472 13be 1866 cb3d 2587 a0bd caaf 6bbd
00000130: 053e 933d d907 e43d 46a0 bdbd 7a82 e43c
00000140: 4fba 2dbe 0c8b 54bd 7777 463d eaa5 1b3e
00000150: 1ecc 9f3d 2e5e 8a3e 816d 1a3c e5d0 03bf
00000160: fef0 f3bc 4d5d 9b3e 75d7 9e3d 7a80 00be
00000170: 18ac 023e d5dd 05bc 0c67 9d3e c259 7c3d
00000180: 91fa 3ebe a62d d03d c364 d5bd aae3 c2bd
00000190: 0aad f5bc 13b0 2a3e b7e7 54bf 7ea5 8abd
000001a0: 0e75 213e 74b4 963e 874a c1bc 562d 32bd
000001b0: 1732 13be 7441 a1bd 3007 5e3d a522 9c3c
000001c0: f95d 823d 6c6a c8bd 48db 193e b932 8dbd
000001d0: 49e1 b6bd 7ce2 2ebd 9a00 d93e d84d 5e3d
000001e0: 36d6 9bbd 3a32 a7bb 1789 f0be 057d 233d
000001f0: 56a6 ad3d 34e3 0bbe ee7a 50be f6ab 1bbe
00000200: bf9b acbe 1d0a 6c3c 490f 08be f267 883c
00000210: 6762 983c 9895 9f3d bf10 8a3b 03f3 91bd
00000220: 1c51 1b3e 64e5 febc 8b58 8bbd a29c bcbd
00000230: 32ac 4dbd b076 70be 701f 04be 3f43 ad3d
00000240: d2f3 48be 837c bcbd 8555 0dbd 9bee 86be
00000250: cd05 6ebd cbf7 e23d 3050 f13d acca 683e
00000260: 9dbf 06be d117 be3d e44e 3fbd 8795 8a3b
00000270: 5a09 b33b 83fe 883d b339 a6bc b243 27bd
00000280: b234 11be 512b babd ab95 063d 8535 083c
00000290: 0282 0b3c 9da8 a53e 0982 91bd 086c 993d
000002a0: 347e f03d 244e d4bd a130 043d cdb1 60be
000002b0: 57fe 2e3b df4f 0abe 2529 503c d47f 2ebe
000002c0: f0c0 bd39 57f6 f93c afe2 f13d 2f38 8f3d
000002d0: 41f5 063d 2809 653d ef98 723c 3217 25be
000002e0: b7e1 61bc 65d5 983d 8128 5b3d f0f7 573d
000002f0: 8fb3 67bd 89b2 d8bd 919d a93d 8b37 6b3e
00000300: a8aa d53d 4b01 8cbd 996a c1bc 20bf 7d3c
00000310: 3204 e33d d1b9 d33d bfcf 9b3d 82d1 19bd
00000320: ce17 673d 6699 20be cc68 dbbd 0a39 c3bd
00000330: 25ae d73d c2cd 553c 273b a1bb 6143 923d
00000340: 331d 793d 4e2b b83d 6d2d 223d 1289 423e
00000350: b471 073d 9207 0fbd 5976 a1bc c701 a0be
00000360: 1d99 f33c 90d9 623e 38c9 d13c dc16 bebd
00000370: 73df b9ba e351 edbd b35b 1cbe e779 e7bd
00000380: 6055 adbc 1f58 91bd 08f5 023e 6762 d2bc
00000390: b9e3 35be 4254 8a3e 03bc 69be 64d8 3fbd
000003a0: 0df1 8dbd 0306 19bc 7772 29bd d538 43bc
000003b0: 8544 9ebe 5d6a 08bb 5424 95bd be18 76bd
000003c0: 00a4 ef3d e169 d73d 713d 893e b9c0 b53d
000003d0: db0a 003e 9f0a 833d af9d 8e3e 03ee 7eba
000003e0: 73e8 98bd ac51 9abc baaf b0bc 4abd 0d3e
000003f0: 3626 c23d 759a 983c 3058 dfbd 6fda 9c3d
-0.5685008 -0.15142061 -0.065044515 0.03321371 0.006758809 0.016629374 0.20285179 -0.042343605
-0.014750844 -0.26952907 -0.25610927 -0.18751992 -0.050437212 -0.022195825 0.14534044 0.010542206
-0.3111808 0.024732947 0.023662418 -0.10744653 -0.29129922 0.041067638 0.039879832 -0.07129366
-0.009587535 -0.024476392 -0.17831457 0.15921222 0.01737063 0.03462363 0.15951452 -0.14483114
-0.07646515 0.18643302 0.00017340138 -0.16039273 0.003607025 0.6210591 -0.1254073 -0.02757638
0.18044361 0.14152867 0.19875471 0.26325524 -0.16682014 -0.044525553 0.14953294 -0.06295553
0.11557426 -0.22555746 0.08835305 0.09312524 0.18194066 -0.13372909 0.031066177 0.009419676
0.009810611 -0.028844172 -0.040672183 -0.1832919 0.36228165 0.14187792 0.0039884965 0.15758859
-0.05499217 0.1725278 -0.19996645 0.15778656 -0.14311688 0.08488357 -0.10687346 -0.07354415
-0.14399058 0.09931582 -0.07838277 -0.057540692 0.07189564 0.11134309 -0.09259085 0.027894247
-0.16965602 -0.051890418 0.048453774 0.1520001 0.07802604 0.27024978 0.009425522 -0.5149062
-0.029778 0.3034462 0.07755939 -0.1254901 0.12760961 -0.008170565 0.3074268 0.061609037
-0.18650271 0.10164957 -0.104196094 -0.0951608 -0.029989738 0.1666873 -0.8316607 -0.067698464
0.15767309 0.2943455 -0.023595108 -0.043500267 -0.14374577 -0.07873812 0.054206073 0.019059489
0.0636558 -0.09785923 0.15025055 -0.0689444 -0.089296885 -0.04269646 0.4238327 0.054273456
-0.07609217 -0.005102423 -0.4697959 0.03991415 0.08478992 -0.1366089 -0.20359394 -0.15202317
-0.33712575 0.014406708 -0.13287081 0.016651127 0.01860161 0.077922046 0.004213422 -0.07126429
0.1516766 -0.031115241 -0.068039976 -0.09209563 -0.050213046 -0.23482776 -0.12902617 0.08460092
-0.1962426 -0.09203436 -0.034505386 -0.26353917 -0.058111 0.11082419 0.11782873 0.22733563
-0.13159032 0.09281886 -0.046706095 0.004229251 0.0054637613 0.06689169 -0.020291185 -0.040836044
-0.14180258 -0.09090293 0.03285758 0.008313541 0.008514883 0.32355204 -0.0710488 0.074913085
0.11742821 -0.10366467 0.03227294 -0.21942826 0.0026701891 -0.13507031 0.012705122 -0.1704095
0.0003619264 0.030512972 0.118108146 0.06993138 0.032948736 0.055916935 0.01480697 -0.1612213
-0.013786725 0.07462577 0.053505424 0.052726686 -0.056567725 -0.10580928 0.082820065 0.22970407
0.10432941 -0.06836184 -0.0236104 0.015487462 0.110847846 0.10338176 0.07607984 -0.037553318
0.056419186 -0.15683517 -0.10713348 -0.09532364 0.10531262 0.013049545 -0.0049203816 0.07141758
0.060818862 0.08992635 0.039594103 0.189976 0.03306742 -0.03491933 -0.019709753 -0.31251356
0.029736096 0.22153306 0.025608644 -0.09281704 -0.0014180973 -0.11587884 -0.15269355 -0.11302548
-0.021158874 -0.07096886 0.12788785 -0.025681688 -0.1776265 0.2701741 -0.22825627 -0.046837226
-0.069307424 -0.009339812 -0.041368928 -0.011915405 -0.3091165 -0.002081535 -0.0728232 -0.06008219
0.117012024 0.10518242 0.2680469 0.088746496 0.12504141 0.0639851 0.27854678 -0.00097247976
-0.07466211 -0.018837772 -0.021568168 0.1384174 0.094799444 0.018628338 -0.10905492 0.076588504

bias f4 [128]
00000000: 51f3 4a3c 2c28 01bd b37c c7bb 7ab2 803c
00000010: 7566 c83c e215 babb b636 6fbc 12c5 dfbc
00000020: 3d7d 1d3c e703 df3c 81e8 91bc a54d 2b3c
00000030: 7124 de3c 95d5 12bd dc66 1fbc 7b99 44bc
00000040: 6fcc 863c 2816 89bd d3eb 41bd f1fa 163d
00000050: fc78 33bc b9ea 103d fe4a a23b 38eb 78bb
00000060: 915c 53bb ef1b 4f3d f5f4 aa3c 3ae5 a53c
00000070: 5511 30bd 402e 35bd caa8 0b3d 9d91 81bd
00000080: 01b5 54bd 47f7 9cbd daa0 4ebd 2d3f 3cbc
00000090: 377a c6bc 8612 90bc 5628 7dbc a447 923c
000000a0: fa6a cb3c a3cc 883c ce7d 13bd 4fce 59bd
000000b0: 0b55 d5bc 737a 9e3c e8f9 b23d 4f7e cc3c
000000c0: 577f ff3b 797c 3d3d 6fdc 1abd 8153 0dbc
000000d0: c938 ba3c f727 603c 698e 9bba c0bb 5d3d
000000e0: 4f8d aebd eea1 d83c d6b0 febc 2435 db3c
000000f0: ee6e 52bb 1b4b 3abc d258 09bd 0ae6 f83c
00000100: 2e1f b93b 23ab a0bc 6ff3 4fbd ba98 023d
00000110: c3fe a73c bc47 b5bc e02e 78bb 5a9b f33c
00000120: 0172 1bbd 3e21 103d 1de8 79bc 7f1b 19bc
00000130: b5a6 6bbb 02a6 4ebc b01e ca3c c8a8 633d
00000140: a58e aa3d 987c 90bc d5fa 54bd 581a 1fbc
00000150: d33c 1d3c 16c2 c5bc a025 f23c 1556 80bd
00000160: 17c3 b8bc 1c71 3abc 57cc 013c 1ed1 b5bc
00000170: c652 96bb 7c8f 1f3d bfd6 1c3d 1430 1bbd
00000180: 5f8b 553c c023 bdbc 6ee7 acbd 2869 8e3c
00000190: 8789 ee3c dc54 053d 9232 a7bc 78d7 a8bb
000001a0: 1a12 b1bb 584c a7bd 6a09 ec3c 8e58 afbc
000001b0: e414 1dbd 274f b93d fbd7 b93c af07 5c3d
000001c0: 67d3 82bd 5cb8 853c 4b2e 813c 1706 8dbc
000001d0: 6bc4 ea3c cd41 7dbd c152 ea3c c0c9 bbbc
000001e0: 0f69 263c a202 053d 2e10 a0bc 755e 9cbc
000001f0: b5da ab3c 033e f4bb a9af 593c 8e05 cbbc
0.012387113 -0.03153245 -0.0060878634 0.015710104 0.024462918 -0.005678878 -0.014600446 -0.02731565
0.009612379 0.02722354 -0.017811062 0.010455524 0.027116986 -0.03584822 -0.009729113 -0.011999483
0.016454903 -0.06693679 -0.04734404 0.03686041 -0.010954138 0.0353801 0.0049527874 -0.0037981998
-0.0032251219 0.05056375 0.020868758 0.020250905 -0.04298528 -0.04423356 0.034096517 -0.06326602
-0.05193043 -0.07664352 -0.05044637 -0.011489672 -0.024228198 -0.017586958 -0.015451511 0.017856427
0.024831284 0.01669914 -0.03600865 -0.053175267 -0.026041528 0.019345498 0.08739072 0.024962572
0.0077971625 0.046261285 -0.037807878 -0.008625866 0.022732155 0.013681403 -0.0011868003 0.05413413
-0.08523046 0.026444402 -0.031090181 0.026758738 -0.0032109576 -0.011370446 -0.03353197 0.030383129
0.005649469 -0.019612854 -0.050769266 0.031883933 0.020507222 -0.022128932 -0.0037869737 0.029737163
-0.03795052 0.035187952 -0.015253094 -0.0093449345 -0.003595752 -0.0126128215 0.024672836 0.055580884
0.083279885 -0.017637536 -0.051997025 -0.009710871 0.009597021 -0.024140399 0.029558957 -0.06266419
-0.022553964 -0.011379506 0.007922254 -0.022194441 -0.004587504 0.038955197 0.038290735 -0.037887648
0.013033717 -0.023088336 -0.08442579 0.017384127 0.029118313 0.03255163 -0.020409856 -0.005152639
-0.005403769 -0.08168858 0.028813083 -0.02140453 -0.03835 0.090483 0.022685995 0.053718265
-0.06387978 0.016323261 0.015769145 -0.017214818 0.028658113 -0.06183033 0.028603913 -0.02292335
0.010156884 0.032473214 -0.019538965 -0.01908801 0.020978311 -0.0074536814 0.01328651 -0.024782922

weight f4 [128, 128]
00000000: c106 55be 26a8 4abe e7a7 6d3b da4d 9dbd
00000010: e1ca b9bd af18 7c3e 608f 473e 431c e03c
00000020: 2513 5abe e20c 7c3d 7769 76bc d95a 09bd
00000030: f34b 073e f8c1 023e 1ecd 073e b4ad e03d
00000040: d712 963b 61ba ba3c 7421 4cbb d8d8 0fbc
00000050: dfca 21bd 9b52 8d3c 00ef e2bc 693a 66be
00000060: 5ca5 133c b6ee 83be b546 b7bd f66c 8fbd
00000070: 82e9 a5bd 091c c63c 9ca7 013d dd17 2abc
00000080: 28e1 583c 9800 b33d 2eac 063e 73a2 803d
00000090: 7870 373e fb7b 0bbc 59dd eebd 2ef3 d73d
000000a0: f47c 3f3d 23e0 5e3d 8821 203e b63e 07bd
000000b0: 66e3 7c3e 1650 123e 9cb2 6e3e 658c 2abe
000000c0: d807 11bd ddcb d93d 69b3 ac3d bff7 143c
000000d0: 3af5 44be e22c a53d 338a ee3d 7cbb 883d
000000e0: 731a 0fbd ce29 dd3d 45ef 56bd 76b2 8e3d
000000f0: a7ca 273d 7ae0 483e 5ac3 f73d de43 213e
00000100: c9b7 093e 661c be3d e2bf 81bd cc99 42bd
00000110: e82f 2abe 0b56 eebc db5f 713d 9a27 8cbe
00000120: d28b 12bd 50af 823c e8ff e6bc c862 8bbc
00000130: 613f 2d3d bed7 2d3e e5eb 813e b19a b6bd
00000140: 7e67 1dbd 9771 7c3c 3160 913d c12a f7bd
00000150: a28a 92bd c0c1 12be 6be9 c93d c07a 6cbc
00000160: 05bc bb3e 8590 123e d76a 76bd fbfc 983d
00000170: de4d c83d 8802 94bd 4a38 c73c 1923 1e3e
00000180: 2ac2 3dbe d447 5cbd 6197 093e 5e6c 383d
00000190: 2c4d 523d 9fe5 673d 6cd7 003d ecd2 743d
000001a0: 2fb4 99bd 2f24 163d 4a56 e03d e9a6 713e
000001b0: bba6 253e 793c a4bd 03e2 e03c 04c6 6c3d
000001c0: 3c5c ed3d 9e1d 2d3e cd53 f93d 4fe2 4f3e
000001d0: 4a23 643c 741d d83d ab84 1c3e 796c 86be
000001e0: 8f8c 04be a2e8 a53d e7f2 94bd 3139 f73d
000001f0: aea4 293e d239 d9bb f5f8 153d cb96 0c3d
00000200: 1640 2fbe 956c fb3d c222 393e 5354 85be
00000210: 1599 9ebc e90d 3dbf 6737 e2bd 8803 d0bd
00000220: 45bc 02be 314d bd3e af19 4dbe 9e0a 303e
00000230: 9cba 8a3e 52ef ad3d c3f2 fbbe 5d19 3bbe
00000240: 4a5c eb3d 43be 91bb 428a 04be fcc2 dc3d
00000250: 74a7 433e 3f08 e93b d22c c6bd 6c5e 7f3e
00000260: 818b 3a3d d43b e8bd da00 03be 0db5 693d
00000270: 799f 4f3d e2c0 b7bd 3606 de3d 9d12 61bd
00000280: 3f9e d9bd cfff 34bc 57d0 02bf 9185 fdbe
00000290: 4926 1a3e 245a 153e a74f a2bd b115 5f3d
000002a0: eb43 ecbc 59e4 8fbe 158f 0d3e 3240 283c
000002b0: a633 1e3e baac 22bd 9668 2c3e 3494 a23e
000002c0: 642e 023e 9092 ba3e 262b d9be 0aeb 48be
000002d0: d46b f93e abf8 d73d 557f 813b b52b 933c
000002e0: 9cab 123e 8aa8 9fbd b7e3 34bd b81f 113e
000002f0: 009e 9dbc 3ead 91bc 7fed 8c3d 0029 783e
00000300: b050 863e 5207 023e 1f66 0e3e 2ef8 ad3d
00000310: ac28 273e 5d1e 9abd 4ff1 b2bd 404f d2bc
00000320: f80f cbbd aeec 0cbe 0668 c03d 9c0e 8dbe
00000330: 66af bd3d e89b d9be f28d 0b3d 4f6c 8bbe
00000340: f5a3 893e 3765 09bf 6e72 063e 6746 133e
00000350: bde4 d63d e099 1e3d 9d50 363e ebeb 3ebd
00000360: feaf b7bd c08c a1bd 1bc4 603e 6539 1dbe
00000370: 3479 54be 091d 3dbe 92dd e93c 1e24 463e
00000380: c947 42ba bcea d5bc 5ca5 fcbd 4562 383e
00000390: 9963 523c 645c 253c 6abb 40bd 19c3 e2bd
000003a0: 57ef 51bd 9d86 c2be 6bb1 83bd bc84 17bd
000003b0: b80b 04be 1079 033f 315f 31bd 649f 213c
000003c0: 14dc dabe 0d74 d9bd aa22 b9bc e528 02be
000003d0: ff63 ed3c 61fd 18be f549 ab3d 78f8 183e
000003e0: 61da 5ebe 7764 eebd d0d0 ea3d 5d61 edbd
000003f0: 8532 eb3d 6286 a3bc 984d 1abd efb5 343e
-0.20803358 -0.19790706 0.0036263408 -0.07680865 -0.09071899 0.24618791 0.19488287 0.027357226
-0.21296366 0.061535724 -0.015039793 -0.033533905 0.13212566 0.12769306 0.1326184 0.10970631
0.0045798826 0.02279395 -0.003114787 -0.008779727 -0.039500114 0.017251303 -0.027701855 -0.22483219
0.009011593 -0.2576806 -0.08949033 -0.070032045 -0.08101179 0.02418329 0.031653985 -0.010381666
0.013237275 0.087403476 0.13151619 0.06280985 0.17913997 -0.008513446 -0.116633125 0.1054443
0.046750024 0.054412972 0.15637791 -0.03301879 0.2469612 0.14288363 0.23310322 -0.16655119
-0.03540787 0.10634587 0.08432657 0.00909227 -0.19234172 0.08065201 0.11647453 0.06676385
-0.034937333 0.10798989 -0.05247428 0.069676325 0.04096475 0.19616881 0.12097807 0.15748546
0.13449015 0.0928276 -0.06335427 -0.047509953 -0.16619837 -0.029093763 0.058929306 -0.27373964
-0.035777874 0.015952736 -0.028198197 -0.017014876 0.04229677 0.1697683 0.25375286 -0.08916224
-0.038428776 0.015407941 0.07098425 -0.120687015 -0.07155348 -0.14331722 0.09858974 -0.014433563
0.36666885 0.14312942 -0.060160484 0.07470127 0.09780477 -0.07227045 0.024318833 0.15443076
-0.18531099 -0.05377944 0.13436653 0.045025222 0.051343128 0.056615468 0.031455442 0.059771463
-0.075050704 0.0366556 0.10953958 0.23598827 0.16176884 -0.08019347 0.02745152 0.05780603
0.11589858 0.1690583 0.12174187 0.20301174 0.013924429 0.10552493 0.15284984 -0.26254633
-0.12944244 0.08101012 -0.072728924 0.12071455 0.16566727 -0.006629207 0.036614377 0.034323495
-0.1711429 0.1227657 0.18079665 -0.26040897 -0.019360105 -0.7384935 -0.110457234 -0.101569235
-0.12767132 0.36972955 -0.20029329 0.1719155 0.27095497 0.08492912 -0.4920865 -0.18271394
0.11492212 -0.00444773 -0.12943366 0.10779378 0.19106847 0.0071115787 -0.096765175 0.24938363
0.045543198 -0.11339536 -0.12793294 0.05705743 0.050689194 -0.08972336 0.108410284 -0.05494939
-0.10625886 -0.011047318 -0.5109915 -0.49515966 0.15053667 0.14585167 -0.07925349 0.054464046
-0.02884098 -0.28103903 0.13824113 0.010269212 0.1544939 -0.039715506 0.16836771 0.31753695
0.12713009 0.36439943 -0.42415732 -0.1962091 0.4871508 0.105454765 0.0039519467 0.017965177
0.14323276 -0.07795818 -0.04416248 0.14172256 -0.01924038 -0.017782804 0.06881236 0.2423439
0.26233435 0.12698105 0.13906144 0.08494602 0.16324109 -0.075253226 -0.08737432 -0.025672555
-0.09915155 -0.13762161 0.09394841 -0.2755021 0.0926197 -0.4250176 0.034070916 -0.2723107
0.26882902 -0.53670067 0.13129589 0.14382325 0.10492847 0.038720965 0.17804189 -0.046611708
-0.08969115 -0.07888174 0.21949808 -0.15353926 -0.2074936 -0.18468107 0.028548036 0.19349715
-0.00074112095 -0.026112907 -0.12336227 0.18006237 0.012841129 0.010092828 -0.047053732 -0.11072368
-0.051253643 -0.37993327 -0.06430324 -0.03699182 -0.12895095 0.513566 -0.043303672 0.009864662
-0.4274603 -0.10617838 -0.022599537 -0.12710913 0.028978346 -0.14940406 0.083637156 0.14938533
-0.21762992 -0.11640256 0.11465609 -0.11590836 0.11484245 -0.01996154 -0.037671655 0.17647527

weight f4 [8, 128]
00000000: 222b 8cbd d12e 893d 57b0 87be f7f4 923b
00000010: ddcf 6d3d 0bd6 20be ab3e b23e ddb8 8f3b
00000020: 336c 87bd 822f 603d 55ba b13d 605a c83e
00000030: c9c5 44bf 1b53 343d 63e1 263e 8d86 6ebd
00000040: b263 54bd 3b0f 8fbe b3e4 633f 2ef3 673e
00000050: ee45 3abd d859 ef3d 1411 5ebd a7cd 0c3e
00000060: 8845 0dbd 11a0 003d 44ab 69bd d418 babc
00000070: b69e 373d 7028 983d d5d5 1ebe 5c05 663d
00000080: 3647 213e 0fc5 c1bd 0af7 3b3d 5148 043e
00000090: 28b0 893d 860a 61bd 4bdd 6abe e7bb 43be
000000a0: e7b0 b7bc 6ac3 17bd 558d 87bb 8fd5 533e
000000b0: 81a2 74be cdb2 533e 5013 0fbf 0a37 e93b
000000c0: 46bc ea3d 327a 423d e9ac 433f 854b 8d3e
000000d0: 5660 0f3e 7ed8 34be c192 283f b22f e5bd
000000e0: 844c aa3e d538 41be 12f8 bfbc a037 7a3d
000000f0: d88f 223e 7438 7bbd a276 4b3e eb38 85bd
00000100: 5b16 09be ebee 6fbd 312c d2bc 1097 f13e
00000110: f3cb d53d 8e79 fa3c 819b b93d f745 75bd
00000120: a0b5 aa3b fbe3 72bd 899d dab9 adf0 54be
00000130: eb6f a43e ff54 aabd 89ab 9d3d bbe7 19bc
00000140: 2398 423e 115e 47bd f2d6 d3bc 2d84 513e
00000150: c7d0 5cbd abc1 c3bc fc09 7abe af09 ffbe
00000160: 75a7 8ebb d4cf cb3d 4a78 b3bd dbab 67be
00000170: 3009 80bd 7c7b 9a3d dea7 8abd 4be6 a4bc
00000180: d57f e5bd b590 c33c 6afe 693d bbf6 bf3c
00000190: fc5f 8f3c ce0b 363d 9c9b 1ebd e342 d2bd
000001a0: 9677 8e3d eee6 e9bd d3e7 143d cb87 92bd
000001b0: f030 bcbc 3292 cd3d 8e88 e13e 0889 9c3e
000001c0: 013a 96be d445 d43a 3945 83ba 8e0a 9d3d
000001d0: c516 123d 1bbf 4dbc fa2d 5dbc 9f5c 0bbd
000001e0: 16e6 20bc 7f2c b0bc fd7a 9e3e b1b1 393e
000001f0: 8116 94bd 5965 a2bc defa 0cbd 43ae 823e
00000200: 8643 6abd 6784 9a3e 4dbe 633d 2b53 8ebd
00000210: ed15 033f 7cc2 2fbd 7e60 7dbe 2548 07bd
00000220: a1cf 693e 759f 29be d863 0a3e fb83 21bf
00000230: a8ee c0be bdab 1abd 04bb 32be 54a1 8a3e
00000240: 6782 a73e 5001 a1be 7f09 813e a7d4 c9bd
00000250: 3396 8b3d 7f78 ca3d 3c0e a83d 0474 b93e
00000260: b939 783d 6612 0ebd f4cc babd 1f66 bdbc
00000270: c532 8b3b a75d 30be 3e75 383e db7a e9be
00000280: ac55 85be 9cf4 dbbe b504 86be f0c3 8b3d
00000290: ac21 013d 92bd 703d 5c16 7b3e 2d55 443e
000002a0: cf28 ba39 65b0 06bd 5278 a9bd 3a09 643b
000002b0: 7f5e 03be 9a87 b13e 8077 80be 030b 9f3d
000002c0: afff 1c3e 6c37 ef3d 0292 ebbe 2905 993e
000002d0: 28d2 0abf fab7 03be ba01 59be cb01 683e
000002e0: a9f0 27be 4dc8 89bd a2af f83c b3d9 96bd
000002f0: 5fc6 46bd 1037 53bd 2c9a 17bd 8c3a e0ba
00000300: 5778 323d e586 ad3c 4f38 0e3e 057f 9abe
00000310: 459f 3dbe a53e 22be 2e3a 5e3d 45c0 c83e
00000320: 3c08 0cbd b685 34bd 5825 b93c fb88 fd3d
00000330: 1b6a b1bd b593 e63d 8c8d 82bd 1a11 53bc
00000340: 37ce a6be 6572 123d 8c59 bb3d 727e 28be
00000350: 5b39 6abc 763e 753d cb31 0b3e dfd2 8cbe
00000360: c716 6bbd 404a 023e f671 693d 7600 be3d
00000370: 18de 2e3d e7ad c7bd deab 25bc 8bab 923c
00000380: b42a 933d 6517 4f3c e32b a3be 4d7f de3d
00000390: cd92 373d 88f0 1fbe 7de8 3c3d ec52 80be
000003a0: 5b38 57be 7b8c 4fbe 36d6 ea3c 4231 273b
000003b0: 10fb 963d 0a36 f0bd 2fca 1d3f 1f45 a23e
000003c0: 6e74 623e f17d dbba ad87 dbbd 5a77 d03c
000003d0: 4315 5e3b ab9b 06be 4d47 fbbd b3ab d7bc
000003e0: 3411 1fbd ac70 b1bd b9f5 c73b fecd 3cbe
000003f0: 08a0 e4ba 7377 903d e956 bb3d d1ac 863e
-0.068441644 0.06698383 -0.26501724 0.0044847685 0.058059562 -0.15706651 0.34813437 0.004386051
-0.06612434 0.054732807 0.08678118 0.3913145 -0.76864296 0.044024568 0.16296916 -0.058233786
-0.05185289 -0.27941307 0.8902084 0.2265136 -0.045476846 0.11687058 -0.054215506 0.13750325
-0.03449014 0.03140265 -0.057048097 -0.022716917 0.044829093 0.07429588 -0.15511258 0.056157455
0.15749821 -0.09461414 0.04588989 0.12918212 0.06723052 -0.054941677 -0.22935979 -0.19114648
-0.02242322 -0.037051596 -0.004136721 0.20686935 -0.23890115 0.20673676 -0.55888844 0.007117157
0.114616916 0.047479816 0.76435715 0.2759668 0.14001593 -0.1766071 0.6584893 -0.11190738
0.33261502 -0.18869336 -0.023433719 0.061088204 0.15875185 -0.061333135 0.19869474 -0.06504997
-0.13387434 -0.05857746 -0.025655838 0.47185564 0.10439291 0.03057554 0.09062863 -0.059881177
0.0052096397 -0.05929945 -0.00041697573 -0.20794936 0.32116637 -0.08316993 0.07698733 -0.009393628
0.19003348 -0.048673693 -0.02585933 0.20460577 -0.053910043 -0.023896059 -0.24417871 -0.49812075
-0.0043534585 0.099517494 -0.08763178 -0.22624151 -0.062517524 0.07543084 -0.067702994 -0.020129343
-0.11206023 0.023872713 0.057127394 0.02343308 0.017501824 0.04444485 -0.03872262 -0.10266664
0.06956403 -0.114209995 0.036353897 -0.07154807 -0.022972554 0.1003765 0.44049495 0.30573297
-0.29341128 0.0016195127 -0.0010015137 0.07668029 0.035666246 -0.01255777 -0.013499731 -0.034023877
-0.009820482 -0.021505592 0.30953208 0.1813419 -0.07230855 -0.019823717 -0.034418933 0.25523576
-0.0571933 0.3017914 0.055601407 -0.06949457 0.5120533 -0.042910084 -0.2474384 -0.033027787
0.2283311 -0.16564734 0.1351465 -0.6309201 -0.3768208 -0.03776144 -0.17454153 0.2707621
0.32716677 -0.31446314 0.25202557 -0.09855013 0.068157576 0.09886264 0.0820584 0.36221325
0.060601924 -0.034685515 -0.09121123 -0.023119984 0.0042479956 -0.17223226 0.18013474 -0.45601544
-0.26041925 -0.4296006 -0.26175466 0.068244815 0.031526253 0.05877454 0.24520248 0.19173117
0.0003550709 -0.032883067 -0.082749024 0.0034795539 -0.12829016 0.34673768 -0.2509117 0.07765772
0.1533191 0.11680493 -0.46009833 0.2988675 -0.54226923 -0.1286315 -0.21192065 0.22656934
-0.16400398 -0.067276575 0.030357186 -0.073657416 -0.048529025 -0.051566184 -0.037012264 -0.0017107292
0.043571796 0.021182487 0.13888668 -0.30175033 -0.18517788 -0.1584421 0.054254703 0.3920919
-0.03418754 -0.04407283 0.022600815 0.123796426 -0.08662816 0.11258642 -0.06374654 -0.012882495
-0.32579204 0.035753626 0.09147939 -0.16454485 -0.014295901 0.05987402 0.13593213 -0.27504632
-0.05739477 0.12723637 0.056993447 0.09277432 0.042692274 -0.09749966 -0.010111777 0.017904064
0.07185879 0.012639855 -0.3186942 0.108641244 0.044817735 -0.15619099 0.046120156 -0.25063264
-0.21017592 -0.20268433 0.028666597 0.0025511538 0.07372105 -0.11729057 0.6163663 0.3169336
0.22114727 -0.0016745907 -0.107192375 0.025447536 0.0033887185 -0.1314532 -0.12269459 -0.02632699
-0.038834766 -0.086640686 0.0061022905 -0.18437955 -0.0017442713 0.07054033 0.09147436 0.26303723

bias f4 [8]
00000000: d997 45bd db2d 0c3d cd4f 513d b4f6 65bd
00000010: b9bb 76bc 66fc ae39 9562 b73d f866 713d
-0.048240516 0.03422342 0.051101495 -0.056143478 -0.015059405 0.00033375918 0.0895435 0.05893609
