imitation_learning/logs/run_20240527210108/checkpoints/ckpt_10000.pt (torch, 15656 bytes, 4 tensors)

bias f4 [32]
00000000: 9bca 23bf 49ea 5c3e b5bf 2bbd cca5 69bd
00000010: d172 6e3c b6c1 4c3c 4347 723e f37d 333e
00000020: 4344 6a3c 0751 fa3b 8de2 023b c2f9 693e
00000030: 928d 9fbd a0d7 ef39 20c9 163d 48d5 81bc
00000040: 543b 133e 6f0b 5dbc 040e 87bd 2919 023e
00000050: ae3a 863e 5e3d 5fbd 9bc5 6c3d e863 83bc
00000060: b4ac 743e bff5 19bd c26b b43d fefb 233e
00000070: 78ff cf3d 38be 0dbd 0509 bdbd dc0b 723b
-0.63981026 0.21573748 -0.041930873 -0.05704288 0.014553742 0.012497356 0.23659997 0.17528515
0.014298501 0.0076390537 0.001997146 0.22849181 -0.07790674 0.00045746285 0.0368129 -0.01584877
0.143781 -0.0134914955 -0.0659447 0.1270491 0.26216644 -0.054501884 0.05780564 -0.01603885
0.23894006 -0.037587877 0.08809616 0.16014096 0.10156149 -0.034605235 -0.09230236 0.0036933338

weight f4 [32, 10]
00000000: 1562 47bf 5358 0040 8acf e63e 2453 bcbe
00000010: 98db b93e 921a 3e3e 2e7e ef3d c0ad 823e
00000020: 5080 efbf 53c8 37bf 30a4 61bf 36aa 4f3f
00000030: dc1a 923d db55 6ebf 3419 dc3d 40b9 bf3e
00000040: 2040 bc3d c7e0 52be dda7 c9bf 5308 813e
00000050: 2a90 d1be c6d9 683e 7d2b 71be 6168 73bf
00000060: cce0 8a3e d65c 0fbe 6243 553e cbdc 093f
00000070: 3809 1cbd b41f 02be 991d 5dbe 3ec1 c4bc
00000080: 0acb 133c 4f27 883e 6a61 d7be dfb3 3dbd
00000090: 8c26 d0bd 8ccf 11bc 56f4 9cb9 71f5 78be
000000a0: 38b1 abbf af17 a83f ccfa 063f cfcd 1540
000000b0: e4f5 39c0 0c9b 73c0 bfe5 023e 6fb6 6a40
000000c0: b4d6 7840 68e9 5a3f 257c 873e f665 c93f
000000d0: bf2d b0be 4c0a 80be 3f30 cebe 4e84 8ebe
000000e0: 39e8 2c3f 3964 1abf ac96 9d3e 2b21 2a3e
000000f0: 68a7 4c3d ab54 debf 05ce 10be 34d4 d83f
00000100: a685 223f 1138 9dbe b61b f6be ee61 433e
00000110: 2143 cc3f 4857 85be 645e 5d3f fe85 f6bf
00000120: 1f31 c4bd 10a4 a73e 8c77 5bbf 622e 2e3e
00000130: 1cc5 0a3f e291 81bf a3d8 b23f 6ce4 0bbf
00000140: 4dbb 8abe 69b6 c43f f757 f93e 677d 9bbf
00000150: dcb2 e1be fd4e 983e 1841 6c3f 1435 f13e
00000160: 8752 d13e 87a4 143f a745 31be 201a 5bbf
00000170: cb4d 4ebe eb0b 1440 8fd1 973e a455 42bf
00000180: be0a 69be b37b 99be b4f8 a13f 5236 91be
00000190: 3b85 cbbd d2a7 0cbf e027 3fbe 0cd3 b83e
000001a0: 1156 41be 2c6f 593f df45 2b3f 169f 5fbe
000001b0: 4de9 85bf 3481 833f 3693 1b3f eb52 9abd
000001c0: f66d 14bf 15a9 b03e 7060 abbd 9a90 40be
000001d0: 0056 d5be 410e b13f 3b38 bbbf af53 41bd
000001e0: 3fc5 5ebd 34d4 cd3e d170 3fbc 51d0 7d3e
000001f0: 142f 6b3d f479 d6be a0c0 e73d 9e40 a03e
00000200: cd54 8bbf 8753 5fbf 0181 78bf eadb 113f
00000210: dcb4 6b3f bc29 4dbf eaae 9bbe e8a4 3abf
00000220: 03b2 1cbe d402 1440 41a8 7a3d 86ad 6f3f
00000230: 3e55 b0be 7418 f7be cfc7 c1bc e434 1740
00000240: 339d 163e b9c4 233f 3fab f9be 3f40 0ec0
00000250: ede7 cd3f c9a3 293f b1ff 7dbe 6aac 273f
00000260: a119 3e3f 0562 a5bf 9cf9 86bd 0fdf f4be
00000270: b3db 0fbf 773e 903e 6a77 99be b6fb a9bf
00000280: 4675 143e 15da 1d3e 4384 833e 810b 07bf
00000290: 328b 613e a2ab cfbd c123 d73e 5ddd 053f
000002a0: 3b26 913e 0fa7 78be 97fb 6dbf eb17 abbe
000002b0: c4e4 e23e 0ba1 a4bf 1be2 e63d c387 723e
000002c0: 5441 8bbe 1055 153e 2e04 edbe a971 40bf
000002d0: 9184 8abd 4d2d 933e 2b0e c0ba 8536 3dbf
000002e0: 2bc5 16be 9add 02c0 8eb6 e63e a533 88bf
000002f0: ce1e 0b3b 9de0 af3f 23de fdbe 652f 55bf
00000300: 6de6 72bd f150 b93f a414 093e 1c19 cdbd
00000310: 318c 663e e0e7 533f dc95 653f f4f7 f73d
00000320: 8178 c33d 722f d7bd f240 79be 383e 213f
00000330: 6148 cabd dbce eb3e 3822 8a3d 69bf 11bf
00000340: 7d98 9f3f 0eff 0140 8307 073f f0b0 8dbf
00000350: 1d7c 253e fea8 ee3e 2435 ecbe e9fe 4fc0
00000360: ec68 4abf 8c68 a73c 25af 37bf c2c8 b73f
00000370: dadb d2be fb9b f4bf 011a f6bc 25d8 5640
00000380: 88a6 de3e 915a 0ebf 30d2 62bf fca4 853f
00000390: 3bd1 423e 6b28 50be ee03 893e ecc6 e6be
000003a0: 891b e03c da8f 653f 1145 a2be ecaf cdbe
000003b0: a409 2e3f fb2f 793f e234 9cbf 25b9 81be
000003c0: 6ee2 5c3f f64d 06bf 9a50 27bf 1ef7 043f
000003d0: 7e67 99be 7faa 0440 21b9 92bf 6de5 95bf
000003e0: 383a 823f 7a77 2640 8734 df3b 2575 793d
000003f0: ef4d 983e fc03 a8be ca63 573e ef2e 86bf
-0.77884036 2.005391 0.45080215 -0.3678218 0.3630035 0.18564823 0.11693989 0.25523186
-1.8711033 -0.71790045 -0.88141155 0.81119096 0.07134029 -0.93099755 0.107469946 0.37446022
0.091919184 -0.20593558 -1.5754353 0.25201663 -0.409303 0.22739324 -0.23551746 -0.95081145
0.2712463 -0.14000258 0.20826486 0.5385253 -0.03809473 -0.12707406 -0.21593322 -0.024017926
0.009020576 0.2659249 -0.4206651 -0.046314117 -0.10163602 -0.008899581 -0.00029936683 -0.24312378
-1.3413458 1.3132228 0.52726436 2.3406866 -2.905633 -3.8063383 0.12782954 3.6673849
3.8881044 0.855124 0.26461902 1.5734241 -0.34409901 -0.25007856 -0.40271184 -0.27835315
0.67541844 -0.6030918 0.30779016 0.16614215 0.04996434 -1.7369589 -0.1414109 1.6939759
0.6348518 -0.30706838 -0.48068017 0.19080326 1.5957986 -0.26043153 0.86472154 -1.9259641
-0.095796816 0.32742357 -0.8572929 0.17009881 0.54207015 -1.0122645 1.3972362 -0.5464542
-0.27096024 1.5368167 0.48699924 -1.2147645 -0.4408177 0.29747763 0.92286825 0.47110808
0.40883276 0.5806355 -0.17311727 -0.8558674 -0.20146863 2.3132274 0.29652068 -0.7591193
-0.22758004 -0.29977188 1.2654023 -0.28361756 -0.09937521 -0.54943573 -0.18667555 0.36098516
-0.18880488 0.8493526 0.6690349 -0.2183803 -1.0461823 1.0273805 0.607715 -0.075353466
-0.5798029 0.34504 -0.08368003 -0.18805161 -0.41667175 1.3832475 -1.4626535 -0.047198948
-0.054387327 0.4020096 -0.011684612 0.24786498 0.057417944 -0.41889918 0.11316037 0.312993
-1.0885254 -0.8723683 -0.97071844 0.5697619 0.92072845 -0.80141807 -0.30406886 -0.72907877
-0.15302281 2.3126726 0.061195616 0.9362415 -0.34440035 -0.48260844 -0.023654846 2.3626032
0.14708404 0.6397205 -0.48763463 -2.2226713 1.6086403 0.6626554 -0.2480457 0.6549746
0.74257857 -1.2920538 -0.06590578 -0.4782643 -0.5619461 0.28172657 -0.29973918 -1.3279941
0.14497861 0.15415223 0.25686845 -0.5275193 0.22025755 -0.10140158 0.42019466 0.522909
0.2834948 -0.24282478 -0.9296202 -0.33416685 0.4431516 -1.2861646 0.11273595 0.23684601
-0.2719828 0.1458323 -0.4629225 -0.7517343 -0.06763566 0.287455 -0.001465266 -0.73911315
-0.14723651 -2.0447755 0.45061153 -1.0640761 0.0021228078 1.3740422 -0.4958354 -0.83275443
-0.059301782 1.4477826 0.1338678 -0.10014555 0.22514416 0.8277569 0.8968179 0.1210784
0.09544469 -0.10507096 -0.24341181 0.62985563 -0.098770864 0.46056256 0.06744808 -0.56932694
1.2468411 2.0311923 0.52745837 -1.1069622 0.16160627 0.46613306 -0.46134293 -3.2499335
-0.7906635 0.020435594 -0.71751624 1.4358141 -0.41183358 -1.9110101 -0.030041697 3.3569424
0.43486428 -0.55606943 -0.8860197 1.0440974 0.19025128 -0.20327918 0.2676081 -0.4507364
0.02735688 0.89672625 -0.31693318 -0.4017328 0.6798346 0.9733884 -1.2203639 -0.25336567
0.86283004 -0.5246271 -0.65357363 0.5193957 -0.2996177 2.0729063 -1.1462747 -1.171064
1.0174017 2.6010423 0.0068116817 0.060902733 0.2974696 -0.3281554 0.2103416 -1.0483073

bias f4 [8]
00000000: f1b2 a5bd 86f7 4f3c d8e8 3fbd 85c0 c7bd
00000010: 1dd7 bebd bcc6 9c3d f983 ccbc 5255 603d
-0.08090771 0.0126932915 -0.046852916 -0.09753517 -0.09318373 0.07655093 -0.024965273 0.054768868

weight f4 [8, 32]
00000000: c26f 013c acd1 c9bd 37a5 f73d 8462 e73d
00000010: 0f3a 753f cac4 0d3f 1210 893e 3553 27bf
00000020: 9170 d73d f0a5 213e 8d00 63be 3419 74bd
00000030: 3a96 c3be 00d0 333e 2990 ac3d 49f3 bb3d
00000040: c0b9 45be d5fb 71be 0532 853d 5734 e6be
00000050: 110e f33e 835f f8be eac4 ef3e 85a7 c0bb
00000060: 36a4 663c 5425 06be d085 54bf 5730 893e
00000070: f438 653d df91 8fbd e78f 82be f0b0 5abc
00000080: 1f26 d23f c30c 60be 32bf 89be a717 833c
00000090: cad5 003f 5db5 eb3e 444b c0be 3949 cd3f
000000a0: fd2b 593f 77e5 27bf 5c12 43bf 6ee9 af3f
000000b0: 5828 283e 845b 8c3f 5ad0 8abf b4bd b0be
000000c0: da1b 85be 799a 293e 0750 eabe 3157 213e
000000d0: 2ca3 a8bf 2fd2 2b3f 1be4 653d aebc a1bf
000000e0: d469 0bc0 41f9 45be f0c9 703f cd8f 273e
000000f0: 05c5 b03c 0897 313f 17f8 d13f a54f 433f
00000100: e5ef 1a3d d5f0 96be a0a3 103e e27c 9e3d
00000110: aa97 22c0 3e93 f93c 41ae 11bf c478 0f3e
00000120: 4737 3e3f 3c05 b7bc 3b0d 08be 1b00 4fbe
00000130: 9192 383f 34c5 213e dbac aa3e f735 dd3e
00000140: d27b 4fbe 8bcd 943b a43e 233f c2a9 733e
00000150: fbf0 37be 39fe 053f f3e0 973e 7aa5 19bd
00000160: b891 a93f e3ae c63e 9210 92be c592 ac3d
00000170: 3584 7abe f4fa d2be 3356 63bf d7d8 eb3e
00000180: be2e 1e40 d61c 413f 1eab 903e ef40 3fbe
00000190: df7d 2940 41ef 98bf e93a 14bf 8da5 1240
000001a0: b8d0 453e de75 3cbf 1ec2 35be b587 733f
000001b0: a6b4 3d3e 1e1e e23f ca00 9abf a04c bd3f
000001c0: faee 5cbe 33b3 3d3f db72 9bbb 2eda 44bf
000001d0: 70c9 c73e a1d2 b4be e3cb 3cbf 9502 8bbe
000001e0: b349 15c0 beec 3b3e aba4 46bf 1644 1fbf
000001f0: 818e 3fbe e068 323f 0d22 0a40 782c 3c3e
00000200: ea57 1f3f ff9e dcbd 447d 953d 0a32 563e
00000210: 9f91 5dc0 ca2f ef3d acdd 47be 39c2 d0be
00000220: 3b00 633f d47f 393f b3dc 9dbd 6265 92be
00000230: de71 e4bd 1e0d 2d3e 1d59 c13e b42b 383f
00000240: cff0 3e3e da5e 1fbf 5121 41bf 68d7 6abe
00000250: efae a53e d599 8dbf b01d 543f 7135 0fbc
00000260: 5f11 9c3f 386e c2be 564d 31bf 6c61 a83c
00000270: 0d05 23bf 9249 78be 4bf0 6bbf e1f5 e33e
00000280: 72f1 b0bf efc5 81bf 720a 9cbd 9b0a c83e
00000290: 5d67 36c0 5e55 0740 3f14 13bf 49d4 f0bf
000002a0: 8752 bf3f e530 da3d 7c7f 2a3f a09d 4f3d
000002b0: a4bf b53e d996 edbf 006b 12bf 8c00 c7bf
000002c0: 5b16 a03e 35dd c9be d8ce 4e3f 28e7 db3e
000002d0: f728 adbf d6cb afbe 7d19 923f 4a1a 34bf
000002e0: 6282 16be 6dc9 07be 5959 fb3f 1fbd 243f
000002f0: ef21 6c3e 6c18 e9bc 1582 c03f 120d 91bc
00000300: 65c0 23bf 5b37 8ebe f0c4 16bc 7f9d 04be
00000310: 8c9b a740 365b 523d 4ba8 5c3c a76a 42be
00000320: 9feb 233f aa8c 89be 64f9 43be 0dd0 a9be
00000330: 88f0 133f 0da6 8a3f a746 8e3e 7030 eabb
00000340: 6e7f 1a3d 019d d33e 3ab6 21be 2b74 c0be
00000350: 670a 9b3e f8ca 2140 70b6 a3be 2ee7 5a3e
00000360: a9f3 11b9 d023 563e 56f6 e6bd 66d3 473c
00000370: 9864 fdbd 14ae 4abf c677 c1be 9ec7 88bd
00000380: 5c41 763b 21f5 15ba 6a2d b73c ee0a 423e
00000390: 953e 413c 7f34 fe3c 6fe0 4fbd 83cf 2ebc
000003a0: a6d7 e1bc d548 143d f730 02bd e8ab dabb
000003b0: 4045 46bc 208a 01bb bc0a af3b c38d b53c
000003c0: a2d8 2d3e aad5 24bc a9d2 e2bb da21 133d
000003d0: 92b3 783c 157a 263e 0194 a0bc 0f9b 67bc
000003e0: de47 21bb 6c37 87bc cd5d 89bb 7ec0 b63c
000003f0: 1448 ecbd cab3 6dbb bb11 033d 290a 74bb
0.00790018 -0.09854445 0.12092059 0.11298087 0.95791715 0.553784 0.26770073 -0.6536134
0.10519517 0.15785956 -0.22168179 -0.059594348 -0.3820055 0.17559814 0.08425934 0.09177262
-0.19309139 -0.23631223 0.06503681 -0.44961807 0.4747167 -0.4851037 0.4682992 -0.005879345
0.014077237 -0.13100177 -0.8301668 0.26794693 0.055962518 -0.070102446 -0.25500414 -0.013347849
1.6417884 -0.21879868 -0.26903683 0.01600249 0.50326216 0.46036807 -0.37557423 1.6037971
0.84832746 -0.6558451 -0.7619989 1.3743112 0.1642164 1.0965428 -1.0844834 -0.34519732
-0.25997812 0.16562833 -0.4576418 0.15755917 -1.3174796 0.6711759 0.05612574 -1.2635705
-2.1783342 -0.19333364 0.9405813 0.1636345 0.021578321 0.6937108 1.6403836 0.762934
0.037826438 -0.29480615 0.14124918 0.07738663 -2.5405068 0.030465718 -0.56906515 0.14010912
0.74303097 -0.022341363 -0.13286297 -0.20214884 0.7209864 0.15797883 0.33335003 0.43205234
-0.20262077 0.004541104 0.63767457 0.23795226 -0.1796302 0.5234104 0.2966381 -0.037511326
1.3247595 0.38805303 -0.28528267 0.084264316 -0.24464495 -0.41207087 -0.88803405 0.46063873
2.471603 0.75434625 0.28255552 -0.18677114 2.6483076 -1.1948014 -0.5790239 2.2913544
0.19317901 -0.7361735 -0.17749831 0.9512895 0.18525943 1.7665441 -1.2031491 1.4789009
-0.21575537 0.7410156 -0.0047439164 -0.76895416 0.39020872 -0.35316947 -0.73748606 -0.27150407
-2.3326232 0.18352029 -0.77595013 -0.62213266 -0.18706705 0.69691277 2.1583283 0.18376338
0.6224352 -0.107725136 0.07299283 0.20917526 -3.462013 0.11679037 -0.19518155 -0.4077318
0.88672227 0.72460675 -0.07708111 -0.28592974 -0.11154531 0.16899535 0.377633 0.71941686
0.18646549 -0.62254107 -0.7544146 -0.22933733 0.32360026 -1.1062571 0.828578 -0.008740769
1.2192801 -0.37974715 -0.6925863 0.020554267 -0.6367958 -0.24246815 -0.9216353 0.44523528
-1.3823683 -1.013853 -0.0761918 0.3907059 -2.8500588 2.1145854 -0.5745277 -1.8814784
1.494706 0.10653857 0.66600776 0.050687432 0.35497773 -1.856166 -0.5719452 -1.5547042
0.31267056 -0.3942658 0.8078437 0.42949796 -1.3528126 -0.34335202 1.1414028 -0.70352614
-0.14698175 -0.13260432 1.9636642 0.64351076 0.2305982 -0.028454028 1.5039698 -0.017706428
-0.63965446 -0.27776608 -0.009202227 -0.12950705 5.2377377 0.051356517 0.013467859 -0.18985997
0.64031404 -0.2686513 -0.19138104 -0.33166543 0.57788897 1.0831925 0.27788278 -0.0071468875
0.037719183 0.41330722 -0.1579217 -0.3758863 0.30281374 2.5280132 -0.31975126 0.2137725
-0.00013919048 0.20912099 -0.112774536 0.012196397 -0.12372702 -0.7917187 -0.37786692 -0.06678699
0.0037575578 -0.0005720426 0.022360522 0.18949482 0.011794706 0.031030891 -0.050751146 -0.010669592
-0.02756865 0.03620227 -0.031784978 -0.006673325 -0.012101471 -0.0019766167 0.005341856 0.022162324
0.1697717 -0.010060707 -0.0069220853 0.035920955 0.015179532 0.16257508 -0.019601824 -0.01413609
-0.0024609487 -0.01650592 -0.00419209 0.022308584 -0.11537185 -0.0036270493 0.03199933 -0.0037237501
