imitation_learning/logs/run_20240527210108/checkpoints/ckpt_8000.pt (torch, 15648 bytes, 4 tensors)

bias f4 [32]
0	0xbf0aca1b	-0.5421464
1	0x3e4879a5	0.19577654
2	0xbd7f0386	-0.06225922
3	0xbd69a5cc	-0.05704288
4	0xbca4a48a	-0.02009799
5	0x3d258474	0.04040952
6	0x3e61dd06	0.2205697
7	0x3e0c99dd	0.13730569
8	0x3ca9f4a0	0.02074653
9	0x3b50d2f3	0.0031864017
10	0xbc617671	-0.013761149
11	0x3e6cf363	0.2313972
12	0xbd8b25e0	-0.067943335
13	0x3be9dee7	0.0071371677
14	0x3d840e3d	0.06448028
15	0xbc84390e	-0.016140487
16	0x3e155b2a	0.14585558
17	0xbcab4b15	-0.020909825
18	0xbd88af2a	-0.06674035
19	0x3e06528e	0.1311743
20	0x3e82041a	0.25393754
21	0xbcf3de84	-0.02976919
22	0x3d7aab99	0.061198805
23	0xbcd9a9b1	-0.026570173
24	0x3e7ee78e	0.24893019
25	0xbd0a3667	-0.03374329
26	0x3daf77f1	0.08567799
27	0x3e2296aa	0.15877786
28	0x3dd52796	0.10407941
29	0xbd0a7c33	-0.03380985
30	0xbdb2cd06	-0.08730511
31	0x3ca1c7e8	0.019748643

weight f4 [32, 10]
0	0xbf49d59a	-0.78841555
1	0x40056aec	2.084651
2	0x3ec3f605	0.38273636
3	0xbdf18332	-0.11792602
4	0x3e92d959	0.28681448
5	0x3eb9aee4	0.36266243
6	0x3d9ebaeb	0.077504955
7	0x3ced5fad	0.028976286
8	0xbfef3731	-1.8688718
9	0xbf25aa6d	-0.64713174
10	0xbf4fd3fa	-0.81182826
11	0x3f3f9759	0.74840313
12	0x3d24db02	0.040247925
13	0xbf7a7059	-0.9782768
14	0x3defb906	0.11705212
15	0x3ec44a7d	0.3833808
16	0x3dbdab40	0.09261179
17	0xbe59cae3	-0.21268801
18	0xbfc7ffb0	-1.5624905
19	0x3eba68f1	0.3640819
20	0xbea52e54	-0.32261908
21	0x3eb45915	0.35224214
22	0xbe655b50	-0.22398114
23	0xbf4f02ab	-0.80863446
24	0x3e8f82eb	0.2802957
25	0xbd844ff9	-0.06460566
26	0x3e3de2cf	0.18543552
27	0x3ee4eb1c	0.44710624
28	0xbd9cfbdc	-0.07665226
29	0xbd16d326	-0.03682246
30	0xbe5d1d99	-0.21593322
31	0xbcc4c13e	-0.024017926
32	0x3c13cb0a	0.009020576
33	0x3e88274f	0.2659249
34	0xbed7616a	-0.4206651
35	0xbd3db3df	-0.046314117
36	0xbdd0268c	-0.10163602
37	0xbc11cf8c	-0.008899581
38	0xb99cf456	-0.00029936683
39	0xbe78f571	-0.24312378
40	0xbfa4a780	-1.2863617
41	0x3fa3ecf7	1.2806691
42	0x3f10a72a	0.5650507
43	0x401466f3	2.3187835
44	0xc03308e3	-2.7974174
45	0xc0500606	-3.2503676
46	0x3e148c86	0.1450673
47	0x405d6e51	3.4598582
48	0x404c1ecc	3.1893797
49	0x3f39e758	0.7261863
50	0x3e75da0e	0.24008963
51	0x3fceac46	1.6146324
52	0xbebc893c	-0.36823452
53	0xbe87519f	-0.2642946
54	0xbeb675e6	-0.35636824
55	0xbe0a9d1c	-0.13536495
56	0x3f13c0bd	0.5771597
57	0xbf219429	-0.631167
58	0x3e3f97f4	0.1871031
59	0x3de57bc1	0.11205245
60	0x3d6299c2	0.055322416
61	0xbfce2593	-1.6105217
62	0xbdcb596b	-0.099291645
63	0x3fcb3802	1.5876467
64	0x3f1c557c	0.6106794
65	0xbe825188	-0.25452828
66	0xbef5a745	-0.4797918
67	0x3d9864d4	0.074411064
68	0x3fb0dbc5	1.3817068
69	0xbe5033ec	-0.20332307
70	0x3f513b7c	0.8173139
71	0xbff69c6d	-1.9266487
72	0xbc67ea26	-0.014154946
73	0x3ee0cc9c	0.43906105
74	0xbf4c1105	-0.7971347
75	0x3e75caf6	0.24003205
76	0x3f03904b	0.5139205
77	0xbf68ea15	-0.9098218
78	0x3fa9ada3	1.3256115
79	0xbef36187	-0.47535345
80	0xbe94cd93	-0.2906309
81	0x3fbf3f15	1.4941126
82	0x3efbe605	0.49198928
83	0xbf8bc25e	-1.0918691
84	0xbed7a1a0	-0.42115498
85	0x3ec4657f	0.38358685
86	0x3f56260c	0.83651805
87	0x3eed3f0b	0.4633716
88	0x3ec949e1	0.39314178
89	0x3eec7160	0.46180248
90	0xbe1289a1	-0.14310314
91	0xbf5c998d	-0.861718
92	0xbe22498e	-0.15848371
93	0x400c0fd2	2.1884656
94	0x3e8ddfad	0.27709714
95	0xbf29e5d4	-0.66366315
96	0xbe4bf959	-0.19919337
97	0xbe953e43	-0.29149064
98	0x3fa73bf6	1.3065174
99	0xbe74f353	-0.23920946
100	0xbd755321	-0.05989373
101	0xbef7b44a	-0.48379737
102	0xbe67c117	-0.22632252
103	0x3e6add42	0.22935966
104	0xbe0d894f	-0.1382191
105	0x3f67b3dd	0.90508825
106	0x3f11bfd3	0.56933326
107	0xbe1990e9	-0.14996685
108	0xbf741ccd	-0.95356447
109	0x3f55004f	0.83203596
110	0x3f1f4769	0.6221834
111	0xbe599c36	-0.21250996
112	0xbf12e4eb	-0.5738055
113	0x3ecb2bfa	0.3968199
114	0xbdb32a8b	-0.08748349
115	0xbebb93e1	-0.3663626
116	0xbed1bb30	-0.40963125
117	0x3fab9265	1.3404051
118	0xbfb70a70	-1.430006
119	0xbd8d8694	-0.06910434
120	0xbd5a9d2a	-0.05337254
121	0x3ebed8f6	0.37274903
122	0xbc866009	-0.016403215
123	0x3e3eda8b	0.18638055
124	0x3d59e03f	0.053192373
125	0xbf13f700	-0.5779877
126	0x3de1ec42	0.11031391
127	0x3ec751c6	0.38929576
128	0xbf7c9cec	-0.98676944
129	0xbf40b901	-0.75282294
130	0xbf84059e	-1.0314214
131	0x3f2b6ae7	0.66959995
132	0x3f61233b	0.8794438
133	0xbf6aadfe	-0.9167174
134	0xbe924ac2	-0.2857266
135	0xbf1bd90e	-0.60878074
136	0xbe4edb58	-0.2020086
137	0x401c44b0	2.4416924
138	0x3cf369fb	0.029713621
139	0x3f6e92bd	0.93192655
140	0xbeb754a9	-0.35806778
141	0xbed3d164	-0.4137069
142	0xbd8f1c1b	-0.069877826
143	0x4010fdfb	2.2655017
144	0x3e177520	0.14790773
145	0x3ed44747	0.4146063
146	0xbef06609	-0.46952847
147	0xc006ae6f	-2.1043966
148	0x3fd09ed5	1.6298472
149	0x3f3e695b	0.7437951
150	0xbea52e63	-0.32261953
151	0x3f038df1	0.5138846
152	0x3f3cf94d	0.738179
153	0xbf9e493b	-1.2366098
154	0xbda5f6bc	-0.081037015
155	0xbe88e2a5	-0.26735416
156	0xbf03b8c8	-0.5145383
157	0x3ea5474e	0.32280964
158	0xbe525c51	-0.20543028
159	0xbfb0d796	-1.3815792
160	0x3e20ed61	0.15715553
161	0x3e1e4367	0.154554
162	0x3e9134b8	0.28360534
163	0xbf004445	-0.5010417
164	0x3e729a47	0.23691665
165	0x3e02ace0	0.12761259
166	0x3ec5771f	0.38567445
167	0x3f1b6e9f	0.6071567
168	0x3e45c8aa	0.19314829
169	0xbe832d22	-0.2562037
170	0xbf5ff88a	-0.87488616
171	0xbebdf393	-0.37099895
172	0x3ecb36b7	0.39690182
173	0xbf882948	-1.0637598
174	0x3de16c89	0.110070296
175	0x3e084001	0.13305666
176	0xbe61d915	-0.22055466
177	0xbd89e1d8	-0.067325294
178	0xbead524c	-0.3385185
179	0xbf35f5a1	-0.71077925
180	0xbd3ec306	-0.046572708
181	0x3e830094	0.2558638
182	0xbcdb84a8	-0.026796654
183	0xbf21bcc7	-0.63178676
184	0xbdeb0bc6	-0.11476855
185	0xbff436df	-1.9079245
186	0x3ecefdf7	0.40428135
187	0xbf85cee4	-1.0453763
188	0xbe9ed9dc	-0.3102559
189	0x3fa3ff1d	1.2812229
190	0xbeff87e4	-0.49908364
191	0xbf3125f9	-0.69198567
192	0xbddc4ba0	-0.10756612
193	0x3faaaee5	1.3334624
194	0x3e1498df	0.1451144
195	0xbd9d9ed9	-0.076963134
196	0x3e62608c	0.22107142
197	0x3f47e147	0.7807812
198	0x3f55b08d	0.8347252
199	0x3e056d92	0.13030079
200	0x3dac7705	0.08421139
201	0xbe263edf	-0.16234921
202	0xbe5caefd	-0.21551128
203	0x3f48db87	0.7845997
204	0xbdc11111	-0.09427083
205	0x3f001157	0.5002646
206	0x3d8f743b	0.07004591
207	0xbf228df6	-0.63497865
208	0x3f9c8344	1.2227559
209	0x3fefe02f	1.874029
210	0x3ef6addf	0.48179528
211	0xbf81cbab	-1.014028
212	0x3e0671dc	0.13129371
213	0x3ef0cddc	0.47032058
214	0xbee45eea	-0.44603664
215	0xc03bd297	-2.9347284
216	0xbf397ac2	-0.7245294
217	0xbd8b1896	-0.06791799
218	0xbf43e412	-0.7651988
219	0x3fb6ac63	1.4271358
220	0xbeb4f70f	-0.3534474
221	0xbfe555e4	-1.7916837
222	0xbdc5a6aa	-0.09650929
223	0x4040fea4	3.015542
224	0x3ede36c3	0.43401155
225	0xbe3bf366	-0.18354568
226	0xbf49f1ed	-0.78884774
227	0x3f5a0583	0.8516466
228	0x3d9e48e2	0.07728745
229	0xbdba3759	-0.09092588
230	0x3e845dc8	0.258528
231	0xbed62725	-0.4182674
232	0x3d00ee00	0.031476974
233	0x3f55cb2a	0.8351313
234	0xbe93492f	-0.28766772
235	0xbea41c7f	-0.3205299
236	0x3f252ead	0.64524347
237	0x3f7ca55d	0.98689824
238	0xbf9e2ce7	-1.2357453
239	0xbe5415f9	-0.20711507
240	0x3f53b9ac	0.8270519
241	0xbf094b01	-0.5363007
242	0xbf232d8b	-0.6374137
243	0x3ef97b7d	0.48727027
244	0xbe9635a6	-0.29337806
245	0x3ff03b44	1.8768086
246	0xbf8b32a6	-1.0874832
247	0xbf872106	-1.0556953
248	0x3f80cca3	1.006245
249	0x40267544	2.6009073
250	0xbc03d02d	-0.008045238
251	0x3dea29a1	0.11433721
252	0x3e7e578f	0.24838088
253	0xbe674c92	-0.22587803
254	0x3e59aaac	0.21256512
255	0xbf838ceb	-1.027738

bias f4 [8]
0	0xbd7d5120	-0.061844945
1	0x3c781eb4	0.015144039
2	0xbd1b1c87	-0.037869003
3	0xbddc7144	-0.10763791
4	0xbdbd7fb9	-0.09252877
5	0x3db940db	0.09045573
6	0xbd061f3f	-0.032744642
7	0x3d6ddfd7	0.0580748

weight f4 [8, 32]
0	0x3c62c3c9	0.013840624
1	0xbde797e5	-0.113082685
2	0x3e127b4f	0.14304851
3	0x3de76284	0.11298087
4	0x3f7f68f2	0.9976951
5	0x3f025d20	0.5092335
6	0x3e6d51d9	0.23175754
7	0xbf27e5e1	-0.6558514
8	0x3dd29e81	0.102841385
9	0x3e212201	0.15735628
10	0xbe7b8c46	-0.24565229
11	0xbd855885	-0.065110244
12	0xbeb7e708	-0.3591845
13	0x3e4ebf20	0.20190096
14	0x3db6053b	0.088877164
15	0x3e0a17a1	0.13485576
16	0xbe2f3c68	-0.17112887
17	0xbe914d24	-0.28379166
18	0x3d242444	0.040073648
19	0xbedac983	-0.42731866
20	0x3eed2320	0.4631586
21	0xbedfed2f	-0.43735644
22	0x3f05a6cd	0.5220764
23	0xbd08c16b	-0.033387583
24	0x3d07ee31	0.03318614
25	0xbd5e37b5	-0.054252345
26	0xbf4cfc05	-0.8007205
27	0x3e7d1875	0.24716361
28	0x3d2f6b71	0.042827073
29	0xbe081cb8	-0.13292205
30	0xbe954b7e	-0.29159158
31	0xbd00b33d	-0.031420935
32	0x3fb1f561	1.3903009
33	0xbe87fad4	-0.26558554
34	0xbe810382	-0.2519799
35	0x3c8317a7	0.01600249
36	0x3ded5846	0.115891024
37	0x3efa5db9	0.4889963
38	0xbea24d7e	-0.31699747
39	0x3fc09e19	1.5048248
40	0x3f58729a	0.8454987
41	0xbf149d57	-0.5805258
42	0xbf25b912	-0.6473552
43	0x3fb133ec	1.384397
44	0x3deb28f6	0.11482422
45	0x3f929edd	1.1454731
46	0xbf872424	-1.0557904
47	0xbee4fc1e	-0.447236
48	0xbe7ac15a	-0.2448782
49	0x3d19abf9	0.03751752
50	0xbef73ad3	-0.48287067
51	0x3e26cd85	0.16289337
52	0xbfa4d7f5	-1.2878405
53	0x3f3c4b95	0.7355283
54	0xbc0e6c2e	-0.008692784
55	0xbf9713b0	-1.1802883
56	0xc0025346	-2.0363326
57	0xbe3d23c9	-0.18470682
58	0x3f1f6405	0.6226199
59	0x3e0ad900	0.13559341
60	0x3cb951fd	0.022622103
61	0x3f203295	0.6257718
62	0x3fc94b9e	1.5726202
63	0x3f3aea5a	0.7301384
64	0x3ddbbed2	0.107297555
65	0xbea57b64	-0.32320702
66	0x3e0421a6	0.12903461
67	0x3d9e7ce2	0.07738663
68	0xc01d766c	-2.460353
69	0x3d82be7e	0.0638399
70	0xbf074a87	-0.52848095
71	0x3d397f81	0.045287613
72	0x3f23a22a	0.6391932
73	0xbc786626	-0.015161073
74	0xbe18660f	-0.14882682
75	0xbe46d017	-0.19415317
76	0x3f20e5d2	0.6285068
77	0x3e049f45	0.12951382
78	0x3e8f3f68	0.27978063
79	0x3ef025e1	0.469039
80	0xbe530e46	-0.20610914
81	0x3cd0d5dd	0.025492603
82	0x3ee9006d	0.45508137
83	0x3e51366b	0.20430915
84	0xbe3f14f0	-0.18660331
85	0x3e95b06e	0.29236168
86	0x3e9359d0	0.2877946
87	0x3bd92c46	0.0066275923
88	0x3f9b384b	1.2126554
89	0x3ec916e4	0.39275277
90	0xbe698be8	-0.22807276
91	0x3de0e120	0.10980439
92	0xbe68044c	-0.22657889
93	0xbe87b88f	-0.26507995
94	0xbf53081c	-0.8243425
95	0x3f02cb70	0.5109167
96	0x401540a2	2.3320699
97	0x3f37c1b0	0.7177992
98	0x3e80a634	0.25126803
99	0xbe3f40ef	-0.18677114
100	0x401b89eb	2.4302928
101	0xbf91893b	-1.1370004
102	0xbf15d437	-0.5852694
103	0x400a3ede	2.160087
104	0x3e5014c7	0.20320426
105	0xbf2fe802	-0.6871339
106	0xbdaedbc7	-0.08538013
107	0x3f70f9c6	0.94131124
108	0x3e675e54	0.22594577
109	0x3ffd1be7	1.977414
110	0xbf9de429	-1.2335254
111	0x3fac76ee	1.3473794
112	0xbe61f3f8	-0.22065723
113	0x3f11e1ec	0.56985354
114	0x3d862888	0.065506995
115	0xbf40ea8e	-0.753579
116	0x3ed9059e	0.42387098
117	0xbefca9cc	-0.49348295
118	0xbf278383	-0.65435046
119	0xbe997221	-0.29969886
120	0xc00d2524	-2.205392
121	0x3e435052	0.19073609
122	0xbf5e0222	-0.86722004
123	0xbf1440e5	-0.5791152
124	0xbe2a12f2	-0.1660879
125	0x3f2f2e9c	0.68430495
126	0x400f7149	2.2412894
127	0x3e4b1e4b	0.19835775
128	0x3f15f18c	0.58571696
129	0xbdb9ceb2	-0.09072627
130	0x3d805c3d	0.06267593
131	0x3e56320a	0.20917526
132	0xc065000a	-3.5781274
133	0x3dcaed51	0.09908546
134	0xbe325ea5	-0.17418917
135	0xbedc55ba	-0.43034154
136	0x3f51a055	0.8188527
137	0x3f310a0b	0.6915595
138	0xbd8b02a3	-0.06787612
139	0xbeaacd0b	-0.3335956
140	0xbd7e4a1e	-0.062082402
141	0x3e3af307	0.1825677
142	0x3ea87c0a	0.32907134
143	0x3f1f309c	0.6218355
144	0x3e4f4928	0.2024275
145	0xbf17e5fc	-0.59335303
146	0xbf2dfc68	-0.67963266
147	0xbe859641	-0.26091197
148	0x3e3e1d13	0.18565778
149	0xbf84bf78	-1.0370932
150	0x3f44951c	0.7679002
151	0x3d35741f	0.044300195
152	0x3f9b8d20	1.2152443
153	0xbeb237e1	-0.34808257
154	0xbf262a83	-0.6490862
155	0x3ce41abd	0.027844781
156	0xbf178e71	-0.59201723
157	0xbe9632af	-0.29335544
158	0xbf5a0fc8	-0.8518033
159	0x3ec84710	0.39116716
160	0xbfa07f1c	-1.2538791
161	0xbf706f2d	-0.9391964
162	0xbce9e514	-0.028551616
163	0x3ec80a9b	0.3907059
164	0xc029d66a	-2.6537118
165	0x3fee9ea3	1.8642162
166	0xbf064259	-0.5244499
167	0xbfdb3ab7	-1.7127293
168	0x3fb0d0d4	1.3813729
169	0x3da98407	0.08277135
170	0x3ef92498	0.4866073
171	0x3dde046f	0.108406894
172	0x3e56e7d5	0.20986874
173	0xbfe6cde5	-1.8031584
174	0xbef4a60f	-0.47782943
175	0xbfd7544c	-1.68226
176	0x3ea3ba3d	0.31978026
177	0xbec3110c	-0.38098943
178	0x3f39f8d2	0.72645295
179	0x3ebca8e9	0.36847618
180	0xbfa321ad	-1.2744652
181	0xbe8a0ef6	-0.2696454
182	0x3f83d78b	1.0300153
183	0xbf22d25a	-0.6360222
184	0xbd8a1e9a	-0.06744118
185	0xbdf5e222	-0.12006022
186	0x3ffa9a3e	1.9578321
187	0x3f213cd4	0.6298344
188	0x3e81fc09	0.253876
189	0xbd24beff	-0.04022121
190	0x3fa7530e	1.3072221
191	0x3c0a8098	0.008453511
192	0xbf0786d6	-0.5294012
193	0xbeb8cdf3	-0.36094627
194	0x3dbd55d6	0.092448875
195	0xbe049d7f	-0.12950705
196	0x408fc8fc	4.493284
197	0x3dec730f	0.11545383
198	0x3cf7945d	0.030222112
199	0xbe8912a5	-0.26772037
200	0x3f17205d	0.5903376
201	0xbe8e3d11	-0.27780965
202	0xbdd7d085	-0.10537819
203	0xbea7eeb3	-0.327993
204	0x3f04248f	0.51618284
205	0x3f839ab0	1.0281582
206	0x3e570448	0.20997727
207	0x3d5306c5	0.051520128
208	0x3ce6f58a	0.028193254
209	0x3ede47fb	0.43414292
210	0xbe2f2944	-0.17105585
211	0xbec6d287	-0.38832495
212	0x3e973b84	0.29537594
213	0x401449e4	2.31701
214	0xbe9abd15	-0.30222383
215	0x3e82b677	0.25529835
216	0x3c8f43ff	0.017488478
217	0x3e2c98c3	0.16855149
218	0xbd60443a	-0.054752566
219	0x3c662a1e	0.014048127
220	0xbe14e67c	-0.14541048
221	0xbf35e9cc	-0.7105987
222	0xbea8b647	-0.32951567
223	0x3c8328a2	0.016010586
224	0xbad09e34	-0.0015916289
225	0x395d0ca2	0.00021080908
226	0x3d1e3d4a	0.03863267
227	0x3e420aee	0.18949482
228	0x3c9cc404	0.019136436
229	0x3cae53b0	0.02128014
230	0xbdb8343d	-0.08994339
231	0xbb80ed23	-0.003934519
232	0xbcf71bcd	-0.030164624
233	0x3d83e47c	0.06440064
234	0xbd474bdc	-0.04865633
235	0xbc3ee17b	-0.011650438
236	0xbc1fb35b	-0.0097473515
237	0xbbf31be9	-0.0074190986
238	0x3c0407d6	0.008058509
239	0x3ce4a2c6	0.027909648
240	0x3e401d1e	0.18761107
241	0xbc1f6783	-0.009729269
242	0xbbcc8367	-0.0062412503
243	0x3d18d954	0.037316635
244	0x3c847b3d	0.016172046
245	0x3e56f5e5	0.20992239
246	0xbb9222e3	-0.004459725
247	0xbc7385ad	-0.014863414
248	0xbba089e9	-0.0048992527
249	0x3bf75dbb	0.0075490153
250	0xb9716862	-0.00023022437
251	0x3caefeae	0.021361675
252	0xbe1d289e	-0.15347525
253	0xbbc9fb60	-0.0061639994
254	0x3d1a0b51	0.03760845
255	0xbbbc9edd	-0.0057562427
