imitation_learning/logs/bc_state/checkpoints/ckpt_54000.pt (torch, 14440 bytes, 4 tensors)

bias f4 [16]
0	0x800088e9	-4.9114e-41
1	0xbe23cfa5	-0.15997179
2	0x3da52bc1	0.08064986
3	0x3dd1d063	0.10244825
4	0x3e11ab23	0.1422544
5	0xbc46ab3e	-0.012125788
6	0x3ce5c680	0.028048754
7	0x3e18331d	0.14863248
8	0x80009f42	-5.7131e-41
9	0x3dde909a	0.10867424
10	0xbbe3c471	-0.006950908
11	0x3c47f5dd	0.0122046145
12	0x3e71fede	0.2363238
13	0x3e188d0d	0.14897557
14	0xbe855c7d	-0.26047125
15	0xbe117186	-0.14203462

weight f4 [16, 10]
0	0x80008d4e	-5.069e-41
1	0x000093e4	5.3053e-41
2	0x00008a4e	4.9614e-41
3	0x8000908b	-5.1852e-41
4	0x80008973	-4.9307e-41
5	0x0000a76f	6.0064e-41
6	0x00008a8c	4.9701e-41
7	0x00009341	5.2825e-41
8	0x00009171	5.2175e-41
9	0x80008c13	-5.0249e-41
10	0x3f650928	0.89467096
11	0xbf54c132	-0.8310729
12	0xbe43e79a	-0.19131318
13	0xbe739b71	-0.23789765
14	0x3e6bfa04	0.23044592
15	0x3c4065d0	0.011743024
16	0xbefc39bb	-0.49262795
17	0x3eea2db1	0.45737985
18	0xbeea1649	-0.45720127
19	0x3e85a0c9	0.26099232
20	0x3d2b2643	0.041784536
21	0xbd898970	-0.06715667
22	0x3cc9bcfc	0.024626248
23	0x3e81a1c0	0.25318718
24	0x3c2b975a	0.010473097
25	0x3eccbb4e	0.39986652
26	0x3cf5cdf1	0.030005427
27	0xbe0855ab	-0.1331393
28	0xbec5e1bf	-0.38648793
29	0x3f393e6b	0.7236087
30	0x3c9a9028	0.018867567
31	0xbecce79e	-0.4002046
32	0xbd9cb237	-0.07651179
33	0x3db0d737	0.08634799
34	0xbcaca234	-0.021073438
35	0x3e5aa8c4	0.21353441
36	0x3e7e03be	0.24806115
37	0xbd9e94d2	-0.07743229
38	0xbe9dbab5	-0.3080651
39	0x3d99d8fd	0.0751209
40	0xbbc27786	-0.0059346585
41	0x3d965c12	0.0734178
42	0x3dd8b3a1	0.105811365
43	0x3e1654a6	0.14680728
44	0xbd31f6a4	-0.043448105
45	0xbf5d2770	-0.863883
46	0xbd6157eb	-0.055015486
47	0x3d31bfc6	0.04339578
48	0x3df3db00	0.11907005
49	0x3f3c965f	0.7366695
50	0x3bbfb0c9	0.005849932
51	0xbd81c5eb	-0.06336578
52	0x3cf19989	0.029492157
53	0xbe0f3cba	-0.13988009
54	0x3dae263b	0.08503386
55	0xbd00bfef	-0.031433042
56	0x3dac0c0a	0.08400734
57	0xbf6ffac8	-0.93742037
58	0xbd336e18	-0.043806165
59	0x3ee5d4bc	0.44888866
60	0x3c0d6bde	0.008631675
61	0xbd95fa3e	-0.073231205
62	0x3ea7536f	0.32680842
63	0x3c2cdc43	0.010550561
64	0xbe880299	-0.26564482
65	0x3eb97213	0.36219844
66	0x3e839f6f	0.25707576
67	0x3f2831fd	0.65701276
68	0x3f055b0a	0.5209204
69	0x3e0d7ca0	0.13817072
70	0xbe5de16a	-0.2166802
71	0x3fac02be	1.3438337
72	0x3d8bbaf2	0.06822766
73	0xbe986940	-0.297678
74	0xbeaad3fa	-0.3336485
75	0x3c8e28e8	0.01735349
76	0x3f109192	0.5647212
77	0xbe0be7f9	-0.1366271
78	0x3dfe459d	0.124156214
79	0x3e138717	0.14407001
80	0x00008e8e	5.1139e-41
81	0x00009e89	5.6872e-41
82	0x8000891f	-4.919e-41
83	0x8000a147	-5.7855e-41
84	0x00008a30	4.9572e-41
85	0x000093ae	5.2977e-41
86	0x80008bbc	-5.0127e-41
87	0x800091e4	-5.2336e-41
88	0x00008d47	5.0681e-41
89	0x0000a065	5.7539e-41
90	0x3e150a18	0.14554632
91	0x3f58efec	0.8474109
92	0xbd707282	-0.058702953
93	0xbe3a1916	-0.18173632
94	0x3d21325a	0.03935466
95	0xbd291b58	-0.041285843
96	0xbe1378d4	-0.14401561
97	0xbe0f73ad	-0.1400897
98	0xbd901629	-0.07035477
99	0xbbba06d7	-0.005677085
100	0x3d6a934b	0.057269376
101	0xbefe5971	-0.49677613
102	0x3bbebcd0	0.005820848
103	0x3f0a5d0c	0.5404823
104	0xbdf6ebc2	-0.12056686
105	0xbe9b8cfa	-0.30380994
106	0x3eb73eb6	0.35790032
107	0xbeae77c2	-0.34075743
108	0x3f3ec911	0.74525553
109	0x3e376486	0.1790944
110	0x3cb4f51e	0.022089537
111	0xbf1a9d24	-0.6039603
112	0x3e27cd54	0.1638692
113	0x3ea69953	0.32538852
114	0x3eb3d560	0.3512373
115	0x3e6348cc	0.22195739
116	0xbe8bde13	-0.27317867
117	0xbe5b6667	-0.21425782
118	0xbdd0d158	-0.10196179
119	0xbe81cd2c	-0.25351846
120	0xbe748ef4	-0.23882657
121	0xbe7edbd5	-0.24888547
122	0xbc0552d1	-0.008137421
123	0xbc3c842a	-0.01150612
124	0x3db9cbf9	0.09072108
125	0xbed22723	-0.41045484
126	0x3e8346fd	0.25640097
127	0x3cd00582	0.025393251
128	0xbded6889	-0.11592204
129	0xbde13a46	-0.10997443
130	0x3d0c30ef	0.034226354
131	0xbdbe8c8d	-0.09304152
132	0xbdd9fe0f	-0.10644161
133	0x3df919ad	0.121631004
134	0x3c27b84a	0.010236809
135	0x3eb3aa63	0.35090932
136	0xbcda838b	-0.026674053
137	0xbe26fc10	-0.16307092
138	0x3f179ab7	0.5922045
139	0x3f849a74	1.0359635
140	0xbe91a64f	-0.28447196
141	0x3f27a048	0.65478945
142	0x3f1fe268	0.62454844
143	0x3df29014	0.11843887
144	0x3e702181	0.2345028
145	0xbd65893d	-0.056039084
146	0xbe6843a0	-0.22682047
147	0xbd9339ff	-0.07188796
148	0xbd8f3fe4	-0.06994608
149	0xbf000b7c	-0.50017524
150	0xbb52cddf	-0.0032166166
151	0x3b5c987a	0.003366022
152	0xba221103	-0.00061823445
153	0x3e5390c4	0.20660692
154	0x3d2182e5	0.03943147
155	0xbd25c675	-0.040472466
156	0x3dced339	0.10098881
157	0x3ea151e6	0.31507796
158	0xbf16e264	-0.58939195
159	0xbece9973	-0.40351447

bias f4 [8]
0	0xbdf9c370	-0.1219548
1	0xbd90980a	-0.07060249
2	0xbca9fee2	-0.02075142
3	0xbe1eca60	-0.15506887
4	0xbc8b0ceb	-0.016973933
5	0x3e919715	0.2843558
6	0x3e675390	0.2259047
7	0x3d9d31c7	0.0767551

weight f4 [8, 16]
0	0x8000a011	-5.7421e-41
1	0x3dd467b0	0.10371339
2	0xbe3d3fd5	-0.18481381
3	0xbebcd57b	-0.36881623
4	0xbd86a04e	-0.065735444
5	0x3e868238	0.26271224
6	0xbec1e146	-0.37867182
7	0x3f57ec28	0.8434472
8	0x00009c95	5.6171e-41
9	0xbc9eb74b	-0.01937451
10	0xbeb8be77	-0.36082813
11	0x3ec5f2ce	0.38661808
12	0xbe75bf7c	-0.23998827
13	0x3e4b56b7	0.19857298
14	0x3e171dc3	0.14757447
15	0x3e86bed1	0.26317456
16	0x80008fdd	-5.1608e-41
17	0x3f999ab8	1.2000341
18	0xbf1bb3a7	-0.60821
19	0xbe4fedd7	-0.20305572
20	0xbe53da1e	-0.20688674
21	0xbf2db37e	-0.6785201
22	0x3ed26ed7	0.4110019
23	0x3f5949ba	0.8487812
24	0x80008aa7	-4.9739e-41
25	0x3dbf84af	0.09351479
26	0x3efd25c6	0.4944288
27	0xbe938344	-0.28811085
28	0xbe6718fb	-0.22568123
29	0xbee26a27	-0.44221613
30	0xbd83e2a9	-0.06439716
31	0xbf21d99d	-0.63222677
32	0x0000acb2	6.1951e-41
33	0x3c43fd96	0.011962315
34	0xbee46cf6	-0.4461438
35	0xbeb26b86	-0.3484766
36	0x3f0418aa	0.51600134
37	0x3e113ba2	0.14182904
38	0xbe9d16d2	-0.30681473
39	0x3ed15eca	0.4089263
40	0x0000939b	5.2951e-41
41	0xbbe4ca79	-0.0069821444
42	0xbd826895	-0.06367604
43	0xbef18408	-0.47171044
44	0x3e8054bb	0.25064644
45	0xbd431e8b	-0.04763655
46	0x3ecd9ff3	0.40161094
47	0x3e9cffbc	0.3066386
48	0x00008d5a	5.0707e-41
49	0x3f591af8	0.84806776
50	0x3eec3181	0.46131518
51	0xbe0a1abb	-0.1348676
52	0x3f224547	0.6338696
53	0xbe0132f9	-0.12617101
54	0x3dcf0b17	0.10109537
55	0x3ec5723c	0.38563716
56	0x0000897e	4.9323e-41
57	0xbefd47d7	-0.49468872
58	0xbe4781dc	-0.19483131
59	0xbf125eef	-0.5717611
60	0xbe94b5ec	-0.29045045
61	0x3ee04615	0.43803468
62	0x3ee9b0cf	0.45642707
63	0xbe33c8af	-0.17557023
64	0x00008f61	5.1435e-41
65	0xbc92f6bf	-0.017939923
66	0xbb6c93b8	-0.003609879
67	0xbd6bf327	-0.057604935
68	0xbf0bfef8	-0.54685926
69	0x3d115127	0.035477784
70	0x3eb9d325	0.36293903
71	0x3f3741ec	0.71584964
72	0x00009589	5.3643e-41
73	0xbe0c0ea6	-0.13677463
74	0xbf3f11a7	-0.7463631
75	0x3e1618db	0.14657919
76	0xbeadf1bd	-0.33973494
77	0x3ecf75d9	0.40519598
78	0x3ee58922	0.44831187
79	0x3e47e5bd	0.19521232
80	0x80009216	-5.2406e-41
81	0x3d7d55b8	0.061849326
82	0xbea25418	-0.31704783
83	0x3e4efc5a	0.20213452
84	0xbedb1b2a	-0.42794162
85	0xbf05933c	-0.52177787
86	0xbedae031	-0.4274917
87	0x3ee23e94	0.44188368
88	0x00009132	5.2086e-41
89	0x3f33b15b	0.701925
90	0xbf1aadcb	-0.6042144
91	0xbe23583b	-0.15951626
92	0x3e8a9a2d	0.27070752
93	0xbf8216d0	-1.0163212
94	0xbf5bb6e8	-0.8582597
95	0xbe544bb5	-0.20732005
96	0x800097b0	-5.4415e-41
97	0xbee2a587	-0.44266912
98	0xbdb13266	-0.08652191
99	0xbe541ec1	-0.20714857
100	0x3ed698c0	0.41913414
101	0xbf073ee6	-0.5283035
102	0x3f1c94bb	0.61164445
103	0xbdf3d63f	-0.119060986
104	0x000098d8	5.483e-41
105	0x3e82266f	0.25419948
106	0xbebc0fa9	-0.36730698
107	0xbe4c354a	-0.19942203
108	0xbc8625c0	-0.016375422
109	0x3c0ef777	0.008725992
110	0xbe12085a	-0.14260998
111	0x3db61c1a	0.08892079
112	0x00014319	1.15906e-40
113	0x3be35938	0.006938126
114	0x3b77706e	0.0037756222
115	0x3bb0ea11	0.0053989966
116	0xb9f87d76	-0.00047395722
117	0xb9c69e22	-0.0003788332
118	0x3bf3ffdc	0.0074462723
119	0x3c1fb33d	0.009747324
120	0x80019cc9	-1.4808e-40
121	0x3ca1d7ce	0.019756224
122	0xb9d85f21	-0.00041269607
123	0x3c35b7d7	0.011091194
124	0x3cb4aa4c	0.02205386
125	0x3b8cb6a0	0.0042942315
126	0x3b982f73	0.0046443283
127	0xbb14016a	-0.002258385
