imitation_learning/logs/bc_state/checkpoints/ckpt_24000.pt (torch, 14440 bytes, 4 tensors)

bias f4 [16]
0	0x800088e9	-4.9114e-41
1	0xbe24db89	-0.16099371
2	0x3db3f1c3	0.08786347
3	0xbc4bb700	-0.012433767
4	0x3e14fc6d	0.14549418
5	0xbc8b15a0	-0.016978085
6	0x3d0ff307	0.03514388
7	0x3df936c1	0.121686466
8	0x80009f42	-5.7131e-41
9	0x3dd05e55	0.101742424
10	0xbc1a9604	-0.009435181
11	0x3d4eca3a	0.050485827
12	0x3e6612bb	0.22468083
13	0x3d9a863b	0.07545134
14	0xbe74fa41	-0.2392359
15	0xbe06b71a	-0.13155785

weight f4 [16, 10]
0	0x80008d4e	-5.069e-41
1	0x000093e4	5.3053e-41
2	0x00008a4e	4.9614e-41
3	0x8000908b	-5.1852e-41
4	0x80008973	-4.9307e-41
5	0x0000a76f	6.0064e-41
6	0x00008a8c	4.9701e-41
7	0x00009341	5.2825e-41
8	0x00009171	5.2175e-41
9	0x80008c13	-5.0249e-41
10	0x3f659c2d	0.8969143
11	0xbf5b16f3	-0.8558189
12	0xbe40dedb	-0.18835013
13	0xbe6cf148	-0.23138916
14	0x3e6b4687	0.22976123
15	0x3ae6a503	0.0017596785
16	0xbef7e89e	-0.4841966
17	0x3ed7402a	0.4204114
18	0xbed0efb1	-0.4080787
19	0x3e932bab	0.28744254
20	0x3d21b214	0.03947647
21	0xbdb90a3d	-0.09035156
22	0xbb057d58	-0.00203689
23	0x3e81b075	0.2532994
24	0x3bfbb99c	0.0076820385
25	0x3de6a116	0.112611935
26	0x3d188119	0.037232492
27	0xbe65aa97	-0.22428356
28	0xbed7b45d	-0.42129794
29	0x3f441df2	0.7660819
30	0x3d33f0a9	0.043930683
31	0xbe5a822f	-0.21338724
32	0x3d0e238b	0.034701865
33	0x3da088f4	0.07838622
34	0x3d622dab	0.055219334
35	0x3edef485	0.4354593
36	0x3dfec5cd	0.12440071
37	0xbe9dfa19	-0.30854872
38	0xbe9ac621	-0.30229285
39	0x3e035706	0.12826166
40	0xbc7a6d4e	-0.015284849
41	0x3df6113c	0.12015006
42	0x3e3ce705	0.18447502
43	0x3ddbb357	0.10727566
44	0xbd86cbea	-0.06581862
45	0xbf59ab4b	-0.85027
46	0xbdb56616	-0.08857362
47	0x3e01d0a3	0.12677245
48	0x3e287bbf	0.16453455
49	0x3f064f31	0.52464586
50	0x3bfde5c1	0.007748336
51	0xbd4059eb	-0.046960752
52	0x3c2bf0d9	0.010494434
53	0xbe511d4b	-0.2042133
54	0x3dc6b2ce	0.09702073
55	0xbd741d3c	-0.059598193
56	0x3dafe2f6	0.08588211
57	0xbf69c7ed	-0.9132069
58	0x3e61fd94	0.22069389
59	0x3ef9061b	0.4863747
60	0x3c1b1d66	0.009467458
61	0xbd78725d	-0.06065594
62	0x3ea4d7d1	0.32195905
63	0xbbb99a63	-0.0056641563
64	0xbe88dda9	-0.26731613
65	0x3ed4e586	0.41581362
66	0x3e870013	0.26367244
67	0x3f2a731a	0.6658188
68	0x3f04d766	0.5189117
69	0x3de3643e	0.11103104
70	0xbe675b21	-0.22593357
71	0x3fad1bf4	1.3524156
72	0x3d1abd0f	0.037777957
73	0xbe8f7163	-0.28016195
74	0xbe9d9999	-0.30781248
75	0x3cf1ebaf	0.029531328
76	0x3f18288c	0.5943687
77	0xbe15fc76	-0.14647087
78	0x3e293cdb	0.16527121
79	0x3e13ff2e	0.14452812
80	0x00008e8e	5.1139e-41
81	0x00009e89	5.6872e-41
82	0x8000891f	-4.919e-41
83	0x8000a147	-5.7855e-41
84	0x00008a30	4.9572e-41
85	0x000093ae	5.2977e-41
86	0x80008bbc	-5.0127e-41
87	0x800091e4	-5.2336e-41
88	0x00008d47	5.0681e-41
89	0x0000a065	5.7539e-41
90	0x3e0cd06c	0.13751382
91	0x3f559a3d	0.83438474
92	0xbd2526b3	-0.04032011
93	0xbe3e5c53	-0.18589906
94	0x3cd16f02	0.025565628
95	0xbd0d18d2	-0.0344475
96	0xbe08b5e0	-0.1335063
97	0xbe0cdc65	-0.13755949
98	0xbd9eb736	-0.077497885
99	0xbd02f1b0	-0.031968772
100	0x3d4f9074	0.05067487
101	0xbefe408b	-0.49658617
102	0xba806dc1	-0.0009798334
103	0x3f0e6c6c	0.5563419
104	0xbdef24fd	-0.11676977
105	0xbe93fb79	-0.28902796
106	0x3ec5822e	0.38575882
107	0xbeb80c0c	-0.3594669
108	0x3f45a903	0.77211016
109	0x3e1a8bfe	0.15092465
110	0x3c87babb	0.016568532
111	0xbf125967	-0.5716767
112	0x3e3f2b0e	0.18668768
113	0x3e94c92d	0.29059735
114	0x3e9ceee9	0.30651024
115	0x3e61ebd2	0.22062615
116	0xbe98a8a5	-0.29816166
117	0xbe231d55	-0.15929158
118	0xbdbe1114	-0.09280601
119	0xbe5e6da3	-0.2172151
120	0xbe7240e3	-0.23657565
121	0xbeae394e	-0.34028095
122	0xbceac13a	-0.02865659
123	0x3cb92d31	0.022604557
124	0x3e01240d	0.12611409
125	0xbeb024e9	-0.3440316
126	0x3ea378fa	0.31928235
127	0x3b5badfc	0.003352045
128	0xbe4c1bd0	-0.19932485
129	0xbdf08fea	-0.117461994
130	0x3cfb01ef	0.03064057
131	0xbdc235f3	-0.09482946
132	0xbe007acb	-0.12546842
133	0x3e65112e	0.22369835
134	0x3dbbada4	0.09163979
135	0x3e99688e	0.2996258
136	0xbc0a4a7e	-0.008440612
137	0xbde1b262	-0.11020352
138	0x3f025260	0.50906944
139	0x3f8dde1e	1.108341
140	0xbe96ccef	-0.29453227
141	0x3f26b66b	0.651221
142	0x3f20048c	0.6250694
143	0x3e00c663	0.12575679
144	0x3e5ae9e5	0.21378286
145	0xbd411cff	-0.047146793
146	0xbe75bf9d	-0.23998876
147	0xbd806bcf	-0.06270563
148	0xbd9881b5	-0.07446615
149	0xbf013c77	-0.5048289
150	0xbb26b061	-0.002543472
151	0x3ca4a0c2	0.020096187
152	0x3d2f01a5	0.042726178
153	0x3e3836ac	0.17989606
154	0x3d074688	0.03302625
155	0xbd3ce7ba	-0.04611943
156	0x3db4d996	0.08830564
157	0x3e72e81f	0.2372136
158	0xbf004773	-0.5010902
159	0xbeed10bf	-0.4630184

bias f4 [8]
0	0xbe112ec9	-0.14178003
1	0xbda487eb	-0.08033737
2	0xbcd54e91	-0.02603844
3	0xbe1be187	-0.1522275
4	0xba8caed9	-0.0010733261
5	0x3e953608	0.29142785
6	0x3e6d50f8	0.23175418
7	0x3d9dfe1b	0.077144824

weight f4 [8, 16]
0	0x8000a011	-5.7421e-41
1	0x3dc2285e	0.09480356
2	0xbe4b6b40	-0.19865131
3	0xbe1026d7	-0.14077316
4	0xbd21cd04	-0.03950216
5	0x3eae079c	0.3399018
6	0xbec7dc8c	-0.3903545
7	0x3f546018	0.8295913
8	0x00009c95	5.6171e-41
9	0x3cb37ebe	0.021911021
10	0xbebc8869	-0.36822823
11	0x3ec6efe3	0.38854894
12	0xbe942eae	-0.28941864
13	0x3df3aa80	0.11897755
14	0x3e3422d9	0.17591418
15	0x3e89ce49	0.26915196
16	0x80008fdd	-5.1608e-41
17	0x3f97a1e0	1.1846275
18	0xbf2cf6ef	-0.6756429
19	0xbe965415	-0.29361024
20	0xbd9ca5f9	-0.07648844
21	0xbf222cfa	-0.6334988
22	0x3ecd0b1f	0.40047547
23	0x3f5fd6ee	0.8743733
24	0x80008aa7	-4.9739e-41
25	0x3dbef913	0.09324851
26	0x3f0bc090	0.545907
27	0xbe6e8acb	-0.23295133
28	0xbe8f6c7d	-0.28012457
29	0xbef6dc74	-0.48215067
30	0xbd33bf0d	-0.043883372
31	0xbf12260a	-0.57089293
32	0x0000acb2	6.1951e-41
33	0xbbecac0f	-0.0072226594
34	0xbe6c16f1	-0.23055626
35	0xbef54e9c	-0.47911537
36	0x3f0e7661	0.5564938
37	0x3e84eff3	0.25964317
38	0xbea40871	-0.3203769
39	0x3ecb652c	0.39725626
40	0x0000939b	5.2951e-41
41	0xbadc2aa2	-0.0016797374
42	0xbdafbced	-0.085809566
43	0xbeeab7c4	-0.45843327
44	0x3e25eed9	0.16204394
45	0xbdd4a5b7	-0.1038317
46	0x3ec4d8a7	0.38446543
47	0x3e80b436	0.2513749
48	0x00008d5a	5.0707e-41
49	0x3f585573	0.84505385
50	0x3ee98b4e	0.45614094
51	0xbd88de18	-0.06682986
52	0x3f0a5b2e	0.5404538
53	0xbe19c03b	-0.15014736
54	0x3db1239d	0.08649371
55	0x3ed2adaa	0.4114812
56	0x0000897e	4.9323e-41
57	0xbefa57f4	-0.48895228
58	0xbe4eb8dc	-0.20187706
59	0xbf060fd7	-0.5236792
60	0xbeafa135	-0.3430268
61	0x3f189360	0.59599876
62	0x3ee1e199	0.4411743
63	0xbdf27bcc	-0.11840019
64	0x00008f61	5.1435e-41
65	0x3b85ab70	0.004079275
66	0xbe213557	-0.15743004
67	0x3dfba64a	0.122875765
68	0xbef36cc5	-0.47543922
69	0x3dda19f2	0.1064948
70	0x3ec9fa56	0.39448804
71	0x3f3502cd	0.707074
72	0x00009589	5.3643e-41
73	0xbe0b5917	-0.13608204
74	0xbf45b7e9	-0.7723375
75	0x3e029493	0.12751989
76	0xbeb07d0e	-0.3447041
77	0x3e9c07fe	0.30474848
78	0x3eeedf28	0.4665463
79	0x3e616d9b	0.22014467
80	0x80009216	-5.2406e-41
81	0x3d1f036a	0.038821615
82	0xbeadd6b3	-0.33952865
83	0xba13f8a2	-0.0005644654
84	0xbeaa1bd1	-0.33224347
85	0xbf1c936f	-0.61162466
86	0xbed585a6	-0.41703528
87	0x3ee7bb56	0.45260113
88	0x00009132	5.2086e-41
89	0x3f2ee6e9	0.6832109
90	0xbf143baf	-0.5790357
91	0xbe0ac08c	-0.13550013
92	0x3e9ff8c7	0.3124449
93	0xbf782b14	-0.9694073
94	0xbf5b38ce	-0.8563355
95	0xbe61743a	-0.22016993
96	0x800097b0	-5.4415e-41
97	0xbeee57b9	-0.46551302
98	0xbda62534	-0.08112565
99	0xbeaae605	-0.33378616
100	0x3edb3969	0.42817238
101	0xbed5b568	-0.41739964
102	0x3f1f5ae5	0.6224807
103	0xbdf126a4	-0.11774948
104	0x000098d8	5.483e-41
105	0x3e817e51	0.25291684
106	0xbeb91387	-0.3614771
107	0xbe2422f8	-0.16028965
108	0xbdb66f7b	-0.08907982
109	0x3d55e1eb	0.052217405
110	0xbe0f62c5	-0.14002521
111	0x3d63ba8a	0.05559782
112	0x0000f4c9	8.7812e-41
113	0x3be7dfc7	0.007076237
114	0x3b3f030c	0.0029146103
115	0x3ad2fb5d	0.0016096641
116	0xb975830e	-0.00023413842
117	0x39c24da9	0.00037060425
118	0x3c028121	0.007965357
119	0x3c2db571	0.010602341
120	0x80019212	-1.44236e-40
121	0x3ca3412d	0.01992854
122	0xb998410c	-0.00029040163
123	0x3c2a9ee1	0.010413856
124	0x3cb1b28b	0.021691581
125	0x3b773260	0.0037719235
126	0x3b804a45	0.0039151036
127	0xbb01494b	-0.0019727524
