imitation_learning/logs/bc_state/checkpoints/ckpt_best.pt (torch, 15392 bytes, 4 tensors)

bias f4 [32]
00000000: c72a 523c 1a1e f13d c3f7 723e 80cd 1a3e
00000010: 0000 0000 c338 cabe 5549 52be 0000 0000
00000020: f4ef 6f3e 81ca bcbc df49 803c 3f48 ac3d
00000030: fc17 8d3e 0000 0000 6d4f 7b3d 2724 06bf
00000040: 73df a83e d0fc 853e 1836 8fbe 62de 413e
00000050: 6f08 243d e5e4 093e bb90 823e 9d09 b43d
00000060: 1364 5abb e9e7 fd3c 693a ac3d 254a b8bc
00000070: 5947 923e 0000 0000 2b84 ba3d 0000 0000
0.012827582 0.117733195 0.23727326 0.15117455 0.0 -0.3949643 -0.20535786 0.0
0.23431379 -0.02304578 0.015660224 0.08412217 0.2755736 0.0 0.061355043 -0.52398914
0.32982978 0.26169443 -0.27970958 0.18932489 0.040047105 0.13466223 0.25501046 0.08790896
-0.003332381 0.030994372 0.08409578 -0.022496292 0.2857006 0.0 0.0910724 0.0

weight f4 [32, 8]
00000000: 02f4 463f 22c4 0a40 54ac 33be baf6 2e3f
00000010: aa96 ba3e 50bd af3e 0945 303e 047d 913e
00000020: 95c5 1ebf f8cc 903f 0bbc db3e 5361 dbbe
00000030: 87b0 553d 76a2 96be d469 713e 72df 2fbe
00000040: 62da 053f e0e7 6bbe 54ce 5c3d 8798 853e
00000050: a37e 8cbc cd42 45be c4cb ec3e 6612 44be
00000060: 94ea 3c3f beb2 f73f 9cff f2bd afa1 64bf
00000070: b6d6 c33e 0d09 b9be 20ed 7d3e c1b4 1dbb
00000080: 0a66 a93d ad60 953d 8c1c 573e c47f 5c3d
00000090: e46a fcbd bc28 823e 9585 97be 2b9f 043e
000000a0: a088 45bf 3d35 94bf 6165 053f 5e05 e7be
000000b0: a4f3 11ba dccc 3fbd 6bac 3bbf 222e 92be
000000c0: 0873 4b3f 8d7f 1e40 1152 8a3e e0bb 8ebf
000000d0: 63c9 f6be ea52 343e f47b 24bf 0470 75be
000000e0: 4f9b a2bd 7cf5 a8be 922e b23d f5eb dabd
000000f0: 6e38 17be 7c09 65bd 2000 b9be c7c6 293e
00000100: 873c 103f b3db c73f eca5 8b3d 6856 24be
00000110: 9021 2f3e 1829 59bd c3a1 513e ed6d 8a3e
00000120: c68c 14be 61ef ccbd e61a adbe a4cc b73e
00000130: b5b8 8d3e d721 6f3e bcf1 54be db5c e13d
00000140: c8d2 c63e 1b78 50bf 3e8e 3b3f 2c99 523f
00000150: 9c95 71be 28c6 bbbe 0394 e5bc f858 f43d
00000160: 957a 48bf e164 9b3f 3a38 a33e d8c4 35bf
00000170: df28 c43e 07f2 9a3e d33a aa3e 9fe4 8cbe
00000180: bad1 d13f 237f f4bf ccbe 153e fca8 563c
00000190: 2dcb c73e 56f3 9ebe 92c0 033f 3e5d cfbd
000001a0: 4359 413e 1fed e63c 9002 d4bd 7d66 60be
000001b0: d097 5cbe 7017 93be e231 aebe f791 673e
000001c0: 591e 62bf c9de 0f3f 7126 913e 014d 80be
000001d0: ed7c 50be 56df 743e 78dc da3e 7c10 9d3e
000001e0: 7c50 043f d7b4 0dc0 b890 573f 202a fd3e
000001f0: 2818 ae3e 1644 a8be 8fd1 1fbc aada 633e
00000200: a14d c73f 0411 03c0 ea21 72bd f26d 3b3e
00000210: 97bf d53e 69fc b7be 5b65 fb3e 6ee2 9d3e
00000220: d897 42bf 30f9 32c0 142d be3d 57f1 8e3e
00000230: e53f a03e eed5 513e f7cb 2d3e 3e8c ab3c
00000240: 8cab 3bbf 7b58 36c0 bef5 313f 439e be3f
00000250: 37d0 eb3d c269 82be b37c d9be f20b e9bd
00000260: 3b52 303f c4e8 31bf 7e4a dc3e 5ae6 2a3b
00000270: 3284 1e3d 6756 69be 9a6b 9a3e 19e4 a03e
00000280: 8c3e 51bf 7efb a4bf 1918 963d 005d 4dbf
00000290: 3add 973c 2448 5f3e 15f9 cf3e a09c ddbb
000002a0: bf93 5c3e fda4 f63f c335 0abf da04 52bf
000002b0: ff29 f43e 4b81 babe 1cbd 8f3e 0feb bbbe
000002c0: e7ba 53bf d711 2040 a882 563e 5857 af3f
000002d0: 0028 0cbe 1b2a 4c3c 0cd9 eb3e f00a c6be
000002e0: 259e 443f 7d51 993e 92ae 573f 63aa f03d
000002f0: 3d39 e9bd 7ba7 bc3e 13dd d93e 91b5 46be
00000300: 40ce 6abe 7c46 2ac0 7f37 543f d815 0fbf
00000310: b2df cbbe e441 5e3e 71e8 9e3e 771c 85be
00000320: 4a35 2c3f b46d bcbf 7079 273f 4d00 133e
00000330: 897f 663e aabb a4be abf4 c5be b932 843e
00000340: 4c1a fd3c 017c 0a40 7245 8abc 253d 713e
00000350: 9e52 983e 17ea fbbd 7573 09be 1601 063e
00000360: f111 bf3b 0a52 f2be ab8e 103f bc63 543f
00000370: a18f 5abe 20cd 103e d38e 8a3d 3229 86be
00000380: 0398 1e3f 7618 bdbe f68c e13d b29f c33c
00000390: e49d 893e 5621 05be fa09 033f 572d 823e
000003a0: 6d77 673e 6045 bebe 8dea 9abe 87ea b4be
000003b0: 7813 cb3d 837b aabd d4e7 8abe 43ee 783d
000003c0: 6402 523f 563d 1ec0 3b6e 223e f231 043f
000003d0: caea cf3d 25de 3f3e 51e6 88be 0cb2 9ebd
000003e0: 94c2 463d 1dc2 7ebe 4776 48be d25c 2d3e
000003f0: 5a40 60be 66d6 873e 7627 8abe 6a15 b83e
0.77716076 2.168221 -0.17546207 0.68345225 0.36443073 0.3432412 0.17213835 0.28415692
-0.62020236 1.1312551 0.42916903 -0.4284769 0.052170303 -0.29420823 0.23575526 -0.17175081
0.5228635 -0.23037672 0.053907707 0.26092932 -0.017150229 -0.19263764 0.4624921 -0.19147643
0.7379544 1.9351423 -0.1186516 -0.8930921 0.3824975 -0.36139718 0.24797487 -0.0024064037
0.082714155 0.0729383 0.21006984 0.053832784 -0.12325075 0.25421703 -0.29594103 0.12951343
-0.771616 -1.1578747 0.52107817 -0.45121282 -0.00055676163 -0.04682623 -0.73309964 -0.28550822
0.794724 2.476535 0.27015737 -1.1151085 -0.4820052 0.17609754 -0.6425164 -0.23968512
-0.07939779 -0.3299979 0.08700289 -0.106895365 -0.1476762 -0.055917248 -0.36132908 0.16579734
0.5634236 1.5613922 0.068187565 -0.16048586 0.17102647 -0.053017706 0.20471863 0.27036992
-0.14506826 -0.100065954 -0.33809584 0.35898316 0.27679983 0.23352753 -0.2079534 0.11004039
0.38832688 -0.81433266 0.7326392 0.8226497 -0.23592228 -0.3667462 -0.028024679 0.11931032
-0.78312045 1.2140161 0.31878835 -0.71003485 0.38312432 0.30262777 0.33248004 -0.27518174
1.6392128 -1.9101299 0.14623564 0.013101812 0.39022198 -0.31045026 0.51465714 -0.101252064
0.18881707 0.02818924 -0.10352051 -0.21914096 -0.21542287 -0.2872882 -0.34022433 0.22614275
-0.88327557 0.5619932 0.2834964 -0.2505875 -0.20360155 0.23913321 0.4274633 0.3067664
0.5168531 -2.2141626 0.842052 0.494462 0.34002805 -0.32864445 -0.0097545525 0.22251382
1.5570565 -2.0479136 -0.059114374 0.1830366 0.41747734 -0.3593476 0.49100766 0.30836815
-0.76012945 -2.7964592 0.09285942 0.27918503 0.31298748 0.20491764 0.16972338 0.020940896
-0.73308635 -2.8491504 0.695156 1.4892048 0.11514323 -0.25471312 -0.4247795 -0.113792315
0.68875474 -0.694958 0.43025583 0.0026077242 0.03870029 -0.22786866 0.30160218 0.31424025
-0.81736064 -1.2889249 0.07328815 -0.8022003 0.018538106 0.21804863 0.40619722 -0.006763056
0.21540736 1.92691 -0.53988284 -0.8203865 0.4768829 -0.36426768 0.28073967 -0.36702773
-0.82707065 2.5010889 0.20948279 1.369853 -0.13687134 0.012461211 0.4606403 -0.3868022
0.7680381 0.29944983 0.8425075 0.11751249 -0.113878705 0.36846527 0.4255148 -0.194052
-0.2293024 -2.660552 0.8289718 -0.55892706 -0.39819103 0.21704823 0.31036714 -0.2599828
0.6726881 -1.4720979 0.65419674 0.14355583 0.22509588 -0.32174426 -0.3866323 0.25819948
0.030896328 2.1638186 -0.016878817 0.23558481 0.29750532 -0.123005085 -0.1342295 0.13086352
0.005830996 -0.47328216 0.56467694 0.8296468 -0.21343853 0.14140749 0.06765523 -0.26203305
0.619507 -0.36932725 0.11013214 0.02387986 0.26878273 -0.13000998 0.511871 0.25425217
0.22604151 -0.37162304 -0.30257073 -0.3533518 0.09915823 -0.08324339 -0.27129996 0.0607741
0.820349 -2.4724936 0.15862362 0.5163871 0.10152204 0.18737085 -0.26738217 -0.077488035
0.048525408 -0.24878736 -0.19576369 0.1692994 -0.21899548 0.2653076 -0.2698323 0.35953838

bias f4 [8]
00000000: 5597 dc3d a7ea 843d bc3b 29be 76c1 14be
00000010: 3379 cd3d 2977 88bd cd9e 15be cfc7 983c
0.10771052 0.06490069 -0.16526693 -0.14526924 0.100328825 -0.06663353 -0.14611359 0.018649964

weight f4 [8, 32]
00000000: 51f6 e93e 0c86 51be f065 ee3e d9a0 063f
00000010: 1986 c43e c552 dabf c52b cdbf c813 62be
00000020: 6609 17be 5ee2 b1be b927 51bf 9f15 193e
00000030: 9dbb 3fbe 86c5 3e3e a967 f4be b1b0 863f
00000040: 0f5b 1ebf c42d f3be b888 ad3f 8a51 37bf
00000050: 5fae c9be 6c53 083f 93b4 c73e f81d 03bd
00000060: b7c3 2c3f d729 863d 68ff 2cbf 4df0 31be
00000070: 9031 e23e 4d7e 173e 1928 653f cb73 413d
00000080: d1a0 63bf c03d 9dbd 87e5 9e3d 1d52 5fbe
00000090: 80fc cbbc d759 2040 e503 3940 a56c 4e3e
000000a0: 1959 2e3f 425d 9e3e 2895 bd3f d41d fd3e
000000b0: 8c65 a6be 8d98 9fbe ecc7 e83e 0053 10c0
000000c0: 2853 83be 1c38 c4be 8933 a33d 4f56 943c
000000d0: f380 9b3e 9029 d6be c577 e4be 3dbf dd3e
000000e0: cdfa 1abf 6254 1f3e ed3f 5d3f b9bb 85be
000000f0: ac40 b2bd 323b 8ebe 4bb0 0140 58c5 bc3e
00000100: f534 0b3f 55f1 07bf 0661 733e c423 533e
00000110: ac8d df3d 6041 fdbf f98c f3bf 54ec 4a3e
00000120: 483d 223d 1f05 bbbe a381 52bf dd10 dabe
00000130: 254d cfbd caff 8bbe 9b8d f63d e0c3 843f
00000140: d8ae efbd 1d69 fc3d 4380 ccbe 55cf fb3c
00000150: 31ff 2abe 1838 a83e 496a 243f 6356 9e3e
00000160: 0b19 123f 1105 073e fd7d 94be 0ede 92be
00000170: 534f febe ba0e b93e 6254 21bf e4df 403d
00000180: 2d7c a1be 1054 a23e e651 07bf aa2b 76bf
00000190: 7dfb ee3c e8c3 f53f 618f f73f f78c 07bc
000001a0: 9a7c 1dbf a682 913e 38e7 553f 79e2 4f3f
000001b0: fab0 923f 9302 cbbd cbd5 083f 3285 44bf
000001c0: 1e50 1c3f c140 3bbf 73cd 0fc0 9c10 d7be
000001d0: 37a6 113f c498 27bf 380e b7bc cf2f f43d
000001e0: eb1a 45bf d1c2 a8be 6c4f ea3d fbe6 913e
000001f0: da68 1abf a58f 173e 48fc afbd f307 8fbe
00000200: 0d0f b43e f934 6fbe edfa e63e 92d6 313f
00000210: 7f11 8fbd 12d6 06c0 88c3 6dbf fbce 87be
00000220: 911c e3be 3de2 34be 83de 44bf 776a cfbe
00000230: 7d0c 75be c288 0b3e d704 9abd f047 b53f
00000240: 6fca 19be c21b 3cbf 876a 793f b973 16be
00000250: bbf3 c4bd 386b 3d3f b2ac fa3e 05b5 c4be
00000260: 64a1 273f 3ce3 acbe 9762 5dbf 2bd7 bf3e
00000270: 8aa8 1a3e 894b f5bd 0704 64be 1cff 613e
00000280: 1308 90bd 0369 e13e 394f b23e a986 c23e
00000290: d0b6 8d3e 1ba6 0e3e 991e 1e40 6423 863e
000002a0: 7cca e03e bf17 1cbe c5f1 d23e ecd5 ffbd
000002b0: 1d2e 34bf 3e5c 813e f988 d5be a387 adbf
000002c0: c6e2 32bf 6eea a03f 4d39 283f 0693 ecbd
000002d0: 4445 043e af5b d73a 69e5 3cbf 9ebf 333e
000002e0: dbe5 b0be 44d2 ce3f a12a bd3f ef43 033f
000002f0: d806 cd3e 8002 543e 2c2e 0e3f ed44 8ebe
00000300: 4de4 d43e 63ab b43c b0e8 bdbe 2138 01bf
00000310: 7761 fa3d 2d24 abbb b372 67bf ad57 2dbd
00000320: 0ee2 a13d f96b 97bd 2f0b a1be 72e1 bcbe
00000330: 43ae 593e 40ab 30bd f788 05be 6e68 a53f
00000340: 7ecf fb3e 3174 59bc 5319 efbe 1f07 a93d
00000350: 280c 5e3d 05fd 813e 4469 0e3f 8fbb dc3e
00000360: 4c91 4c3d d29f a3be 86a4 28bf b8f1 d8be
00000370: 8ff6 97be beb2 ab3e 1e41 1ac0 46e0 bf3b
00000380: 9eb7 3dbb e1a9 703d 1ecd d13e 8101 b03c
00000390: 2410 45be f8ed 4abd aad5 2c3c 264d 823e
000003a0: f5b2 dcbd fa49 3e3d 3432 b13b 8ad5 aabd
000003b0: 9b31 8b3e 39a6 6c3d 3c51 133e 73ae 3abc
000003c0: 122e 75be 5c3f b7bd 8123 8d3c 5ad7 42be
000003d0: acb9 ab3d 62f5 1a3d 7799 82bd 5334 433d
000003e0: ad80 863c 0049 9fbe ece7 e33c d219 d93d
000003f0: d4a6 38be c9b1 6a3e 9272 243e 7c5e 373e
0.45695737 -0.20461291 0.46562147 0.52589184 0.38383558 -1.7056509 -1.6028982 -0.22077858
-0.14749679 -0.34743017 -0.81701237 0.14949654 -0.18723913 0.18630037 -0.47735336 1.0522672
-0.61857694 -0.47495854 1.3557348 -0.71608794 -0.39390847 0.5325229 0.39004955 -0.032011002
0.6748614 0.06550949 -0.6757722 -0.17376824 0.44178438 0.14794274 0.8951431 0.04722957
-0.8891726 -0.076777935 0.077586226 -0.21808667 -0.024900675 2.5054834 2.8908627 0.20158632
0.681047 0.30930525 1.4811144 0.4943682 -0.3249935 -0.31171075 0.45465028 -2.255066
-0.2564938 -0.38324058 0.07968814 0.018107561 0.30371818 -0.41828585 -0.44622627 0.43309966
-0.6053894 0.15559533 0.8642567 -0.26119784 -0.087037414 -0.27779537 2.026385 0.3686931
0.5437768 -0.5310262 0.2376748 0.20619112 0.10915694 -1.9785576 -1.9027396 0.19816715
0.039609224 -0.36527345 -0.8222906 -0.4259099 -0.10122136 -0.2734359 0.12038728 1.0372276
-0.11703271 0.12324736 -0.39941606 0.030738512 -0.1669891 0.32855296 0.6422468 0.30925283
0.5706946 0.13185526 -0.2900237 -0.2868504 -0.49669895 0.36144048 -0.6301938 0.04708852
-0.3154005 0.3170476 -0.5285934 -0.96160376 0.029172653 1.9200411 1.9340631 -0.008273355
-0.6151825 0.2841999 0.83555937 0.81204945 1.1460259 -0.099126 0.5345122 -0.7676574
0.6105975 -0.7314568 -2.2469146 -0.4200486 0.5689425 -0.65467477 -0.022345647 0.11923181
-0.769942 -0.32961133 0.1144093 0.28496537 -0.6031624 0.1480089 -0.08593041 -0.27935752
0.35167733 -0.23360051 0.45113316 0.69468033 -0.06985759 -2.1068158 -0.9287648 -0.265251
-0.44357732 -0.17664428 -0.76902026 -0.40510914 -0.23930545 0.13626388 -0.075204544 1.4162579
-0.15018629 -0.73479855 0.9742817 -0.14692582 -0.096168004 0.7399173 0.4895988 -0.38419357
0.6548064 -0.33767116 -0.8647856 0.37468848 0.15103355 -0.11977298 -0.22267161 0.22069973
-0.0703279 0.4402543 0.34826067 0.37993363 0.27678537 0.13930552 2.4706175 0.26198876
0.43904483 -0.15243433 0.4120008 -0.12491974 -0.70382863 0.25265688 -0.41706064 -1.3557018
-0.6987728 1.2571542 0.65712434 -0.1155148 0.12917048 0.0016430522 -0.7378755 0.17553565
-0.34550366 1.6157918 1.4778634 0.51275533 0.40044284 0.20704079 0.555392 -0.2778696
0.4158043 0.02205438 -0.3709159 -0.5047627 0.12225621 -0.0052228183 -0.9040939 -0.042319942
0.07904445 -0.07393641 -0.31453845 -0.3689075 0.21257882 -0.043132067 -0.13040529 1.2922494
0.4918174 -0.013272331 -0.46699008 0.08253311 0.05421081 0.2538835 0.5562937 0.43111846
0.049943253 -0.3195787 -0.6587604 -0.42371917 -0.29680297 0.33534807 -2.4102244 0.005855593
-0.0028948556 0.05875576 0.40976804 0.021485092 -0.19244438 -0.04954335 0.010548988 0.25449485
-0.10776321 0.04645727 0.005407596 -0.083415106 0.27186283 0.05777571 0.14386457 -0.011394131
-0.23943356 -0.08947632 0.017228844 -0.19027463 0.083850235 0.03783167 -0.06376927 0.047657322
0.01641878 -0.31110382 0.02782055 0.10600628 -0.1803239 0.22919382 0.1605933 0.17907137
