imitation_learning/logs/bc_state/checkpoints/ckpt_56000.pt (torch, 14440 bytes, 4 tensors)

bias f4 [16]
0	0x800088e9	-4.9114e-41
1	0xbe217106	-0.15765771
2	0x3da7883a	0.0818028
3	0x3ddc8265	0.10767058
4	0x3e1291cf	0.14313434
5	0xbc485852	-0.012228088
6	0x3cf760be	0.030197497
7	0x3e1715c1	0.14754392
8	0x80009f42	-5.7131e-41
9	0x3ddf9603	0.10917284
10	0xbbc8801c	-0.0061187875
11	0x3c34905c	0.011020746
12	0x3e6c7217	0.23090397
13	0x3e190ced	0.14946337
14	0xbe857ca7	-0.26071665
15	0xbe0f398e	-0.13986799

weight f4 [16, 10]
0	0x80008d4e	-5.069e-41
1	0x000093e4	5.3053e-41
2	0x00008a4e	4.9614e-41
3	0x8000908b	-5.1852e-41
4	0x80008973	-4.9307e-41
5	0x0000a76f	6.0064e-41
6	0x00008a8c	4.9701e-41
7	0x00009341	5.2825e-41
8	0x00009171	5.2175e-41
9	0x80008c13	-5.0249e-41
10	0x3f6453af	0.8919019
11	0xbf5350eb	-0.82545346
12	0xbe413af7	-0.1887015
13	0xbe652993	-0.2237914
14	0x3e6ed5a5	0.23323686
15	0x3c0f3b92	0.00874223
16	0xbefbb92a	-0.49164706
17	0x3eea7946	0.4579565
18	0xbeecafcf	-0.4622788
19	0x3e80d52c	0.25162637
20	0x3d384290	0.044985354
21	0xbd886604	-0.06660083
22	0x3cc64a86	0.024205457
23	0x3e82d3ec	0.2555231
24	0x3c1dd86b	0.009634118
25	0x3ed1b599	0.4095886
26	0x3d0893cb	0.03334407
27	0xbe00119a	-0.12506714
28	0xbec3694e	-0.3816628
29	0x3f373775	0.71568996
30	0x3abf1300	0.0014577806
31	0xbed05fe0	-0.40698147
32	0xbd9afd75	-0.07567874
33	0x3da914bb	0.08255907
34	0xbcbd893e	-0.023136731
35	0x3e51e740	0.20498371
36	0x3e84321e	0.25819486
37	0xbd9b085b	-0.07569953
38	0xbea06997	-0.3133056
39	0x3da54acc	0.08070907
40	0xbba4be27	-0.0050275507
41	0x3d9a947d	0.07547853
42	0x3dda8f3d	0.10671852
43	0x3e244d9b	0.16045229
44	0xbd39f129	-0.045396004
45	0xbf60ae88	-0.87766314
46	0xbd4d523f	-0.050127264
47	0x3d803b7b	0.06261345
48	0x3df9b3a8	0.1219247
49	0x3f3f067b	0.74619263
50	0x3c23c34d	0.009995294
51	0xbd92c966	-0.0716732
52	0x3d03ac9e	0.032147042
53	0xbe101d9a	-0.14073792
54	0x3dad10b1	0.08450449
55	0xbd02761a	-0.03185091
56	0x3da273a1	0.07932211
57	0xbf705333	-0.9387695
58	0xbd852564	-0.06501272
59	0x3ee2582a	0.4420789
60	0x3ba8c424	0.005150335
61	0xbd8d3f73	-0.068968676
62	0x3ea46125	0.32105365
63	0x3cc452a4	0.023965187
64	0xbe877baf	-0.2646155
65	0x3eb65696	0.35612935
66	0x3e83b66a	0.25725108
67	0x3f275ca4	0.65375733
68	0x3f06bda7	0.52633137
69	0x3dfccf7a	0.123442605
70	0xbe69c1ab	-0.22827785
71	0x3facbc6b	1.3495001
72	0x3d877a47	0.066151194
73	0xbe9be72c	-0.30449808
74	0xbeaae141	-0.3337498
75	0x3c3f078e	0.011659516
76	0x3f10834f	0.5645036
77	0xbe14433e	-0.14478776
78	0x3e0c79fb	0.13718407
79	0x3e1456e4	0.14486271
80	0x00008e8e	5.1139e-41
81	0x00009e89	5.6872e-41
82	0x8000891f	-4.919e-41
83	0x8000a147	-5.7855e-41
84	0x00008a30	4.9572e-41
85	0x000093ae	5.2977e-41
86	0x80008bbc	-5.0127e-41
87	0x800091e4	-5.2336e-41
88	0x00008d47	5.0681e-41
89	0x0000a065	5.7539e-41
90	0x3e131e6f	0.14367078
91	0x3f57e2d6	0.843305
92	0xbd72dc0c	-0.059291884
93	0xbe3d8350	-0.18507123
94	0x3d21c460	0.03949392
95	0xbd5e4228	-0.05426231
96	0xbe10e5e2	-0.14150193
97	0xbe120291	-0.14258792
98	0xbd86c19e	-0.06579898
99	0xbbe940ff	-0.007118344
100	0x3d5dcf0f	0.054152545
101	0xbef75433	-0.48306426
102	0x3c0fe30d	0.0087821605
103	0x3f0a1b53	0.53947943
104	0xbdf3d134	-0.11905137
105	0xbea062e9	-0.31325462
106	0x3eb534fc	0.35391986
107	0xbead17ff	-0.3380737
108	0x3f3e4773	0.7432777
109	0x3e3e581e	0.18588302
110	0x3ca48345	0.020082125
111	0xbf1d38ec	-0.6141498
112	0x3e220f05	0.15826042
113	0x3ea14865	0.31500545
114	0x3eb3358a	0.35001785
115	0x3e72e545	0.23720272
116	0xbe8b27ea	-0.2717889
117	0xbe5db78d	-0.2165205
118	0xbdc62fb5	-0.09677068
119	0xbe81ab8c	-0.25326192
120	0xbe7509f4	-0.23929578
121	0xbe75f77a	-0.24020186
122	0xbb5a59e7	-0.0033317746
123	0xbcb57e2e	-0.022154894
124	0x3db8519e	0.08999942
125	0xbedabd15	-0.42722383
126	0x3e7db4a8	0.24775946
127	0x3ca91ddf	0.020644126
128	0xbdd314e2	-0.103067175
129	0xbdda8747	-0.10670333
130	0x3d090e9d	0.033461202
131	0xbdc859d9	-0.09782762
132	0xbddab86a	-0.106797054
133	0x3df39944	0.118944675
134	0x3c03101f	0.007999449
135	0x3ebaeff9	0.3651121
136	0xbcd20d05	-0.025640974
137	0xbe2ffa0c	-0.17185229
138	0x3f17a0e9	0.59229904
139	0x3f8410a8	1.0317583
140	0xbe94a707	-0.29033682
141	0x3f285243	0.6575052
142	0x3f1f2a80	0.62174225
143	0x3de8f96a	0.11375697
144	0x3e6ff3d5	0.23432858
145	0xbd34d165	-0.044145007
146	0xbe6dcdc5	-0.23223026
147	0xbd6e8510	-0.058232367
148	0xbd777771	-0.060416643
149	0xbf00cad2	-0.5030948
150	0xbb150bb7	-0.0022742578
151	0xbba7c4f9	-0.0051199165
152	0x3ae005aa	0.0017091532
153	0x3e44e62f	0.19228433
154	0x3d2beef4	0.04197593
155	0xbd0de885	-0.034645576
156	0x3ddbc43f	0.1073079
157	0x3ea5ca65	0.32380977
158	0xbf14cb3b	-0.58122605
159	0xbecbf268	-0.3983338

bias f4 [8]
0	0xbdf92e4a	-0.12167032
1	0xbd914a78	-0.07094282
2	0xbca64175	-0.020294884
3	0xbe1ee057	-0.15515266
4	0xbc5c5344	-0.013447586
5	0x3e90f806	0.28314227
6	0x3e6378b8	0.2221402
7	0x3d9cc34b	0.07654437

weight f4 [8, 16]
0	0x8000a011	-5.7421e-41
1	0x3dd51f3e	0.104063496
2	0xbe37c562	-0.1794639
3	0xbec0bdbb	-0.37644753
4	0xbd96113f	-0.07327508
5	0x3e85697b	0.26057038
6	0xbebfafde	-0.37438864
7	0x3f5719ee	0.8402394
8	0x00009c95	5.6171e-41
9	0xbccfa648	-0.025347844
10	0xbeb68034	-0.35644686
11	0x3ec5d0dc	0.3863591
12	0xbe6c3c79	-0.23069943
13	0x3e4e3aed	0.20139666
14	0x3e14ed52	0.14543656
15	0x3e854e8a	0.26036483
16	0x80008fdd	-5.1608e-41
17	0x3f98a3ad	1.192495
18	0xbf1a86a8	-0.6036172
19	0xbe588e77	-0.21148096
20	0xbe552db6	-0.20818219
21	0xbf2f7a31	-0.68545824
22	0x3ed2b0f4	0.4115063
23	0x3f5a535e	0.8528346
24	0x80008aa7	-4.9739e-41
25	0x3dc4833f	0.09595346
26	0x3ef9e7f8	0.4880979
27	0xbe94240d	-0.28933755
28	0xbe64ef84	-0.22356993
29	0xbee2eae3	-0.4431983
30	0xbd67f9a5	-0.056634564
31	0xbf20bf06	-0.6279148
32	0x0000acb2	6.1951e-41
33	0x3cbd9bf7	0.023145659
34	0xbee6eb00	-0.45101166
35	0xbeaefea2	-0.34178644
36	0x3f057537	0.5213198
37	0x3e13116d	0.14362116
38	0xbe99c788	-0.30035043
39	0x3ed49064	0.4151641
40	0x0000939b	5.2951e-41
41	0xbb2f9724	-0.0026792968
42	0xbd5e8783	-0.054328453
43	0xbef1336e	-0.4710955
44	0x3e861618	0.2618873
45	0xbd2d7545	-0.042348165
46	0x3ecbbe48	0.3979361
47	0x3e99192e	0.29902023
48	0x00008d5a	5.0707e-41
49	0x3f59922b	0.8498866
50	0x3eeb85f1	0.46000627
51	0xbe0d3655	-0.13790257
52	0x3f255b0f	0.6459207
53	0xbe077f3f	-0.13232134
54	0x3dd09971	0.101855166
55	0x3ec5930d	0.38588753
56	0x0000897e	4.9323e-41
57	0xbefc9b29	-0.49337128
58	0xbe4ae753	-0.19814806
59	0xbf11a2eb	-0.5688922
60	0xbe92a247	-0.28639433
61	0x3edfec26	0.43734854
62	0x3eee64eb	0.4656137
63	0xbe230bce	-0.15922472
64	0x00008f61	5.1435e-41
65	0xbc70d991	-0.014700309
66	0x3a03b86b	0.0005024734
67	0xbd899cc4	-0.06719354
68	0xbf0d7b1d	-0.5526598
69	0x3d1161cf	0.03549367
70	0x3eb6adce	0.35679477
71	0x3f366931	0.7125426
72	0x00009589	5.3643e-41
73	0xbe09b695	-0.13448556
74	0xbf3e1a6b	-0.7425906
75	0x3e194587	0.14967929
76	0xbeac1bc3	-0.3361493
77	0x3ed32eb7	0.41246578
78	0x3ee2320f	0.44178817
79	0x3e3fca5a	0.18729535
80	0x80009216	-5.2406e-41
81	0x3d70e38a	0.05881075
82	0xbe9dc1ec	-0.30812013
83	0x3e58ca1d	0.2117085
84	0xbedba872	-0.4290195
85	0xbf016ed7	-0.50559753
86	0xbedcab70	-0.43099546
87	0x3ee33c1e	0.44381803
88	0x00009132	5.2086e-41
89	0x3f331488	0.69953203
90	0xbf19fe01	-0.60153204
91	0xbe2252e4	-0.15851933
92	0x3e86ada0	0.2630434
93	0xbf81bf3a	-1.0136483
94	0xbf5afbfd	-0.85540754
95	0xbe539561	-0.20662452
96	0x800097b0	-5.4415e-41
97	0xbee35e0d	-0.44407693
98	0xbdb8f28e	-0.09030639
99	0xbe4b926a	-0.19880071
100	0x3ed5a970	0.41730833
101	0xbf07c8d3	-0.5304081
102	0x3f1bc6bf	0.6085014
103	0xbdf5ccc5	-0.12001947
104	0x000098d8	5.483e-41
105	0x3e80dad8	0.25166965
106	0xbebba4f5	-0.3664929
107	0xbe4ff755	-0.20309193
108	0xbc326993	-0.010889429
109	0xbb949e2b	-0.0045354567
110	0xbe162197	-0.14661251
111	0x3dcc31dc	0.099704474
112	0x8001ca27	-1.64354e-40
113	0x3bc91fa9	0.0061378074
114	0x3b927e7d	0.004470645
115	0x3bd0e214	0.006374607
116	0xb991cb0e	-0.00027807843
117	0xba85f2ca	-0.0010219452
118	0x3bf761e2	0.0075495103
119	0x3c257702	0.010099174
120	0x0002f717	2.7231e-40
121	0x3ca343a1	0.019929709
122	0xb9cc0e2e	-0.00038920477
123	0x3c2dda24	0.010611091
124	0x3cb31b92	0.021863732
125	0x3b7a7c7c	0.003822117
126	0x3b8b9cee	0.004260651
127	0xba854da1	-0.001017023
