imitation_learning/logs/bc_state/checkpoints/ckpt_10000.pt (torch, 24808 bytes, 4 tensors)

bias f4 [64]
0.10715033 0.002449645 -0.08530185 0.10444477 -0.0645141 0.17641945 0.003891601 -0.015087378
0.032055218 0.034239817 0.09329641 0.04497707 -0.0432948 0.17808509 0.124498904 0.058144264
0.17946787 -0.10260309 0.11851652 0.07415822 0.09416547 0.14121148 0.067066394 0.08800185
0.10705718 0.09060555 0.09930715 -0.049893327 0.028741078 0.04255329 -0.049867272 0.10331664
0.19988587 -0.017580202 0.11744798 -0.049778342 -0.05512749 0.06125614 -0.095257305 -0.052188125
-0.071929336 -0.0086635025 -0.26202264 -0.18615858 -0.015704457 -0.063799396 -0.1460315 0.16370426
0.017728029 -0.059658866 0.06844024 0.058730766 0.080667466 -0.10911303 -0.013675733 0.20624152
0.120964356 0.16801606 0.040973406 -0.075654015 -0.019194784 -0.025808768 0.041466236 -0.019302592
00000000: a271 db3d 398a 203b bdb2 aebd 24e7 d53d
00000010: f81f 84bd 4da7 343e 3b0a 7f3b 0d31 77bc
00000020: 554c 033d 0d3f 0c3d 3012 bf3d e039 383d
00000030: e355 31bd f05b 363e 48f9 fe3d ae28 6e3d
00000040: 6dc6 373e 9221 d2bd cab8 f23d 44e0 973d
00000050: d3d9 c03d be99 103e 1b5a 893d 503a b43d
00000060: cb40 db3d 678f b93d 8c61 cb3d f25c 4cbd
00000070: 6972 eb3c 5c4c 2e3d a041 4cbd ad97 d33d
00000080: e2ae 4c3e 5b04 90bc 9188 f03d 60e4 4bbd
00000090: 5dcd 61bd b8e7 7a3d 4316 c3bd 37c3 55bd
000000a0: b04f 93bd 5df1 0dbc d527 86be 5ba0 3ebe
000000b0: a2a6 80bc 42a9 82bd 4889 15be 17a2 273e
000000c0: 5f3a 913c db5c 74bd 662a 8c3d ac8f 703d
000000d0: fc34 a53d a776 dfbd 2e10 60bc fa30 533e
000000e0: 29bc f73d 670c 2c3e bbd3 273d 7ef0 9abd
000000f0: 613e 9dbc e96c d3bc 80d8 293d 7820 9ebc

weight f4 [64, 10]
-0.09048164 -1.6057508 0.07573504 0.7986816 -0.45402417 -0.014344437 0.876238 -0.08732639
-0.052709874 0.53516906 -0.008398273 0.768805 -0.1474952 -0.3030779 0.26962313 0.18909319
0.060375318 -0.30190867 -1.106329 0.36262202 -0.0021565661 0.10922258 0.41435385 -0.21797778
-0.0002845587 -1.6820093 -0.012045928 0.33877972 -0.21507004 0.56631595 0.42872393 1.2281442
0.10020115 -1.7345837 0.09304334 0.16863663 -0.7082577 0.6780352 -0.15077835 -0.44136342
0.5464006 -0.4793662 -0.8056047 -0.44203115 0.012811827 1.1198341 -0.4861454 -0.29797572
-0.4234368 1.4218788 0.053567942 0.3406057 0.096428886 -0.9904759 -0.06601978 -1.0432544
-0.09473504 -1.0788532 0.38302106 0.3631085 -0.20045368 0.5910237 0.052711442 -0.36683872
0.09956652 0.13427286 0.18316792 -0.56456655 -0.30449 -0.05091172 -0.029574636 0.28872716
-0.14374332 0.9047634 0.18892394 0.7199307 0.011530707 0.2965945 0.8719569 0.41213483
0.08695024 -0.20999612 -0.18254755 0.5157558 0.22197759 -0.521566 -0.0024753828 -0.3514484
-0.7920925 -0.0041102273 0.10315053 -0.29162288 -0.04635514 0.45493028 -0.10865319 -0.7247688
0.34932473 -1.0266907 1.1779419 1.1992079 -0.38786608 -1.8308343 0.29849663 1.2389387
-0.47726497 0.23364684 0.53575516 0.55700856 0.5870126 0.23160614 -1.0053458 1.5622916
0.19017448 0.2406884 -0.20220047 0.23981002 0.59627914 0.68353057 0.074351214 0.0063339956
-0.7698174 -0.69514126 0.25448003 0.063939594 0.115397006 0.0053819343 -0.69905454 0.7749454
0.074241534 -0.8830075 0.4230721 -0.27974793 -0.5271942 -0.31350198 0.06767652 0.33820212
-0.29199487 -0.07088291 0.30031812 1.336243 -0.8072112 1.4908028 0.21577778 -0.0322958
-0.33283034 0.21025956 0.435335 -0.025454191 2.2941851e-05 0.004846294 -0.56061465 -1.038019
-0.1705687 0.4339426 -0.49090058 -0.24933714 0.24298206 0.070707515 1.3509078 0.6229182
0.5681045 -1.4713537 -0.67600805 -0.25078112 -0.4718588 0.17165133 0.6745836 0.0150573095
0.46485618 0.3297315 0.5794516 0.6739468 -0.5468519 -0.3693918 0.04938976 0.17915672
-0.86290646 -0.14692628 0.61147654 0.2054758 -0.062255193 -0.22155534 -0.2395911 -0.28011695
0.07696553 0.16258939 0.3031736 -0.16426465 0.11903681 0.0051342538 0.2128224 -0.084460184
-0.40201372 0.23410068 0.12949868 -0.47056395 -1.9369462 0.6926197 -1.4712297 -0.2449369
0.010588259 1.5385748 0.29739532 -0.18410005 -0.049268 0.095974155 -0.029251296 -0.06662082
-0.07012962 -0.15422605 -0.42501527 -0.9450886 -0.07604257 1.389226 0.24330296 -0.094324745
-0.82627106 -0.15554744 0.40640026 -0.1321307 0.09070174 -0.8178921 0.07266186 1.07055
0.37311244 0.0017454164 -0.4048905 0.41958502 0.4451139 0.26703793 0.30356067 -0.2189263
0.2782131 0.76002586 0.047972824 -0.30491704 -0.20124754 -0.42496383 0.6695085 0.37471187
-0.75169474 -0.0693693 -0.33257866 0.75148207 0.33717284 -1.3464457 -0.06403414 -0.27581555
0.3104846 0.01000066 -0.4353914 -0.41393965 0.15243393 0.6753927 0.44248134 -0.07697487
00000000: 704e b9bd 3e89 cdbf f91a 9b3d 6676 4c3f
00000010: db75 e8be ee04 6bbc 2251 603f 2ed8 b2bd
00000020: 4fe6 57bd d700 093f e998 09bc 68d0 443f
00000030: fb08 17be 072d 9bbe 0b0c 8a3e a5a1 413e
00000040: 1c4c 773d c693 9abe 309c 8dbf 98a9 b93e
00000050: 2d55 0dbb 17b0 df3d 3026 d43e 9135 5fbe
00000060: d230 95b9 154c d7bf 495c 45bc 8974 ad3e
00000070: 523b 5cbe 15fa 103f b481 db3e d433 9d3f
00000080: 4336 cd3d d706 debf 828d be3d 15af 2c3e
00000090: 6050 35bf b793 2d3f a465 1abe 63fa e1be
000000a0: e9e0 0b3f 7d6f f5be 1c3c 4ebf e851 e2be
000000b0: b2e8 513c b956 8f3f 0de8 f8be 4690 98be
000000c0: b5cc d8be 2000 b63f 0f6a 5b3d df63 ae3e
000000d0: 827c c53d d48f 7dbf 6135 87bd 5c89 85bf
000000e0: 7204 c2bd dd17 8abf 561b c43e 5be9 b93e
000000f0: bb43 4dbe 544d 173f f4e7 573d 49d2 bbbe
00000100: 88e9 cb3d d37e 093e 5f90 3b3e 6f87 10bf
00000110: 1de6 9bbe cf88 50bd 8246 f2bc 0cd4 933e
00000120: 7331 13be 939e 673f 4775 413e 614d 383f
00000130: 4aeb 3c3c 3cdb 973e 9138 5f3f 5603 d33e
00000140: f812 b23d 3909 57be bfed 3abe 9208 043f
00000150: 184e 633e 5985 05bf 083a 22bb 0bf1 b3be
00000160: 93c6 4abf 16af 86bb 9640 d33d 984f 95be
00000170: e3de 3dbd 9fec e83e 9085 debd 738a 39bf
00000180: b1da b23e 9a6a 83bf cdc6 963f a57f 993f
00000190: 6296 c6be c758 eabf 8dd4 983e 8b95 9e3f
000001a0: 135c f4be 1e41 6f3e 4027 093f 1d98 0e3f
000001b0: 7546 163f 292a 6d3e 2caf 80bf 2cf9 c73f
000001c0: 19bd 423e 0577 763e a40d 4fbe c290 753e
000001d0: c0a5 183f dcfb 2e3f 7345 983d 688d cf3b
000001e0: c112 45bf c7f4 31bf 354b 823e c3f2 823d
000001f0: 4455 ec3d f05a b03b 3df5 32bf d262 463f
00000200: f20b 983d c80c 62bf e89c d83e 1f3b 8fbe
00000210: 33f6 06bf 5583 a0be fd99 8a3d d428 ad3e
00000220: 5a80 95be 0f2b 91bd 4cc3 993e 030a ab3f
00000230: 65a5 4ebf a0d2 be3f daf4 5c3e 9a48 04bd
00000240: bd68 aabe 484e 573e 3be4 de3e 4f85 d0bc
00000250: 4073 c037 a9cd 9e3b 7184 0fbf cedd 84bf
00000260: 90a9 2ebe b92d de3e 5257 fbbe 3c52 7fbe
00000270: 4ad0 783e 1acf 903d 8cea ac3f 9177 1f3f
00000280: 4c6f 113f 5155 bcbf dd0e 2dbf 6266 80be
00000290: 7a97 f1be 5ec5 2f3e 83b1 2c3f efb2 763c
000002a0: a101 ee3e 91d2 a83e f156 143f c787 2c3f
000002b0: 7cfe 0bbf ec20 bdbe eb4c 4a3d dc74 373e
000002c0: 70e7 5cbf d873 16be ba89 1c3f 4068 523e
000002d0: 4dff 7ebd 67df 62be 5f57 75be 7d6b 8fbe
000002e0: 1ba0 9d3d d57d 263e 9239 9b3e fe34 28be
000002f0: 92c9 f33d 3e3d a83b 1dee 593e 76f9 acbd
00000300: bed4 cdbe 17b8 6f3e 4d9b 043e c2ed f0be
00000310: daed f7bf 864f 313f 4151 bcbf bdd0 7abe
00000320: 617a 2d3c 05f0 c43f 3344 983e b984 3cbe
00000330: 3ecd 49bd 198e c43d 6aa0 efbc 7f70 88bd
00000340: 1ea0 8fbd 6fed 1dbe 9a9b d9be 54f1 71bf
00000350: 35bc 9bbd 28d2 b13f 6924 793e 552d c1bd
00000360: 8086 53bf d447 1fbe b213 d03e 454d 07be
00000370: d5c1 b93d 6061 51bf becf 943d c807 893f
00000380: 9808 bf3e 75c6 e43a cf4d cfbe d9d3 d63e
00000390: f8e5 e33e 32b9 883e 4e6c 9b3e 372e 60be
000003a0: f371 8e3e 0e91 423f 277f 443d 161e 9cbe
000003b0: d613 4ebe dc94 d9be e964 2b3f 3cda bf3e
000003c0: 116f 40bf 7e11 8ebd c047 aabe 2161 403f
000003d0: eba1 ac3e 5558 acbf 5524 83bd b237 8dbe
000003e0: d6f7 9e3e cfd9 233c 9feb debe e6ef d3be
000003f0: a417 1c3e 89e6 2c3f ea8c e23e 00a5 9dbd

bias f4 [8]
0.05637565 0.044887226 -0.08979608 -0.029230792 -0.00825351 -0.020003602 -0.043955013 -0.0072784107
00000000: 27ea 663d abdb 373d 02e7 b7bd 6a75 efbc
00000010: bb39 07bc 98de a3bc 2c0a 34bd bc7f eebb

weight f4 [8, 64]
-0.1377889 -0.043329727 -0.19582494 -0.37870196 0.17898226 -0.029394958 0.13471305 0.22677499
-0.04751682 -0.17725067 -0.024440981 0.29307616 0.104510576 0.031038925 -0.2110025 -0.07467086
-0.47150615 0.084441885 0.09613276 -0.13681784 -0.05277007 0.15362124 0.17717838 0.16578892
-0.112657174 -0.024608102 -0.103092276 0.0010062179 -0.18233217 0.0237793 0.24049741 -0.25030336
1.6362934 0.2212053 0.35153884 0.13044898 -0.18498829 0.021581907 0.07546445 0.022199476
0.36205623 0.0157777 -0.015249495 -0.1547911 0.5451947 -0.34376615 -0.17991258 0.008116928
0.1502985 0.06691215 -0.16460663 0.32706854 -0.05087733 -0.112788506 0.2084864 -0.025931252
0.24859972 -1.0169555 0.184876 0.25317246 -0.44366604 -0.006281029 -0.25492093 -0.20919183
-0.7787692 0.5988517 0.1511107 -0.19440493 -1.6677225 -0.5970756 -0.34809893 -0.29476172
-0.033177957 1.291603 -0.3342071 0.65120703 0.6200032 -0.0663657 0.69609493 1.3338488
0.45475134 0.16901332 -0.030470658 0.8206477 0.9713852 -0.10649111 -0.29433253 0.28114617
-0.48610815 -0.34977922 0.1050314 -0.61250836 0.03346708 0.002662722 -0.07409038 -0.6956303
-2.1538153 -0.15249933 -1.3048942 -0.101191066 0.038633987 0.58038497 -0.09548235 1.1097783
0.13468681 -0.28178754 -0.21491711 -0.018380895 -0.7929392 0.8213288 0.58190185 -1.8303311
-0.51647484 -0.68636835 0.44387656 0.19647112 0.2724519 0.14908817 -0.6490966 1.1721776
-0.0880473 1.2544347 -0.8905707 -0.1494027 0.058601838 -0.2830316 0.6748136 -0.14457381
0.10483161 0.2818883 0.2796204 0.09084563 1.4552397 0.55015135 0.094659515 0.36089212
-0.024344329 -0.17383821 0.4110011 0.6240526 -0.22971894 -0.13286474 0.26451167 0.15210815
0.5399141 -0.5846046 -0.39229727 -0.39512843 -0.3866718 -0.20175329 -0.16061673 -0.52024305
0.0313267 -0.255689 0.25291547 -0.16473398 -0.18603486 -0.34839183 0.20138122 0.2096011
-2.5805447 -0.099073246 0.9130112 0.30687293 0.3241176 -0.9100371 0.17401943 -0.18014725
0.30114523 0.21210612 -0.22859268 1.037247 -0.15723237 -0.47100008 0.12982833 0.6436334
-0.110219166 -0.57039064 -0.84231436 -0.4897102 -0.34366658 -0.12015938 -0.2558385 0.4448095
-0.45529002 -0.16183197 0.2813125 0.015275744 0.32912886 -0.07836061 1.1005949 0.13375328
-1.7940528 0.18539767 0.48644263 -1.0561898 -1.7631685 -0.24923569 -0.2057127 0.032156702
-0.07559517 -0.3000163 -1.6593171 0.7649279 0.13790856 1.44321 0.7844148 -0.5656587
1.6452175 1.220173 -0.22930364 0.2895539 -0.22842728 -1.3676271 -0.2141845 0.45146745
0.01828384 0.16799425 -0.20244187 -0.13691697 0.3770012 -0.24873851 0.27671182 0.14431357
-3.2520967 -0.14374717 -0.18835293 -0.2944303 0.5829257 0.73562586 0.15182857 0.537104
-0.9303642 -0.08811484 0.88131183 -0.019942608 0.032572705 -0.030364862 1.3370292 -0.50462633
-0.102994435 0.27677566 0.49166065 0.20932598 0.61559314 0.1658295 -0.5715868 0.1852942
-0.93060714 1.0497983 0.54856306 -0.45036685 0.27750525 -0.2684615 -0.47063753 -1.0582256
00000000: 8918 0dbe 837a 31bd 5586 48be 39e5 c1be
00000010: 2047 373e b2cd f0bc 38f2 093e b437 683e
00000020: ffa0 42bd 3381 35be 7438 c8bc 140e 963e
00000030: a409 d63d 5845 fe3c 0a11 58be 09ed 98bd
00000040: 4169 f1be deef ac3d 41e1 c43d fa19 0cbe
00000050: 6e25 58bd e34e 1d3e 406e 353e 92c4 293e
00000060: ceb8 e6bd ee96 c9bc 0b22 d3bd 12e3 833a
00000070: 49b5 3abe cecc c23c f444 763e c327 80be
00000080: 1072 d13f a483 623e e6fc b33e 6b94 053e
00000090: 926d 3dbe 8acc b03c 1b8d 9a3d addb b53c
000000a0: 6f5f b93e 3c40 813c 05d9 79bc 8f81 1ebe
000000b0: e191 0b3f 1e02 b0be 013b 38be ddfc 043c
000000c0: dae7 193e 3d09 893d a48e 28be 8775 a73e
000000d0: bf64 50bd a9fd e6bd 757d 553e c76d d4bc
000000e0: ed90 7e3e 992b 82bf 2250 3d3e d29f 813e
000000f0: 3228 e3be 17d1 cdbb ff84 82be 6236 56be
00000100: 6b5d 47bf 584e 193f c3bc 1a3e 1612 47be
00000110: ee77 d5bf f2d9 18bf 063a b2be 02eb 96be
00000120: 9ce5 07bd 3f53 a53f 311d abbe 81b5 263f
00000130: 88b8 1e3f bdea 87bd 4733 323f 8fbb aa3f
00000140: 2bd5 e83e d411 2d3e 9a9d f9bc f815 523f
00000150: b3ac 783f 0318 dabd c1b2 96be 64f2 8f3e
00000160: 2be3 f8be 4316 b3be b41a d73d 59cd 1cbf
00000170: c714 093d 1081 2e3b b2bc 97bd d414 32bf
00000180: 1cd8 09c0 c928 1cbe c606 a7bf 433d cfbd
00000190: ac3e 1e3d 1c94 143f 408c c3bd 370d 8e3f
000001a0: 57eb 093e 7546 90be 3b13 5cbe 8893 96bc
000001b0: 10fe 4abf 9b42 523f 85f7 143f 4a48 eabf
000001c0: b237 04bf d6b5 2fbf ca43 e33e ba2f 493e
000001d0: d17e 8b3e 92aa 183e 322b 26bf ea09 963f
000001e0: 2552 b4bd 5191 a03f 71fc 63bf 05fd 18be
000001f0: 7b08 703d 85e9 90be 96c0 2c3f 280b 14be
00000200: f5b1 d63d aa53 903e 682a 8f3e 460d ba3d
00000210: 4b45 ba3f b8d6 0c3f d9dc c13d dac6 b83e
00000220: c26d c7bc a502 32be bc6e d23e e9c1 1f3f
00000230: 713b 6bbe b20d 08be 136e 873e 3dc2 1b3e
00000240: cf37 0a3f a6a8 15bf 30db c8be 464e cabe
00000250: d9f9 c5be 6a98 4ebe b678 24be a62e 05bf
00000260: 6d50 003d abe9 82be 237e 813e 06b0 28be
00000270: ec7f 3ebe 6a60 b2be e136 4e3e aca1 563e
00000280: a527 25c0 eae6 cabd 1abb 693f 731e 9d3e
00000290: bef2 a53e 31f8 68bf 2632 323e 8578 38be
000002a0: b52f 9a3e 5932 593e 3314 6abe 82c4 843f
000002b0: 8601 21be ec26 f1be b8f1 043e 29c5 243f
000002c0: 96ba e1bd 1f05 12bf eaa1 57bf 4cbb fabe
000002d0: 11f5 afbe 1f16 f6bd 44fd 82be 12be e33e
000002e0: c61b e9be 48b7 25be 3108 903e 1d47 7a3c
000002f0: 9483 a83e 877b a0bd 4be0 8c3f 9ff6 083e
00000300: 86a3 e5bf e3d8 3d3e 020f f93e 3a31 87bf
00000310: 81af e1bf a437 7fbe 5aa6 52be bfb6 033d
00000320: a4d1 9abd bd9b 99be 8164 d4bf 51d2 433f
00000330: e737 0d3e 1bbb b83f 69cf 483f 02cf 10bf
00000340: 7d96 d23f a12e 9c3f 93ce 6abe 6940 943e
00000350: d7e8 69be 680e afbf 2e53 5bbe be26 e73e
00000360: fec7 953c af06 2c3e ec4c 4fbe f633 0cbe
00000370: 4d06 c13e 4fb5 7ebe 2cad 8d3e f0c6 133e
00000380: 5a22 50c0 7532 13be 97df 40be 91bf 96be
00000390: 9e3a 153f fa51 3c3f f378 1b3e a67f 093f
000003a0: 592c 6ebf 8e75 b4bd a79d 613f ae5e a3bc
000003b0: f56a 053d bbbf f8bc c623 ab3f 312f 01bf
000003c0: bfee d2bd 8ab5 8d3e f2ba fb3e 8d59 563e
000003d0: 8397 1d3f 35cf 293e 8353 12bf c3bd 3d3e
000003e0: 453c 6ebf ca5f 863f a16e 0c3f 7c96 e6be
000003f0: 2b15 8e3e c973 89be 67f7 f0be f073 87bf
