imitation_learning/logs/bc_state/checkpoints/ckpt_12000.pt (torch, 14440 bytes, 4 tensors)

bias f4 [16]
000000 0f e8 2b bd fc 94 21 be 44 fb 5d 3d 4f e2 c2 bc
       -0.041969355 -0.1577949 0.054194704 -0.023789553
000010 db 12 e7 3d 0f 57 c6 3a 13 18 9e 3c 08 a0 93 3d
       0.11282893 0.0015132147 0.019298589 0.07208258
000020 62 e8 9e ad a5 cd 0b 3e 05 f5 68 bd 63 c5 f1 3d
       -1.8065719e-11 0.13652666 -0.056874294 0.11805227
000030 3c 55 31 3e f8 e1 c0 3c cc cb 31 be 17 d4 08 be
       0.1731767 0.02354525 -0.17362899 -0.13362156

weight f4 [16, 10]
000000 a9 43 5b bb 73 69 f7 b9 bb cd c5 3c fe cf c7 3c
       -0.0033457077 -0.00047190077 0.024145951 0.02439117
000010 21 94 8f 3c d2 60 07 bc a8 ec 65 3b 1f ce b5 3d
       0.017526688 -0.00826283 0.0035083685 0.08877205
000020 da 8b ac bc 2d c1 e7 bd a0 97 5a 3f 0a f2 67 bf
       -0.02106278 -0.11316142 0.8538761 -0.906037
000030 46 75 e0 bd 52 62 7e be 17 7e 4e 3e 9c 93 67 3b
       -0.10959868 -0.24842194 0.20165287 0.0035335785
000040 28 f2 e9 be 0b 23 c4 3e 9a 88 a0 be 51 d4 77 3e
       -0.45692563 0.38307986 -0.3135422 0.24202086
000050 05 6d 68 3d 8e 1d 14 be c4 80 63 3c b8 d3 5e 3e
       0.056744594 -0.14464399 0.013885681 0.21760452
000060 15 e5 43 3d 45 66 d8 bd fe f5 ac 3d 77 59 2f be
       0.04782589 -0.10566381 0.08445357 -0.17123972
000070 66 86 e2 be 8e f2 4e 3f 32 f4 85 bb 7d ca b4 be
       -0.44243163 0.8083886 -0.0040879482 -0.35310736
000080 e7 cf e3 bd d4 8c 43 bc ac c3 1a 3e 9b d1 0c 3f
       -0.111236386 -0.0119354315 0.15113705 0.5500733
000090 39 5b 32 3e bb 51 91 be 46 e8 80 be 17 04 ad bd
       0.17417611 -0.28382668 -0.2517721 -0.08448046
0000a0 ec 96 8f bd 9d 90 37 3e eb a1 8d 3d b3 26 00 bd
       -0.07011208 0.1792626 0.06915649 -0.031286906
0000b0 20 3c 29 3d 27 a2 ec be 59 48 57 bd 87 60 17 3c
       0.041317105 -0.46217462 -0.05255923 0.0092393225
0000c0 98 2c de 3b 04 a5 88 bd 87 7d c0 3a 9b d1 2e bd
       0.0067802183 -0.06672099 0.0014685848 -0.042680364
0000d0 a5 88 b5 3d a2 0e 89 be 69 0f 7c 3d 85 7f c2 3d
       0.088639535 -0.26768976 0.061538134 0.09496979
0000e0 83 86 84 3d 9a e2 76 bf 0a 2b 66 3e e0 ac b8 3e
       0.064709686 -0.96439517 0.22477356 0.36069393
0000f0 91 5e 82 3c 2c 62 2e bd 6b 4b 9f 3e f2 7e d9 bc
       0.015914233 -0.042574093 0.31112227 -0.02654979
000100 fb 56 81 be 5b 94 c7 3e 59 18 8a 3e 20 dc 2f 3f
       -0.25261673 0.38980374 0.269717 0.6869526
000110 3e 1f 04 3f d8 6b ce 3d 37 e3 78 be c1 2f ad 3f
       0.5161017 0.10079163 -0.24305426 1.3530198
000120 0a 66 9a 3d 70 f5 6a be fc b6 83 be 78 a9 40 bd
       0.07538994 -0.2294519 -0.25725543 -0.047036618
000130 42 81 1f 3f b9 80 05 be 26 43 64 3e 0f bf 19 3e
       0.62306607 -0.13037385 0.2229124 0.1501429
000140 93 a7 84 ae f4 e7 6e 2d 6d 43 43 2d a4 99 75 2d
       -6.032432e-11 1.3580238e-11 1.1099438e-11 1.3960753e-11
000150 ee 6d d7 ac 57 be 80 ac 9c e8 ba ad 9a 43 11 2d
       -6.122872e-12 -3.6591108e-12 -2.1249051e-11 8.257306e-12
000160 36 c0 e0 ab f3 07 ec ab bd 35 8c 3e f9 f1 d7 3e
       -1.5969507e-12 -1.6771015e-12 0.2738475 0.42176798
000170 b2 fc 82 be 0b fb c9 bd 85 8e 34 bd 12 07 9e bc
       -0.25583416 -0.09862336 -0.04408123 -0.01929048
000180 51 49 05 3e 29 d3 f9 3c e9 ea 42 be 8a 88 b6 bd
       0.13016249 0.030496197 -0.19034924 -0.089127615
000190 ef 9e 8e 3d 5e 38 0b bf 95 87 09 3d 1f 93 0f 3f
       0.06963908 -0.54382885 0.033576567 0.56083864
0001a0 e6 ce c1 bd cd ae 5a be 3f 1b d1 3e ce d2 a8 be
       -0.09463291 -0.21355744 0.408411 -0.3297333
0001b0 9a 14 4b 3f cf f0 1b 3e 02 0e 5f bd a2 3a 07 be
       0.7932831 0.1522858 -0.05445672 -0.1320596
0001c0 17 8b dd 3d 4d 1b cd bc ae 72 69 3e 6e 1a e5 3e
       0.10817545 -0.025037432 0.22797653 0.44746727
0001d0 63 2c c6 bd f0 ce ed bd fd ad 2f be 01 84 c1 bd
       -0.09676435 -0.11611736 -0.17156215 -0.09449006
0001e0 84 80 63 be 40 36 99 be c5 97 19 bd 3f 70 09 3e
       -0.22216994 -0.29924202 -0.037498254 0.13421725
0001f0 01 0d 47 3e 80 08 bf be d5 b1 ab 3e ac 52 9d bd
       0.19438554 -0.37311172 0.33534113 -0.07681784
000200 76 33 39 be 95 fa 2c be 7c ee bf 3c 95 77 65 bd
       -0.18086037 -0.16892464 0.023429148 -0.056022245
000210 02 05 c4 bd 82 ed 85 3e 94 3f 26 3e db 6c 37 3c
       -0.09571268 0.26157767 0.1623519 0.011195387
000220 7f b7 ee bc 15 24 eb bd a2 53 fa 3e 9d b6 9c 3f
       -0.029140232 -0.114814915 0.48891932 1.2243229
000230 b0 72 7a be 16 5c c9 3e f1 47 03 3f f9 5d b6 3d
       -0.24457812 0.39328068 0.5128165 0.089046426
000240 bc fb 12 3e d0 98 9a 3d 0e 08 36 be 91 ba 40 bd
       0.14353842 0.07548678 -0.1777651 -0.047052924
000250 47 53 88 bd 1a 16 ba be 22 07 7a bc 2b b4 b3 3d
       -0.06656509 -0.36344987 -0.01526049 0.08774599
000260 15 5c 6c 3e 60 48 00 3e 9b 09 3c 3b 59 0f 91 bd
       0.23082002 0.12527609 0.0028692249 -0.070830055
000270 59 0f 6a bc 92 82 1c 3e f1 86 ff be bf b7 37 bf
       -0.014285886 0.15284184 -0.4990764 -0.7176475

bias f4 [8]
000000 f8 69 f2 bd 08 a9 83 bd 55 93 dd 3c 03 ef f8 bd
       -0.11836618 -0.064287245 0.027047792 -0.12154963
000010 3b 38 89 bc bc a9 49 3e d6 58 85 3e a1 04 96 3d
       -0.016750446 0.19693655 0.2604434 0.07325102

weight f4 [8, 16]
000000 33 a0 1d 3d dd ca 3c 3e 2a f9 88 be b1 a0 3f bc
       0.038482856 0.18436761 -0.26752597 -0.011696027
000010 49 62 af 3d 15 87 c4 3e 48 0d ca be 0f b9 3a 3f
       0.08563668 0.3838431 -0.39463258 0.72938627
000020 94 72 6c ad 03 65 d9 3c 46 a3 c8 be ea a6 2b 3e
       -1.3440488e-11 0.026537424 -0.39187068 0.16762891
000030 7f a9 84 be 50 c8 d2 3d 28 ab 5f 3e 6c 01 b8 3e
       -0.25910565 0.10292113 0.21842635 0.35938585
000040 2f 6b f1 bd 6c 7d 90 3f b1 07 2a bf 39 3e d7 bd
       -0.11788022 1.1288276 -0.66417986 -0.10509915
000050 1c 9c 4c bb d0 b6 20 bf 3a 62 bb 3e ca 1b 70 3f
       -0.0031220978 -0.6277895 0.36598378 0.937924
000060 b1 71 6b 2d a2 8d 4f 3e ae 35 0b 3f 0c 8a 7d be
       1.3383448e-11 0.20268872 0.54378784 -0.24759692
000070 79 d5 93 be 6c e8 0e bf 58 5b 53 bd 68 fe 05 bf
       -0.28873804 -0.558234 -0.051600784 -0.5234132
000080 a6 6b e4 3c 2e 05 be bd 71 4f b3 bd f8 ad 11 bf
       0.027883362 -0.09278332 -0.087553866 -0.5690608
000090 a3 d1 d3 3e ce 89 23 3e 68 07 93 be 3f 03 06 3f
       0.41370878 0.15970537 -0.28716588 0.52348703
0000a0 4a 34 3f ad ad c8 6b bd fc c1 55 be df 1e ce be
       -1.08687035e-11 -0.057564426 -0.2087478 -0.40257928
0000b0 d7 5d 0b 3e 79 54 d9 3d 0f ac 47 3e 97 80 88 3e
       0.13610016 0.10611815 0.19499229 0.26660606
0000c0 bb 49 b4 3b 0a e6 4a 3f a1 20 02 3f 23 6e 85 be
       0.0055019534 0.7925726 0.5083104 -0.2606059
0000d0 11 27 92 bd 19 cf 67 be e5 42 a3 3d 49 ed f0 3e
       -0.071363576 -0.22637595 0.079717435 0.47056034
0000e0 68 78 dc 2c 82 f4 eb bd 35 7a 6c be 49 c5 88 be
       6.266144e-12 -0.115212455 -0.23093493 -0.26713017
0000f0 40 fd d1 be 88 b0 3d 3f f5 0f 82 3e c2 d2 63 bd
       -0.41013527 0.7409749 0.254028 -0.055620916
000100 63 3d bc 3c 50 76 15 bd 6c e9 8e be 3e 8f 6c 3e
       0.02297849 -0.036489785 -0.27912462 0.23101518
000110 4f 6d 49 be db 17 2c 3e b1 a6 e6 3e f1 4a 25 3f
       -0.19670604 0.16805975 0.4504905 0.64567477
000120 a7 45 35 ae e7 4d 73 3c f0 a6 39 bf 21 38 82 3e
       -4.12165e-11 0.014850116 -0.7252035 0.25433448
000130 21 ce df be eb 24 df 3d f5 3c b5 3e b6 ec 97 3e
       -0.4371195 0.108957134 0.3539807 0.29672784
000140 2f b5 97 bd dc d8 0f bd d3 da a9 be fc 22 2f 3e
       -0.07407605 -0.035118923 -0.33174762 0.17103189
000150 62 ff 91 3d e0 8a 15 bf 84 be d1 be 2f 61 e2 3e
       0.071287885 -0.5841503 -0.40965664 0.4421477
000160 57 d2 5f 2a f2 d7 15 3f ce 3f 24 bf ec b7 91 3d
       1.9879355e-13 0.5853263 -0.6415986 0.071151584
000170 51 20 66 3e 62 9a 77 bf 3e 9d 33 bf c4 0e 0b bf
       0.22473265 -0.96719944 -0.7016181 -0.54319406
000180 41 c1 bb bc f9 75 04 bf 93 fd 92 bd c1 ed c4 be
       -0.0229193 -0.5174251 -0.07177272 -0.38462642
000190 a5 97 47 3e 9f d8 df be 6d 4b 1c 3f a9 73 66 bd
       0.19491442 -0.43719956 0.6105259 -0.056262646
0001a0 58 bc 51 2e e1 d1 56 3d 7c 28 ad be 95 e9 ec bb
       4.768838e-11 0.05244625 -0.3381995 -0.0072299936
0001b0 81 56 15 be aa 6f 29 3e dc 98 b1 bd 1d 54 5c bd
       -0.1458378 0.16546503 -0.08671734 -0.053791154
0001c0 7c 32 a4 38 23 47 c1 3b bc 5f e7 3a b0 64 bc 39
       7.829533e-05 0.0058983727 0.0017652432 0.00035933172
0001d0 72 f0 53 3c d8 a3 85 3a 97 8e fe 3b 38 44 06 3c
       0.012935745 0.0010195924 0.007768463 0.008194976
0001e0 3b 77 66 2b a1 b4 99 3c 80 7e da 39 03 cd a7 3c
       8.187788e-13 0.018762888 0.0004167445 0.0204835
0001f0 0f 89 87 3c e6 22 be 3b 3c bf a6 3b 46 87 de bb
       0.016544847 0.0058025 0.005088715 -0.006791028
