imitation_learning/logs/bc_state/checkpoints/ckpt_28000.pt (torch, 14440 bytes, 4 tensors)

bias f4 [16]
000000 e9 88 00 80 be b8 27 be 8d 89 b0 3d f4 c0 88 3b
       -4.9114e-41 -0.16379067 0.08619986 0.0041733924
000010 11 e9 1a 3e 9c 9c 2f bc 87 34 15 3d 48 0f 00 3e
       0.1512797 -0.010718491 0.036427047 0.1250583
000020 42 9f 00 80 e2 00 d3 3d 62 bc 15 bc c1 67 2d 3d
       -5.7131e-41 0.10302903 -0.009139152 0.042335276
000030 02 6e 72 3e 63 0a e9 3d e1 ca 7d be 0b 77 0c be
       0.23674777 0.11378934 -0.24784423 -0.13717286

weight f4 [16, 10]
000000 4e 8d 00 80 e4 93 00 00 4e 8a 00 00 8b 90 00 80
       -5.069e-41 5.3053e-41 4.9614e-41 -5.1852e-41
000010 73 89 00 80 6f a7 00 00 8c 8a 00 00 41 93 00 00
       -4.9307e-41 6.0064e-41 4.9701e-41 5.2825e-41
000020 71 91 00 00 13 8c 00 80 90 d6 66 3f 5d 29 55 bf
       5.2175e-41 -5.0249e-41 0.90171146 -0.8326624
000030 30 9f 42 be 50 b1 70 be 66 f3 69 3e e0 3a de 3b
       -0.19006038 -0.2350514 0.22846755 0.006781921
000040 c2 1d f9 be 09 38 df 3e b6 d9 d7 be 3e ad 8e 3e
       -0.48655516 0.4359744 -0.42158288 0.27866548
000050 b5 0b 12 3d 63 f1 a0 bd 14 87 cd 3b 28 64 8a 3e
       0.035655696 -0.07858541 0.006272206 0.27029538
000060 a4 80 1f 3c 5f 01 20 3e 2b 47 02 3d c9 6f 6b be
       0.00973526 0.15625523 0.031806152 -0.22991861
000070 09 0c d8 be 0e e4 44 3f 9c 46 2b 3d 10 0f 6b be
       -0.42196682 0.76910484 0.041815385 -0.22954965
000080 da 31 ba 3c d1 b6 a4 3d 9e f2 39 3d b9 fb db 3e
       0.02272885 0.08042682 0.045397393 0.42965487
000090 86 f2 01 3e 31 cf 92 be c2 72 9a be d2 fa 08 3e
       0.12690172 -0.286737 -0.30165678 0.1337693
0000a0 09 cc 60 bc 56 b4 f5 3d 31 b8 2d 3e 0c ee f0 3d
       -0.013720521 0.11997287 0.16964795 0.11764154
0000b0 63 07 89 bd 1f 9e 58 bf 16 f2 a0 bd 40 4f ff 3d
       -0.06690862 -0.84616274 -0.07858674 0.124662876
0000c0 4a 6d 20 3e 61 0b 14 3f 7e 7b 8e 3b 7f 73 55 bd
       0.1566669 0.5782986 0.0043482175 -0.0521121
0000d0 16 26 1c bb d1 59 44 be 98 29 c4 3d ce 3d a4 bd
       -0.0023826412 -0.19174887 0.09578246 -0.08019601
0000e0 c4 18 b1 3d 1d 4a 69 bf 49 be 48 3e 12 e8 05 3f
       0.08647302 -0.9112871 0.19603838 0.52307236
0000f0 af 07 1d 3c e3 59 83 bd 51 10 a0 3e 6a 4e 5b ba
       0.009584351 -0.06413629 0.31262448 -0.00083658716
000100 86 ca 89 be 2e 76 cb 3e 28 1a 87 3e 53 40 2a 3f
       -0.26912326 0.397386 0.26387143 0.665044
000110 1a 98 04 3f 01 18 d2 3d 00 1c 61 be 3e ac ac 3f
       0.5179459 0.10258485 -0.21983337 1.3490064
000120 9e 22 24 3d 7c 6f 8d be ec ca a1 be 0d 3b 01 3d
       0.040072076 -0.27624118 -0.3160013 0.031550456
000130 7a 6e 16 3f 65 95 18 be 6a 2f 2d 3e d5 43 12 3e
       0.58762324 -0.1490074 0.16912618 0.14283688
000140 8e 8e 00 00 89 9e 00 00 1f 89 00 80 47 a1 00 80
       5.1139e-41 5.6872e-41 -4.919e-41 -5.7855e-41
000150 30 8a 00 00 ae 93 00 00 bc 8b 00 80 e4 91 00 80
       4.9572e-41 5.2977e-41 -5.0127e-41 -5.2336e-41
000160 47 8d 00 00 65 a0 00 00 eb eb 0f 3e 60 83 57 3f
       5.0681e-41 5.7539e-41 0.1405484 0.8418484
000170 25 69 31 bd 60 cc 40 be 9f a9 ff 3c 6a b4 37 bd
       -0.043313164 -0.18827963 0.031208811 -0.04484979
000180 67 e7 0a be 97 a1 14 be 50 99 8f bd ba e1 c7 bc
       -0.13564835 -0.14514767 -0.07011664 -0.024399627
000190 33 fb 6d 3d da 71 f8 be 0d 5d fd 3b 89 d3 0e 3f
       0.05810089 -0.48524362 0.00773204 0.5579153
0001a0 f0 63 f0 bd eb 83 a0 be dd 6c c0 3e ec 60 b1 be
       -0.117378116 -0.31350645 0.37583056 -0.34644258
0001b0 e6 e5 40 3f b4 d3 21 3e a2 fd 65 3c b5 11 16 bf
       0.753508 0.15803415 0.014037522 -0.5862077
0001c0 35 0d 3f 3e e5 0c 98 3e c2 0d a4 3e 85 88 57 3e
       0.18657382 0.29697338 0.32041746 0.21048172
0001d0 c8 a8 98 be 20 9b 30 be 68 03 c3 bd 0e d9 5c be
       -0.2981627 -0.17246675 -0.09522134 -0.21567175
0001e0 05 47 71 be 19 4e ad be 00 ff 07 bd 99 d4 3f 3c
       -0.23562248 -0.33848646 -0.03320217 0.011708402
0001f0 72 45 e4 3d 13 56 b4 be ae 22 a3 3e f2 4f 26 3c
       0.11146058 -0.3522192 0.31862396 0.010150896
000200 ca b0 42 be 16 97 d7 bd 5b 47 1e 3d 7c 37 cb bd
       -0.19012752 -0.10526864 0.03864227 -0.09922692
000210 31 13 d8 bd cd 52 3f 3e 18 86 3a 3d 1e 9b b3 3e
       -0.105505355 0.1868393 0.045538038 0.35079283
000220 fa da 80 bc b6 7e aa bd 13 f4 09 3f 2e de 87 3f
       -0.015729416 -0.083249494 0.5388805 1.0614679
000230 af 9a 96 be d9 81 28 3f 56 25 21 3f 7c 4b f5 3d
       -0.2941489 0.6582313 0.62947595 0.11977288
000240 6f d0 62 3e 8c 63 41 bd 0e 3a 73 be de ad 8c bd
       0.22149824 -0.047214076 -0.23752615 -0.068691
000250 fe 53 a0 bd 0a 6a 03 bf 97 4b 3b bb 94 2f c2 3b
       -0.0782852 -0.5133368 -0.002857899 0.005926082
000260 50 8b 05 3d 9e 2c 3f 3e 14 5c 2f 3d df 81 23 bd
       0.032603562 0.18669364 0.042812422 -0.039918777
000270 60 65 c6 3d ec 99 7f 3e 86 4a 06 bf c4 8c e9 be
       0.096873045 0.2496106 -0.52457464 -0.45615208

bias f4 [8]
000000 4e 2a 0a be 8a 58 9e bd e3 64 dc bc 2d ac 1a be
       -0.134927 -0.07731731 -0.026903575 -0.15104742
000010 83 a6 81 bb 9c d8 96 3e 4f 99 67 3e 06 35 9d 3d
       -0.0039566173 0.29462135 0.22617076 0.07676129

weight f4 [8, 16]
000000 11 a0 00 80 7f 7b ae 3d f3 e4 3d be 1c e0 27 be
       -5.7421e-41 0.08519649 -0.18544368 -0.16394085
000010 a8 b8 2a bd 88 8d a7 3e a1 11 c7 be 6a 1d 57 3f
       -0.04168001 0.32725167 -0.38880637 0.8402926
000020 95 9c 00 00 68 21 17 3c dc 49 be be 57 08 cb 3e
       5.6171e-41 0.009224273 -0.37165725 0.396548
000030 70 07 99 be 0f e2 fe 3d a2 5b 31 3e 64 14 8a 3e
       -0.29888487 0.12445461 0.17320111 0.26968682
000040 dd 8f 00 80 32 15 98 3f 6b 0a 2f bf 4f 91 8b be
       -5.1608e-41 1.1881468 -0.6837527 -0.272593
000050 48 c1 ca bd 8e 93 25 bf a2 d1 cd 3e 7e 2c 5f 3f
       -0.09900147 -0.64678276 0.40199 0.87177265
000060 a7 8a 00 80 5d b7 bf 3d 34 68 07 3f 52 ca 7f be
       -4.9739e-41 0.09361146 0.52893376 -0.24979523
000070 ff f7 88 be ca bc db be 91 cc 55 bd 88 56 19 bf
       -0.26751706 -0.42917472 -0.052197043 -0.5989766
000080 b2 ac 00 00 16 f7 a2 ba ee 57 89 be 93 31 f6 be
       6.1951e-41 -0.0012433256 -0.26824898 -0.48084697
000090 06 38 0b 3f 27 c7 8a 3e 86 76 a3 be 27 e8 cb 3e
       0.5438236 0.27105066 -0.31926364 0.39825556
0000a0 9b 93 00 00 b7 fa e6 3b 47 93 8a bd 05 0f e5 be
       5.2951e-41 0.0070489305 -0.06766372 -0.44738021
0000b0 42 b9 24 3e fe 69 eb bd df d6 cc 3e 18 e6 84 3e
       0.16086295 -0.11494826 0.40007684 0.25956798
0000c0 5a 8d 00 00 8a 5f 59 3f 7b 67 e5 3e 1f 59 86 bd
       5.0707e-41 0.84911406 0.44805512 -0.06559967
0000d0 79 2d 12 3f 75 f6 09 be 28 64 a6 3d 95 69 ca 3e
       0.57100636 -0.13472922 0.08124572 0.39533678
0000e0 7e 89 00 00 79 9d ff be 93 dc 48 be e8 7f 0b bf
       4.9323e-41 -0.4992483 -0.19615392 -0.54492044
0000f0 50 a6 a7 be 8a 13 10 3f 40 57 e8 3e dc 1a 05 be
       -0.32744074 0.56279814 0.45379066 -0.12998527
000100 61 8f 00 00 bd f0 d5 3a 36 d8 16 be b7 1a de 3d
       5.1435e-41 0.0016322356 -0.14730915 0.10844939
000110 df f8 f6 be e7 68 ab 3d 5a e6 bd 3e f2 6d 34 3f
       -0.4823675 0.08369618 0.37089807 0.70480263
000120 89 95 00 00 c0 97 09 be 3d 52 45 bf ef 6c 00 3e
       5.3643e-41 -0.13436794 -0.7707861 0.12541555
000130 df e2 ae be e8 2d be 3e 07 f2 e6 3e c0 22 52 3e
       -0.34157464 0.371444 0.45106527 0.20521069
000140 16 92 00 80 58 b5 69 3d 59 4c b0 be e9 84 af 3c
       -5.2406e-41 0.05705771 -0.3443325 0.021425681
000150 1a 4b ae be 45 3f 1c bf 47 68 cf be b1 04 e3 3e
       -0.34041673 -0.6103404 -0.40509245 0.44339517
000160 32 91 00 00 c4 c6 2f 3f 93 2a 14 bf 2f 37 1c be
       5.2086e-41 0.6866267 -0.57877463 -0.15255426
000170 75 e9 a1 3e fe 93 78 bf 87 11 5e bf 69 ea 51 be
       0.31623426 -0.9710082 -0.86745495 -0.20499577
000180 b0 97 00 80 a2 c8 ea be 24 1c b4 bd 71 3b a3 be
       -5.4415e-41 -0.45856196 -0.0879443 -0.31881288
000190 69 24 dc 3e 4c a3 e0 be 56 af 1f 3f 9a 02 ef bd
       0.4299653 -0.43874586 0.62376916 -0.11670418
0001a0 d8 98 00 00 d6 1a 84 3e 84 9d b2 be 61 fb 2d be
       5.483e-41 0.25801724 -0.348858 -0.16990425
0001b0 d7 ef a5 bd e8 02 14 3d 69 09 10 be 52 e3 97 3d
       -0.081023864 0.036135584 -0.1406609 0.07416405
0001c0 81 43 00 80 26 01 e4 3b e3 21 1f 3b 37 61 a7 3a
       -2.4216e-41 0.0069581447 0.0024281673 0.0012770061
0001d0 7f 04 ed 38 be 1b 49 b9 f2 a4 eb 3b 63 72 22 3c
       0.00011301878 -0.00019179189 0.007191294 0.009914967
0001e0 49 9b 01 80 40 ef a5 3c 9b 15 68 ba 2d a0 2a 3c
       -1.47541e-40 0.020255685 -0.0008853317 0.010414165
0001f0 85 84 b5 3c 96 13 8d 3b c5 a2 96 3b 65 5d 16 bb
       0.022157917 0.0043053133 0.0045970404 -0.002294385
