imitation_learning/logs/run_2024-05-27/checkpoints/ckpt_48000.pt (torch, 15656 bytes, 4 tensors)

bias f4 [32]
-0.45800355 -0.040021308 0.19169281 -0.037426822 0.2975189 -0.2597523 0.014502606 -0.041208792
0.16910504 -0.35081992 0.1903864 0.40155515 -0.069960095 -0.16957545 0.34003502 0.05320152
0.18092215 0.14554396 -0.29679736 -0.053198107 -0.11770651 -0.010343192 -1.4632167 -0.25061637
0.62553895 0.030326476 -0.67181325 0.16264342 0.030150542 0.30199823 0.19440828 0.08645355
00000000: 717f eabe 62ed 23bd 1f4b 443e de4c 19bd
00000010: 6654 983e 41fe 84be 579c 6d3c 8dca 28bd
00000020: df29 2d3e ab9e b3be a7f4 423e a398 cd3e
00000030: 3d47 8fbd 30a5 2dbe 1219 ae3e d6e9 593d
00000040: a843 393e 7a09 153e d3f5 97be 42e6 59bd
00000050: 1c10 f1bd 7e76 29bc af4a bbbf ca50 80be
00000060: 5223 203f 3b6f f83c f4fb 2bbf ff8b 263e
00000070: 45fe f63c 839f 9a3e f712 473e 8f0e b13d

weight f4 [32, 10]
-0.04946574 0.06791617 0.16470432 -3.8603678 0.4666596 -0.91897124 -1.0340896 0.49508682
-1.3366053 -0.8744851 0.20502284 -2.3013272 0.07702518 0.3284228 -1.5447131 0.78994364
1.0981222 -1.0832046 0.7189346 0.47718662 0.407391 -0.09432705 -0.12956573 1.4605981
-0.13230124 -0.7199617 0.65095687 -0.8592763 -0.0060938527 1.7247245 -0.034974832 -0.877156
0.14938632 1.1113472 -0.8064056 0.86474735 1.0485188 -0.5715933 0.5137487 0.3595633
0.26839373 -0.65335184 0.0403301 -0.19770777 0.55312794 0.31178346 -0.44243714 -0.32587045
0.16235963 -0.25273022 0.28995386 0.6525067 0.2905637 -0.52921796 0.25472817 -0.31965333
0.038052645 0.80562085 -1.7338667 -1.2633562 0.22344306 0.97593534 -0.47323263 -0.87320757
0.39422348 -0.15905102 0.035214793 2.2508662 0.2528935 -0.16980383 -0.124254875 0.5338657
0.18788096 -0.19534762 0.4753396 0.88225394 -0.034957334 -0.89404887 -0.41307616 -0.08279505
-0.0018369379 0.4314089 0.11340905 -1.2700683 -0.2924002 -0.5575946 -0.15628104 1.8133923
-1.7837994 -1.1435292 0.54335773 1.1263965 -0.69160116 -0.03700556 0.34346184 -0.7753641
0.29257476 0.11923439 0.3965566 -0.4973407 0.13655901 -1.2147176 0.20653579 1.716967
0.59190345 -0.21971822 -0.88161 0.6444627 -0.09460974 -0.43659556 0.37585518 -1.2933998
-0.35788864 0.82314795 0.7208632 -0.516117 -0.9717112 -0.40227714 -0.39366487 -0.63092995
0.009952456 1.7721809 0.13838637 -0.93098545 0.21341982 -0.30653936 0.20555879 -0.45414272
-0.84770024 0.37586126 0.2631977 -1.9356898 -0.1040926 -2.2610624 0.87630147 0.31693408
-2.0058563 -0.27571607 -1.4153544 -0.037857804 -0.65737414 0.767774 -0.2513653 0.21110138
0.18027876 -0.40514642 0.38756046 -0.16848047 1.765933 -0.6319401 0.0136968605 -0.26095992
-0.13645701 -0.01281191 -0.23481226 0.43324408 0.47905058 0.93185484 1.7341012 0.81019557
0.045115527 0.27119035 -0.2349376 -1.413729 -0.00083315256 -1.0588523 -0.35248238 2.6810791
-1.4512081 -0.9500026 -0.5217033 -0.18516429 0.15827057 0.1366647 0.5396167 -1.0614487
-0.46260476 0.10659749 1.0704293 -0.946922 -0.30699903 0.5370061 1.0330964 0.54874825
0.06337171 -0.073174976 -0.017330654 0.30533028 -0.37506622 0.10566858 -0.1024915 1.404469
-0.073502205 0.39476538 -0.055460602 -0.7946918 0.3362331 0.63109654 0.8946709 -0.44617635
0.021229383 -0.22829755 0.09459602 0.6196263 -0.4155437 -1.18759 0.7636043 0.35733885
1.2172862 1.4135044 0.06819875 -0.16389406 -0.19584174 -0.0014068648 -0.2831081 -0.33324838
-0.03117182 0.026626388 0.08497353 0.16137399 0.885638 1.6596775 0.6454599 -1.4611394
0.4649372 -0.5448195 0.309935 0.011614512 -0.872585 0.034569964 -1.1207168 -0.67247885
-0.22845301 0.42109448 0.5676871 -0.069437176 -0.12917471 0.033043146 -0.69463414 -0.6301099
-0.48428395 -1.4544561 0.112053715 1.013876 -1.2002687 0.14275949 0.8938707 -0.014944491
0.1723212 0.3854563 -1.7721548 2.1610477 0.5790998 0.6382484 -0.30298516 0.21763918
00000000: 969c 4abd a217 8b3d 40a8 283e 4410 77c0
00000010: 02ee ee3e b341 6bbf 0c5d 84bf 057c fd3e
00000020: e215 abbf 41de 5fbf 82f1 513e f248 13c0
00000030: 61bf 9d3d 0927 a83e 29b9 c5bf bf39 4a3f
00000040: 458f 8c3f 73a6 8abf 190c 383f ce51 f43e
00000050: 8e95 d03e 8a2e c1bd e1ac 04be e1f4 ba3f
00000060: fa79 07be 694f 38bf 1ca5 263f 88f9 5bbf
00000070: f1ae c7bb c6c3 dc3f c541 0fbd 4c8d 60bf
00000080: baf8 183e a040 8e3f 9970 4ebf 1560 5d3f
00000090: dd35 863f f053 12bf 0985 033f ae18 b83e
000000a0: e76a 893e 1142 27bf 2d31 253d e873 4abe
000000b0: cb99 0d3f 15a2 9f3e 1f87 e2be 7ed8 a6be
000000c0: 9a41 263e db65 81be d574 943e ae0a 273f
000000d0: c4c4 943e d47a 07bf bb6b 823e 9aa9 a3be
000000e0: 17dd 1b3d 2b3d 4e3f 58ef ddbf a8b5 a1bf
000000f0: 42ce 643e e6d6 793f 8c4b f2be 888a 5fbf
00000100: a9d7 c93e 45de 22be 633d 103d 310e 1040
00000110: 427b 813e 0ee1 2dbe 5779 febd 6cab 083f
00000120: de63 403e 3509 48be b65f f33e 65db 613f
00000130: 6c2f 0fbd 63e0 64bf b87e d3be 7490 a9bd
00000140: 68c5 f0ba a1e1 dc3e 0143 e83d 9991 a2bf
00000150: 7bb5 95be 85be 0ebf 2308 20be 3d1d e83f
00000160: 8a53 e4bf 2a5f 92bf 7e19 0b3f c32d 903f
00000170: c60c 31bf 2493 17bd 3bda af3e 437e 46bf
00000180: 5ccc 953e 2931 f43d 7709 cb3e 71a3 febe
00000190: 20d6 0b3e de7b 9bbf 1e7e 533e 93c5 db3f
000001a0: fc86 173f d0fd 60be 31b1 61bf 82fb 243f
000001b0: c0c2 c1bd 7489 dfbe 1770 c03e 208e a5bf
000001c0: 2e3d b7be d3b9 523f 7e8a 383f 3e20 04bf
000001d0: 11c2 78bf 45f7 cdbe 718e c9be a084 21bf
000001e0: a00f 233c d3d6 e23f 28b5 0d3e 1055 6ebf
000001f0: ba8a 5a3e baf2 9cbe 017e 523e 6585 e8be
00000200: e202 59bf e370 c03e d9c1 863e afc4 f7bf
00000210: 802e d5bd 3fb5 10c0 4b55 603f 2f45 a23e
00000220: f35f 00c0 a82a 8dbe 552a b5bf c910 1bbd
00000230: ac49 28bf d68c 443f f4b2 80be f62a 583e
00000240: ff9a 383e 5a6f cfbe 536e c63e 2586 2cbe
00000250: 180a e23f d4c6 21bf cc68 603c 8a9c 85be
00000260: 63bb 0bbe 0ce9 51bc a072 70be 2bd2 dd3e
00000270: 1e46 f53e 0a8e 6e3f 07f7 dd3f fa68 4f3f
00000280: 0fcb 383d 76d9 8a3e 7b93 70be 12f5 b4bf
00000290: ec67 5aba 7988 87bf 9278 b4be cd96 2b40
000002a0: 30c1 b9bf 5f33 73bf 598e 05bf b59b 3dbe
000002b0: ae11 223e d5f1 0b3e 5224 0a3f 8ddd 87bf
000002c0: 88da ecbe c94f da3d d403 893f 7b69 72bf
000002d0: fa2e 9dbe 3b79 093f 813c 843f c47a 0c3f
000002e0: 07c9 813d c3dc 95bd 04f9 8dbc 4054 9c3e
000002f0: ae08 c0be c568 d83d 10e7 d1bd a4c5 b33f
00000300: 5388 96bd b01e ca3e a82a 63bd ec70 4bbf
00000310: bf26 ac3e 8b8f 213f 2709 653f 3a71 e4be
00000320: 3ee9 ad3c d5c6 69be 8fbb c13d d49f 1e3f
00000330: 25c2 d4be f302 98bf 927b 433f 1ef5 b63e
00000340: 09d0 9b3f b6ed b43f c9ab 8b3d d8d3 27be
00000350: bd8a 48be 8d66 b8ba 8bf3 90be 889f aabe
00000360: 0b5c ffbc 951f da3c 9a06 ae3d 393f 253e
00000370: 2cb9 623f 5070 d43f dc3c 253f 9e06 bbbf
00000380: 400c ee3e 4a79 0bbf cdaf 9e3e cb4a 3e3c
00000390: bb61 5fbf 3c99 0d3d a673 8fbf 9327 2cbf
000003a0: 96ef 69be b299 d73e f153 113f 1435 8ebd
000003b0: 6046 04be 4058 073d 8bd3 31bf e24e 21bf
000003c0: 11f4 f7be 9e2b babf 6b7c e53d b0c6 813f
000003d0: 68a2 99bf 8b2f 123e b6d4 643f bdd9 74bc
000003e0: f874 303e 875a c53e f8d5 e2bf 9b4e 0a40
000003f0: e23f 143f 3f64 233f df20 9bbe cedc 5e3e

bias f4 [8]
-0.012834299 0.120202884 -0.12562665 0.010063313 -0.07833498 -0.013361835 -0.1194771 0.10034163
00000000: f446 52bc ee2c f63d 46a4 00be 98e0 243c
00000010: 176e a0bd 99eb 5abc 69b0 f4bd ea7f cd3d

weight f4 [8, 32]
-0.23734184 -1.2666638 0.23623236 0.79808605 -0.07287589 -0.21879548 -0.0053749545 -0.21174641
0.34596595 -0.24366397 0.23740292 0.12781754 -0.039435774 -0.001657849 0.07431706 -0.10506686
-0.17345491 -0.017237106 -0.18217254 0.03231741 -0.20497803 -0.13434705 -0.48526827 -0.07813518
-0.7481352 0.242722 0.05387785 1.0846285 -0.14718124 -0.2140617 -0.07100367 -0.134109
1.2277524 2.314747 -1.4173757 -2.49782 -0.30979183 1.3556703 -0.73577964 0.02180288
-2.0739746 0.79078573 -0.8350304 -0.81728363 0.5161449 1.135075 -0.5593428 1.0790498
1.4300586 0.18559526 0.8830989 -0.07513851 -0.015068572 0.10648399 -0.5584707 -1.1494873
-0.9276992 1.4651057 2.4375262 -0.32088864 0.15282132 1.968611 1.1261096 0.9075933
-0.6214737 1.6524193 0.4381645 -0.9977354 -0.36035368 -0.012177099 0.5481677 0.30349025
1.1393048 -0.7261719 -0.07690866 -0.011512221 0.012359464 0.6979535 0.65816236 -0.69076145
-0.8796156 -0.21657494 -0.75293624 0.24634206 1.0825012 0.07514063 1.072731 0.06259929
-0.6539261 0.03669079 -0.87720287 0.012910187 -0.14298633 -0.5386588 0.1538543 -0.47354272
0.7380524 1.9824725 -0.19399157 -0.9540622 0.15984067 0.29272833 0.0440861 -0.06587944
-0.7765051 1.1890304 -0.8163824 -0.082476236 -0.46993157 0.015045896 -0.83265316 -0.2758333
0.073557414 -0.15895012 1.3188629 -0.22698489 0.25428203 0.08213591 -0.9679966 1.0911883
-2.3487601 1.1736802 -2.5650885 -2.5741305 0.9265157 1.1892571 0.6901464 1.7962562
-0.43993855 1.7539556 0.45896062 1.5710948 -0.61930376 -0.9484064 0.057267416 -0.30834505
1.0549002 -0.8959259 -0.0048425435 0.7926469 0.43426982 0.13462399 0.35705522 0.57102233
-0.31328198 0.023294631 -0.29800105 0.65521365 -1.6748589 -0.23551403 2.9241319 0.46944532
-0.74305385 0.2631827 -1.6164407 0.1541201 -0.92296916 -0.17581885 -2.9930913 -0.63245004
1.2324758 0.31263003 -0.57793736 -1.1997328 -0.45463386 0.33256504 0.25139147 0.66939366
-0.8733895 -0.29730564 -0.05178086 -1.296087 0.003396757 1.3097099 -0.22330664 -0.685808
0.5001105 1.06733 0.027349126 0.50892645 -1.2675775 0.25088125 5.700818 -0.6129875
1.8884406 -0.4418933 1.7324082 1.6246094 -0.11755189 -0.34935853 0.7065203 -0.34260255
-0.49085063 -0.48099527 -0.12863787 -0.69626653 0.4100904 0.28125304 0.9014374 0.17006908
0.6653267 0.47294194 -0.84300244 -0.26869956 0.37343937 0.7322059 0.2829202 0.454519
-0.81481 -0.20945771 0.100638464 -0.95265245 1.719722 -0.23564112 1.6581638 0.56675553
1.0520612 -0.80963886 -1.1853838 -0.50836205 0.6931424 -0.4955478 -0.4001658 -0.56488425
-4.2815544e-05 1.0205557e-07 1.8551409e-05 -1.7154556e-05 2.4345765e-05 1.4542023e-05 1.9838515e-05 -4.2617627e-05
-2.2747483e-05 -6.978811e-06 1.460424e-05 4.157194e-05 -3.349771e-05 -3.3120108e-05 2.4656629e-05 -3.285372e-05
-3.283138e-05 -2.7683394e-05 -7.441488e-05 2.5148474e-06 -1.7855496e-05 -0.30834156 7.817998e-05 4.583807e-06
1.1605192e-05 1.3604688e-05 3.1828567e-05 1.8374732e-05 4.2166543e-05 8.135392e-05 -5.4100798e-05 -2.9154357e-05
00000000: bd09 73be 0a22 a2bf e5e6 713e 5e4f 4c3f
00000010: f43f 95bd ec0b 60be 6320 b0bb 0dd4 58be
00000020: 7322 b13e 0c83 79be c019 733e 9ae2 023e
00000030: 6887 21bd 2e4c d9ba 8b33 983d 4b2d d7bd
00000040: 2a9e 31be d534 8dbc 708b 3abe 435f 043d
00000050: c3e5 51be 4692 09be 1575 f8be 5605 a0bd
00000060: ca85 3fbf 1e8c 783e 05af 5c3d 1bd5 8a3f
00000070: aeb6 16be fe32 5bbe 5f6a 91bd df53 09be
00000080: fe26 9d3f d124 1440 916c b5bf 48dc 1fc0
00000090: 099d 9ebe 9b86 ad3f 0e5c 3cbf f49b b23c
000000a0: 00bc 04c0 ef70 4a3f 8dc4 55bf 8039 51bf
000000b0: 1222 043f 234a 913f 1731 0fbf 4e1e 8a3f
000000c0: 290c b73f af0c 3e3e c512 623f 38e2 99bd
000000d0: 2ce2 76bc 4714 da3d f0f7 0ebf 6622 93bf
000000e0: b27d 6dbf 9588 bb3f 6e00 1c40 844b a4be
000000f0: 317d 1c3e 72fb fb3f 5c24 903f 0958 683f
00000100: e718 1fbf 7a82 d33f 1957 e03e 966b 7fbf
00000110: 4780 b8be 7482 47bc b854 0c3f 1363 9b3e
00000120: bdd4 913f 67e6 39bf 4a82 9dbd c19d 3cbc
00000130: 597f 4a3c 15ad 323f 547d 283f bed5 30bf
00000140: 7d2e 61bf d2c5 5dbe 6ec0 40bf 1841 7c3e
00000150: 668f 8a3f 55e3 993d 404f 893f 0e34 803d
00000160: b367 27bf 1549 163d 5e90 60bf 4085 533c
00000170: 026b 12be 8be5 09bf fb8b 1d3e 3174 f2be
00000180: 01f1 3c3f a9c1 fd3f baa5 46be 6c3d 74bf
00000190: 46ad 233e 7de0 953e a093 343d cdeb 86bd
000001a0: 0ac9 46bf 2632 983f 70fe 50bf 4de9 a8bd
000001b0: df9a f0be 1083 763c c228 55bf 063a 8dbe
000001c0: 45a5 963d d2c3 22be 80d0 a83f ba6e 68be
000001d0: 4131 823e df36 a83d a0ce 77bf 0fac 8b3f
000001e0: 1652 16c0 273b 963f 692a 24c0 8ebe 24c0
000001f0: 2230 6d3f 9439 983f 6fad 303f b9eb e53f
00000200: a03f e1be 9e81 e03f e3fc ea3e a219 c93f
00000210: b18a 1ebf c3ca 72bf 3d91 6a3d 67df 9dbe
00000220: f806 873f 665b 65bf 33ae 9ebb e8ea 4a3f
00000230: 9d58 de3e dfda 093e f1cf b63e 852e 123f
00000240: 7f66 a0be 62d4 be3c 9893 98be 15bc 273f
00000250: c761 d6bf 972a 71be fa24 3b40 235b f03e
00000260: c738 3ebf e2bf 863e 87e7 cebf a9d1 1d3e
00000270: b547 6cbf db09 34be cf8e 3fc0 3fe8 21bf
00000280: c4c1 9d3f 0b11 a03e b4f3 13bf d890 99bf
00000290: c5c5 e8be f745 aa3e 62b6 803e 625d 2b3f
000002a0: 7496 5fbf 7238 98be 2b18 54bd 2ee6 a5bf
000002b0: 209c 5e3b 93a4 a73f 7faa 64be 1d91 2fbf
000002c0: 3e07 003f 459e 883f 460b e03c 0149 023f
000002d0: fb3f a2bf 8273 803e 1a6d b640 c0ec 1cbf
000002e0: 6cb8 f13f d73f e2be 8dbf dd3f 33f3 cf3f
000002f0: 0cbf f0bd 1fdf b2be 84de 343f 9a69 afbe
00000300: c650 fbbe 0345 f6be a5b9 03be 863e 32bf
00000310: 5ef7 d13e 6600 903e 9ac4 663f 9726 2e3e
00000320: da52 2a3f 7225 f23e 02cf 57bf fd92 89be
00000330: 7233 bf3e d971 3b3f ebda 903e b7b6 e83e
00000340: 6397 50bf 157c 56be 8a1b ce3d 08e1 73bf
00000350: da1f dc3f e84b 71be b63e d43f e416 113f
00000360: f1a9 863f 7e44 4fbf a8ba 97bf 0424 02bf
00000370: c871 313f 71b8 fdbe 88e2 ccbe 419c 10bf
00000380: d794 33b8 a529 db33 d99e 9b37 21e7 8fb7
00000390: 223a cc37 83f9 7337 e36a a637 54c0 32b8
000003a0: d9d1 beb7 882b eab6 bc04 7537 885d 2e38
000003b0: e47f 0cb8 72ea 0ab8 b5d5 ce37 6acc 09b8
000003c0: 6db4 09b8 a339 e8b7 2f0f 9cb8 c0c4 2836
000003d0: 63c8 95b7 f2de 9dbe 8ff4 a338 9ace 9936
000003e0: ecb3 4237 b13f 6437 aa7f 0538 7023 9a37
000003f0: fbdb 3038 8e9c aa38 4aea 62b8 8190 f4b7
