logs/bc_state/checkpoints/ckpt_4000.pt (torch, 190100 bytes, 10 tensors)

weight f4 [64, 26, 3]
00000000: d5c1 233d 82fb 90bd 4d84 06be f03f 423d
00000010: 83c8 7dbe 88f7 fdbe 35f9 1abc fd98 7dbc
00000020: 4305 de3c a281 e0bd 199c 633d a5bc c1bd
00000030: 34fe bb3d a8c4 20bd c425 87bd 2266 d03d
00000040: f01e f23d 12e0 0a3c 4590 5b3c 9768 88bd
00000050: 6f99 e53d 3e4e 76bd 2de1 6abd b568 b9bd
00000060: b698 b43d 5f46 a93d eb25 ba3b fda4 3fbd
00000070: 27b7 18bc 3d9b 49bd 5fe4 443d 6125 82bd
00000080: 5589 913d 6478 c93c c211 7bbd 13fe 313d
00000090: f293 fbbd 9ae5 ecbc a248 48bd 440b df3d
000000a0: acdb 4abd db43 55bd 19e9 b93c af1e c43d
000000b0: d125 2e3d 61ce 3dbe 98c1 8fbd 242a f0bd
000000c0: 6b1a 523b 4805 b23d fcf7 063d 6327 913d
000000d0: e4b5 ea3d 32e0 87bd 48a0 9ebd 8f45 9d3d
000000e0: 31ed 953d a4b5 c6bc 0ae0 49bd 2839 37bd
000000f0: 2d5f 04bd fb56 d0bb 3c78 d93d dcc4 afbc
00000100: a0a3 99bc 0aae 84bd b0b7 7abc acdb e3bd
00000110: 4ca2 673d 422d a93d 0a12 af3d a782 dd3c
00000120: b1a2 d8bd 2c5e b83c 2b81 1c3c fc83 f33d
00000130: 8f69 1d3e 1aa9 3d3e 5520 d4bd 5b13 b7bd
00000140: 17e7 0dbe 7c39 513e b693 7d3e ac22 fb3e
00000150: c430 af3d 672a ee3c 0fc0 a7bd 962d 11bd
00000160: aac3 143d 34e3 0ebd 57b5 cdbd 6c69 9cbc
00000170: e871 cabb e5d7 1f3d a682 aabd e022 353d
00000180: 7e08 d53d fce4 873d 6a2b cc3d 6901 c63d
00000190: 2937 be3a 32a5 2bbd f4c6 db3d b13c cdbd
000001a0: 7616 93bd 1cb5 d53d a230 b93d 7727 553d
000001b0: 9734 813e 4069 993e e4f7 6c3e 5c48 503b
000001c0: c5bc 653d b29a a2bd e4e2 e4bd 469d 7c3c
000001d0: 91f0 84bd 2d99 9fbd 8f79 213b 5513 2c3c
000001e0: ceba 9ebd e0f3 8dbd 5d1d 3abe 2156 663c
000001f0: b70a 943d 4258 443e 8ea3 cb3d 6308 463c
00000200: b188 9fbd ce75 5a3e b39c 283e 69e9 b63d
00000210: c70c 493d 4425 d03c 24df 2ebd 1ee9 58bd
00000220: 5754 3abc c492 843d 21a4 503c 5527 36bd
00000230: ef97 c9bc cce8 0f3d b6ad 4dbd 7774 7e3d
00000240: 787b 8ebd 207e 91bd a283 54bd 16ca ea3c
00000250: 7653 043e 46be 643c b9f4 9d39 14db 213c
00000260: 5d6b efbc a779 a23d 246e a6bc 854b ed3d
00000270: c776 0a3d 542e a43c a24b e0bd 58f5 05be
00000280: 63ce 33bc 3ac9 7e3e d4ad b73b e1a1 1e3d
00000290: f5c9 cd3b 54c2 86bd 84ef 503d 1145 083d
000002a0: f926 29bd b008 8a3d 23c2 97bd 4c17 02bd
000002b0: 73bc f73d c311 243d 1162 87bc 0f68 e3bd
000002c0: 324e a33d 7541 77bd f0c8 023d 12ac 713c
000002d0: 54fa febc f724 ca3d 7bc7 723d 62c1 693d
000002e0: c9e1 cbbd 826f 9fbd c9c5 e53d 4272 633e
000002f0: fca2 be3d 800c eb3d 9a54 8bbd f8d4 c5bd
00000300: 439f 023e 1279 073e f994 b73d 4325 8b3d
00000310: 0d79 dfbd c97f dabd 1e07 35be 7f8d 89bd
00000320: 0e50 17be 6560 a13d 53f5 a03d 71b3 94bb
00000330: 27b4 1e3e e0e3 853d 1e83 9bbc 9125 0f3d
00000340: dc29 943d 068c 89bc 23bf 04bd e0b4 adbc
00000350: b2cb 86bd 7144 d03d a953 02bd dd8a a1bd
00000360: 56b3 ca3d 227f 8ebb 35ff 58bd f3fb 9abc
00000370: ade1 7bbd e5c4 d33d cb3f ac3c 9e96 6e3d
00000380: 38ca 34bd 7010 a53e 9455 a23e 5620 873e
00000390: 676a 22be ec5c 38be 044b 45bd b2d1 903c
000003a0: 681c fd3b 16ac a13c 4e9a 893d ca07 08bd
000003b0: d1f8 9b3d 1cf0 af3e a5cc dc3e 9166 aa3e
000003c0: 230f 443b 846b b63d 8856 193d f0de f4bc
000003d0: 2331 da3d c07a 31bd 091f c13c fde8 8cba
000003e0: 6171 adbd c4f9 973d d189 b9bd 0e34 5a3d
000003f0: 711c 8b3d b208 5b3d 478c 743b 0f36 2e3d
0.039979775 -0.07079221 -0.13136406 0.047424257 -0.2478352 -0.49602914 -0.00945883 -0.01547837
0.027102118 -0.109622255 0.05556879 -0.09459809 0.09179345 -0.039250046 -0.06599 0.1017573
0.11822307 0.008476274 0.013401096 -0.06660574 0.11210906 -0.06013321 -0.05734365 -0.090531744
0.0881819 0.08265375 0.0056807897 -0.046788204 -0.009321011 -0.049220312 0.048069354 -0.06354786
0.07106272 0.02459354 -0.061296232 0.043455195 -0.12284078 -0.028918076 -0.048897393 0.108908206
-0.0495259 -0.052066665 0.022694157 0.09576165 0.042516533 -0.18535759 -0.07019347 -0.11726788
0.0032059203 0.086924136 0.03295134 0.070875905 0.11460474 -0.06634559 -0.07745415 0.07679283
0.07320631 -0.024256535 -0.049285926 -0.044732243 -0.03231733 -0.006358025 0.10618636 -0.021456175
-0.01875478 -0.06478508 -0.015302584 -0.111258835 0.056551263 0.08260585 0.085483626 0.027039839
-0.10577906 0.022505842 0.00955228 0.118904084 0.15372299 0.18521538 -0.10357729 -0.08939239
-0.13857685 0.20432085 0.24763379 0.4904989 0.08554223 0.029072953 -0.08190929 -0.035443865
0.036319412 -0.034884647 -0.100443535 -0.019093238 -0.0061781295 0.039024252 -0.083257005 0.044222713
0.104020104 0.06635472 0.09969218 0.09668238 0.0014512289 -0.04190559 0.10731307 -0.100213416
-0.071820185 0.104349345 0.09042479 0.05203959 0.25235435 0.29963112 0.23141438 0.003178141
0.056088228 -0.07939662 -0.111760885 0.015418356 -0.06491197 -0.07792888 0.0024639105 0.010502656
-0.07750474 -0.06931281 -0.18175264 0.014058621 0.07228606 0.19174293 0.09943305 0.0120869605
-0.07789744 0.21334001 0.16466026 0.08931238 0.04908445 0.025408395 -0.042693272 -0.052956693
-0.011372647 0.06473306 0.012734444 -0.044471104 -0.02460858 0.03513412 -0.05021449 0.06212279
-0.069571435 -0.071041346 -0.051883347 0.028660815 0.12922463 0.01396138 0.00030127706 0.009878892
-0.029226 0.079333596 -0.020316191 0.1158667 0.03380468 0.020041622 -0.10951926 -0.13081872
-0.010974499 0.2488145 0.0056054387 0.0387286 0.0062801787 -0.06580034 0.05100967 0.03326899
-0.041296933 0.06739938 -0.074100755 -0.0317605 0.12096491 0.040056 -0.016526254 -0.11103832
0.07973899 -0.06036516 0.03192991 0.014750497 -0.031125225 0.09870332 0.05927227 0.05706919
-0.099551745 -0.0778494 0.11219365 0.22211555 0.093084306 0.114769936 -0.06803246 -0.09659761
0.12756066 0.13229778 0.08963961 0.067942165 -0.109117605 -0.10668904 -0.17678496 -0.06716441
-0.14776632 0.07879714 0.07859292 -0.0045379926 0.1549841 0.06537604 -0.01898342 0.034947935
0.072345465 -0.016790401 -0.032408845 -0.021204412 -0.065818205 0.10169304 -0.031818066 -0.07887814
0.09897487 -0.0043486515 -0.05297776 -0.018918967 -0.061494518 0.10340289 0.021026513 0.05824911
-0.044138163 0.32239103 0.31705916 0.26391858 -0.15860902 -0.18004197 -0.048167244 0.017678116
0.0077243336 0.019735377 0.067188844 -0.033210553 0.07615817 0.34362876 0.4312488 0.33281377
0.0029916249 0.08907226 0.03743604 -0.029891461 0.10653903 -0.043329954 0.023574369 -0.0010750588
-0.08468891 0.07420686 -0.090594895 0.0532723 0.06792534 0.05347509 0.0037315057 0.042532023

bias f4 [64]
00000000: a544 b63d 9bac d33d 59ff 8b3d dcb1 03be
00000010: 233a e63c 06f5 5dbd 49e1 a9bc 43d9 b5bc
00000020: 8916 36bc 6e78 1e3e 3796 27bd 2feb 55bd
00000030: 27bd 08bc f142 28bd 1e15 6a3e c4e7 993c
00000040: 015d e53d 90eb d63d 800b 0d3e 5d12 1f3d
00000050: 58f4 9bbd 14a4 95bd ef43 023e a251 bebd
00000060: 8209 80bc 3d03 fcbc 29aa 873e df0b 553d
00000070: 9a5d d6bc af01 75bc 9b65 bfbc 3a2e d83c
00000080: 3170 bd3d ef75 2c3d f4a2 39bd 07da aabd
00000090: 7186 193e ab1b cd3d a447 83bb 29a1 1dbd
000000a0: 24e1 76bd 4f55 2a3d e86d 72bd ae46 a3bd
000000b0: 05ef 133e 0f49 4b3c 38a4 eb3d 3012 3bbd
000000c0: 4a84 a53d d7e0 b9bd e09f 86bd 8d0c 093d
000000d0: fe5a dcbd 7a7a 993c 9330 f0bc 0f6c cf3d
000000e0: b8a7 f43b 5cca aabd 0e50 88bd c96b db3c
000000f0: 452f 513d c551 18bb 5bfe 033d a3bf e2bd
0.08899812 0.10335656 0.06835813 -0.12860817 0.028103894 -0.05418875 -0.020737307 -0.022198325
-0.011113771 0.15475628 -0.04091474 -0.05222624 -0.008345879 -0.041079465 0.22859618 0.018787272
0.1119938 0.10494149 0.13773918 0.038835872 -0.07614964 -0.07306686 0.12721227 -0.09292914
-0.015629534 -0.030763263 0.2649701 0.052013274 -0.02616768 -0.014954015 -0.023363879 0.02638923
0.092499144 0.042104658 -0.04532142 -0.08342367 0.14992692 0.10015043 -0.004006343 -0.038483772
-0.060273305 0.041585263 -0.059186846 -0.079724655 0.14446647 0.012407555 0.115059316 -0.04567164
0.08081873 -0.09076088 -0.065734625 0.033459235 -0.10759543 0.01873516 -0.029320037 0.101280324
0.0074662827 -0.08339378 -0.06655894 0.026784794 0.05107047 -0.0023242098 0.032224994 -0.11071708

weight f4 [64, 64, 3]
00000000: 83db 313e 60e5 313d 0f71 d83d 4bad 05bc
00000010: 4a4a 9b3d cace 3a3d a56e 8cbd 3888 b4bd
00000020: 83f3 c4bc 9e13 7bbd cc19 053d 72f0 e23c
00000030: ee1e 933d 0dd9 8b3d 11f8 cc3d 18ed 5abd
00000040: f114 1cbd 14ab 1d3d 2f8a 093c be2e c9bd
00000050: b368 1bbe 531a d2bc d44e 84bb 1a1d a5bd
00000060: 414c aabd 5faf 69bd 477f 97bd b547 01bd
00000070: c4b6 2ebb 320c 043e 0c08 05bd 3f67 b03b
00000080: 7858 2f3d c0ea 06bd 0a98 27bc 7cf3 2abd
00000090: ba44 e7bb 676d ba3d 5913 9d3d 94d8 a33c
000000a0: 9bbe 44bd 7647 87bd f301 583d c104 203e
000000b0: 52fc d03d b3f5 803d 05f9 823c ae58 6dbd
000000c0: e127 2b3e e025 9a3c 2fb9 0fbd 5700 243c
000000d0: 69ec 25bd bb21 1abd 18c5 743d d1df 953d
000000e0: 09ef 763d 5092 b03d ac38 75bd 9518 67bd
000000f0: a7a7 703d 7627 523d 1a29 bfbc 258c e1bc
00000100: 60a2 a43d 2f86 893d 0a7c a03d 55d3 9e3c
00000110: 0868 d23d c921 4c3e 94b2 123e 81d1 0e3e
00000120: 86dd e73c ef81 8abd 770b bfbc 8d69 98bd
00000130: ce8d 0cbe 3852 a5bd 7d6f 363e fb28 5b3e
00000140: a970 e7bd 7aa6 7cbd 115d 0d3c 199d 99bc
00000150: 7fd3 3bbd 86e9 4abb bf17 153d a6fc dfbc
00000160: f217 e23c ee80 383d e35c 493d 7ae9 8d3d
00000170: d5da fc3d 2d4b 893c 4d26 99bc 6c62 ce3b
00000180: 12ee 98bd fcd8 11bd 91a7 6ebd e540 a33d
00000190: 4ab9 4e3c 6055 c23c eb02 2939 15de 893c
000001a0: 94cf 6c3b 4e78 a03c 1eee b6bd 35a8 a4bd
000001b0: 8345 c4bd b623 00bc 65ca b2bd 109c af3d
000001c0: e6a9 793d 0933 3c3d 0ec7 4a3d fb97 f03a
000001d0: 7893 ebbc 3dd6 263b e6c5 a139 5425 a23c
000001e0: 3e73 de3d 14be 383e 04a8 5d3e d5bd 303d
000001f0: de45 6e3d 503c 2e3d f3c2 8e3d cce9 183d
00000200: d3e8 803c 0e0c 2b3e a88e 013e 262e 203d
00000210: 1ea2 d03d 635f 8b3d ce83 923d 792b 3dbd
00000220: 3e28 d6bc 4d54 9bbd 7b78 ee3c af62 a63c
00000230: 945b 6f3d 7422 9fbd 69a0 f1bb 33b9 093d
00000240: c511 093d b49c 0cbb 0c8e 13bd 256c a6bb
00000250: 5ef9 82bb a278 81bd e784 113d 2f7f d23d
00000260: 5d38 d73d c473 e73c e6bf b3bd 7cab babd
00000270: 9997 febd d08e 06be 1e7f 25bd c98c d5bc
00000280: 2ae1 24bd f3ec 993d b672 12be 3244 abbd
00000290: 7130 3cbd 0603 d63c 2d74 133e 65f6 fb3d
000002a0: 4f24 babc ed15 d7bc 5c7b 84bd bc8e acbd
000002b0: 6882 5abd 98a4 86bd c921 8cbc 85b0 4cbd
000002c0: 3798 353b 415e 4dbd bc45 85bd d8fa 48ba
000002d0: 70fb 853d 379d 3f3d bf81 11bc 1988 023d
000002e0: f482 103e 601e 2d3e 45c1 dabc 0144 ddbc
000002f0: bb7d adbb b440 9e3d 7c86 a93c bba5 283d
00000300: 452a 373d aec4 17bd 0c1d 0f3d bd82 42bc
00000310: 3923 99bd 2d3b e2bb 3308 93bd 7598 a7bb
00000320: 9f59 a9bd 4d40 963c 69ca 4abc b83a 85bd
00000330: d6ba c23b 4ed6 02bd b564 b73c a7f6 a8bc
00000340: b720 81bd 47c7 56bd 64f7 d5bb a567 16bd
00000350: 2db0 1b3d 83ef 6b3c 2462 3d3c 544e 89bd
00000360: c0fe 17bc d99c 02bd 2b9c 81bd a0e8 96bd
00000370: cdc8 763c 9808 a1bd 26e3 6a3d a8b6 14bc
00000380: 0fc1 94bd afca 2c3c 9dc5 9cbd 2e05 0abd
00000390: 7eda 16bd 9edc 123d 8df8 a93c 389a a2bb
000003a0: 18de 493d ead8 62bd 40bb 7a3c b6ec 69bd
000003b0: 75c0 12bd bf9c 68bd b56d 6cbc 2871 33bd
000003c0: 149d eebc 57ae 3dbc 882b 743d 214e 59bd
000003d0: dfd5 8bbc 031b 4c3d c11a 76bd 62c2 35bd
000003e0: a6dc 273d 2a9b adbc f160 4abd 163b b63c
000003f0: dece 143c 4e0f 31bd 9f1f 9abc 71b5 c03c
0.17368893 0.04343164 0.10568439 -0.008158992 0.07582529 0.045607366 -0.06857041 -0.08815044
-0.024041897 -0.061298005 0.032495305 0.027702544 0.07183634 0.068285085 0.100082524 -0.053448766
-0.03810591 0.03849323 0.008394762 -0.098233685 -0.15176658 -0.025647318 -0.0040377174 -0.08062191
-0.083153255 -0.057052013 -0.07397323 -0.031562526 -0.002665923 0.12895277 -0.032478377 0.0053834016
0.04280898 -0.03293872 -0.01022912 -0.04173611 -0.0070577534 0.09102898 0.07669706 0.020000733
-0.048033338 -0.06605427 0.052736234 0.15626813 0.10204376 0.062968634 0.015987882 -0.0579459
0.16714431 0.018816888 -0.035088714 0.010009847 -0.04050866 -0.037629824 0.059758276 0.0731808
0.060286555 0.08621657 -0.0598685 -0.056419928 0.058753636 0.051307164 -0.023335028 -0.027532646
0.08038783 0.067150466 0.078361586 0.01938788 0.10273749 0.19934763 0.14325935 0.13947107
0.028303873 -0.06763064 -0.023320897 -0.07442007 -0.13725969 -0.080723226 0.17815967 0.21402352
-0.11300785 -0.061682202 0.008628146 -0.018751668 -0.045855995 -0.0030961945 0.0363996 -0.027342152
0.027599309 0.045044832 0.04916085 0.06929298 0.123464264 0.01675948 -0.018695021 0.006298354
-0.07467283 -0.035607323 -0.058265273 0.07971362 0.012617419 0.02372235 0.00016118183 0.01682953
0.0036134468 0.019588616 -0.08932136 -0.080398954 -0.09583571 -0.007821014 -0.0873001 0.085746884
0.060953043 0.04594711 0.04950624 0.0018355841 -0.028756842 0.0025457286 0.0003085576 0.01979319
0.108618245 0.18041259 0.21646124 0.043149788 0.0581721 0.042537987 0.06970777 0.03733234
0.01573602 0.16703817 0.12652075 0.03910651 0.101871714 0.06805303 0.07154046 -0.046184037
-0.026142236 -0.075844385 0.029110184 0.020310728 0.058436945 -0.07770243 -0.0073738587 0.033623885
0.033464212 -0.0021455707 -0.03602414 -0.00507881 -0.003997012 -0.06321837 0.035527136 0.102781646
0.10508797 0.028253444 -0.08776836 -0.09114739 -0.12431259 -0.13140416 -0.04040443 -0.026068108
-0.040253796 0.075158976 -0.14301571 -0.083626166 -0.045944635 0.026124489 0.14399786 0.123028554
-0.022722391 -0.026255572 -0.064688414 -0.08425662 -0.05334702 -0.065743625 -0.017105954 -0.04997303
0.0027709135 -0.050138716 -0.065074414 -0.0007666773 0.065420985 0.04678079 -0.008881032 0.031868074
0.14112455 0.16906118 -0.026703486 -0.027009966 -0.0052945293 0.07727185 0.02069401 0.041173678
0.044718046 -0.037052803 0.03493981 -0.011871991 -0.07477421 -0.006904027 -0.07179298 -0.00511461
-0.08269047 0.018341208 -0.01237736 -0.0650534 0.0059426827 -0.031942658 0.022386888 -0.020625426
-0.06305068 -0.05243614 -0.0065297354 -0.036719937 0.03800981 0.014400366 0.011559043 -0.06704393
-0.009277046 -0.031887863 -0.06328615 -0.073685884 0.015062523 -0.07862967 0.057345532 -0.009076752
-0.072633855 0.01054637 -0.07654879 -0.033696346 -0.036829464 0.03585493 0.020748401 -0.004962232
0.04928407 -0.055382647 0.015303433 -0.05711051 -0.035828073 -0.05679011 -0.014430453 -0.043809086
-0.029127635 -0.01157721 0.059611827 -0.053053025 -0.017069755 0.049830448 -0.06008411 -0.04437483
0.04098191 -0.021192152 -0.049408857 0.022244971 0.009082524 -0.043227486 -0.018813906 0.023524018

bias f4 [64]
00000000: 4de6 1fbd 22c3 5c3d 8468 81bd 7def 83bd
00000010: 30a8 3ebd fb3b 503c 6a03 18bb d701 10ba
00000020: bb90 6dbd 6eee c83d 83ea 7c3d 857f 14bb
00000030: 1b8c a73a 6dd8 d8bc fb59 813b 8205 aebd
00000040: 799c ef3c 47a5 b8bd 7e84 8cbc 38c8 4bbd
00000050: d7d4 b7bd ac46 94bd e410 8b3d 70f7 753d
00000060: baa0 af3c a92a 803d f207 a33c 1921 853c
00000070: 0736 413c bf5f 2fbd 1828 a23d 6d17 953d
00000080: bc06 82bc 20ab 8e3d e2ba 9abc e853 9abc
00000090: ba0a 39bd 451c 833d 7c2a 8c3c c75d 81bd
000000a0: 575e 213b 5da5 27bc 2489 ae3d 18e7 2ebd
000000b0: c14e 39bd 65d3 743d 02f9 283d 2678 413d
000000c0: 0b63 b83d dc06 313d c76f 853d dbb2 8ebc
000000d0: 3e00 143d 387e b13c 1b74 c0bc b80e abbb
000000e0: b977 d33c 1334 6c3d 8e1b b5bd 4893 a5bc
000000f0: c481 fc3a 6399 e4bc 02e4 5cbd ed65 ad3d
-0.03903799 0.05389703 -0.06318763 -0.06442163 -0.046547115 0.012709613 -0.0023195394 -0.0005493438
-0.057999354 0.09811102 0.061747085 -0.0022659015 0.0012782844 -0.026470387 0.003947494 -0.08497144
0.029249417 -0.09015899 -0.017153021 -0.04975149 -0.08976143 -0.07240042 0.06790331 0.060050428
0.021438945 0.06258137 0.01990125 0.016251134 0.011792666 -0.04281592 0.079178035 0.07279859
-0.015872352 0.06966233 -0.01888794 -0.018838838 -0.045176245 0.06401876 0.017110102 -0.06316715
0.0024622881 -0.010232297 0.08522251 -0.042700857 -0.04524112 0.059771914 0.041253097 0.047233723
0.09003266 0.043219432 0.065154605 -0.01741927 0.036133043 0.021666631 -0.023492863 -0.0052202605
0.025813924 0.05766685 -0.08843146 -0.02021183 0.0019264747 -0.027905172 -0.053928383 0.084667064

bias f4 [128]
00000000: 45d7 1bbc 7418 173c 455f 82bc a5b6 87bd
00000010: 6a6e b73c e0b3 d0bc 7464 c23c a90c a0bd
00000020: f4f6 983c a605 d9bc fbd0 7c3d 9e5a fc3c
00000030: 1f84 273c 5783 7cbb f95e 97bc 36f7 5d3c
00000040: da66 2a3d eea4 c3bc 6213 64bc 9954 f03b
00000050: 7cdd c4bc 6419 1dbd 1b2b c43b 21da 94bc
00000060: dd38 bc3d 24f0 c23b c869 4d3b f624 dbbc
00000070: 5d2a adba 00ba c2bc 2241 a8bc 2270 9738
00000080: 4edb 5b3d 7845 80bb 0464 07bd 126f 033d
00000090: 1de4 dcbc d8cc b7bc cc73 f8bb 1f8c 35bd
000000a0: a12c 33bb e648 173b bb8b b7bb a3a2 39bd
000000b0: 34c0 a03a 4bcb 1c3b 4eaa 83bc ba6e 193c
000000c0: 0618 1bbc ee30 0a3d b9ed 30bc 127f 523c
000000d0: 1590 a13b 8975 083c a465 3d3c 7cf7 cbba
000000e0: 0f36 14bd 3e74 33bd 92f7 a43c 9fba b3bc
000000f0: ff85 953c e553 683c 40f2 4b3c 2631 b73b
00000100: 8c90 bc3c a8fe da3c 94c3 81bc e563 86bb
00000110: 1a4d 923c f564 01bc c49e 16bc 77f7 eb3c
00000120: a6d9 063d c0e1 a3bb 7220 0dbc f990 ff3b
00000130: 9ddb 3c3b b421 f2bc 3c0b 6a3d fbb4 633c
00000140: 641e afbc eda2 103d 5bf0 8fbd 5dda 013c
00000150: eca7 afbc 645f 12bc ada6 bbbc 7496 cbbc
00000160: 3798 4cbc baaa e8bc 0b04 4bb9 0000 0000
00000170: 4b22 a43b 618c b13c 515d 823d c377 603d
00000180: 1782 95bc d369 f83b ac44 04bd 26c5 ae39
00000190: 3710 b63d 7293 a5bd c2ec d53b 8cec 08bc
000001a0: 6a04 223c 5840 0bbb b6ba 0cbc 8a37 953b
000001b0: 16cf d8bb 5767 713b 52a6 dd3c 411d 4ebc
000001c0: 3fbd 9abc 2339 153c db78 203d 3cba 443c
000001d0: b5a4 07bb a209 fbbc e421 003d abb2 f93c
000001e0: 0be3 29bd 3353 19bd cce2 503d ca4a 0cbc
000001f0: c3e1 4ebc 16c9 c4bb b7d0 d0bc 49d0 613d
-0.0095117735 0.009222139 -0.015914569 -0.066266336 0.022391517 -0.025476396 0.02372954 -0.07814915
0.018672444 -0.026491951 0.061722737 0.030804928 0.010224371 -0.0038530433 -0.018477904 0.013547709
0.041601993 -0.023882356 -0.013920637 0.0073343036 -0.024031393 -0.038354293 0.005986584 -0.018170418
0.09190533 0.005949037 0.0031343568 -0.026751023 -0.0013211478 -0.023770332 -0.02053887 7.2211275e-05
0.053675942 -0.0039145313 -0.033054367 0.032088347 -0.026964242 -0.022436544 -0.0075821634 -0.044323083
-0.0027339833 0.0023084222 -0.005601374 -0.045321118 0.0012264312 0.0023924883 -0.016072419 0.009364778
-0.009466177 0.03373807 -0.010798865 0.012847679 0.004930506 0.008328804 0.011559878 -0.0015561427
-0.036184367 -0.04381203 0.020137582 -0.021939574 0.01825237 0.014180158 0.012447894 0.0055905757
0.023018144 0.026732758 -0.01584033 -0.004101264 0.01785903 -0.007897605 -0.009193126 0.028804524
0.03292241 -0.0050012767 -0.008613693 0.0077992645 0.0028817423 -0.029557087 0.05713962 0.01389813
-0.021376796 0.035311628 -0.07028266 0.007925597 -0.021442376 -0.008933876 -0.022906626 -0.024852015
-0.012487463 -0.028401721 -0.00019361095 0.0 0.005008971 0.021673383 0.06365455 0.054801714
-0.018250508 0.0075809746 -0.032292053 0.00033334753 0.088898115 -0.080847636 0.006528468 -0.008357178
0.009888748 -0.0021248069 -0.008589437 0.00455374 -0.0066164834 0.0036835277 0.027056847 -0.012580217
-0.018889068 0.009107861 0.039177757 0.012007292 -0.0020697538 -0.030644242 0.03128232 0.030480703
-0.04147629 -0.03743286 0.05099754 -0.008562753 -0.012627068 -0.0060054166 -0.025490148 0.055130277

weight f4 [128, 64]
00000000: 12cb 16be 9949 f13d bc97 b23d d00a 183e
00000010: bcca b6bb 0754 c93d 6866 09be 77a5 e0bd
00000020: df6e 8dbb 1615 383c 2fa3 2b3d 098f 113e
00000030: e64d e13d 231e 2dbd 221a 52bc e843 97bd
00000040: 48a4 b5bd 4d37 083d 6a78 9a3c 50ad 23be
00000050: a396 17be 935e c23c bfb3 8cbd f368 1c3d
00000060: 7651 993c fedc 15bb 5801 95bd f971 033c
00000070: a178 80bd 48c1 0f3e 8242 b4bc 51a5 02be
00000080: dab0 30be 5cf1 1ebe f3e9 2c3d a08c 5f3c
00000090: dc1a a8bd f6bb 213c 6c5d 35bd a318 9ebd
000000a0: 6c0b ffbd baa0 11bd 66d7 0bbe 76ce 17be
000000b0: 5490 08bd e475 afbc 9a9f 2a3d 5ef0 963c
000000c0: ee34 03be 01e3 4e3d c9ee dabd 65a8 113e
000000d0: 9131 873d e5bd 473c 8a46 c8bd cc89 6cbb
000000e0: 3114 893d 6426 babb 8f2b a7bd 8e91 dd3d
000000f0: 1699 0ebe ed97 d93d ad4b c1bd ef5c 98bd
00000100: 44c8 b9bd b731 96bc 10d5 273c 0d04 d5bd
00000110: e0d8 3e3d 2095 1b3e aa40 893d 0543 f7bd
00000120: b71e cd3d 5709 073d 7b46 f5bd df2e db3c
00000130: a411 2c3e 989e 04be 92cf bfba 422f 003e
00000140: 0862 be3d 707e 81bd 02c8 e53d de0c 283d
00000150: a9c1 82be 93d5 433d 71df ec3c fd8d 223e
00000160: 6d5f 413e a13c 6e3d f147 df3c 3f04 41bc
00000170: cc83 eb3d c87c 253d 8944 75bd 10c5 443d
00000180: 2021 f6bd 02a4 57bd 089a 9e3c badc 26be
00000190: 1526 a6bd 5024 a83d 8bd2 2c3d 8ecc 263e
000001a0: cce9 efbd e8f2 25be f699 7b3d 8a0f 04bd
000001b0: 5387 19ba 17b1 21be a70a 4f3e 74cf 983d
000001c0: ddb4 aa3d a919 8abd 9815 02bd 8e36 753e
000001d0: 6055 78bd 3686 e2bd 1d19 4fbe b538 be3c
000001e0: 830e ddbb 4f70 2b3c d980 e33d f2f6 303d
000001f0: bfa5 513e 7706 1bbe 8014 0a3e 9a18 26be
00000200: 60cb 9f3d bfe7 453d ebe4 9fbe 4974 053e
00000210: 46f5 853b 7ded f73d abea 9a3d 78b0 b7bb
00000220: de27 e83d 4ca1 0dbe 9d07 253e b68a 17be
00000230: 356f 66bd acf5 c0bc f6bc 533c 54a9 553d
00000240: 1bc4 ba3c fc1a 22be 799d 2b3e 9892 babe
00000250: d02c 593e adc0 f03d 5f0e ed3d e79b b4bd
00000260: 641d 19be fa76 c73d 61da 64bd f1e9 143e
00000270: 5b96 54bd 7798 7abb ad53 87be 3bb4 af3d
00000280: 25b7 5e3e ac8c 653e dbbd aa3d b2f6 dcbd
00000290: 0343 1e3e 60d0 b73d 6f95 76be ec72 c9bc
000002a0: 1b26 233e c11b 5e3d 7cec 1d3e 65e8 233e
000002b0: 35cd 2ebc 667d f7bc c4df 11bd ab4a b23d
000002c0: 248d 2ebe b6bf f6b9 2684 c7bd 79bf 623e
000002d0: 288d 47bd b554 8f3d 4e9d 2e3d 4fe4 833d
000002e0: fad1 ab3d b96d ae3d a16e aa3c 9191 ee3c
000002f0: f4ac 0abe fd60 26bd 512a e83d 81dc 953d
00000300: 791a 7d3c 923e 243e 9d9c 3fbe 0421 353e
00000310: 4c94 593d 48d1 a4bc 7971 a3bd 4894 edbd
00000320: 1dce ae3d 830a a83d 10b8 46be 55a4 dd3d
00000330: ec73 283d 6d3e b23d 254b 89be c51f 6fbd
00000340: f15c 53be f200 aebc 69e5 15be a865 183e
00000350: 3725 e93e a40a 883d 8a4e bebd 7bb6 803d
00000360: 4d2a 8d3d fa10 48be 5385 2c3e 0d60 33bb
00000370: cc8e c13d f620 75bd 56f1 5337 f22b 103e
00000380: 2498 4f3e 73eb 8c3c 0939 34be aaa6 963d
00000390: 1fb6 163e 62de 12be 758b 3ebd 4eef 173e
000003a0: f921 94bd edde 8b3e e583 ea3d 6181 7fba
000003b0: be4e 443e c72d dd3d 0c54 4abe 0176 dc3d
000003c0: c4c3 22be 4379 80bd 7e63 25bd 097a b13c
000003d0: e443 8c3d 1476 19be 0b8d 803d 795b 163e
000003e0: 1d61 4c3d 52ac 97bc 8133 433e f80c ec3d
000003f0: 2229 fd3d ae3f babc 6230 91bd 27d5 d8bd
-0.14725903 0.11781616 0.08720347 0.14847875 -0.005578367 0.0983048 -0.13417971 -0.1096906
-0.0043161954 0.011235496 0.04190367 0.1421472 0.11001186 -0.04226507 -0.012823613 -0.07385999
-0.08869225 0.033255864 0.018856246 -0.15984082 -0.14803557 0.023726737 -0.06870221 0.038186025
0.018715601 -0.0022867317 -0.07275647 0.008022779 -0.06273008 0.14038575 -0.02200437 -0.12758376
-0.17254964 -0.15521759 0.0422153 0.013644367 -0.08208248 0.009871474 -0.044278547 -0.07719543
-0.124533504 -0.03555367 -0.13656387 -0.14824852 -0.033340767 -0.02141852 0.041656114 0.018425163
-0.1281316 0.050509457 -0.10690076 0.14224394 0.06601251 0.0121912705 -0.09779079 -0.0036092876
0.06693304 -0.005680846 -0.08162605 0.10818778 -0.13925585 0.10624681 -0.09438262 -0.07439601
-0.09071401 -0.018334253 0.010243669 -0.10401163 0.046593547 0.15193605 0.06701787 -0.1207333
0.10015624 0.03296789 -0.11976334 0.026755748 0.16803604 -0.12951124 -0.0014634004 0.12518027
0.09296042 -0.06322944 0.11219789 0.041027896 -0.25538376 0.047811102 0.028915139 0.15874477
0.18884058 0.05816329 0.027255984 -0.0117807975 0.11499748 0.040402204 -0.059879813 0.048039496
-0.12018037 -0.052646644 0.019360557 -0.16295138 -0.08112732 0.08210051 0.042192977 0.16288969
-0.11714515 -0.16205943 0.061426125 -0.03224138 -0.00058566517 -0.1579021 0.20218907 0.074614435
0.08335278 -0.067431755 -0.031758875 0.23946592 -0.060628295 -0.11060755 -0.20224424 0.0232204
-0.0067461147 0.010463788 0.1110856 0.043204255 0.20473383 -0.15139185 0.13484383 -0.16220322
0.078024626 0.048316713 -0.31229338 0.1303264 0.0040880768 0.12105844 0.075642906 -0.0056057535
0.11335729 -0.13831061 0.16116185 -0.14799008 -0.0562584 -0.023554645 0.01292347 0.052163437
0.022798588 -0.15830606 0.1675929 -0.36439967 0.21208501 0.117555 0.11575007 -0.088187985
-0.14952618 0.0973949 -0.055872325 0.14542367 -0.051901203 -0.0038237849 -0.26431027 0.08579298
0.21749552 0.22416943 0.08336993 -0.10789241 0.1545525 0.08975291 -0.24080442 -0.024590932
0.15932505 0.054225687 0.15422243 0.1600662 -0.010669042 -0.030211162 -0.03561379 0.08705648
-0.17046028 -0.00047063612 -0.09742002 0.22143354 -0.0487186 0.069985785 0.042630486 0.06440031
0.08389659 0.08517022 0.020804705 0.029122146 -0.13542539 -0.04061984 0.11336196 0.073174484
0.015448206 0.16039494 -0.18712087 0.17688376 0.053119943 -0.020119324 -0.079806276 -0.11600548
0.08535407 0.0820513 -0.19406152 0.108223595 0.041126177 0.08703313 -0.26815143 -0.058379907
-0.20640923 -0.021240685 -0.14638294 0.14882529 0.45536205 0.066426545 -0.09292324 0.062848054
0.06892834 -0.19537726 0.16847734 -0.0027370483 0.094510645 -0.059845887 1.263277e-05 0.14079264
0.20272881 0.017202115 -0.17599882 0.073560074 0.14717911 -0.14342645 -0.046519715 0.14837381
-0.07233042 0.27318516 0.11450938 -0.0009746757 0.19170663 0.10799747 -0.19758624 0.10764695
-0.15894991 -0.06273129 -0.040378086 0.021664636 0.068488866 -0.1498645 0.06276902 0.14683332
0.049897302 -0.018514786 0.19062616 0.11525911 0.12361361 -0.022735443 -0.070893064 -0.105875306

bias f4 [128]
00000000: 48be 06bc 2b7e b8bc 25ee dcbb de76 9bbc
00000010: 4c3a 99bc a56f fe3c ded7 c13c 1002 773c
00000020: b18d 4bbc 1547 0cbd d2f4 523c 3797 c03c
00000030: e39f be3c ba32 86bb 5685 92bc ccf2 e03c
00000040: fb59 583b d439 ad3b 34c2 2dbc 6f12 ffbc
00000050: 529c ed3b c4f4 88bc 946d 483c 87c8 33bc
00000060: 49b5 cfbc 19be 35bc 4298 cc3c ddc1 00bc
00000070: dff6 9bbc 79e0 9b3c d60b 093c d64d afbc
00000080: 89c4 ddbc 2097 a8bb 57e5 f4bc 77d4 abbc
00000090: b390 82bb 24be 153d a529 29bc d616 c5bc
000000a0: 2cfd c83c 234c 35bc 801b 8d3c 78bd fbbc
000000b0: a3f3 a3bc 6281 e9bc 5964 d73c 8e4d 3dbc
000000c0: 1c3b d93c 9e06 3c3c 337a 5c3c a9f6 e1bc
000000d0: d0a5 0cbd 69a4 4bbc 905e b43c 65c2 eb3c
000000e0: 2176 0a3d 0c5c 6c3c 0e77 07bc 3696 943c
000000f0: b1e2 31bc 71fa 9bbc 28bf 7bbc 9370 a5bc
00000100: 5056 ebbb c97a 143d 9170 7b3c 376f ad3b
00000110: 0d41 de3c ff34 93bc 7d0d d5bc a1ac adbc
00000120: 67e1 9fbc 2be3 17bc 52e8 a8bc 4df2 ecb8
00000130: b466 5b3c 2b70 ab3c 90fc 2e3c 2651 863c
00000140: c3ab c4bb 9b9b 183c e5b6 14bc 2575 53bc
00000150: 8d97 d839 9ac6 5cbc 0512 943b 3e97 9d3c
00000160: cc5a 66bc 0000 0000 3579 9e3b dc4a e9bc
00000170: 312e 0e3d ad05 a4bc 877b 2d3c de97 d33c
00000180: 0727 e33c 0f95 943b 0cf4 943c 609b 03bb
00000190: 62b2 6a3c 42b1 09bc 3193 cdbc 90df f8bb
000001a0: 99c2 513c 5665 493c e619 9a3c ab61 ec3c
000001b0: be17 ab3c bf06 9b3c 23cc 0bbd b250 913c
000001c0: fff0 e6bc eb9c 683c a65f 47bc d4d0 43bb
000001d0: 7eed 4e3b 5c33 203d 3672 183d 02bd 88bc
000001e0: 69a8 493b 7f44 1b3d 1292 023d 8b30 0ebd
000001f0: 528d 83bc a3f5 cd3c 7387 b33c b808 e1bc
-0.0082240775 -0.0225211 -0.006742256 -0.018977579 -0.018704556 0.031059096 0.023662504 0.015076175
-0.012423919 -0.034247477 0.0128757525 0.023509605 0.0232696 -0.0040954025 -0.017885845 0.027459525
0.0033012617 0.0052864347 -0.010605384 -0.03113672 0.007251301 -0.016718276 0.012233157 -0.010973102
-0.025354998 -0.011092686 0.024974946 -0.007858721 -0.019038616 0.019027935 0.008364638 -0.02139942
-0.027071254 -0.0051449686 -0.029894514 -0.020975335 -0.0039845346 0.036558285 -0.01032487 -0.02405874
0.024534784 -0.011065516 0.017225027 -0.030729994 -0.020013636 -0.028504077 0.026292967 -0.011554135
0.026517443 0.011476187 0.013456869 -0.027583437 -0.03433782 -0.012429335 0.022017747 0.028779218
0.033804063 0.014426243 -0.008268131 0.018138032 -0.01085727 -0.019040318 -0.015365399 -0.020195281
-0.00718192 0.03624991 0.015346662 0.005292799 0.027130628 -0.017969606 -0.026007408 -0.02120048
-0.01951666 -0.00927047 -0.020618591 -0.00011298489 0.013391186 0.02092751 0.010680333 0.016396116
-0.006001921 0.009314443 -0.009076809 -0.012906347 0.00041311645 -0.013475085 0.0045187497 0.019237157
-0.014059734 0.0 0.0048362263 -0.028478079 0.03471202 -0.020022238 0.010588533 0.025829252
0.02772857 0.0045343707 0.018182777 -0.0020081624 0.014324756 -0.008404078 -0.0250946 -0.00759501
0.012802743 0.012292227 0.018811177 0.028855165 0.020885345 0.018924115 -0.034130227 0.017738674
-0.028191088 0.014197568 -0.0121688 -0.002987911 0.0031574662 0.03911148 0.037218295 -0.016691688
0.0030770546 0.03790712 0.031877585 -0.034714263 -0.016058598 0.025141543 0.021915173 -0.027469978

weight f4 [128, 128]
00000000: 0c89 76bd fa6e e8bc a967 c33d 62c2 9e3e
00000010: c079 063d b96c dfbd fd2f e93d ce62 10be
00000020: 1942 dd3b e1fb 93bd 187a 533e e3f2 76bd
00000030: d3ea e33d a127 ea3d 0293 f13d c674 62bd
00000040: 05ca a338 eaf2 083e 3c49 1d3d dee2 05be
00000050: 19a4 1f3e 6384 dc3b d2db 813d 585a 12be
00000060: a459 c7bc 12f2 823d 24d8 ecbd 30ee ebbc
00000070: dd25 5ebd 543d 8ebb f340 bebe 521b e43d
00000080: 3eeb f7bd 023f 313d 55d1 843d 5b2d 97bd
00000090: affd 003e 5fc6 113d 648d 733d f7c5 513e
000000a0: dd4b 573d 8709 e73b d832 9abd 1902 c13a
000000b0: c2f8 59be e1f2 31be 77e8 4b3e 20ba 523c
000000c0: 29f3 f9bd 6a32 3abe 81d6 9ebd f717 01be
000000d0: 21d1 553e 80cf 883a bc44 c1bd 9fcb 243b
000000e0: c238 d8be 20d9 b13c 7131 51bc 2492 2a3e
000000f0: 82f0 91bd 87e3 f53c 6558 29bc a380 333b
00000100: 4e61 22bd 87bc 82be 18df 3b3d da8e e9bc
00000110: a19a 0bbe bb79 023d 3de0 823d c584 97be
00000120: 6cb3 a93d 7969 c23d 6763 283d 30f6 f03d
00000130: ff37 a43d 1ace d6be 8ca7 acbd 0bfd 60be
00000140: 98a9 0dbe da1d 903d fc7f e33e 035a cdbd
00000150: be56 253e 0ac9 023e af00 1fbe 55fc 873b
00000160: 521c 0bbd 28fc d63d f9b7 923d dc31 a4ba
00000170: 5402 64bc 97be 2dbe b5e8 9e3e e42d 273e
00000180: a3e2 f9bc e2d6 78ba a6b0 ca3d 64ed ebbc
00000190: 9439 8c3d 94f9 09be deea a73c 1197 8e3e
000001a0: 59a7 b33c 9573 8f3e 093a dbbd 9234 e53c
000001b0: 84d2 923d eeb3 06be 2441 44bc 92a4 603d
000001c0: f775 0d3e 7127 0abd 335a c6bd 79a8 3c3d
000001d0: a838 d6bc b567 be3d a8ba 913d 46b1 e8bd
000001e0: 40b1 b63d df50 cc3d a31a 66be 93f5 183e
000001f0: 26b8 44bd f29e 063e 26b3 513e 4bde a1be
00000200: 2916 a93c 3785 443d 32e0 89bc 34d7 2dbd
00000210: b710 02be f03e a23d d03e 08bd 7c8d 943d
00000220: 8d22 a23d 4e99 0dbe cd0b 9f3c ce08 5e3c
00000230: afdd 8cbc 48bd adbb 05a9 bfbd 4bd6 8c3d
00000240: 86b5 95bd 7712 0b3d dc8f 1c3d 09cd 31be
00000250: b783 673d ae20 01bd 14a1 523d 374f 4c3d
00000260: 2df7 01be 942b b33d ea4b edbd 83ac c63c
00000270: 0244 d83d ac1f f13b 94ae dd3d f5a2 a13c
00000280: badb b1bd ae25 bd3d b02b f03c f96e e43d
00000290: 4482 b8bd cc5b 5fbd 6038 33bd d423 6b3d
000002a0: 4843 823d c1d8 863d c652 f63c 320f 593d
000002b0: e6f9 00be e95e 983d 7c0c a13d 09f9 fcbd
000002c0: 6a75 8abd 2614 44be 66a4 dd3d 21c2 2fbe
000002d0: 1087 423d dfaa a5bd 5e95 503d 377a 673c
000002e0: 20b4 883c 14c3 a0bd 1f99 37be 48a8 f53d
000002f0: 2b11 0c3d 4d21 b0bd febb 54bc bbb9 d0bd
00000300: 4e9e 843b 079c 14bd 7c07 93bc e39b b43d
00000310: 9430 5fbd 13fd 6bbd 69ad e3bb e45e 0abe
00000320: fc9c e3bc 6367 7cbc 1c2a f4bc 90b2 e33d
00000330: 413e 1dbe bbe0 f73d 084d dd3b d91b 5cbd
00000340: 4407 83bd 8ff9 d3bc b21e d03d cda7 31bd
00000350: bfe2 1cbe 8619 d9bd 21cf c03c 20bb 9b3d
00000360: a88a 25be 5954 973d ec87 c33d 4b1a f03d
00000370: d9fd 72bd 3812 10bd b714 c2bd d760 00be
00000380: 8539 2e3c 1a67 393d faa9 e03d d0a7 4e3d
00000390: 0499 ccbd df1c 073e 378d bfbd bb3e 19bd
000003a0: a15d dd3d f0cf c03c 5a3b 35bd 0e97 0ebe
000003b0: 4a4c 873d 8f3c bbbd 1980 753d 46be d7bd
000003c0: 9bcc 76bd defa 2dbe 810f c9bd bf11 05bd
000003d0: 8f24 acbd 4089 073e fa4e e0bd bec2 d73c
000003e0: 93f3 633c 4d71 333d 7214 10be ba6b 05be
000003f0: 4a3e 5a3d 8521 0c3e 0b50 40be b784 21be
-0.06018929 -0.02837323 0.09541256 0.31007677 0.032830954 -0.10909409 0.11386106 -0.14100191
0.006752264 -0.072257765 0.20652044 -0.06029023 0.111287735 0.1143334 0.11795618 -0.055287145
7.810075e-05 0.13373914 0.03839992 -0.13074824 0.15589942 0.006729649 0.063407555 -0.14292276
-0.024334736 0.063938275 -0.11564663 -0.0288001 -0.054235328 -0.004340807 -0.37158927 0.111380234
-0.12105416 0.04327298 0.064852394 -0.07381698 0.12596773 0.035589572 0.059461012 0.20485674
0.052562583 0.0070506963 -0.07529229 0.0014725357 -0.212863 -0.17377807 0.19912897 0.0128617585
-0.12204582 -0.18183294 -0.07755757 -0.12606798 0.20880558 0.0010437816 -0.09436938 0.0025145782
-0.42230803 0.021709979 -0.012768135 0.1665731 -0.07125951 0.03001572 -0.010336016 0.0027389906
-0.03964358 -0.2553446 0.045867056 -0.0285105 -0.13633205 0.031854372 0.06390426 -0.29593483
0.08286175 0.094927736 0.041110422 0.117657065 0.08018493 -0.41954118 -0.084303945 -0.21971528
-0.13834226 0.07036944 0.44433582 -0.10026934 0.16146371 0.12772003 -0.15527605 0.0041499534
-0.033962555 0.10497314 0.07163996 -0.0012527066 -0.013916571 -0.16967236 0.31036916 0.163261
-0.030503577 -0.0009492469 0.09896974 -0.02879972 0.0684692 -0.13474113 0.020497736 0.2784963
0.021930384 0.2801787 -0.10704429 0.027979169 0.07169059 -0.13154575 -0.011978421 0.054844446
0.13814531 -0.03372902 -0.09685173 0.046059106 -0.026150063 0.09297124 0.0711568 -0.11361937
0.089205265 0.099763624 -0.22471099 0.14937429 -0.04802718 0.1314657 0.20478496 -0.3161491
0.02064045 0.047978606 -0.016830537 -0.04244156 -0.12701689 0.079221606 -0.033263028 0.072535485
0.07916746 -0.13828012 0.019414807 0.013551904 -0.01719555 -0.005302105 -0.0935841 0.06876811
-0.073100135 0.033953156 0.038223132 -0.17363371 0.056522097 -0.031525306 0.051423147 0.049880233
-0.12691946 0.08748546 -0.11586745 0.024252182 0.105598465 0.007358512 0.10824314 0.019731024
-0.08684488 0.092357025 0.029317707 0.11153979 -0.09009221 -0.054530904 -0.043754935 0.057407215
0.06360489 0.06584311 0.030068766 0.052993007 -0.12595329 0.07439978 0.07863709 -0.12352187
-0.06760676 -0.19148311 0.10822372 -0.17163898 0.047492087 -0.08089232 0.050923698 0.014128259
0.016687453 -0.07849708 -0.17929505 0.11994988 0.03419606 -0.086001016 -0.012984274 -0.10191675
0.0040471917 -0.03628161 -0.017947905 0.088187955 -0.054489687 -0.057614397 -0.0069481623 -0.1351276
-0.027784817 -0.015405509 -0.029805236 0.111180425 -0.15355779 0.12103411 0.0067535676 -0.053737495
-0.0639787 -0.025875835 0.10162105 -0.043372918 -0.15320872 -0.10600571 0.023536267 0.07604051
-0.16166174 0.07389135 0.095474094 0.11723765 -0.05932412 -0.035173625 -0.09476607 -0.12536941
0.010633831 0.04526434 0.109699205 0.050453007 -0.09990123 0.13194607 -0.093531065 -0.03741334
0.10808874 0.023536652 -0.044246055 -0.1392481 0.06606348 -0.0914241 0.059936617 -0.10534339
-0.06025372 -0.1699023 -0.0981741 -0.032487627 -0.084054105 0.1323595 -0.109525636 0.026337977
0.013913053 0.043809224 -0.140703 -0.13029376 0.05328206 0.13684662 -0.18780534 -0.15773283

weight f4 [8, 128]
00000000: a441 443e 1ad5 7cbd 59a6 53bd 15a6 9fbe
00000010: 9ebe 333e 4e6c a03c bc23 2b3d a229 b33c
00000020: c78d 7b3d 58aa e9bc 8c1b 973c 4f5d 69bd
00000030: d91b 24bc eec7 0dbe a8ab 3ebd 891c 81bd
00000040: b715 413b 33b2 4cbc 1957 e5bb 1a18 04bc
00000050: 690a 78bd 2ceb 99bd fa5c dfbd a3e5 253e
00000060: 6602 21bd 7250 683d 6a9b 18bd 06c7 bbbd
00000070: 302d 0b3c 531c 213e 82ac 45bb d28f 21bd
00000080: 9e67 563b 0c01 2f3d 059c 84bd 40f4 743e
00000090: d571 c83d 6fd2 933d 7c7b 033d 8686 91bd
000000a0: af7c c13c 989a 44bd ef53 003c 9972 dfbc
000000b0: 87c6 993d 3c00 2fbd faa7 ba3b 8921 80bc
000000c0: 9a9f 3cbd 5247 2d3d 2590 97bd 2050 4bbc
000000d0: 04ba 09be bb1d 94bd f0d0 0f3e 6ff4 1d3d
000000e0: 3e89 4a3e f74f d2bd 2984 e53c f81a 21be
000000f0: c18e f0bd 0dcd bb3c 860f 63bd c684 9ebe
00000100: 97fb 673b 1654 9f3e 1eaf 9dbd 9f92 59be
00000110: 7fe1 73bd 6064 aabc e749 053c a4c9 02be
00000120: 3362 9a3c c5e2 b03d 4d69 d13c 3176 dbbd
00000130: b011 dfbc baa1 643b eab3 673d bc5e ac3d
00000140: 2a93 b63c 0f0a 813d ccc6 d6bd ce7f 37bd
00000150: 4859 4f3d af8b 543e d517 15be d0cc c1bc
00000160: 7e3c 2a3a c55f 82bd a484 81bd 98a2 0c3c
00000170: 6bc7 293d 9e48 cd3c 35e3 ff3a e530 5ebc
00000180: 64c6 d2bc 15a5 4ebd 615b d33d b71b 95bd
00000190: efb2 adbd 9464 24bd 3f58 c6bd eb2f 073e
000001a0: 13af 76be d107 8a3d 4cea 9a3d 7ee2 0a3e
000001b0: 87e0 41bd b9dd 663d 7f3b b3be 8f69 2abc
000001c0: f5f5 f83c 356c a73d 04e8 4ebd dc84 abbd
000001d0: fb86 d9bb c546 d3bd d439 83bc e824 2e3d
000001e0: cc4e 12be d48d 0b3e dd10 95bd 232b 00bd
000001f0: 9bd0 423d 1d80 7ebd f4d4 56bd ceb1 d33c
00000200: 6f43 21bc a998 fe3c a348 813d c150 2cbe
00000210: fc65 c5bd c9c4 673d 2b7a 87bd 8aa5 923c
00000220: 9794 06bb aaba 5a3b eb21 303d ba9d 373c
00000230: 6a22 583d 75fb c33c ade6 923c f21b aebc
00000240: 9a93 9b3d a4ef 963d becd a13d e41a ec3c
00000250: cced 35bd c10a 9a3d 7a94 c33d 14e8 81be
00000260: 5169 003d 3c4c 9cbc daf7 e33d 330b e1bd
00000270: 68f6 6cbd 916f d7bd 3a6e 01bd 60bb 2dbd
00000280: c500 763d c098 42bc 326f dc3d 28fe abbc
00000290: 1e6d 133d 5e87 8cbe f90f 9cbd d26a 293d
000002a0: 90c5 b73d 7151 8bbd ce83 b73d 3872 41bd
000002b0: 919e 32bd 30f4 0dbc 817b 69bd d3df 9dbd
000002c0: c37c 243c 4303 0bbc 1b71 1a3d 6d29 44bd
000002d0: f7ed e4bc 6afe 27bd 051c c63d 7199 8bbd
000002e0: 9bda af3c 9b91 ec3d eaa0 12bd 10f8 193e
000002f0: 3291 e9bd 0698 0f3d 31e0 b73d 9b02 bf3c
00000300: 2b1a 193e 9f5b 993d 455b 52be 5f5a 493d
00000310: 8a1c cdbd fff1 253d 7ae0 a3bd ad4a b23d
00000320: 108e 183d 48ad d53c c275 06bb d964 99bd
00000330: cdb2 893d 8cbb 45bd 1d04 80bd 2811 5b3d
00000340: 116e c2bc bf47 c13d e78c 0b3e bc26 803d
00000350: 364d 313e 3881 6ebc f96e 5ebe abbe 74bd
00000360: 29a4 40bd 65cf 003d 9040 48bc 64ad a0bc
00000370: ac8b 813d 6777 73bd 848e f139 592f cc3d
00000380: b624 093d 50ac 10be b1d2 94bc 129f 84bd
00000390: 7cc9 93bd 88c7 57bd 027d 3dbd ee5a b5bd
000003a0: 1433 a23a 75b9 39bc 23ec 9abd 8a69 eebd
000003b0: 4173 823d bede c63a 7b55 ce3d 8941 c13c
000003c0: d551 3a3b 509a c03d 3325 2d3c e0e5 573e
000003d0: ff4d 163e 03e1 edbd 84b2 16be 3b24 72bd
000003e0: 2fb8 c9bd 5ae8 32bd 78ec e4bc d182 24bd
000003f0: a36c febd 4d0c c83d ba88 da3d 6312 d7bc
0.19165665 -0.061726667 -0.051672313 -0.31181398 0.17553183 0.019582894 0.041782126 0.021870438
0.061414506 -0.028523609 0.018445753 -0.05697375 -0.010016405 -0.13845798 -0.046550423 -0.06304271
0.0029462406 -0.012493658 -0.0069989082 -0.008062387 -0.060556803 -0.075155586 -0.10906406 0.1620088
-0.039308928 0.056717344 -0.03725759 -0.0916882 0.00849466 0.15733461 -0.0030162637 -0.0394438
0.003271557 0.042725608 -0.06475071 0.23921299 0.09787337 0.072178714 0.032100186 -0.071057364
0.023619024 -0.047998995 0.007832511 -0.027276324 0.07508569 -0.042724833 0.005696294 -0.01564099
-0.046050645 0.042304344 -0.0740054 -0.01240924 -0.13449866 -0.07232233 0.14044547 0.03856319
0.19778916 -0.10269158 0.02801712 -0.15732944 -0.11745978 0.022924924 -0.055434726 -0.30960673
0.0035397762 0.3111884 -0.076994166 -0.21247338 -0.05954122 -0.020799816 0.0081352955 -0.12772232
0.018845653 0.08637003 0.025562907 -0.107159026 -0.027230114 0.0034886436 0.056568064 0.08416507
0.02228697 0.06300747 -0.10487136 -0.04479962 0.050622255 0.2075641 -0.14559872 -0.023657233
0.00064939994 -0.06365923 -0.06324127 0.008583687 0.041449945 0.02505904 0.0019522669 -0.013561462
-0.025729366 -0.050450403 0.103201635 -0.07280677 -0.084813945 -0.04013498 -0.096848 0.13201873
-0.24090223 0.06739772 0.0756422 0.13562962 -0.047333267 0.056363795 -0.3500633 -0.010401144
0.030390719 0.08174936 -0.050514236 -0.0837495 -0.0066384054 -0.103162326 -0.016018786 0.042515665
-0.14287871 0.13628322 -0.07278607 -0.03129114 0.047562223 -0.062133897 -0.05244918 0.02584162
-0.009842738 0.031078653 0.063126825 -0.1682768 -0.096385926 0.056584153 -0.066150986 0.0179012
-0.0020535344 0.003337542 0.043001097 0.011207039 0.052767195 0.023923615 0.01793226 -0.02125356
0.07596512 0.073699266 0.0790057 0.028821416 -0.044416234 0.075215824 0.09549804 -0.25372374
0.031350438 -0.01907932 0.11131258 -0.10988464 -0.05785218 -0.105193265 -0.03159926 -0.042415023
0.060059328 -0.011877239 0.10763396 -0.020995215 0.035992734 -0.27447027 -0.07620234 0.041361637
0.08973229 -0.06802643 0.089606866 -0.047228068 -0.043608252 -0.008664176 -0.057002548 -0.07708707
0.010039511 -0.008484664 0.037705522 -0.04789107 -0.027945502 -0.041014113 0.09673313 -0.06816376
0.021466544 0.115512095 -0.03579799 0.15036035 -0.11404647 0.03505709 0.08978308 0.023316672
0.14951389 0.074881785 -0.20542629 0.04915845 -0.10015209 0.04051399 -0.080018 0.087056495
0.037244856 0.026083604 -0.0020516966 -0.07489938 0.06723557 -0.04827456 -0.062507845 0.05348316
-0.023734124 0.094375126 0.13627969 0.06257388 0.1731461 -0.014557175 -0.2172202 -0.059752148
-0.047031555 0.031447787 -0.012222424 -0.01961393 0.063254684 -0.059440043 0.00046073284 0.09969968
0.033482276 -0.14128232 -0.018166872 -0.06475653 -0.072161645 -0.052680522 -0.046261795 -0.08855234
0.0012374842 -0.01133572 -0.07564571 -0.11641224 0.06369639 0.0015172584 0.10074898 0.02359082
0.0028430123 0.09404433 0.010567951 0.21083784 0.1467819 -0.11615183 -0.14716536 -0.059116583
-0.09849583 -0.04367862 -0.027944788 -0.04016382 -0.124230646 0.09767971 0.1067061 -0.026253885

bias f4 [8]
00000000: e02c 43bd 723a ea3b b44a 603b db87 813c
00000010: e3b9 f0bc 8e20 c33d 1bca ce3c 7e09 d53d
-0.047650218 0.0071480805 0.0034224214 0.015811851 -0.029385513 0.09527694 0.025242856 0.10402201
