logs/bc_state/checkpoints/ckpt_4000.pt (torch, 95964 bytes, 6 tensors)

bias f4 [128]
0	0xbd2352d0	-0.039873898
1	0xbd094eab	-0.03352229
2	0x00000000	0.0
3	0xbcbfe1ce	-0.023423102
4	0xbcd9d37c	-0.026590101
5	0xbd0991ea	-0.03358642
6	0xbc2d4f43	-0.0105779795
7	0xbc9f8487	-0.019472374
8	0x383b0b63	4.459488e-05
9	0xbd007b9c	-0.031367883
10	0xbbe12b21	-0.0068715964
11	0x3c3550f4	0.011066664
12	0xbd562e16	-0.052290045
13	0x3cbcbeb1	0.023040147
14	0xbbebffa0	-0.0072021037
15	0x3c29587d	0.010336039
16	0xbca3d81b	-0.020000508
17	0xbcb0d637	-0.02158652
18	0xbc8d8502	-0.017275337
19	0xb9976fa7	-0.00028884152
20	0x3cb6708a	0.02227046
21	0x3cae919f	0.021309672
22	0x3cd70a08	0.0262499
23	0xbd637a93	-0.055536818
24	0xbcd46b74	-0.025930144
25	0xbd4e282c	-0.05033128
26	0x3cafe0ed	0.021469558
27	0xbcca6a36	-0.024708848
28	0xbc058370	-0.008149013
29	0xbce47f49	-0.027892726
30	0xbcb71ded	-0.022353137
31	0x3c46a598	0.012124442
32	0x00000000	0.0
33	0x3c5a09f6	0.013308039
34	0x00000000	0.0
35	0xbd811ca6	-0.063042924
36	0x3cde4908	0.027134433
37	0xbcb955a0	-0.022623837
38	0x3cfeb142	0.031090382
39	0xbccff229	-0.025384026
40	0x00000000	0.0
41	0xbd0357b9	-0.03206608
42	0xbc66249e	-0.014046816
43	0xbd8e54bd	-0.06949756
44	0xbd8cc511	-0.06873525
45	0xbc48dc52	-0.01225956
46	0x3be35257	0.006937306
47	0x3bb5cbd3	0.0055479794
48	0xbc3a0713	-0.011354226
49	0xbc581f3b	-0.01319104
50	0x00000000	0.0
51	0xbcc7b2f8	-0.024377331
52	0x3cb767ea	0.022388417
53	0xbd2238a3	-0.039604794
54	0x3d3eb553	0.046559643
55	0xbce0bd07	-0.027433885
56	0xbcaf2d55	-0.02138392
57	0x3aa8d751	0.0012881552
58	0xbd5434dd	-0.051808227
59	0x00000000	0.0
60	0x3d77d866	0.060509108
61	0xbc957d68	-0.018248275
62	0xbc36bd10	-0.011153474
63	0xbbb2596d	-0.0054427893
64	0xbabb9569	-0.0014311495
65	0x3d6e7735	0.058219153
66	0x3a9f3011	0.0012145062
67	0x3cac0679	0.02099918
68	0xbd490204	-0.049074188
69	0x3b990010	0.004669197
70	0xbdc5e309	-0.09662444
71	0x00000000	0.0
72	0x00000000	0.0
73	0x3db2e173	0.08734407
74	0x3bc25848	0.005930934
75	0x3cba10fe	0.02271318
76	0xbbe502d1	-0.006988861
77	0xbcb8c94c	-0.022556923
78	0xbc2fde78	-0.010734193
79	0xbd875803	-0.06608584
80	0x3bbf51b1	0.005838596
81	0xbcc8303f	-0.024437068
82	0xbb230aae	-0.0024878192
83	0xbcbc8258	-0.023011371
84	0xbc0a4c0b	-0.008440982
85	0xbba82378	-0.0051311813
86	0xbd82f66a	-0.06394656
87	0xbcf0c091	-0.029388698
88	0xbd70a6f7	-0.05875298
89	0x3ca547c8	0.02017583
90	0x3d8af8c6	0.06785731
91	0xbc697441	-0.0142489085
92	0xbc09ee95	-0.008418699
93	0x00000000	0.0
94	0xbcd2579e	-0.025676545
95	0xbcbe1f16	-0.023208182
96	0xbce65d7c	-0.028120749
97	0x3c050e4c	0.008121084
98	0x3cc7515c	0.024330787
99	0xbd757a63	-0.05993117
100	0xbbd305ac	-0.006439885
101	0xbdc0e37b	-0.094183885
102	0xbcea5b70	-0.028608054
103	0xbbab9f99	-0.0052375314
104	0xbc98b13e	-0.018639203
105	0xbd0a13b6	-0.033710204
106	0xbd7da688	-0.061926395
107	0xbd156944	-0.036477342
108	0x3cafcf49	0.021461146
109	0x3c504074	0.012710679
110	0xbbfc31c6	-0.007696363
111	0x3cddf6f2	0.027095292
112	0xbd0d7563	-0.034535777
113	0xbcc4b583	-0.024012333
114	0x00000000	0.0
115	0x3aab7ec8	0.0013084048
116	0xbb7ba03e	-0.0038395072
117	0xbc7a40c6	-0.015274232
118	0xbc105f06	-0.008811718
119	0x3bffde22	0.0078084627
120	0x3c22a506	0.00992704
121	0xbd1008ee	-0.035164766
122	0xbd6de912	-0.0580836
123	0xbcbcf298	-0.023064896
124	0xbbb99053	-0.0056629567
125	0xbc4702c5	-0.012146656
126	0x3cf3f417	0.029779477
127	0xbcac7636	-0.021052461

weight f4 [128, 22]
0	0x3e48298f	0.19547103
1	0x3d7a3ebd	0.06109499
2	0x3d986b62	0.07442357
3	0x3defee65	0.11715392
4	0x3d3152b9	0.04329178
5	0xbdfbac25	-0.12288693
6	0xb8ea053f	-0.00011158967
7	0xbde75cf5	-0.11297027
8	0xbe40646a	-0.18788305
9	0xbd0e1a7b	-0.034693222
10	0x3ad35b80	0.0016125292
11	0x3d81f455	0.06345431
12	0xbd9a6e61	-0.07540584
13	0x3da92446	0.08258872
14	0x3dc9a485	0.09845833
15	0x3d03bb38	0.032160968
16	0x3d901983	0.07036116
17	0xbdd64c53	-0.104637764
18	0xbe39e6e9	-0.18154491
19	0x3e12e489	0.14344992
20	0x3da31f24	0.07964924
21	0xbe51c80f	-0.20486473
22	0xbd9fb586	-0.07798295
23	0x3f13cb25	0.5773185
24	0xbdfed846	-0.12443595
25	0x3e54277f	0.20718192
26	0xbdd8a58b	-0.1057845
27	0x3d944f9a	0.07241745
28	0x3dbe4655	0.092907585
29	0xbd6de09a	-0.058075525
30	0xbdedc586	-0.1160994
31	0xbbdec020	-0.0067978054
32	0xbd5cda9a	-0.053919412
33	0x3e139988	0.14414036
34	0x3d9546c2	0.072888866
35	0x3d1c0193	0.03808744
36	0xbbd0a638	-0.006367471
37	0xbe5140c0	-0.20434856
38	0xbed8b56a	-0.42325908
39	0xbe50af66	-0.20379409
40	0xbdafda6c	-0.085865825
41	0xbc857702	-0.016292099
42	0x3eb2206b	0.34790358
43	0xbe89559e	-0.26823133
44	0x3d50f6ad	0.0510165
45	0x3e141a9d	0.14463277
46	0x3e049ad7	0.12949692
47	0x3e40b292	0.18818119
48	0xbe3c7ad3	-0.18406229
49	0xbe39600a	-0.18103042
50	0xbe30305a	-0.17205945
51	0x3e2b2437	0.16713034
52	0x3e3cc8df	0.18436001
53	0x3da88f9d	0.08230517
54	0xbdcca4ad	-0.09992347
55	0xbdff772a	-0.124739006
56	0x3d6ce8da	0.057839252
57	0x3dd5e9dd	0.104449965
58	0x3e11d710	0.14242196
59	0xbb40eb9a	-0.0029437304
60	0xb8270000	-3.9815903e-05
61	0x3d86623a	0.06561704
62	0x3df8bae0	0.121450186
63	0xbd63f56d	-0.05565398
64	0xbdabb46a	-0.083840206
65	0xbd1cfc0d	-0.03832631
66	0x3ece7587	0.4032404
67	0xbf33fedc	-0.7031076
68	0x3de7ab71	0.11311997
69	0xbd6c6d73	-0.057721566
70	0x3e044fc8	0.12921059
71	0x3c5841dd	0.013199297
72	0x3da6a45d	0.081368186
73	0xbd9d869c	-0.0769169
74	0xbd69ce55	-0.05708154
75	0xbcd672ae	-0.02617773
76	0x3dae19b6	0.08500998
77	0xbd445518	-0.047932714
78	0xbda9db91	-0.08293832
79	0xbdcd7f37	-0.1003403
80	0xbdb50000	-0.088378906
81	0x3d7a3d1e	0.061093442
82	0x3dd864dc	0.105661124
83	0x3cb1f2d6	0.021722239
84	0x3ef09b2c	0.46993387
85	0xbdecbbf0	-0.11559284
86	0x3df7954f	0.12089025
87	0xbe120709	-0.14260496
88	0xbe6b778c	-0.22994822
89	0xbf26e7cb	-0.6519744
90	0xbe3804ed	-0.17970629
91	0x3dec0319	0.11524028
92	0xbe02ee84	-0.12786299
93	0x3dd395fc	0.103313416
94	0xbcb69661	-0.022288503
95	0xbe12944d	-0.14314385
96	0x3d804e4e	0.062649354
97	0xbe4782ed	-0.19483538
98	0x3e00cd08	0.12578213
99	0x3cfe65f5	0.031054476
100	0x3cd94f8b	0.026527187
101	0xbdb4c1f8	-0.08826059
102	0xbdf733ec	-0.1207045
103	0xbdb63451	-0.08896697
104	0x3e228060	0.15869284
105	0x3d73558a	0.05940775
106	0x3d110d17	0.035412874
107	0x3e169d9f	0.14708565
108	0xbe1610c1	-0.14654829
109	0xbe0eb771	-0.13937165
110	0xbe1d24ee	-0.15346119
111	0x3de5c299	0.11218757
112	0xbd474fc9	-0.048660073
113	0xbdba3fa4	-0.0909417
114	0x3e025d6e	0.12730953
115	0x3c87dc2f	0.016584484
116	0xbe2858cf	-0.16440128
117	0x3dc6b714	0.09702888
118	0xbd078cb1	-0.03309316
119	0x3cc1f3e9	0.023675876
120	0x3e2d2492	0.16908482
121	0x3e21be93	0.15795355
122	0x3b8a8cba	0.0042282017
123	0x3dce8592	0.1008407
124	0xbb605a40	-0.003423348
125	0xbcdc8ef6	-0.026923638
126	0x3de19252	0.110142365
127	0x3d57ff93	0.05273397
128	0xbe40fc48	-0.18846238
129	0xbd17f94e	-0.03710299
130	0x3c161236	0.009159615
131	0xbe871fc0	-0.2639141
132	0xbe4c99ee	-0.19980595
133	0x3e9006be	0.28130144
134	0xbdc350d3	-0.095369
135	0xbd5f22a7	-0.054476406
136	0xbe48458d	-0.19557782
137	0xbdebe39b	-0.11518022
138	0x3d474bf9	0.048656438
139	0xbd8e9ee5	-0.069639005
140	0xbd8064e4	-0.06269243
141	0xbd5e7f61	-0.054320697
142	0x3d02f82e	0.031974964
143	0x3e003de8	0.12523615
144	0x3de607a8	0.11231929
145	0xbd008f00	-0.031386375
146	0xbe35606c	-0.17712563
147	0xbd42792e	-0.047478847
148	0xbe4ef92b	-0.20212238
149	0x3d1a9b80	0.037745953
150	0x3e99ebe2	0.30062777
151	0xbc3e120a	-0.011600981
152	0x3d536996	0.051614366
153	0x3e2ee14b	0.1707813
154	0x3d21c1a6	0.03949132
155	0xbcc3d175	-0.023903588
156	0xbe85d887	-0.2614176
157	0xbdf53aaf	-0.11974084
158	0x3e06bffc	0.13159174
159	0xbd828d9f	-0.06374668
160	0x3e289786	0.16464052
161	0x3d867a98	0.06566352
162	0x3dd32ed7	0.10311668
163	0xbe2b0958	-0.16702783
164	0xbda45e5d	-0.08025811
165	0x3e1434d6	0.1447328
166	0x3ca97a60	0.020688236
167	0x3de35d99	0.11101837
168	0xbe16823f	-0.14698122
169	0x3e2e5dda	0.17027989
170	0xbdb80fb7	-0.08987372
171	0xbe095f9d	-0.1341538
172	0xbe11ef87	-0.14251529
173	0xbe3ce0d6	-0.18445143
174	0x3cca0010	0.024658233
175	0xbda0394f	-0.07823431
176	0x3c5b299c	0.01337662
177	0xbd54e9cf	-0.05198079
178	0x3e34c772	0.17654207
179	0xbe66ad8b	-0.22527139
180	0xbe26aad0	-0.16276097
181	0xbde99e89	-0.11407191
182	0xbd17e900	-0.03708744
183	0xbc345432	-0.011006402
184	0xbdd2543c	-0.10269973
185	0x3dd59e35	0.10430566
186	0xbcaf0fb5	-0.021369794
187	0x3d828896	0.06373708
188	0x3d08d2ba	0.03340409
189	0xbdb2236d	-0.08698163
190	0x3aba36c4	0.0014206995
191	0x3be7d384	0.007074775
192	0xbd7542e7	-0.059878256
193	0x3c9f2764	0.019427963
194	0xbe0a7394	-0.13520652
195	0x3c24885a	0.010042274
196	0xbe8121e5	-0.25221172
197	0x3c819650	0.015818745
198	0x3e158dff	0.14604948
199	0xbefa42ef	-0.4887919
200	0x3d1aec64	0.037823096
201	0x3df1dfd7	0.11810272
202	0x3c4cb6c8	0.01249475
203	0xbd2ad849	-0.04171017
204	0x3e15343e	0.1457071
205	0xbdf26b6b	-0.118368946
206	0x3d83631d	0.06415389
207	0xbcabad6e	-0.020956721
208	0xbd5711b7	-0.05250713
209	0x3d8b9d63	0.068171285
210	0x3e301932	0.17197111
211	0xbd4aef2f	-0.04954451
212	0xbe024089	-0.1271993
213	0xbdc46d96	-0.09591214
214	0xbc493795	-0.012281318
215	0x3da44ff4	0.08023062
216	0x3d66bffa	0.056335427
217	0x3c21e341	0.009880842
218	0x3df3e621	0.11909128
219	0xbdb94290	-0.09045899
220	0xbea0e17b	-0.31422028
221	0xbf58181f	-0.84411806
222	0xbd21c56c	-0.039494917
223	0x3e2a88ec	0.16653794
224	0x3d9b8feb	0.075958095
225	0x3c4a26e4	0.012338374
226	0xbe23271c	-0.15932888
227	0x3b47489e	0.0030408273
228	0xbd682b83	-0.05668212
229	0xbe00c0b1	-0.12573506
230	0xbda6e043	-0.08148243
231	0x3e24a6c1	0.16079237
232	0xbd9639ca	-0.07335241
233	0xbd55f0c9	-0.052231584
234	0x3db6c5fe	0.08924483
235	0x3c7bd8fa	0.015371555
236	0xbc7a20dc	-0.015266623
237	0xbda8a3a7	-0.08234339
238	0x3dc8563b	0.09782072
239	0x3df937fd	0.12168882
240	0xbd26e8d5	-0.04074939
241	0x3cc461ae	0.023972359
242	0x3e2c33ef	0.16816686
243	0x3ba3ab23	0.0049947663
244	0x3db77941	0.08958674
245	0xbf1a6e81	-0.60324866
246	0xbe0d09b5	-0.13773234
247	0xbd5e8fce	-0.05433636
248	0xbe1fd038	-0.15606773
249	0x3d0ed13f	0.03486752
250	0xbd08e4d6	-0.03342136
251	0x3d6db2e6	0.05803194
252	0x3dc4bd93	0.09606471
253	0xbd141b35	-0.03615876
254	0xbd6b72a5	-0.05748238
255	0x3b9b87cb	0.0047464124

bias f4 [128]
0	0x3c5483f3	0.012970912
1	0x3c916215	0.017746964
2	0xbc1d3940	-0.009596169
3	0x3d1053c4	0.035236135
4	0x3d03b416	0.032154165
5	0x3cc25b22	0.023725096
6	0xbce67f0a	-0.028136749
7	0xbc138dec	-0.009006005
8	0xbc4260cb	-0.011863898
9	0xbc9c58a1	-0.01908523
10	0xbcb0448f	-0.021517066
11	0x3c860e6e	0.016364302
12	0x3cac79fe	0.021054264
13	0xbbdce5f2	-0.006741279
14	0x3ce47e55	0.027892271
15	0xbd12e417	-0.035862055
16	0x3caf645b	0.021410158
17	0xbd0df319	-0.034655664
18	0x3ca83514	0.020533122
19	0xbc411a4f	-0.011786058
20	0x3c9ce962	0.019154254
21	0xbbd97f15	-0.006637464
22	0x3ca5905e	0.020210441
23	0x3d111079	0.0354161
24	0x3d67c2e1	0.056582335
25	0x3d3cbeb8	0.04608032
26	0x3c619423	0.013768229
27	0xbd3473c8	-0.04405573
28	0xbd23123e	-0.03981232
29	0x3c88475a	0.016635586
30	0xbccc0a28	-0.024907187
31	0xbca5019f	-0.020142375
32	0xbd019862	-0.031639464
33	0xbbb1e06e	-0.0054283654
34	0x3c4e19da	0.012579406
35	0xbcb9ca75	-0.022679547
36	0xbc1ccfb1	-0.009571002
37	0xbca5753b	-0.020197501
38	0x3b36b798	0.0027880426
39	0xbce31e71	-0.027724477
40	0x38bece2c	9.0983085e-05
41	0x3b9dc3ba	0.004814592
42	0xbd02f331	-0.031970207
43	0x3c9e27f2	0.019306157
44	0xbc8970af	-0.016777365
45	0x3d002229	0.031282578
46	0xbd22ee47	-0.03977802
47	0x3c66e180	0.014091849
48	0x3bf8f700	0.007597804
49	0x3ce0931a	0.027413893
50	0xbcc63992	-0.024197374
51	0xbbcb81b4	-0.00621053
52	0x3c5e4be7	0.013567901
53	0xba3c12f9	-0.0007174458
54	0xbd0664f8	-0.032811135
55	0xbd35204e	-0.04422026
56	0x3bd939c4	0.0066292007
57	0x3ccfd7ee	0.025371518
58	0x3cbbcb10	0.022923976
59	0xbbd4f9f2	-0.0064995224
60	0xbd514011	-0.05108649
61	0x3ca3aea8	0.019980744
62	0x3d19fa75	0.03759237
63	0xbcb73cc9	-0.022367852
64	0x3d28b42c	0.04118745
65	0xbccdbdb4	-0.025114872
66	0x3c11e526	0.008904731
67	0x3d20825f	0.03918683
68	0x3bb88080	0.005630553
69	0x3c0c8893	0.008577484
70	0x3cab3f32	0.020904157
71	0x3b5a18ee	0.003327902
72	0xbcac0e6d	-0.021002972
73	0x3c65b3b2	0.0140198935
74	0x3cf9fbe5	0.03051562
75	0xbb2d919c	-0.0026484495
76	0xbd1517bd	-0.03639959
77	0x3cb2dfb4	0.021835186
78	0xbc8ea360	-0.017411888
79	0xbcd026c3	-0.025409108
80	0xbd209003	-0.03919984
81	0x3d0a0869	0.033699427
82	0x3d1592da	0.036517
83	0xbc6363a6	-0.0138787385
84	0xbd0049a5	-0.031320233
85	0x3d284739	0.04108355
86	0xbc9a65d3	-0.018847382
87	0x3bcf64ec	0.0063291695
88	0x3cb385b0	0.021914333
89	0x3be882c7	0.007095668
90	0x3bba21fc	0.005680321
91	0xbcf83325	-0.030297825
92	0xbb931bf8	-0.004489418
93	0x3cdabc9c	0.026701264
94	0xbc842b50	-0.016133934
95	0xbc1e5c06	-0.009665495
96	0x3cd42769	0.025897698
97	0x3d001811	0.03127295
98	0x3ceff8e6	0.029293489
99	0xbcaa195a	-0.020764042
100	0xbd6ce2a9	-0.057833347
101	0x3c018f00	0.007907629
102	0x3cca0c11	0.024663957
103	0x3c0ee488	0.008721478
104	0x3d05532e	0.03255003
105	0x39afba9e	0.00033517642
106	0xbd1a7c96	-0.03771647
107	0xbb997feb	-0.0046844385
108	0x3d181c48	0.037136346
109	0x3c7f2909	0.015573748
110	0xbd2c2a7f	-0.042032715
111	0xbd16457d	-0.036687363
112	0xbc92331e	-0.01784664
113	0x3d19ee11	0.037580553
114	0xbc8af7ff	-0.016963957
115	0xbb97847d	-0.004623948
116	0xbba5345e	-0.005041643
117	0x3ca34f57	0.019935293
118	0xbd55460e	-0.052068762
119	0xbbeb09e6	-0.007172811
120	0x3cfc9279	0.030831562
121	0x3d490235	0.04907437
122	0x3baeb210	0.0053312853
123	0x3c41c54e	0.011826826
124	0x3cbb28ce	0.022846606
125	0xbc111c84	-0.008856896
126	0xbd1abe4f	-0.03777915
127	0x3c7d2b39	0.0154522

weight f4 [128, 128]
0	0x3dcdce4f	0.10049116
1	0x3e234bf6	0.15946946
2	0xbd643c29	-0.055721436
3	0xbe24c912	-0.16092327
4	0x3d6fc1f8	0.058534592
5	0xbd6962b6	-0.056978904
6	0xbcec0575	-0.028811196
7	0x3de7d68b	0.11320218
8	0xbd8d6c98	-0.06905478
9	0xbdfac495	-0.12244526
10	0x3e07c6a2	0.13259366
11	0xbe885112	-0.26624352
12	0x3e00f54c	0.12593573
13	0xbde61646	-0.11234717
14	0xbce4da3a	-0.02793609
15	0xbd870f8f	-0.065947644
16	0x3e0550da	0.13019124
17	0xbcd2fb1b	-0.025754502
18	0x3d2feedc	0.042952403
19	0x3d7ff05a	0.062485076
20	0xbdf8b1f5	-0.121433176
21	0x3e965f2d	0.29369488
22	0x3e05799d	0.13034673
23	0xbdab8c10	-0.08376324
24	0x3df0d702	0.117597595
25	0xbcba4593	-0.022738254
26	0x3e1151e2	0.14191392
27	0xbe0dc35c	-0.13844055
28	0x3d3772cd	0.044787217
29	0xbdaaa373	-0.08331957
30	0x3c956090	0.018234521
31	0xbf05e02c	-0.52295184
32	0x3d7a6882	0.061134823
33	0xbd07dd68	-0.033170134
34	0x3d2a6d96	0.041608416
35	0xbd979c9f	-0.0740292
36	0x3c96aae6	0.018392038
37	0xbd783e99	-0.060606573
38	0x3eafeb15	0.3435904
39	0x3de376d6	0.111066505
40	0xbd9c5187	-0.076327376
41	0x3d7d5688	0.0618501
42	0x3d4d40da	0.050110675
43	0xbe85513b	-0.26038536
44	0x3dc13535	0.094339766
45	0xbda5e82f	-0.08100926
46	0xbd940eb0	-0.07229364
47	0xbdf27ef5	-0.118406214
48	0xbdbe93be	-0.09305523
49	0x3dd635aa	0.10459454
50	0x3e1b4379	0.15162458
51	0xbdeba624	-0.11506298
52	0xbe04090d	-0.12894078
53	0x3e457734	0.19283754
54	0xbe237af7	-0.15964876
55	0x3db2c196	0.0872833
56	0x3d46e9fc	0.04856299
57	0xbd94b0f4	-0.07260314
58	0xbcd53152	-0.026024494
59	0xbe127754	-0.14303333
60	0xbb39784d	-0.0028300465
61	0xbdde778f	-0.10862648
62	0xbd99710f	-0.07492267
63	0x3de8923b	0.11356016
64	0xbdaeee81	-0.08541585
65	0x3e303635	0.17208178
66	0x3db25305	0.08707241
67	0x3e049c3d	0.12950225
68	0x3e0b51a3	0.1360536
69	0x3e63ac9d	0.22233815
70	0x3dc1d4ec	0.0946444
71	0x3d53866a	0.05164186
72	0xbdcaf77a	-0.09910484
73	0xbe3e90a7	-0.18609868
74	0xbec981b6	-0.39356774
75	0x3d07ec39	0.033184264
76	0xbd3ddb74	-0.046351865
77	0x3db7531f	0.08951401
78	0x3e0dae13	0.13835935
79	0xbe81f768	-0.25384068
80	0x3dd348a4	0.103165895
81	0xbd818403	-0.06324007
82	0x3e7318bd	0.23739906
83	0x3df3a961	0.11897541
84	0xbda33add	-0.07970212
85	0xbd8c0c8c	-0.068383306
86	0x3c57143e	0.013127385
87	0xbd0bca11	-0.034128252
88	0x3cd9ffb2	0.026611183
89	0xbd6aa093	-0.05728204
90	0xbd9828a8	-0.074296296
91	0x3dea0a68	0.11427766
92	0xbc27aeb4	-0.010234524
93	0xbd7ad295	-0.061235983
94	0xb916a346	-0.00014365939
95	0xbdab9bee	-0.083793506
96	0x3df13954	0.117785126
97	0xbdf86898	-0.12129325
98	0xbd88174a	-0.06645067
99	0xbde2471a	-0.11048718
100	0xbd9f69ec	-0.07783875
101	0xbe9a5a5a	-0.30147058
102	0x3d383b16	0.044978224
103	0xbd78d766	-0.060752295
104	0x3da2b7d1	0.079452164
105	0x3c028591	0.007966415
106	0xbe7db000	-0.2477417
107	0x3d56c83e	0.05243706
108	0x3d9ae2cd	0.0756279
109	0x3e0ba900	0.13638687
110	0xbce39028	-0.0277787
111	0x3b557279	0.0032569452
112	0xbd65c841	-0.05609918
113	0xbd0f5b00	-0.034998894
114	0x3d37a8b7	0.044838633
115	0x3e686249	0.22693743
116	0x3dea16a0	0.114300966
117	0xbe084a58	-0.1330961
118	0xbc6515b7	-0.013982228
119	0x3cda65ab	0.026659807
120	0x3d92bb7b	0.07164665
121	0x3c99ed0d	0.018789792
122	0x3e18394f	0.14865611
123	0xbc1d33ec	-0.009594899
124	0x3dc2b4aa	0.09507115
125	0xbd7863e7	-0.06064215
126	0xbcb793a6	-0.022409271
127	0xbdd3cba3	-0.10341575
128	0x3dd2e1f1	0.10297001
129	0xbe257120	-0.16156435
130	0x3cb80f27	0.022468163
131	0xbe43aa6f	-0.19107984
132	0xbde681a2	-0.11255194
133	0xbd569d88	-0.052396327
134	0x3d118e88	0.03553632
135	0x3df0abb1	0.117514975
136	0x3e28abb5	0.16471751
137	0x3d0f4806	0.034980796
138	0xbcc8e37d	-0.024522537
139	0xbdef80e5	-0.116945066
140	0xbde0465e	-0.109509215
141	0xbd8af544	-0.06785062
142	0x3d79cad8	0.060984462
143	0xbda948bb	-0.08265825
144	0x3e0109c7	0.12601386
145	0x3c88a7b3	0.016681528
146	0x3e15ec2e	0.14640877
147	0xbdd16bc4	-0.10225633
148	0x3e84212c	0.25806558
149	0x3d0ef7fc	0.034904465
150	0x3e0577de	0.13034007
151	0xbdd9fc1d	-0.1064379
152	0xbc834038	-0.016021833
153	0xbcadccba	-0.021215785
154	0xbd8e6240	-0.069523335
155	0x3e338e15	0.17534669
156	0xbd5892cb	-0.052874368
157	0xbd252f0d	-0.040328074
158	0x3deead1f	0.11654114
159	0xbe4bfd3c	-0.1992082
160	0xbd204e81	-0.039137367
161	0xbc86cc9e	-0.016454991
162	0x3d77b895	0.060478766
163	0xbe0702df	-0.13184689
164	0x3e21e3a9	0.15809502
165	0x3e12c021	0.14331104
166	0x3e83a687	0.25712988
167	0x3de754d0	0.112954736
168	0x3e0cbc00	0.13743591
169	0x3e210d9a	0.15727845
170	0xbca6fc3e	-0.02038395
171	0x3e4d184b	0.20028798
172	0xbd95736a	-0.07297404
173	0xbda2f1bd	-0.07956264
174	0x3dc09dbf	0.09405088
175	0xbe056b24	-0.13029152
176	0xbdebc1c8	-0.1151157
177	0x3e19b822	0.15011647
178	0x3dfda86a	0.12385638
179	0x3d800b52	0.06252159
180	0x3e2a99cb	0.1666023
181	0xbd72e241	-0.059297804
182	0x3c8713d4	0.016488947
183	0x3d23bb16	0.03997334
184	0xbd1eb289	-0.038744483
185	0x3ce9d8c3	0.028545743
186	0xbdc2c5f7	-0.09510415
187	0x3d810186	0.06299119
188	0xbe7b26b0	-0.24526477
189	0x3dcd84e8	0.100351155
190	0xbd78dbe6	-0.060756586
191	0x3d987abb	0.07445284
192	0x3dab100d	0.08352671
193	0xbde3887e	-0.11110018
194	0x3e4607bf	0.19338892
195	0xbd845c7a	-0.06462951
196	0xbbd7be93	-0.0065839975
197	0x3e535c4e	0.2064068
198	0xbe0331f0	-0.12812018
199	0x3d0ab5df	0.033864852
200	0xbe12dfbf	-0.14343165
201	0x3bb14ae5	0.0054105395
202	0x3d5fa282	0.05459834
203	0xbcca50c8	-0.024696723
204	0x3d13db84	0.03609802
205	0x3e289b00	0.16465378
206	0x3d841cb1	0.06450785
207	0x3e32eab0	0.17472339
208	0x3db0bd6a	0.08629878
209	0x3e33e179	0.1756648
210	0x3e508eab	0.20366924
211	0xbdfb1449	-0.122597285
212	0x3e18841d	0.14894147
213	0xbd6831bc	-0.056688055
214	0xbdccedc3	-0.10006287
215	0x3ce8136e	0.028329577
216	0x3e110e24	0.1416555
217	0x3e11bcb5	0.14232142
218	0x3e790d36	0.24321446
219	0x3ddf8780	0.109145164
220	0x3e0c32d6	0.13691267
221	0x3b51146a	0.0031903037
222	0x3e5d65c5	0.21620853
223	0x3e2f9f3b	0.17150585
224	0xbdbdaa02	-0.09260942
225	0x3e4d7fa2	0.2006822
226	0x3df56083	0.11981299
227	0x3da86969	0.082232304
228	0x3dd16b27	0.10225516
229	0xbd1d7e15	-0.03845032
230	0xbc4239c2	-0.011854591
231	0x3e333cac	0.17503613
232	0x3e03372a	0.12814012
233	0x3dbbc55c	0.09168503
234	0xbe4f0a5f	-0.202188
235	0x3e3eabfa	0.18620291
236	0xbd4c0a75	-0.04981466
237	0xbdc4b373	-0.0960454
238	0xbd1567b1	-0.03647584
239	0xbd5f231f	-0.054476853
240	0x3de7b626	0.11314039
241	0xbdca3759	-0.09873838
242	0x3b0748b9	0.0020642711
243	0xbdb2a8c6	-0.08723597
244	0xbd2450ac	-0.040115997
245	0xbde22e7b	-0.11044022
246	0x3cc86baa	0.0244654
247	0xbc20a01f	-0.009803801
248	0xbdedb818	-0.11607379
249	0x3d777a91	0.060419623
250	0xbdfc5416	-0.123207256
251	0xbc420682	-0.011842372
252	0x3d87f492	0.06638445
253	0x3e15fa48	0.14646256
254	0x3dab0f15	0.08352486
255	0x3be76f60	0.0070628375

weight f4 [8, 128]
0	0xbdb90d1a	-0.09035702
1	0x3ba24af1	0.0049527814
2	0x3d4570c9	0.048203263
3	0xbd29da9c	-0.041468248
4	0x3da42504	0.08014873
5	0x3e1a6948	0.15079224
6	0x3c9cadfb	0.01912593
7	0xbe543ef9	-0.20727147
8	0xbd623a07	-0.05523112
9	0xbdb499d4	-0.08818403
10	0xbd1b3cfd	-0.03789996
11	0x3cf06af9	0.029347884
12	0x3d916fae	0.07101379
13	0x3c85ba86	0.016324293
14	0xbe404a15	-0.1877826
15	0xbd6aecae	-0.05735462
16	0xbd2b1797	-0.041770544
17	0xbd998568	-0.07496148
18	0xbd401a6d	-0.0469002
19	0xbdf5f464	-0.120095044
20	0x3d708159	0.058717106
21	0x3e05a883	0.13052563
22	0xbe8f3dcc	-0.27976835
23	0x3c3ace39	0.011401706
24	0xbcd37e34	-0.025817014
25	0xbd728d23	-0.05921663
26	0xbc0b91ee	-0.008518679
27	0x3c7607f8	0.015016548
28	0xbb7954dd	-0.0038044967
29	0xbd8f2e0e	-0.06991206
30	0xbceab4ab	-0.028650602
31	0xbdcf40ed	-0.101198055
32	0xbd980761	-0.074232824
33	0xbd1ecc24	-0.038768902
34	0x3d403dab	0.04693381
35	0x3e454351	0.1926396
36	0x3cb827ce	0.022479918
37	0xbcc25d05	-0.023725996
38	0x3d0b9280	0.03407526
39	0x3c28f77a	0.010312909
40	0xbd84b9b8	-0.064807355
41	0xbcbb36ca	-0.022853274
42	0x3b2c1ce4	0.0026262337
43	0xbd7deb86	-0.06199219
44	0x3dd249a0	0.10267949
45	0x3d84d8a5	0.06486634
46	0xbd5ca881	-0.053871635
47	0xbb0d7ede	-0.0021590511
48	0xbd06b788	-0.032889873
49	0xbe80b67d	-0.25139228
50	0xbc8247a3	-0.0159033
51	0xbd25ac89	-0.040447745
52	0xbb611817	-0.0034346634
53	0x3dfc0054	0.1230475
54	0x3dbf4dc0	0.093410015
55	0xbd8a7ac6	-0.067616984
56	0x3cab2920	0.020893633
57	0xbc0d6479	-0.008629912
58	0x3e4b3dbb	0.19847767
59	0x3e548241	0.20752813
60	0x3dd9fde1	0.10644127
61	0xbd4b2389	-0.049594436
62	0x3ce7582b	0.028240284
63	0x3d3b970d	0.04579835
64	0xbda2b286	-0.07944207
65	0x3da3b749	0.07993943
66	0xbd429464	-0.047504798
67	0xbd64c176	-0.05584856
68	0xbda5d631	-0.080974944
69	0xbd08eefa	-0.03343103
70	0x3d0bb6f9	0.034110043
71	0xbd3f86f5	-0.046759564
72	0x3da1d6ef	0.079023235
73	0x3d450daf	0.048108753
74	0x3cd859dd	0.026410038
75	0x3de5c902	0.1121998
76	0x3c5d5923	0.013510021
77	0xbcc4ef08	-0.02403976
78	0xbdbeb44d	-0.093117334
79	0xbd78fdc7	-0.060788896
80	0xbd7cb8f8	-0.061699837
81	0x3d809ea8	0.06280261
82	0x3ca416db	0.02003043
83	0x3d1f62f1	0.038912717
84	0x3cbbc52c	0.022921167
85	0x3d10bf73	0.03533883
86	0x3daa428c	0.08313474
87	0xbd8feb1d	-0.07027266
88	0xbcbbb5ec	-0.022913896
89	0xbdb45507	-0.0880528
90	0xbc63aa41	-0.013895572
91	0xbd820aff	-0.063497536
92	0x3ca3ea75	0.020009259
93	0x3e206d89	0.15666784
94	0x3d464ddc	0.048414096
95	0x3d18c573	0.037297677
96	0x3dc80782	0.09767057
97	0xbca597ae	-0.020213928
98	0x3d8c61f5	0.06854621
99	0x3d9719c9	0.07377965
100	0x3c7a5c0f	0.015280738
101	0xbd3bad20	-0.0458194
102	0xbc831ec0	-0.016005874
103	0xbd45ba56	-0.048273407
104	0x3e8428d8	0.2581241
105	0xbc6b8202	-0.014374258
106	0xbdd96545	-0.10615019
107	0x3cbdc690	0.023165971
108	0xbd9a6961	-0.07539631
109	0x3db43d3a	0.088007405
110	0x3dc65a01	0.09685136
111	0xba57e98a	-0.0008236399
112	0x3cf708bc	0.030155532
113	0xbc2b6026	-0.010459935
114	0xbd81fdc6	-0.063472316
115	0xbd11d12d	-0.035599876
116	0x3ccc803a	0.024963487
117	0x3e1f2d79	0.1554469
118	0x3cd41138	0.025887117
119	0xbde24264	-0.11047819
120	0x3c9c5427	0.019083096
121	0xbd88e0a5	-0.066834725
122	0x3da2063c	0.07911345
123	0x3d1dba7a	0.038507916
124	0xbdebc5ad	-0.11512313
125	0x3cc95d63	0.024580663
126	0xbc07fcbb	-0.008300002
127	0x3d1d00e8	0.038330942
128	0xbe1c42d0	-0.15259862
129	0x3dc5719d	0.09640811
130	0xbc763496	-0.015027186
131	0xbd5d1865	-0.053978343
132	0xbca33993	-0.019924914
133	0xbbae74cc	-0.005323982
134	0xbe648f48	-0.22320282
135	0xbcde759e	-0.027155694
136	0xbd49aef4	-0.049239114
137	0xbe0d9a9d	-0.13828512
138	0xbddb9a3d	-0.10722778
139	0x3e89589e	0.26825422
140	0x3d19a59e	0.03751146
141	0xbd95dbca	-0.07317312
142	0x3d7176c8	0.05895117
143	0x3dcd3186	0.100192115
144	0x3cb6b640	0.0223037
145	0x3c3fab09	0.011698493
146	0x3dc404be	0.09571217
147	0x3e17dc07	0.14830028
148	0xbdadf555	-0.08494059
149	0x3d51543f	0.051105734
150	0x3e327687	0.17428027
151	0xbd890a32	-0.06691398
152	0x3d70df23	0.05880655
153	0xbc888583	-0.016665226
154	0xbe2007bc	-0.1562795
155	0x3d60356f	0.05473846
156	0xbd396158	-0.04525885
157	0x3d74bec3	0.059752237
158	0x3bdefa98	0.0068047754
159	0x3d8774ba	0.06614061
160	0x3dda91f1	0.10672367
161	0xbdb73160	-0.089449644
162	0xbccb00e0	-0.02478069
163	0xbecbee50	-0.39830256
164	0x3e03c285	0.12867172
165	0xbcbaece2	-0.022818033
166	0x3e236f2f	0.15960382
167	0xbd365a5d	-0.04451977
168	0xbc3d701b	-0.011562373
169	0xbc1bda68	-0.009512521
170	0x3d75fe39	0.0600569
171	0xbddd5cec	-0.10808739
172	0x3dd626db	0.1045663
173	0x3d9ff49f	0.0781033
174	0xbc84a59c	-0.01619225
175	0x3d24fbac	0.040279076
176	0x3cc7d0f9	0.024391638
177	0xbe3f3183	-0.18671231
178	0x3dc48c6d	0.095970966
179	0x3d25e0b5	0.0404975
180	0x3dbf29ed	0.093341686
181	0x3bed6d1b	0.0072456724
182	0x3dbde6fc	0.092725724
183	0xbcdeb109	-0.027184026
184	0xbd87f85b	-0.06639167
185	0x3dddaeeb	0.108243786
186	0xbe36a759	-0.17837276
187	0x3d18cab7	0.0373027
188	0xbd8eeb3f	-0.069784634
189	0x3d8ffe81	0.07030965
190	0xbdaa5082	-0.08316137
191	0xbdb3899e	-0.08766483
192	0xbd406b7d	-0.04697751
193	0x3d8d8ae7	0.06911259
194	0x3e36eb67	0.17863236
195	0xbd202ed6	-0.039107166
196	0x3d5dd254	0.054155663
197	0x3d91ddcb	0.07122382
198	0xbe0276a6	-0.12740573
199	0xba89e63b	-0.0010520885
200	0x3db4d482	0.08829595
201	0x3d80e9ff	0.06294631
202	0xbe05ab4d	-0.13053627
203	0x3dfd98c9	0.12382657
204	0x3dcdb967	0.10045128
205	0x3da6d8c7	0.08146816
206	0x3d35128b	0.044207137
207	0x3dd8df1d	0.105894305
208	0xbd0a2df7	-0.03373524
209	0xbedddfa8	-0.433347
210	0xbd121981	-0.035668854
211	0xbd432c50	-0.04764968
212	0xbdacab9f	-0.084311716
213	0xbd9e857f	-0.07740306
214	0x3d960db7	0.07326835
215	0xbeb62247	-0.35573027
216	0x3dc499ae	0.095996246
217	0xbcead345	-0.028665194
218	0xbde82b21	-0.11336351
219	0xbdd56379	-0.104193635
220	0x3e20f72d	0.1571929
221	0xbd872bde	-0.06600164
222	0x3d32011d	0.043458093
223	0x3e5475ac	0.20748013
224	0xbdcf0938	-0.1010918
225	0x3d1b0103	0.03784276
226	0x3db7811d	0.08960173
227	0xbd324f60	-0.04353273
228	0x3de915ce	0.11381112
229	0xbd9b22a3	-0.07574966
230	0x3e1b834e	0.15186808
231	0xbcf97e00	-0.03045559
232	0xbe4633b4	-0.1935566
233	0x3d36caa2	0.04462684
234	0x3da65134	0.08120957
235	0x3c0d1f2d	0.00861339
236	0x3c847a35	0.016171554
237	0x3dafab1f	0.08577561
238	0xbccfc583	-0.025362736
239	0xbd4318e0	-0.047631145
240	0xbb8cec31	-0.004300617
241	0x3dab9ba1	0.08379293
242	0x3e3d829a	0.18506852
243	0xbde3a43b	-0.11115309
244	0xbde43d6e	-0.11144529
245	0xbe460b42	-0.19340232
246	0xbd00c633	-0.031439018
247	0xbd11497c	-0.03547047
248	0xbe08b216	-0.13349184
249	0xbd1d6cb7	-0.038433757
250	0x3a83ca88	0.0010054866
251	0x3dbaf81b	0.091293536
252	0x3c50b6a7	0.01273886
253	0xbe1c6192	-0.15271595
254	0xbd2cfc46	-0.042232774
255	0x3dd2da51	0.10295547

bias f4 [8]
0	0xbc88c865	-0.016697118
1	0xbd96298a	-0.07332142
2	0xbcffdb7e	-0.031232592
3	0x3a558729	0.00081454456
4	0x3d76c2a2	0.06024421
5	0xbd4c0cda	-0.049816944
6	0x3b455665	0.003011131
7	0x3df235af	0.118266456
