logs/bc_state/checkpoints/ckpt_52000.pt (torch, 95974 bytes, 6 tensors)

bias f4 [128]
000000 b4 e5 df bd 99 28 04 be 00 00 00 00 d5 d7 4c be
       -0.10932484 -0.12906112 0.0 -0.20004208
000010 3e 24 50 3d d6 bf 5a 3d 54 1a a1 bd bf 41 ed bd
       0.050815813 0.053405605 -0.0786635 -0.11584806
000020 51 e6 b9 bc cd 87 52 be 3d 31 cd bc b6 1d 08 be
       -0.022692831 -0.20559616 -0.025047893 -0.13292584
000030 98 cf f5 be 5b 1b 2b 3d f8 89 c4 bc 1e 80 4c bd
       -0.48009944 0.041774135 -0.02399157 -0.04992687
000040 39 99 27 be 20 2a a2 3b db 0a 5a 3d 7f dd 96 bc
       -0.16367044 0.0049488693 0.05323301 -0.018416164
000050 88 4f fa bc 36 9a 64 3c a7 6e 0a bd 98 77 a5 be
       -0.030555502 0.013952782 -0.033796933 -0.32317805
000060 6e 0f 9c bd 48 02 aa bd 1b 1d 05 3d 40 30 4a be
       -0.076201305 -0.08301216 0.03249846 -0.19744968
000070 94 bf 20 bd 05 23 a3 be 3d 51 7f bb 6b 4c ba bc
       -0.039245203 -0.31862655 -0.0038958334 -0.022741517
000080 00 00 00 00 79 77 c8 bd 00 00 00 00 0f ce 92 be
       0.0 -0.097884126 0.0 -0.28672835
000090 34 1c 6f bd 4d a3 ed 3d 18 63 e4 bc c6 28 56 bd
       -0.058376506 0.11603413 -0.027879283 -0.05228498
0000a0 00 00 00 00 27 c2 27 3e 8b 06 6a bc 68 17 b4 be
       0.0 0.16382657 -0.0142837865 -0.35174108
0000b0 60 1a a6 bd 52 dc 48 bc fd 18 41 3d 5c db 3e 3e
       -0.081104994 -0.01225956 0.04714297 0.18638366
0000c0 e6 e1 af bd 6b 85 12 bc 00 00 00 00 d9 33 a3 3d
       -0.085880086 -0.008942942 0.0 0.079688735
0000d0 1a 08 38 3e 32 12 6f be 1b f9 f3 3d b0 89 5b be
       0.1797184 -0.23346785 0.119127475 -0.21439242
0000e0 52 2d 95 bd 52 5f 84 be 1f 46 ce bd 00 00 00 00
       -0.07284035 -0.25853974 -0.10071968 0.0
0000f0 5c d9 54 3d ef d3 8a bb 1d 8c 07 3e 12 dd 6f 3e
       0.051965103 -0.0042366902 0.13237043 0.23424175
000100 cb c7 af bd a9 2f 98 3e 0d 9f be bd 59 04 62 bc
       -0.08583029 0.29723862 -0.0930768 -0.013794982
000110 50 fc de bd 14 a5 2d 3c 8c 4a d5 be 00 00 00 00
       -0.108879685 0.01059844 -0.41658437 0.0
000120 00 00 00 00 22 f6 93 3d d6 9b da bb eb 2c c8 3c
       0.0 0.072246805 -0.006671409 0.024435481
000130 d1 02 e5 bb ef bf c0 bd 53 10 99 be 10 36 72 be
       -0.006988861 -0.094116084 -0.29895267 -0.23653436
000140 4d 01 26 3e e7 1c 27 bd 58 91 b9 bc 99 7a 9a bd
       0.16211434 -0.040799048 -0.022652313 -0.07542915
000150 be 72 83 be 49 e3 a8 bc 6c 58 85 bd c2 b3 8d be
       -0.2567348 -0.02061619 -0.06511006 -0.27676207
000160 04 d2 9a be ad 46 f6 bc 26 4f d5 3d dd f7 8f 3c
       -0.30238354 -0.030062998 0.10415487 0.017574245
000170 a3 9a 1b bd 00 00 00 00 f5 be 40 be 15 fd 09 be
       -0.03798927 0.0 -0.18822844 -0.1347545
000180 7a f0 c0 be bf 66 04 3d 7b f5 65 3d 23 49 0e 3d
       -0.3768347 0.03232455 0.05614231 0.034737717
000190 2a 51 26 bd 2f 4d 73 bd 69 f1 08 be 4c 57 a0 be
       -0.040604748 -0.05939978 -0.1337334 -0.31316602
0001a0 3e b1 98 bc 17 25 65 3e 12 62 93 be 7a 66 ae be
       -0.018639203 0.2237743 -0.2878576 -0.34062558
0001b0 e8 24 61 3d 9f 6b ad 3c c6 31 fc bb 2e a2 1d 3d
       0.054966837 0.021169482 -0.007696363 0.038484745
0001c0 ff 2f 3e be 3e c3 ed bd 00 00 00 00 ca 05 20 be
       -0.18572997 -0.11609505 0.0 -0.15627208
0001d0 0a ab f3 3a c6 40 7a bc 3d 64 30 be 2f 1e ae bd
       0.0018590402 -0.015274232 -0.17225738 -0.08501851
0001e0 11 b0 99 3c 2c fd 26 bd a2 94 91 be 81 3e f5 bc
       0.018760713 -0.040768787 -0.2843371 -0.02993703
0001f0 53 90 b9 bb e2 50 50 3d e5 0d 3d be db e8 69 3c
       -0.0056629567 0.050858386 -0.18462332 0.0142767085

weight f4 [128, 22]
000000 6c a2 44 3c 86 a4 69 be 87 5f 2b be 4e 7b 59 be
       0.012001615 -0.22816667 -0.1673566 -0.21238443
000010 3e b0 a3 3e 67 ca 80 bd 06 85 7b bd 80 f5 7f 3c
       0.319704 -0.06288605 -0.061406158 0.015622497
000020 cb 98 af bc 77 0d 91 3b 2b 8d 08 3c 22 4d 73 bc
       -0.021435162 0.004426654 0.008334438 -0.014849933
000030 9a ab 99 3c 94 eb 04 3d bc 76 5e 3c 39 d7 dc 3e
       0.018758584 0.032451227 0.013578113 0.43132952
000040 2b 4b 80 3e 28 ed fc be ff 30 b5 3d 7a 2d d3 3d
       0.2505735 -0.49399686 0.08847236 0.10311408
000050 86 3a 1d 3e 73 dd 0f 3e 1f 36 13 3c 87 7c ec 3f
       0.15354356 0.1404932 0.008985071 1.8475503
000060 fe 4e f0 bc ba f5 44 3e f1 5b 27 3c ec 2d a1 3b
       -0.029334541 0.19234362 0.010214792 0.0049188044
000070 f9 c2 c4 bb a2 5e 99 bc c2 43 ad bb cf bc f5 bb
       -0.006004688 -0.018721882 -0.0052876184 -0.0074993144
000080 36 af 9c bc 12 24 71 3d 82 5f 81 3c 04 31 8b bc
       -0.019126516 0.05887229 0.015792612 -0.016991146
000090 ef 50 86 b9 a4 34 fc bd b0 49 5e be 1f 76 c5 bb
       -0.00025618772 -0.12314728 -0.21707797 -0.006026044
0000a0 9e da a3 3d 5e 4a a4 3c e3 77 62 3e 91 22 f4 bd
       0.08000682 0.020054992 0.22116046 -0.119206555
0000b0 ad f6 50 3d 9d 1a 14 3e d7 9a 04 3e 92 b2 40 3e
       0.0510165 0.14463277 0.12949692 0.18818119
0000c0 d3 7a 3c be 0a 60 39 be 5a 30 30 be 37 24 2b 3e
       -0.18406229 -0.18103042 -0.17205945 0.16713034
0000d0 df c8 3c 3e 9d 8f a8 3d ad a4 cc bd 2a 77 ff bd
       0.18436001 0.08230517 -0.09992347 -0.124739006
0000e0 da e8 6c 3d dd e9 d5 3d 10 d7 11 3e 9a eb 40 bb
       0.057839252 0.104449965 0.14242196 -0.0029437304
0000f0 00 00 27 b8 3a 62 86 3d e0 ba f8 3d 6d f5 63 bd
       -3.9815903e-05 0.06561704 0.121450186 -0.05565398
000100 6a b4 ab bd 0d fc 1c bd 4f 18 22 3f 72 38 1e bf
       -0.083840206 -0.03832631 0.6331834 -0.6180488
000110 37 7b cc 3d 16 7c 66 be f1 cd 31 3e 1a 15 ad 3b
       0.09984439 -0.22508273 0.17363717 0.0052820565
000120 09 d7 05 3e 72 ef 7e bc 7e 9b b0 bc 57 3f e7 bc
       0.1307031 -0.015560018 -0.02155852 -0.028228445
000130 42 72 c5 3b b9 91 6b 3c 4f c4 96 3c 24 6e e8 ba
       0.0060255835 0.014378005 0.018404154 -0.001773302
000140 57 bf 01 3c dd ac 05 3d 59 74 97 bd 45 8b 0c 3d
       0.007919154 0.03263556 -0.073952384 0.034312505
000150 72 4a 8c 3e 8b e6 5f bb 85 7a a0 bd ae a9 d3 be
       0.27400547 -0.0034164514 -0.07835869 -0.41340393
000160 96 9e 1e bf 81 3a 7e bf 1d 7d 9c bd 01 35 49 3e
       -0.6196073 -0.9930802 -0.07641051 0.19649126
000170 1a bf 08 be 58 56 9f 3c 98 e1 f3 bd 37 f3 d3 3b
       -0.1335415 0.019450352 -0.11908263 0.0064682025
000180 7a 25 93 bb b8 76 c3 bc 2e 31 83 bb ad 7e 8c bd
       -0.0044905515 -0.02386032 -0.0040036654 -0.06860099
000190 88 a9 bc bc 14 c2 e2 3b 73 e2 a2 bc ea e7 2d 3e
       -0.023030058 0.0069201086 -0.01988337 0.16983
0001a0 0b b5 1d 3d 20 ac 1c bd 2e 58 96 3d 1a e3 6f 3d
       0.038502734 -0.03825009 0.07341038 0.05856619
0001b0 f3 31 b4 bd a0 4b 20 be 9d 20 bb be 15 18 88 3e
       -0.087985896 -0.15653849 -0.3654832 0.26580873
0001c0 3b 13 d4 bd f5 10 b9 be e6 f4 50 3e 7c a6 23 bc
       -0.103552304 -0.3614575 0.20405921 -0.009988423
0001d0 97 54 37 be 91 74 dd 3b c4 35 a4 3a 76 c9 09 3d
       -0.17903362 0.0067582806 0.001252823 0.033639394
0001e0 44 b9 00 bc d1 8b fa 3d ad 34 75 bc 17 62 a7 bb
       -0.007856671 0.12233699 -0.014966172 -0.005108129
0001f0 4f a3 c1 bc 80 79 33 bd 5d f1 fd 3e 32 2e d4 bc
       -0.023637442 -0.043817043 0.49598208 -0.025900934
000200 9f c2 c1 3d 99 80 55 bd 6e 5c b9 bd db e4 b4 be
       0.09460949 -0.052124593 -0.09050833 -0.35330853
000210 5d db 01 bf 1b 92 2a bd 07 61 5c be 10 c1 05 be
       -0.50725347 -0.041643243 -0.21521388 -0.13061929
000220 bb c3 6f be 73 0c 0d bc 7b 05 ca bd 67 90 de 3b
       -0.23414509 -0.008608925 -0.098643266 0.0067921164
000230 55 01 c6 bb 25 0f 26 3c 1a 64 16 bc d6 b2 b7 bc
       -0.0060426393 0.010135447 -0.0091791395 -0.022424143
000240 43 25 a7 bc d0 2a 46 3c 93 4b 8e bb 1b a4 e1 3d
       -0.02040351 0.012095168 -0.0043425052 0.11017629
000250 06 58 fd 3e 9f 2f 3f bd b1 2f e4 bc 5e ac 15 bd
       0.4948122 -0.046676274 -0.027854772 -0.036541335
000260 ec 29 a4 3d 78 ba 0a be 66 d1 2a 3c ca 80 5c be
       0.080158085 -0.13547695 0.010425901 -0.21533504
000270 01 24 80 be d4 89 3d be b2 4d 53 3e 2e ef 32 3d
       -0.2502747 -0.18509609 0.20635107 0.04368513
000280 8b 25 e0 3d 80 79 a2 3b e0 7c 6a bb b4 10 35 bc
       0.10944661 0.0049583316 -0.0035779998 -0.011051346
000290 7b 6d d1 3c 51 1d 94 3d ec 59 c3 3c 42 fc 03 bd
       0.0255649 0.07232154 0.023846589 -0.032222994
0002a0 01 ad 18 3d 25 d4 17 3f ae 1c a2 3d f7 15 b5 be
       0.037274364 0.5930808 0.079156265 -0.3536832
0002b0 65 a6 76 be d0 74 2e be 5d f7 9c 3d ed 0a af be
       -0.24086912 -0.17036748 0.07664368 -0.34188023
0002c0 dc 91 85 3b 6d 53 12 bc fb 3c 85 3d d1 25 a1 be
       0.0040762257 -0.008931023 0.06505772 -0.31474164
0002d0 8a 2b 88 bd e4 75 06 3d 45 a5 62 bd ff 0e ad 3c
       -0.066489294 0.032827273 -0.055333395 0.021125315
0002e0 55 35 20 bc 60 a5 20 39 ac 97 b0 3b 69 9b 40 3d
       -0.00977834 0.00015320396 0.0053891744 0.04702321
0002f0 c5 6f a2 bc a4 1d 5f bc 38 22 8b bc 57 d9 fb 3d
       -0.019828686 -0.013617907 -0.01698409 0.12297314
000300 11 b1 13 3f e8 28 24 3e 36 5d 06 3d a4 0d c2 bb
       0.57692057 0.1603123 0.032803737 -0.0059220362
000310 15 f1 38 bf ec 6e e9 bd 5f 81 65 bd 50 7b 60 bf
       -0.7224286 -0.1139811 -0.05603158 -0.8768816
000320 83 ec f9 3d 18 05 5e 3e e9 6f ec 3c c0 6e 57 3d
       0.12203314 0.2168163 0.028861957 0.052595854
000330 00 b7 bc 3d 83 07 ba bb 33 cf 53 3d 9d dd 85 3c
       0.09214592 -0.005677165 0.051711272 0.016341025
000340 05 96 16 3d 21 cf 88 3d f4 93 c0 bc f0 a3 43 bc
       0.036764164 0.06680132 -0.02350805 -0.011940941
000350 7a 91 bb bc bc 12 65 be 97 44 2c be 4b 40 8d 3d
       -0.022896517 -0.22370428 -0.1682304 0.068970285
000360 ab a8 dd 3d 89 7b 05 bd fd d3 0f be 9d 75 21 3e
       0.108231865 -0.032588515 -0.14045711 0.15767522
000370 7e 25 2f bf b9 6b a4 bf 8d 7a 04 bd 5f 63 d8 3e
       -0.68416584 -1.2845374 -0.032343436 0.42263314
000380 29 71 81 3d c3 b2 34 3c bd b4 d0 bd c2 aa 4d 3c
       0.06320412 0.011028948 -0.10190723 0.012552919
000390 df a2 ee bc 88 87 be 39 00 23 73 bb 70 27 19 3e
       -0.029130397 0.00036340603 -0.003709972 0.1495645
0003a0 4a 73 11 bd f6 43 cb 3c 80 67 12 bc 75 53 61 3d
       -0.03551034 0.02481268 -0.008935809 0.05501123
0003b0 53 03 af bb 0c 62 23 be e6 7a 17 3e 96 bc 0b 3e
       -0.0053409724 -0.1595537 0.14792976 0.13646159
0003c0 46 81 a0 bd 82 ee b8 bc 00 06 bf 3e d6 3e a6 be
       -0.07837157 -0.022574667 0.37309265 -0.32469815
0003d0 37 e2 88 3b 76 84 3e bf 31 a9 b4 3d 18 29 41 bd
       0.0041773575 -0.7442087 0.08821333 -0.04715833
0003e0 e8 fe 2f be b8 f2 44 3d 51 c8 49 bd 9a 20 a0 3c
       -0.17187083 0.048083037 -0.049263302 0.019546796
0003f0 c3 ef fd 3c c9 3d de bd f4 40 51 ba 9e f2 93 3d
       0.030998116 -0.10851628 -0.0007982396 0.0722401

bias f4 [128]
000000 b6 08 ae 3c c5 be 57 3c f7 81 99 3c 80 e1 41 3d
       0.021244388 0.013168042 0.01873873 0.047334194
000010 c2 6b 78 3c ac f1 3b 3d 1d 6c cd bc 77 4c c4 bc
       0.01516241 0.045884773 -0.025075966 -0.023962243
000020 48 5a 23 bd fc 58 f0 bc 49 f4 d1 bc 55 d8 6f 3c
       -0.03988102 -0.029339306 -0.02562918 0.01463898
000030 4d 67 bf 3c 83 a1 17 3d ba c4 10 3d 32 05 1f bd
       0.023364687 0.037019264 0.035343863 -0.038823314
000040 4c 21 ee 3c 59 aa ae bc b0 3a 10 ba 9c aa 1f bc
       0.029068612 -0.021321462 -0.0005501909 -0.009745266
000050 d0 bc c4 bb 6c a8 01 3c 1b 5f a4 3a b7 4f f2 3c
       -0.0060039535 0.00791369 0.0012540551 0.029579027
000060 ca ba 86 bb 10 45 2c 3c ef 0c 82 3c 1a fd 9f bc
       -0.0041116225 0.010514513 0.015875308 -0.019529868
000070 5c e5 66 bb c8 9a 8f 3c 78 8f ff 3b 02 58 1a bd
       -0.0035231924 0.01752986 0.007799085 -0.037681587
000080 d7 66 88 bb 6b 90 aa 3c 8f da 74 bc 74 94 10 bd
       -0.00416265 0.020820817 -0.014944687 -0.035297826
000090 96 5e 92 bb 8a 6b 61 3c 6c 52 9d bc 8e 84 38 bd
       -0.004466842 0.0137585495 -0.01920434 -0.04504829
0000a0 6d 54 58 bc 14 ce 4a 3c d5 3a 01 bd a3 3a 18 3c
       -0.013203722 0.012378234 -0.031550247 0.009291324
0000b0 fa 08 12 bc cf 3a 58 bc 32 f5 a0 bc c3 b9 49 3c
       -0.008913273 -0.013197615 -0.019648168 0.012312355
0000c0 51 0a 9e 3c 2f 27 fd bb be 49 27 3b 77 3a 76 3c
       0.019292029 -0.0077256183 0.0025526132 0.015028588
0000d0 30 28 af bc ca de d8 bc 86 cf 97 b9 62 1b 91 bc
       -0.021381468 -0.026473422 -0.0002895558 -0.017713252
0000e0 ae b6 38 3c 52 24 88 bb 49 75 5e 3d fa 43 6c 3b
       0.011274023 -0.0041547203 0.05431107 0.003605126
0000f0 09 4b 20 bd 41 90 94 bc cd 85 0f 3c 19 b7 ef bb
       -0.03913406 -0.018135192 0.008759928 -0.007315528
000100 8d ba 54 3d 82 27 8c bc 60 73 a1 3b 7b 90 de 38
       0.05193572 -0.017108683 0.004927084 0.000106126965
000110 06 a2 3e 3c 1f ff 7d bc 43 a0 e6 3c e2 32 2e bd
       0.011635309 -0.01550272 0.02815259 -0.042528994
000120 63 ce e7 bc 9d c0 0c 3a 7a 27 d3 3c 1a 65 4f 3c
       -0.028296655 0.0005369278 0.02577566 0.012658382
000130 75 d2 bd bc 53 82 63 bc de 29 07 bd 2e 88 35 bd
       -0.023171643 -0.013886052 -0.032998912 -0.044319324
000140 87 43 cd bb 7b 1f 1f 3d 74 31 4d 3c 00 b5 93 3c
       -0.0062641534 0.03884838 0.012523998 0.018030643
000150 86 32 09 bd 4f 52 0e 3d 87 68 9b 3c 8a 43 32 3c
       -0.03349545 0.034746464 0.018970741 0.01088036
000160 65 5e c6 3c a1 82 84 bc 1b ba 42 bc d5 f7 f8 bc
       0.024214933 -0.01617557 -0.011885191 -0.030391613
000170 27 2d 34 3c 3e 4c e5 3c ec b3 b9 3c aa 5d 51 bb
       0.010997093 0.027990457 0.022668801 -0.0031946697
000180 03 90 1e 3d a9 78 76 bb 8b ad 1f bd 88 f3 e0 bb
       0.03871156 -0.003760854 -0.038983863 -0.0068649687
000190 eb d1 f3 bc 42 c3 82 3c ab 76 93 bb 89 19 13 bd
       -0.029763183 0.015962247 -0.0045002303 -0.035913024
0001a0 b8 00 1e 3d 66 6a d1 ba 25 46 0f bd d2 87 c6 bc
       0.038574904 -0.0015977144 -0.034979004 -0.024234686
0001b0 07 2d e6 3c 1c 42 72 3b f7 df a8 bb e9 75 05 bc
       0.028097643 0.0036965674 -0.005153652 -0.008145788
0001c0 09 95 b7 bb a3 05 74 3b d2 58 9f bc 6e 5b eb bb
       -0.005602483 0.0037234805 -0.019451533 -0.00718253
0001d0 f8 4a 14 3d 43 49 8c 3c 02 1b bf 3b a2 11 27 3c
       0.03620431 0.017124778 0.005832077 0.010197075
0001e0 36 81 19 3d 12 ae 85 3c af 66 b6 bb 7e 7a c7 3b
       0.03747674 0.016318355 -0.00556644 0.0060876003
0001f0 36 a5 9a bb b4 82 98 bc a9 93 27 bc f1 e6 a0 ba
       -0.0047194017 -0.018617012 -0.010228076 -0.0012275857

weight f4 [128, 128]
000000 15 b7 33 bb 90 75 ec 3e 29 3c 64 bd ed f4 58 be
       -0.0027422358 0.46183443 -0.055721436 -0.21187182
000010 c3 ff 21 3d d1 a5 12 be 31 ca d1 3e c3 dd f2 3c
       0.039550554 -0.14321066 0.40974572 0.02964676
000020 52 ac d0 bd cd a7 eb bd 93 ae 50 3e 6d 06 54 be
       -0.101891175 -0.11506615 0.20379095 -0.20705576
000030 3f bf 52 3e 03 7e 8c bd 14 dd 01 bd 1b 27 be bd
       0.20580767 -0.06859972 -0.031704977 -0.092848025
000040 31 5c 02 3e 1c 10 ab bb ca cb eb 3e ff fe 13 3e
       0.1273048 -0.0052204262 0.46053916 0.14452742
000050 a6 67 6a be 56 30 24 3e 4f 59 da bd 27 52 43 3e
       -0.22891101 0.16034064 -0.106615655 0.19074307
000060 98 b4 34 3e 38 f1 18 3d 6c 9e fd 3d a5 5c 99 be
       0.17647016 0.03733942 0.12383732 -0.29953495
000070 c0 0b f1 bd 6c 21 bf be 66 60 b1 bc f8 20 53 be
       -0.11769819 -0.37330186 -0.021652412 -0.20618045
000080 82 68 7a 3d b7 27 bd bd 96 6d 2a 3d f8 a2 47 be
       0.061134823 -0.09236091 0.041608416 -0.19495761
000090 55 38 c2 3c 7a f8 0a 3e 43 9f 68 3e d6 f7 1f 3b
       0.023708502 0.13571349 0.22717004 0.0024409196
0000a0 87 51 9c bd 64 1f b1 be 03 f4 17 3d 6b 1d 35 bf
       -0.076327376 -0.34594262 0.037097942 -0.70748013
0000b0 b4 5a ed 3d 2f e8 a5 bd b1 fc 42 3f 12 63 4d be
       0.11589566 -0.08100926 0.76166826 -0.20057324
0000c0 f1 f9 41 bc 64 4a fc 3c 79 43 1b 3e b8 d6 0a be
       -0.011839376 0.030797191 0.15162458 -0.13558471
0000d0 2e bf 18 be 16 35 f3 3d 9b b5 41 be 07 fe 89 3d
       -0.1491668 0.1187536 -0.18916933 0.06737905
0000e0 cb cd 0d be 86 89 ed be 6b 01 45 bd 54 77 12 be
       -0.13848035 -0.46393985 -0.048097055 -0.14303333
0000f0 1e 1a f1 bd 8b d0 84 3e 07 e1 13 bf 86 9d 20 be
       -0.117725596 0.25940356 -0.5776524 -0.1568509
000100 ac 8d 04 be 9e 08 81 3e 62 ac 30 bd e6 df 74 3d
       -0.12944669 0.25201887 -0.043133147 0.05978384
000110 cf 61 0e 3e 4e 7c 37 3e 14 e3 d9 3c 6a 86 53 3d
       0.13904499 0.17918512 0.026597537 0.05164186
000120 7a f7 ca bd 27 be 88 be 68 97 b8 be 6a 7e de bb
       -0.09910484 -0.26707575 -0.36053014 -0.006789972
000130 74 db 3d bd d2 12 e9 3c 53 df fa 3e 6f 6b 6e be
       -0.046351865 0.028451357 0.48998508 -0.2328317
000140 36 3f f9 3e 9c 72 92 3c 8f 7e 11 3e 5c f9 11 3e
       0.4868104 0.017876916 0.14208435 0.1425528
000150 22 19 08 bf 3f db be bd 0b 9c b3 be 3c c0 43 bd
       -0.5316335 -0.093191616 -0.3507999 -0.04779075
000160 8b ec b3 bd ef 77 ab 3f 31 30 44 3d 3f 4b 66 3e
       -0.08785351 1.3395976 0.04789752 0.22489642
000170 53 b3 38 bc 95 d2 7a bd 5e 8a cd 3d 86 73 50 bd
       -0.011273223 -0.061235983 0.10036157 -0.05089142
000180 57 cc 0c 3e 40 ff 92 bd 58 43 89 3b cb fe 0c be
       0.13749824 -0.07177591 0.004188936 -0.13769071
000190 e4 b3 3c 3d 50 ac 0f bf b6 52 19 3d 88 5a 67 be
       0.046069995 -0.56122303 0.037432395 -0.22593129
0001a0 d1 b7 a2 3d a4 5f ce be dd 1f a0 be e3 01 22 3e
       0.079452164 -0.40307343 -0.3127431 0.15821032
0001b0 ab d5 dc 3d 42 08 86 3d 28 90 e3 bc 4a c8 c8 3d
       0.107829414 0.06544544 -0.0277787 0.09803827
0001c0 11 fe 14 be 94 e6 51 3e b7 a8 37 3d d4 73 c0 3e
       -0.14550044 0.20498115 0.044838633 0.3758837
0001d0 ea b9 a9 3d 58 4a 08 be e3 14 06 3e 19 1a 7b bd
       0.082874134 -0.1330961 0.13093905 -0.061304186
0001e0 00 08 fd 3c 83 f9 98 3c 81 3a 03 3d 7d a9 a0 3d
       0.030887604 0.018673664 0.032038216 0.07844827
0001f0 aa b4 c2 3d 15 66 ad bd 87 08 41 3d 28 c4 00 bd
       0.09507115 -0.08466736 0.047127273 -0.03143707
000200 58 1e 53 bd f2 06 27 be 27 0f b8 3c a8 e0 99 be
       -0.05154261 -0.16311243 0.022468163 -0.30054212
000210 e6 2b 9d bd dd 35 79 be c8 0d ab 3e 45 10 8c 3d
       -0.076743886 -0.24336953 0.33408952 0.06839041
000220 93 74 2d 3e 89 af 43 bd ff 30 bf bd 7a ba 7c be
       0.16939001 -0.047774825 -0.09335517 -0.2468051
000230 81 b6 06 3f 03 b7 bc bd 47 34 8b 3d ab 66 fe bd
       0.5262223 -0.09214594 0.067970805 -0.12421926
000240 d8 8f a1 3c 7f 7d d8 3d c9 2a f0 3e 39 80 f3 bd
       0.01972191 0.105708115 0.46907642 -0.11889691
000250 b9 03 3c 3d 9a 38 b6 3c d2 d8 4b 3e 97 b4 7d be
       0.045901988 0.022243787 0.19906929 -0.24775921
000260 88 6d c0 3b e3 a0 20 be 58 5b c6 ba f5 10 2c 3e
       0.005872432 -0.15686373 -0.0015133424 0.16803344
000270 9b 42 8f bd 04 07 03 3f 2a db 80 3d 5c fc 23 be
       -0.06995126 0.5118258 0.06291802 -0.16014236
000280 81 4e 20 bd 59 11 4e bd 95 b8 77 3d aa ac cf be
       -0.039137367 -0.050309513 0.060478766 -0.4056142
000290 a7 2d 1c 3e ab 3f 6f 3e d9 da f6 3d 9d 33 15 3d
       0.1525179 0.23364131 0.12053461 0.036426175
0002a0 00 bc 0c 3e 6a de 40 3e d6 c6 fd 3b 5e a1 43 3f
       0.13743591 0.18834844 0.0077446504 0.764181
0002b0 a6 5c 1d be bd f1 a2 bd 10 a9 02 bf 63 86 b9 be
       -0.15367374 -0.07956264 -0.5103922 -0.3623534
0002c0 56 e2 2d be a0 5e e9 3d 6a a8 fd 3d 2d e3 c9 bd
       -0.16980872 0.113950014 0.12385638 -0.098577835
0002d0 5b 74 73 3e 75 c6 87 be cb 91 ae bd 70 f0 de 3d
       0.23774855 -0.26518598 -0.085239016 0.108857036
0002e0 c2 34 77 bd cc 4e 27 bf 16 53 94 bd 86 01 81 3d
       -0.06035305 -0.6535461 -0.0724241 0.06299119
0002f0 38 e1 8e bd 0a d6 05 be b5 69 53 be 65 6a d3 bc
       -0.06976551 -0.1306993 -0.20645793 -0.025807569
000300 48 cd 8c bd f8 89 35 be ca 3d da be ff 20 15 bd
       -0.06875092 -0.17728412 -0.42625266 -0.03640842
000310 85 3e 80 bd 84 2f c0 3d b8 84 35 bf df b5 0a 3d
       -0.06261925 0.09384063 -0.7090564 0.033864852
000320 bf df 12 be 35 2d 80 3c 46 fc da bd cb 3b 01 39
       -0.14343165 0.015646556 -0.106926486 0.00012324673
000330 84 db 13 3d 0c a8 41 3e 25 5c 94 3e 53 7a 52 3f
       0.03609802 0.18911761 0.2897655 0.822179
000340 11 6e 49 3f 99 6f 99 3d f9 44 75 3e 9e 01 01 bd
       0.78683573 0.07491989 0.23952092 -0.031495683
000350 18 4a 46 be a5 cc a2 bd 2b 2d fe 3d 42 c9 aa bd
       -0.19364202 -0.07949189 0.12410959 -0.08339168
000360 e3 b2 b7 3e c6 b3 ed 3e 56 f3 92 3e 17 28 c5 3d
       0.35878667 0.4642622 0.28701276 0.09626787
000370 cf c8 0b 3e 6a 14 51 3b 34 aa 63 3e 40 a6 06 3e
       0.13650821 0.0031903037 0.22232896 0.13149357
000380 f6 5e 81 be 7c b5 1d 3e 70 24 01 3e 97 12 52 3e
       -0.25267762 0.15401262 0.12611556 0.20514904
000390 5f 1b 43 be f8 06 f2 bd 4f 8c 4d 3e 4c 40 00 3e
       -0.1905341 -0.118177354 0.20073055 0.12524527
0003a0 2a 37 03 3e 2e d0 32 bf fa e3 95 be 07 11 e8 3e
       0.12814012 -0.69848907 -0.29275495 0.4532549
0003b0 d0 e7 c8 bd 92 fa da bd b1 67 15 bd 19 c7 50 bc
       -0.0980984 -0.10692324 -0.03647584 -0.012742781
0003c0 b6 81 4e bd 6f 41 37 bc b9 48 07 3b 0a 1e 13 bf
       -0.05041667 -0.011185034 0.0020642711 -0.5746771
0003d0 0e d3 21 be 7b 2e e2 bd 08 e0 9a 3c 2b 0b ee 39
       -0.15803167 -0.11044022 0.018905655 0.00045403218
0003e0 a5 8d d0 bd 16 03 78 3d 20 29 07 3e 7d af 88 bd
       -0.101832666 0.060549818 0.13199282 -0.06674097
0003f0 92 f4 87 3d b9 bc 0e 3e 63 45 16 3e 4c 18 9b bc
       0.06638445 0.1393918 0.14674906 -0.018932484

weight f4 [8, 128]
000000 80 e2 e6 bd 7e 28 4b 3d 0f b7 fa bb 72 3e 34 3b
       -0.1127367 0.049599163 -0.007651217 0.002750304
000010 b7 3e c7 3d 2b 07 de 3d 43 c8 de bd 9a e4 16 bf
       0.09728759 0.10841211 -0.10878041 -0.5894257
000020 74 be 41 3c 94 f6 8c bd 1f e0 de bd 7e 72 e4 3d
       0.011825193 -0.068829685 -0.108825915 0.1115465
000030 ea 04 0c 3d bc 57 9b 3d 5b f0 d3 be 0d e6 b4 bc
       0.034184374 0.075850934 -0.41394314 -0.022082353
000040 02 0c 86 bd c1 7b d0 3b 24 b0 e8 3b 10 e0 64 be
       -0.06545259 0.006362409 0.0071010757 -0.22351098
000050 64 ef 91 3d d1 f1 95 3e 28 29 bf be 72 ba e5 3d
       0.07125738 0.29286054 -0.37336087 0.11217202
000060 0d 48 d9 bc 98 51 b5 3b fb fd 34 be b7 b6 b1 3b
       -0.026523614 0.0055334084 -0.17675011 0.0054233926
000070 10 e9 82 3b ef ba e3 bc ce 98 5a 3b 7d cf 1b bd
       0.0039950684 -0.027799098 0.003335524 -0.038039673
000080 71 72 a4 bd fa 34 84 bc 99 c8 18 3e d7 7b 86 3e
       -0.080296405 -0.016138542 0.14920272 0.26266357
000090 f7 ee 79 3d ac 23 5d 3c 92 2f a7 bc ad 2e 72 3d
       0.06101891 0.013497274 -0.020408425 0.059126545
0000a0 8a 1c 06 be c7 6b af 3d 7b 2d 09 3d 47 79 16 3c
       -0.13096824 0.08565479 0.03349064 0.009184188
0000b0 5c 35 a2 3d c1 2d b3 3c c6 6c f5 bb 8c 00 88 bd
       0.07920334 0.021872403 -0.0074897734 -0.06640729
0000c0 de 30 c4 bc e7 3a 1b be 6b 33 18 bb 29 ce e8 bd
       -0.023949083 -0.15159188 -0.0023224007 -0.11367447
0000d0 50 43 89 3d 31 28 54 3d 52 89 f7 3d 77 70 a2 bd
       0.06702292 0.051796142 0.12086739 -0.07931607
0000e0 53 f3 a2 3b ae ee b9 bb 87 c7 58 3e 64 81 8a 3d
       0.004972854 -0.005674205 0.21169864 0.067629606
0000f0 27 6e 92 3e bc 0c 40 bb 34 5c a8 bc c6 1d 6c 3d
       0.28599665 -0.0029304465 -0.020551778 0.05764558
000100 c1 9d f2 bd c5 02 38 3b 57 31 1c bd 23 a9 8e bc
       -0.118464954 0.0028077823 -0.03813299 -0.017414635
000110 86 dc 25 bd 04 48 09 bb 95 97 5b 3d 08 f7 50 3c
       -0.04049351 -0.0020947466 0.053611357 0.012754209
000120 61 f6 22 3e cf b5 da bd 65 09 8b 3b ed 41 f7 3d
       0.15914299 -0.106792085 0.0042430633 0.12073121
000130 b1 a3 bc 3d a8 7f 07 3c 9d 60 b9 be 89 8a db bd
       0.09210909 0.008270182 -0.36206523 -0.10719783
000140 af a7 01 bc 32 f8 36 be ae 80 06 bd 3c 3f 59 3d
       -0.007913514 -0.17868116 -0.032837562 0.05303882
000150 ef 43 83 3d 25 05 36 bc a7 10 31 3d e7 fb db bd
       0.06409442 -0.011109625 0.04322877 -0.10741406
000160 3f e5 fb bc 08 7e 3f bd b7 d4 78 bc 41 3a 7d bd
       -0.030748961 -0.046751052 -0.015187434 -0.061823133
000170 d0 bb 8d bc af 14 1b 3f bb 1d 53 3c a5 20 99 bc
       -0.01730147 0.60578436 0.012885506 -0.018692324
000180 9d 46 06 3e a2 db b8 3d 27 96 2d 3d f5 ac 65 3c
       0.13112874 0.09026267 0.042379525 0.014018287
000190 b6 f2 26 3c b5 a4 ef 3c ef 0b 41 3a 9b 86 19 3d
       0.010189703 0.029253343 0.0007364144 0.037481885
0001a0 93 5b 57 3e 17 cb cb bc dd bb 53 bc ab 56 31 3c
       0.21031027 -0.024877114 -0.012923208 0.010823886
0001b0 0d 9f 73 be ba f3 80 3e 51 17 b5 3c eb 8b 64 bd
       -0.23791142 0.2518595 0.022105845 -0.0557975
0001c0 a8 4c f5 3c 98 06 37 3b c5 f0 e9 bd e8 e4 46 bd
       0.02994378 0.0027927514 -0.11422876 -0.048558146
0001d0 40 ee 28 bb f1 c3 6d 3b cf 0c df ba 6b b5 19 be
       -0.0025776774 0.003628012 -0.0017017367 -0.15010612
0001e0 03 e2 83 bc 05 a9 0d bd be b7 cd 3a b5 38 6e 3d
       -0.016098982 -0.034585018 0.0015695018 0.05815955
0001f0 28 4c 1f bd 6e fa 58 3b 49 18 b7 3b 23 78 b7 3d
       -0.038890988 0.0033108252 0.005587612 0.08958461
000200 a3 a7 ff bc 61 18 a7 3d 7b c6 7d bc 48 c8 2a 3c
       -0.031207865 0.08158947 -0.015489216 0.010423727
000210 ed dd f0 3c 89 ad 85 bc 9d e9 a8 be ec 62 47 3d
       0.029402697 -0.0163181 -0.32990733 0.048678324
000220 ba 51 77 bb 9b 99 81 bd 4d 93 22 be b0 75 bc 3e
       -0.0037737922 -0.06328126 -0.15876503 0.36808538
000230 a4 25 3f 3c ae a0 e3 bc 93 a3 25 3e 0c c9 07 3e
       0.011666689 -0.027786579 0.1617568 0.13260287
000240 d2 a9 ea 3c b4 66 61 3b 12 c7 1b 3c 8a 79 55 3e
       0.02864543 0.0034393491 0.009507911 0.20847145
000250 cc ea 83 3c fe c1 15 bd 63 48 1f 3e 62 e6 94 bd
       0.01610317 -0.03656196 0.15554957 -0.072705045
000260 b7 7b 90 3b 4a ce e6 ba 31 86 db bd e7 71 a4 3b
       0.004409279 -0.0017609086 -0.10718954 0.005018461
000270 f8 28 32 bd d5 70 ba bb af 20 e3 3b 86 93 0e 3e
       -0.043496102 -0.00568972 0.0069313864 0.13923463
000280 0a 63 3c 3e f3 60 a3 bd d9 d1 ef bd 96 01 2a bf
       0.18397155 -0.07977476 -0.11709947 -0.6640867
000290 b8 00 1a 3e dc 46 10 3d 6f c8 43 3e da 37 ea 3b
       0.15039337 0.035223827 0.19119428 0.0071477713
0002a0 26 96 0b 3e 4c 92 24 3e 97 52 5d 3e d0 c1 b6 bd
       0.13631496 0.16071433 0.21613537 -0.089236856
0002b0 aa ec 96 3d 4c 7f 73 3c 29 30 cb bb 1a a5 bd 3b
       0.07369359 0.014861893 -0.0062008095 0.005787504
0002c0 93 25 1f 3d 2c 81 4c be 1e fa a5 ba d6 a7 6a 3e
       0.038854193 -0.1997115 -0.0012663042 0.22915587
0002d0 5f 22 01 3e 5c 0b 01 3d d0 e4 13 3e ac 7f 5e b9
       0.12610768 0.031504974 0.14442754 -0.00021219131
0002e0 f6 90 a1 ba aa 46 b3 3b bb 66 5c be 7b 0f 9a 3d
       -0.0012326527 0.0054710703 -0.21523564 0.07522484
0002f0 4a ff af bd a0 1c 2a 3c 3f 46 33 bc 43 bd 74 bd
       -0.085936144 0.010382801 -0.010942041 -0.059750807
000300 42 c6 38 bc 29 39 94 3b ac 56 1c 3e 14 4e ea ba
       -0.011277737 0.0045234156 0.15267438 -0.0017876052
000310 80 93 af bc e4 29 3d bb e3 0c 43 be b6 78 f2 3c
       -0.021432638 -0.002886408 -0.19047885 0.029598575
000320 5e 15 d1 3d fc 94 88 3e e2 52 3c bb 24 41 70 3e
       0.102091536 0.26676166 -0.0028735925 0.23462349
000330 5a f9 12 3d b2 78 aa 3b af 5f 1e be 05 9d 44 3e
       0.03588233 0.0052023763 -0.15466188 0.19200523
000340 56 93 58 bb 5c 2b fa be f0 d9 19 bd 7c 3a 7d bd
       -0.0033046803 -0.48861206 -0.037561357 -0.061823353
000350 eb b9 7b bd e7 b6 ae bc b5 ae 33 3d ff f2 c6 be
       -0.061456602 -0.021327449 0.043867785 -0.38857266
000360 35 6e 90 bb 0f 82 09 3c e8 ef ab bd cf 6b 0c be
       -0.004407669 0.008392825 -0.08395368 -0.13713
000370 52 53 60 3e ed d0 6c be 10 77 d0 3c 38 98 cb 3e
       0.21906784 -0.23126574 0.025447398 0.3976457
000380 fa ce 5f be 8a 2e 0c 3e 0f 5e 65 3d dd cc 35 bd
       -0.21856299 0.13689628 0.055997904 -0.044384826
000390 1a 09 0b 3d ab 67 51 bc 8a d3 89 3d 0b f3 92 bc
       0.033944227 -0.012781064 0.06729801 -0.017938158
0003a0 0b 9b 35 be 03 8d 93 3d fd 6e 49 3a 31 02 c7 3b
       -0.17734925 0.0720463 0.000768408 0.0060732593
0003b0 ad f2 2d 3e 33 ee 65 3d a8 ac f7 3b b3 0a ea bc
       0.16987105 0.056135368 0.007558424 -0.028569555
0003c0 0e 05 03 3c 40 da 43 3c 42 17 80 3e e6 0b 3e be
       0.007996811 0.01195389 0.25017744 -0.18559226
0003d0 18 56 2e be 5c ae ac bb 92 e0 32 bd 18 74 73 bc
       -0.1702503 -0.0052698087 -0.0436712 -0.014859222
0003e0 bf 01 8f be 12 10 86 bc 64 13 52 3b c0 1d 80 3d
       -0.2793102 -0.016365085 0.0032055015 0.06255674
0003f0 f2 84 73 3b 70 a9 b9 bd c9 29 ad bc ec 94 5d 3e
       0.00371581 -0.09065521 -0.021138089 0.2163884

bias f4 [8]
000000 da 0e b7 3c 3d 09 02 bd 97 e3 24 ba 1d 00 c8 bc
       0.022345949 -0.03174709 -0.0006290017 -0.024414117
000010 4a 9f 73 3d 3c de 51 bc af a6 d6 3c 52 26 c0 40
       0.05947808 -0.012809332 0.026202528 6.004678
