logs/bc_state/checkpoints/ckpt_28000.pt (torch, 190114 bytes, 10 tensors)

weight f4 [64, 26, 3]
00000000: 6a3f da3d 9949 763d bf3d 3f3d 7cff d03d
00000010: 5a5c 2cbf 28c6 acbf 8de5 b3bd 51cc 9b3c
00000020: 8438 933d 6ccb 443d a5a8 983d 4b17 9e3d
00000030: 06a3 983c 69bc 923d 34fb e2bd 5158 b83d
00000040: add6 e53d 85c8 813d b4af 2a3c e9b0 bb3d
00000050: 182b 793d 0291 6fbd e67f 0c3d 2216 d33d
00000060: 9029 ec3c 87e5 593d 10e6 093d 949f b5bd
00000070: 63b0 91bc 3b9b 2cbc afb2 a9bd d55d 6abe
00000080: 988c 0dbd 438c 4fbd 1e11 e8bd 5f0d cabd
00000090: 0477 bd3b 2d18 ab3d c229 013e 8413 a1bc
000000a0: 35ea 43bd 8a35 4c3d d93e 05be 00e6 11be
000000b0: 83f4 5a3d 8273 083d d63f 0abd 232e 863d
000000c0: b893 d63c b2b4 303d 615f e5bd a356 11be
000000d0: 752b 23be 510e 2ebd fbe8 98bd eef8 2fbe
000000e0: 1fab 73bd e8b6 a93d 7868 e03d e127 c6bd
000000f0: 3f0b f93d 74df 2dbd 52cb 93bd df5c 87bd
00000100: e621 213d f60c 243d fd54 d13d 5a8e 86bd
00000110: 872d 2bbd 4d74 09be bee1 0dbe 752e 2abe
00000120: 2e59 30bd e645 1dbd f09c 8b3c e97f f7bd
00000130: e08e 883d 823e 903d dfef b5bd 599b 5f3c
00000140: 2c8c bb3d 0eb3 80bd 1749 b43d 9b02 a3bd
00000150: 399b fe3c daa8 27bd 2188 923d bddf 19bd
00000160: 0fc3 c9bc d006 d2bd e98f 7bbd 545d 8a3d
00000170: bb64 c33d 7264 4d3a c9c4 5a3d d88e e63d
00000180: cff5 933d 9b02 a2bd 7396 143d 3d6a 913c
00000190: 614f dd3c 8ffd 3a3c f79d e7bd 9701 e83b
000001a0: fd1d b63c ff6d 96bd bc6e bfbd f11f 3abd
000001b0: 5368 a9bd a9e5 a3bd 0939 64bd 1867 67bd
000001c0: f6fe 32bc 49d7 4cbb 7b5f af3c 3f47 1fbe
000001d0: 4301 043d 3056 3dbd fd25 073d 0df5 913c
000001e0: 3780 963e 1cbe 223e 68fa 343e e12f 84be
000001f0: baa4 78be 79d4 1abd 83b1 8a3d b335 86bd
00000200: 095a f0bd 2fea a3bc 56f9 bd3d e605 1e3d
00000210: c1ae 1ebe 1770 d9bd 3436 a1bd 3c3e 85bd
00000220: 7a41 0d3d 0bbc bdbd f79a 4d3d bc50 1d3d
00000230: 264e e93d 0e31 24bd 7d2c bebd 125d 90bc
00000240: cea9 39bd 62c0 a03b 1996 af3c aced 64be
00000250: c604 2cbe 6907 a03d 5462 ba3d ce4f 1d3e
00000260: 1697 f03d ba4b 90be 8044 8ebe b87d 7dbe
00000270: 7407 c7bc 5bab 0f3d dc98 573d 0754 00bf
00000280: a997 8ebd 754b ab3e d090 8cbd 8d4f 353d
00000290: fed7 c9bd d099 87bd d4b7 62bd 1a59 1bbc
000002a0: cf15 793d e8a8 b9bd 8868 94bd 9f9e 6f3b
000002b0: 8215 df3d 9bc2 67bd 8abe e63d 4db6 80bd
000002c0: d4b9 b9bd 415c 473b 7592 9bbc 82c0 9ebc
000002d0: 8bee bb3d 7e6c 5fbd 3b39 053d 14e4 f6bc
000002e0: de6f a4bb d7b6 c33d c1d6 f43d 6778 033d
000002f0: 793e 39be 8a2d 89bd d8a4 0a3d fee6 f4bd
00000300: e8dd 2d3d 1553 60bd 635e 903d b943 ee3d
00000310: 0c1d 8e3c 4aa3 a9bd 6b60 1a3f 2882 1e3e
00000320: 19bc 70be 349d c73d 5908 f6bc 8bab 68bc
00000330: bdc0 77bd 42d0 533d d4ba bb3d 5930 493c
00000340: e0e4 ebbd 4819 68bd 1622 9f3d f1ac 9bbd
00000350: 5e1c 653d 224f a13d 2037 a53d 0895 c9bd
00000360: 140f 0dbd ad1d 733d 7cd5 8f3d 7ca1 303b
00000370: 0411 ddba bb34 bf3c bc5a 90bd 9a0d 8bbc
00000380: a225 e63d 0092 7fbe b4d5 7bbe 340a 2abe
00000390: 68cb 05bd fb26 913c b6d8 263e aad4 0c3d
000003a0: 1164 793d 61d5 913e be54 2dbd cfd6 6a3d
000003b0: 743c efbc 20df bebe 25c9 d7ba 1b74 083f
000003c0: 82cd 40bc 2dad e5bd e917 123c 22c1 39bd
000003d0: d328 dd3d b46a e1bd e838 75bd fa31 963c
000003e0: 23e0 dc3d 71f3 6f3d 1c97 f8bd 1583 593d
000003f0: 7b24 0c3d c912 bfbd 8b1f e2bd 9674 9bbd
0.106566265 0.060128782 0.046689745 0.1020498 -0.6732842 -1.3497972 -0.08784018 0.019018324
0.07188514 0.04804556 0.074540414 0.077192865 0.018632423 0.07164843 -0.110830694 0.0900122
0.11222587 0.06337074 0.010417867 0.09164602 0.060832113 -0.0584879 0.03430166 0.10306956
0.028828412 0.05319741 0.03366667 -0.08868328 -0.017784303 -0.010535057 -0.08286034 -0.22887357
-0.03455791 -0.050670873 -0.1133139 -0.098658316 0.00578201 0.083542205 0.12613586 -0.019662626
-0.04783078 0.049855746 -0.13012256 -0.14247894 0.05345584 0.03331328 -0.033752285 0.06551769
0.026193485 0.043141074 -0.11199833 -0.14193206 -0.15934546 -0.042494122 -0.074663125 -0.17184803
-0.059489366 0.0828684 0.10957426 -0.09675575 0.12160348 -0.04244943 -0.07216515 -0.06609511
0.03933897 0.040051423 0.10221288 -0.0657012 -0.041791465 -0.13423271 -0.13855645 -0.16619284
-0.0430538 -0.03839674 0.017042607 -0.12084944 0.06667876 0.070431724 -0.088836424 0.013647878
0.09157595 -0.06284152 0.08803003 -0.07959481 0.031079875 -0.040932514 0.07154871 -0.03756689
-0.024629144 -0.10255206 -0.06141654 0.06756082 0.09540697 0.0007835097 0.053410325 0.11257714
0.07224619 -0.07910653 0.036276292 0.017750854 0.02701539 0.011412992 -0.11309426 0.0070802676
0.022231096 -0.07345199 -0.09347293 -0.045440618 -0.082718514 -0.080027886 -0.055718455 -0.056494802
-0.010925045 -0.003125625 0.021407833 -0.15554522 0.032227766 -0.046224773 0.032995213 0.017817045
0.29394695 0.15892833 0.17673647 -0.2581778 -0.24281588 -0.037800286 0.06772139 -0.06553211
-0.11735923 -0.020009128 0.09276073 0.038579844 -0.15496351 -0.106170826 -0.078716666 -0.06506011
0.03448627 -0.09264382 0.050196614 0.038407072 0.11391859 -0.040085845 -0.09285829 -0.017622504
-0.045327954 0.0049057463 0.021433877 -0.2235629 -0.16798696 0.078139134 0.09100786 0.15362474
0.11747567 -0.28182775 -0.27786636 -0.24754989 -0.024295546 0.035075527 0.052636012 -0.50128216
-0.06962521 0.33456007 -0.06863558 0.04426532 -0.0985565 -0.06621134 -0.055351093 -0.009481693
0.060811814 -0.090654194 -0.072465 0.0036563051 0.10892774 -0.056582075 0.11266811 -0.06284771
-0.09068647 0.0030419978 -0.018990735 -0.019378904 0.09176358 -0.054546826 0.032525282 -0.030138053
-0.0050182184 0.09556358 0.119550236 0.032097246 -0.18090238 -0.06698139 0.033848614 -0.11958121
0.042447954 -0.054766733 0.07049253 0.11634011 0.017347835 -0.08283098 0.6030337 0.15479338
-0.23509254 0.09746781 -0.030033277 -0.014201055 -0.060486544 0.051712282 0.09166494 0.012279593
-0.11518264 -0.056664735 0.07770173 -0.07601345 0.055935256 0.078764215 0.08067155 -0.098428786
-0.034438208 0.059354473 0.07023141 0.002695172 -0.0016866033 0.023340574 -0.07048556 -0.01697426
0.11237647 -0.24958038 -0.2459324 -0.16605455 -0.032664686 0.017718783 0.16293606 0.0343825
0.060886446 0.28483108 -0.042317145 0.057333764 -0.029203631 -0.37279606 -0.0016463144 0.5330216
-0.011767747 -0.11214671 0.008916833 -0.0453502 0.10798802 -0.1100668 -0.059868723 0.018334378
0.10784938 0.058581773 -0.12138197 0.053103525 0.034214478 -0.09329755 -0.110411726 -0.075905964

bias f4 [64]
00000000: 901f 74bb 2fb8 72ba aee6 5a3c 7535 60bd
00000010: 46fb 62bd 10eb 91bd 6a1e 8abd 0604 e2bc
00000020: 98eb 483e e68d a1bd 6769 b43d f77c 3b3d
00000030: 1454 c43c 13cf 85bc 4a7c 45be ce6f b3bc
00000040: 6050 b23d 7c4b 62bd aa4b debd f84a 4bbc
00000050: 47c6 173d 9d84 5f3d 5ed4 d3bd e4ce f8ba
00000060: 27ef e9bd 572a 3dbe 6cd5 52bd a517 913d
00000070: d67b af3d 3884 8d3d 84d3 0bbd 4bd7 1ebd
00000080: 6dab f13d bc63 ca3d 0bc7 123c 419c ecbd
00000090: c702 cc3d 84a1 1bbe 919b c2bd e740 833d
000000a0: 377c a73d 2389 7bbc 47cc 3d3b b5ec 9abd
000000b0: 6f5e 8b3d 8cdf cabd b77a 763c 2768 a23d
000000c0: 391b ccbc 8db6 9cbd 98d8 d13d 1f0c 2e3d
000000d0: 4e68 863d 723e d63b 1e39 9cbc 3496 d53c
000000e0: eca8 57bd d022 57bd d4ec 713d 6230 2f3d
000000f0: 8507 d3bd b9a1 8cbd 4135 22bd f1b9 633e
-0.0037250258 -0.0009259013 0.013360662 -0.05473848 -0.055415414 -0.07124913 -0.06744082 -0.02758981
0.19621122 -0.07888393 0.088091664 0.045773473 0.023965873 -0.016334092 -0.19285694 -0.021903899
0.087067366 -0.05524777 -0.108542755 -0.012408011 0.037054326 0.05456983 -0.1034324 -0.0018982557
-0.11422568 -0.18473183 -0.051473066 0.07084588 0.08568542 0.06909984 -0.034137264 -0.038779538
0.11800275 0.09882304 0.008958588 -0.115532406 0.09961467 -0.15198332 -0.09502328 0.064088635
0.08177989 -0.01535252 0.002896087 -0.075646795 0.06805121 -0.099059194 0.015043906 0.07930022
-0.024915325 -0.07652006 0.1024639 0.04249203 0.06562863 0.006538206 -0.019070204 0.026072599
-0.05265133 -0.052523434 0.059063748 0.04277075 -0.103041686 -0.06866784 -0.039601568 0.222389

weight f4 [64, 64, 3]
00000000: 4ea2 dfbd 807d 15bd 0325 c3ba 36a8 523d
00000010: d07b 413d 0e51 1a3d d3fa e63c 8136 8d3d
00000020: eacb 3dbd 8252 febd 4f74 51bb 6818 0cbc
00000030: 26b2 75bd 991c 8dbd ed32 19be a4a0 0bbe
00000040: 8166 d7bd 9765 0ebe 057c c83d 4cef f53c
00000050: 7008 da3c 28ee 3fbe 11f9 5ebe 0a6c 09be
00000060: 92fc 673b 9663 21bd 2c9f e5bc 13b9 4ebd
00000070: a1e6 b7bd 3e77 b6bd 00b1 283e dfe4 6b3d
00000080: dfbd 88bc 9098 263d 8470 0f3c 8583 1bbd
00000090: e439 d03d 3a2f 7f3d 5ddf 443d 99e2 093d
000000a0: 7668 d0bc a36d 98bd 7983 c43c 4d5f 193d
000000b0: 17da 7e3d 91b3 003e b2b8 623d 26bc e83d
000000c0: 984a c53c 70cd 8e3d 225a 41bc bf49 c23d
000000d0: ee86 cf3d 1dc9 2ebd 674e 32be 2471 2bbd
000000e0: 860d cbbd 15a2 143e 5fe3 d73d 645d 1f3e
000000f0: 70ea d3bc 2e35 91bd 5575 023d 4f42 23be
00000100: afd1 86be cb39 95be 0dc0 093e 0ef4 d03e
00000110: 5b5f 1e3f 07b5 0bbd 0b77 0d3c b29c 1fbd
00000120: 0f73 ee3d 7841 e33c 5a69 5c3c 8355 1dbf
00000130: 96d4 9fbd 7b2c cb3e 1d38 5bbc 1779 08be
00000140: f557 4dbe 65bf 8a3b 27ea 9e3d 1fda 8e3d
00000150: 9c0b 4aba 1331 c939 cff9 60bc e1ae 5fbd
00000160: f967 a1bd 465c c0bd eeb5 53be 0ba0 5d3c
00000170: 07a9 533e 4ac0 f1bd 34fe d6bd 84b6 bbbd
00000180: 3d87 4bbc a809 febd 5b39 e7bc 2b0e 033e
00000190: ac55 423e 47ef a43e df20 b43b 50da c03d
000001a0: a9a7 0d3e 72dc 1f3d 1bbc 90bd b41b 34bd
000001b0: 8eb7 91bd 2c33 1d3d 4ae0 c23e b5d5 67be
000001c0: 4992 58be 3691 82be 2e94 e4bc 3dda 163b
000001d0: 3c20 8f3c 60d5 9dbd a85b 5e3e 85ec 253e
000001e0: 44ec 8bbd 35f0 98bd 20d8 7d3d 1edb eb3d
000001f0: 1435 a63d 3d05 63bd 3791 81bc ccb4 103d
00000200: 55d2 10be a7cb a63b 8597 64bd 4239 26bc
00000210: 6bed b53d 1682 423d 7eb6 bf3d ae8c 22be
00000220: 0bba ccbd 7f92 79be 4e69 82bd 5381 c3bd
00000230: c928 31be af17 92bd c06c 7ebd 847d 0bbd
00000240: 9f1e 57bd 7309 e7bd b5ff 57bc c4f4 723d
00000250: 5c51 b8bd 9974 15be e01b fdbd 1b23 b93c
00000260: 5d39 afbc 2077 d13d c594 323e 9929 163e
00000270: 6f1a a83b 0043 873c 22ad 9ebd 6185 953d
00000280: 608a a93c 6c9a 4c3c 0441 e0bd 3c2b 47bd
00000290: c854 11bd b054 ef3c 6102 b93d d23c 813c
000002a0: ed4d 38bd f3f2 8dbd 5ff3 4b3c 3f3f 2b3d
000002b0: 0a61 173e bde0 e83d e48d 1fba cba4 e6bc
000002c0: c37d 153d 2457 d1bc 3021 67bd a2c8 c3bb
000002d0: 025e 6c3d ffd2 d73d 0fcf d33d a085 bf3d
000002e0: a0f3 3a3a ebcb 53bd 1fa9 773d 1ac4 70bd
000002f0: eabf 3abd bcec a1bd 8e58 d53d 3f7a 26bb
00000300: 1c1f 63be 1828 23be 614f f0bc 2786 87bc
00000310: 3735 a43a 19ad aa3d a2f3 203d 7c10 a53c
00000320: df87 d53d 44c3 173d 663c 87bc 79ce b1bd
00000330: e1ce f63c 36ac a4bd e89d 01be 8f4c 02be
00000340: 7126 7abc 6458 b23c bc0d ecbd 8125 bfbd
00000350: 257e d2bd e023 5c3b 6ba2 933d 566f de3c
00000360: b333 8b3e 3f04 553e 6d71 373e 0081 0dbd
00000370: 2af1 28bc 6914 0ebd e675 213e ce71 b93d
00000380: 2c3a 33bb 4a88 f43d c4c1 333b 8281 97bd
00000390: dcbb a53a ce26 013e 3779 703d 3019 a73c
000003a0: 737c a83d 5fc9 343d 3359 cfbe a5f6 abbe
000003b0: e1cd d9be 0832 f43c 0ad5 ea3d bf3b 283e
000003c0: 91c9 a03d d63a f63c 333e 063d d6d8 593e
000003d0: c6f4 e53d 800b 623d b8da 7dbd 6ecb febd
000003e0: 8a02 6abd 7db3 133c 746b 3ebc 0bdb 303d
000003f0: 16d9 efbd 639b 5fbd 3cce e3bd 4237 f8bc
-0.10919629 -0.03649664 -0.001488835 0.05142995 0.047237217 0.037674956 0.028195774 0.068951614
-0.046337046 -0.12418081 -0.0031960194 -0.008550741 -0.05998435 -0.0689022 -0.14960833 -0.13635498
-0.10517598 -0.13905941 0.0978928 0.030021332 0.026615351 -0.18743193 -0.21774699 -0.1342012
0.0035398346 -0.039401613 -0.02803 -0.05046947 -0.08979536 -0.089094624 0.1647377 0.057591315
-0.0166921 0.04067284 0.008754853 -0.037967224 0.10167292 0.062300898 0.04806458 0.033663366
-0.025440436 -0.074427865 0.023988472 0.0374444 0.062219705 0.12568499 0.05535192 0.113640115
0.02408342 0.06972778 -0.0118012745 0.09486722 0.10133158 -0.042672265 -0.1741272 -0.041855946
-0.09914689 0.14514954 0.105414145 0.1556297 -0.025868624 -0.07090221 0.031850178 -0.15943263
-0.2633185 -0.29145655 0.13452168 0.408112 0.6186425 -0.034108188 0.008634339 -0.038967796
0.116430394 0.027741179 0.013452852 -0.61458606 -0.078042194 0.39682373 -0.013380078 -0.13327442
-0.20053084 0.004234242 0.07759505 0.06975197 -0.00077074184 0.0003837427 -0.013731434 -0.054610137
-0.07881159 -0.093926 -0.2067487 0.013526927 0.20669948 -0.11804254 -0.10497704 -0.091656715
-0.01242238 -0.124041855 -0.028225591 0.12798373 0.18977994 0.32213804 0.0054970826 0.0941664
0.13833489 0.039028592 -0.07067128 -0.043971732 -0.071150884 0.03837888 0.38061744 -0.22640117
-0.21149553 -0.25501412 -0.027902689 0.0023018264 0.017471425 -0.07706714 0.21714652 0.16203506
-0.068321735 -0.07467691 0.06197369 0.11516403 0.081155926 -0.055424917 -0.015816314 0.03532867
-0.14142735 0.005090195 -0.055808563 -0.010145487 0.088831745 0.04748734 0.093609795 -0.15873978
-0.099964224 -0.2437229 -0.063677415 -0.09546151 -0.17300715 -0.071334235 -0.06211543 -0.034055248
-0.052519437 -0.11281099 -0.013183524 0.059315458 -0.08999893 -0.1459526 -0.12358832 0.022599747
-0.021389658 0.102277994 0.17439564 0.14664306 0.0051301043 0.01651144 -0.07747866 0.07300831
0.020695865 0.012487989 -0.10949901 -0.048625216 -0.035481244 0.029215187 0.09033657 0.015776072
-0.04499619 -0.069311045 0.012448161 0.041808363 0.14783111 0.113709904 -0.0006086512 -0.028154751
0.03649689 -0.025554247 -0.056428134 -0.005974845 0.05770684 0.10538291 0.10342228 0.09351659
0.000713164 -0.051708143 0.06046402 -0.058780767 -0.04559318 -0.079064816 0.10417281 -0.0025402454
-0.22179836 -0.15933263 -0.029334726 -0.016543461 0.0012528066 0.08333797 0.039294846 0.020149462
0.10426306 0.037051454 -0.016508292 -0.0868196 0.030127944 -0.08040659 -0.12657893 -0.12724517
-0.015267954 0.021770664 -0.11526057 -0.09333325 -0.102779664 0.003359072 0.07208713 0.027152698
0.2718788 0.20802401 0.17914362 -0.034546852 -0.010311404 -0.034687433 0.15767631 0.0905491
-0.0027347906 0.119400576 0.0027428726 -0.073977485 0.0012644487 0.12612459 0.05870935 0.020397753
0.08226862 0.044137355 -0.4049774 -0.33586612 -0.42539886 0.029809013 0.11466415 0.16429041
0.07850946 0.030057352 0.03277416 0.21274123 0.112283275 0.05518675 -0.061976165 -0.12441145
-0.057131328 0.009014961 -0.0116222985 0.043177646 -0.11711328 -0.054591548 -0.111233205 -0.030299786

bias f4 [64]
00000000: bcbd 1a3d 3a75 033d 6f78 83bd a16b 8cbd
00000010: 279e 3abd 77e1 6abd 850f 053d 82c5 b8bb
00000020: a33f 09bd 6c29 17bd a89c 37bd 73ac b23a
00000030: f7bf 88bd cf57 9e3b 54b9 b6bd 23f6 a63d
00000040: a9d4 e4bc a03f 36bc a88b 443d e52a 6cbd
00000050: 41c1 d53c e588 613d e75e 40bd af6f 6bbd
00000060: 1ce5 ed3c de9e 59bb 7884 12bd 8973 3ebc
00000070: 3bbf 623d eceb 0ebc a9eb b4bb 3ef7 cabc
00000080: 8bac 23be f06b 343d 600e c93d edd1 f23c
00000090: b8db 58bd 5e68 1dbc f468 5d3d 1fbd abbc
000000a0: 36f5 04bd 659e f338 dafb 9dbd fc85 60bd
000000b0: 99d2 b53c 65ea 663d f145 c1bc 57b2 73bd
000000c0: 811d 143d 036c 21bd bc2b 933c fc03 41bc
000000d0: 55ee c43c 2c91 213d a857 aabc f0cf 0cbd
000000e0: ef4a 0f3d ac15 cd3a 83ea 8ebc cc2b 053d
000000f0: 27f2 80bd 2d0c 85bd f8cd cc3d a17b b0bc
0.0377786 0.032094218 -0.06419455 -0.06856466 -0.045560982 -0.057343926 0.032485504 -0.005638779
-0.033507954 -0.036904737 -0.044827133 0.0013631716 -0.066772394 0.004832245 -0.08922067 0.081524156
-0.027933436 -0.011123568 0.04798475 -0.057658095 0.026093127 0.055062193 -0.046965506 -0.057479557
0.029039912 -0.0033206264 -0.035770863 -0.011624225 0.055358153 -0.00872324 -0.005521257 -0.024776097
-0.15983789 0.04404825 0.09817195 0.029641116 -0.052943915 -0.009607403 0.05405517 -0.020964203
-0.032460414 0.00011616646 -0.077140525 -0.054815277 0.022195147 0.05637588 -0.023592921 -0.05949625
0.03616095 -0.03940965 0.01796519 -0.011780735 0.024039427 0.039445087 -0.02079375 -0.034377992
0.03498357 0.0015646718 -0.017445808 0.03251247 -0.06296187 -0.06496463 0.10000223 -0.021543326

bias f4 [128]
00000000: d45d a13d 7ef1 b43c 6389 f9bd 1ebf aabc
00000010: f166 1b3c 2064 60bc 0530 083d 60a2 79bd
00000020: 2c82 c43d 7309 cb3c 0f00 a63d d021 57bd
00000030: 4b4a 49bd 0e66 283d 3640 f8bb c423 a0bd
00000040: ee94 4abd 09a6 d5bd 3f9e 3fbd e109 94bd
00000050: 0434 023c e55a efbd f032 04be 31dd e6bd
00000060: 200f 9dbd 5f43 cfbc 434c 26bd 7076 2fbc
00000070: 65c4 eabd 8ad4 373d a53e 69bd 557c 3fbd
00000080: f4e2 ffbc d0c8 95bc b593 543d c057 92bb
00000090: e278 9abc 51a8 03bd f818 003c 1909 eebc
000000a0: 5728 81bc c0ac 743c be6c 34bc 7674 35bd
000000b0: ceda 2f3d 3a88 80bd b42d 403d e1d6 6bbc
000000c0: 2648 98bb 8f56 d0bd 36a4 cbbb 3537 1abc
000000d0: b013 2dbd abca 9d3b 7435 eb3a 1aa0 503c
000000e0: 60d2 923c 8b6b 5bbc 406b 0bbd b55c aabc
000000f0: 4ebe 64bc 81a9 1dbb 2971 2f3e 4fdd ed3d
00000100: 0ed1 e6bd 7b1b b3bd ef69 133c 1140 00be
00000110: e36c a6bc 6184 f0bb 77c3 24bd 0666 bfbd
00000120: ecbc b43d d18a 663b 077d fd3b c8e0 4e3d
00000130: 6b5b 18bd 1aa3 78bc eb71 cbbc e147 10bc
00000140: 45f6 d7bd c046 64bc a06c 733a 3c0e 0bbd
00000150: 6c42 4c3d 9452 80bc ce4d 9ebd c658 a53c
00000160: 769a 833c 8430 5f3c 0c1e b4bd 65e8 dcbc
00000170: f4b1 67bd dda2 22bd a9f5 a3bd 2440 dfbc
00000180: 3ea6 82bd 96fa 81bd d30b 26bd d0f9 3abd
00000190: 55e4 7f3c ed75 fcbc dbd5 a9bd 8bde 88bd
000001a0: 7835 b63c cf76 1d3e fdff 41bd ec83 b6bc
000001b0: e594 2bbe 0ec4 4a3a 0000 0000 7fa9 493c
000001c0: 062a b3bc 3d32 72bc efdd 06be 8b8d 37bb
000001d0: 5cb3 20bd 2999 0a3c e1b1 333d 8223 04bc
000001e0: a5b2 883d 8100 033e 5f8e e03d 07d8 3a3c
000001f0: ca36 20bd 4e7f 66bd b1e0 71bd ed74 ca3d
0.078792244 0.022087809 -0.121844076 -0.020843085 0.009484992 -0.013695747 0.03324892 -0.06094587
0.09595141 0.02478478 0.0810548 -0.05252248 -0.049143117 0.041112952 -0.007576014 -0.07819322
-0.049458437 -0.10432059 -0.046781775 -0.07228447 0.007946972 -0.11687259 -0.12910056 -0.11272658
-0.076689005 -0.02530068 -0.040600073 -0.01070939 -0.114632405 0.044880427 -0.056944508 -0.04674943
-0.03123615 -0.018284231 0.051898677 -0.004466027 -0.01885647 -0.03214294 0.007818453 -0.029057072
-0.015766306 0.014933765 -0.011012254 -0.04430052 0.042933278 -0.06275983 0.046918586 -0.014394493
-0.0046472726 -0.1017276 -0.006214644 -0.009412576 -0.042255104 0.0048154197 0.0017945007 0.012733484
0.01792258 -0.013392339 -0.03403783 -0.02079616 -0.013961388 -0.002405733 0.17133011 0.11614477
-0.11270343 -0.08745476 0.0089974245 -0.1252444 -0.020315593 -0.0073399995 -0.040225472 -0.09345631
0.088250965 0.0035177956 0.0077358517 0.050507337 -0.037196558 -0.015175605 -0.024834594 -0.0088062
-0.10545019 -0.013932884 0.0009285901 -0.03394912 0.049868032 -0.015664376 -0.07729684 0.020183932
0.016064864 0.013622407 -0.087947935 -0.026966283 -0.056566194 -0.0397061 -0.0800584 -0.027252264
-0.063793644 -0.063466236 -0.04053862 -0.045648396 0.015618403 -0.03081795 -0.08292743 -0.06683072
0.022242293 0.15377353 -0.04736327 -0.022279702 -0.16756018 0.0007734903 0.0 0.012308477
-0.021870624 -0.014782486 -0.13170598 -0.002800795 -0.03923355 0.008459368 0.04387081 -0.008065106
0.06674699 0.12793161 0.10964655 0.011404044 -0.03911475 -0.05627375 -0.059052173 0.09885583

weight f4 [128, 64]
00000000: 3268 76be d2f0 34bd 5029 e33d a158 283d
00000010: e0a2 09be de84 b03b 5d84 63bd 7391 f53d
00000020: 4a7d 39be aa0a 033e 1510 44be a575 a13c
00000030: 5aeb 13bf 4bca b33d caab f3bc aa80 373e
00000040: aca3 11be 9804 a2bd db13 3b3e 8a71 ab3c
00000050: 5b71 763d edd6 dfbd 9406 1d3e 695f 18be
00000060: e8da 49bd fe88 eabc 9253 c33d a08d cfbd
00000070: e57b 1f3e 6744 a3bd cd18 b2bc 3225 a23e
00000080: 6ef6 e3be 805a 303e 2d92 c03d ed6f 583e
00000090: 0eef 87bd cd87 6ebd 3a54 783d 6f64 383d
000000a0: 8008 24be bfd2 163d becb b9be efd4 96bd
000000b0: 8b1a e53d 7b2a fabc 1c36 50be f0ed 38be
000000c0: 19b9 633d 866e 5a3e 0e41 b23d 18c6 443e
000000d0: 81dd 933c 77b0 d13a ca52 323e ecdd 213e
000000e0: 0110 2dbc 597e 0b3e 5291 0cbd ccde a9bd
000000f0: a3bb 7d3c 6a69 8a3c 43aa 9d3d 6d17 aa3c
00000100: 6988 083e 2049 2e3e 9205 7c3d 27c7 1f3e
00000110: 87de d83d 6514 8bbd 3692 ddbd 6da1 3e3e
00000120: 2a6d 023e 6e49 f1be be75 41be 9809 a8bd
00000130: 048d c23d 0c0d b53d 2939 b83d 1ed8 493d
00000140: dd5a 0dbd 8cb6 02bc 0fd7 51bc 57e8 e43c
00000150: a560 013e b528 5bbe 96cc 523d 4ef6 66bd
00000160: 6b9d d43d f574 c8bd 689e 3abd 5c76 293e
00000170: dc5b b03c 0ebe fbbe aa78 24be 3168 cdbd
00000180: 48c8 8db9 e9ab e93d 9058 47bd 7bce 17bd
00000190: 0119 2e3e 8704 5bbd b406 91bd 94fa 90bd
000001a0: 7d7f 163d 6f6e 32be b738 d73d a685 033d
000001b0: df7a c13d c4a0 123e 0b33 a1bd 9cd6 1d3e
000001c0: 3e71 3e3b d27a c83e 258d 233e 7469 d1bb
000001d0: bbbc 173d 7078 40be 7ef8 363e 6314 b33d
000001e0: bba9 2abe c683 3c3e 04d2 8a3d 7a03 bdbd
000001f0: 7035 f2bc fd38 673d b40e 423d c946 4abe
00000200: 1c21 cfbc 6f84 563d b941 5a3d 92d2 233e
00000210: d511 fabd ad67 fbbd b4e9 2cbe a602 cdbd
00000220: f818 e4be 0a86 db3d b806 22be c985 72bd
00000230: 91b9 c5bd 0391 d5bd 0397 28be 5a9a 373e
00000240: 9387 c4bd 91c5 1cbe 1ce3 a1bd 53bc fab9
00000250: 9a68 11bd bf55 afbe be89 a13d 25c9 713d
00000260: b6fb 7ebd 68f9 393d e936 15be 53b0 943e
00000270: 2e1f fabc 769e a83e 603c 663e d494 593e
00000280: b538 98be 8f47 693e 9cbe 46be 3c8b ea3d
00000290: 3cba 73bd 5d0b 14be bf99 08bf 3691 4abd
000002a0: 9731 6f3e 7ba7 27bb 4116 4cbe f514 b63d
000002b0: af50 3cbd 3186 a93e aba5 b3bd 430a 9d3e
000002c0: 88c7 b33c e0ce 60be 64df ccbd 61d5 b6ba
000002d0: 2f86 9e3c 4d10 80be c969 8f3d beab c23d
000002e0: 7802 a4bd fb77 bb3e aa18 cdbd 43d6 d7bd
000002f0: 2514 2a3e 8070 aabd 0af6 0ab9 bc90 eebd
00000300: 5809 3e3e 6ff9 99be 6fea 7a3b b63f 94bd
00000310: 5a12 9ebd b63f 65bd 1717 8f3d 2ad9 683d
00000320: c097 56be 9135 0fbe 21f5 5bbc 01c0 ac3d
00000330: 80ac 54bd ec90 cb3d 6423 c23c 13d3 2abe
00000340: 7b7b 473e 0f1d 5abd 3c95 303e 6c6b 653d
00000350: 85c7 013e eb7e fc3d 0bee 4d3c b7e3 f7bd
00000360: aea7 8d3d e670 15be b7e0 53be 5755 6a3c
00000370: 78d5 45be 80d2 1b3e 77f6 553e 7e14 aebe
00000380: a30a 6b3e a8db 023e 03b5 d3bd ec53 56be
00000390: 9c1d b53d c3aa 183e bb94 5f3e 5648 1bbe
000003a0: e792 12be 9e36 44bc 8e26 1fbd a695 6c3d
000003b0: b34e 90bd 2f22 a33e df91 0ebd 0875 963e
000003c0: 5abf 23bd b88f a2be 694f d7bd aec1 ec3d
000003d0: 669a ef3d 6593 1abe d7f1 2c3e 68e5 00bd
000003e0: 9da5 903d be9d a43d febb 0cbe dfb6 bb3d
000003f0: 5206 d93d 8fbd 68bd b851 4abc bccc c8bd
-0.24063185 -0.044174977 0.11091864 0.041100148 -0.13441038 0.0053869328 -0.055546153 0.11990633
-0.181142 0.12797037 -0.1914676 0.019709418 -0.57780993 0.08778819 -0.029745001 0.17920175
-0.14222592 -0.079110324 0.18269293 0.020928163 0.060166698 -0.10929666 0.1533454 -0.14880146
-0.04928103 -0.028629776 0.09537424 -0.10134435 0.15574606 -0.07972031 -0.021740342 0.31669003
-0.44523948 0.17222023 0.09402881 0.21136446 -0.06637393 -0.05823498 0.0606272 0.045017656
-0.16018867 0.036822077 -0.36288255 -0.073648326 0.11186703 -0.030537834 -0.20333141 -0.18059516
0.055596445 0.21331224 0.087038144 0.19216192 0.018049957 0.0015998025 0.17414394 0.15807313
-0.010562898 0.13622417 -0.034318276 -0.08294448 0.015486631 0.016895968 0.076984905 0.020763123
0.13333286 0.17020082 0.06152875 0.15603314 0.10589319 -0.06790999 -0.10818903 0.18616267
0.12736955 -0.47126335 -0.18892571 -0.08204955 0.09499553 0.08840379 0.089952774 0.04927837
-0.034510482 -0.007978093 -0.012807622 0.02794282 0.12634523 -0.21402247 0.05146464 -0.05638724
0.103815876 -0.09787933 -0.045561224 0.16549057 0.021528177 -0.49168438 -0.16061655 -0.100296386
-0.00027042837 0.114097424 -0.048668444 -0.03706215 0.17001726 -0.053471114 -0.07081357 -0.07079044
0.036742676 -0.1742494 0.105088644 0.03210988 0.09447264 0.1431914 -0.07871064 0.15413898
0.0029059197 0.39156204 0.15971811 -0.006390745 0.03704522 -0.18795943 0.1786823 0.08744123
-0.1666631 0.18409643 0.067783386 -0.09229179 -0.029566497 0.056450833 0.047377303 -0.19753565
-0.025284342 0.052372392 0.053285334 0.15998295 -0.122104324 -0.12275634 -0.16886026 -0.10010271
-0.445503 0.10718925 -0.15822875 -0.05920962 -0.096545346 -0.104280494 -0.16463856 0.17929974
-0.09596171 -0.1530974 -0.07904646 -0.00047824028 -0.035500146 -0.34245107 0.078876 0.059029717
-0.06225177 0.045403868 -0.14571728 0.29040775 -0.030532446 0.32933396 0.22483969 0.2124818
-0.29730764 0.22781204 -0.19408649 0.11452338 -0.05950378 -0.1445746 -0.533596 -0.04945489
0.23358761 -0.0025582004 -0.19930364 0.08890716 -0.045975383 0.33110192 -0.08771833 0.30671892
0.02194573 -0.21953917 -0.10003546 -0.001394909 0.019351093 -0.25012437 0.07002599 0.095054135
-0.080082834 0.36614975 -0.1001447 -0.10538914 0.16609247 -0.08322239 -0.00013252362 -0.116487
0.18558252 -0.30073115 0.0038286706 -0.072387144 -0.07718344 -0.055968963 0.06986826 0.05684773
-0.20956326 -0.13985278 -0.0134251425 0.08435059 -0.05192232 0.09939751 0.023698516 -0.16682081
0.19480698 -0.05325037 0.17244428 0.05601065 0.12673767 0.12328895 0.012568961 -0.1210398
0.06916748 -0.14593849 -0.2069119 0.014302573 -0.19319713 0.15217018 0.208948 -0.3400001
0.22953276 0.12779105 -0.103372596 -0.20930451 0.08843538 0.1490889 0.2183408 -0.15164313
-0.14313851 -0.011975912 -0.038855128 0.057759903 -0.07046261 0.31862018 -0.034807082 0.29386163
-0.03997741 -0.31750274 -0.10513193 0.11560379 0.11699371 -0.15095289 0.1688913 -0.03146878
0.07062838 0.080378994 -0.13743588 0.09165739 0.10596909 -0.056821402 -0.012348585 -0.09804675

bias f4 [128]
00000000: db90 9c3d 4a75 99bd 2059 85bc c204 523d
00000010: d6bb 54bd 02b5 efbb dd4c a1bd b4ad b53d
00000020: 5f69 48bc 31d7 15bd fd0f 7c3b b32f b7bc
00000030: 7d5c 973d 64f5 a83d bf75 01bd 87dd 97bc
00000040: e03a 99bd 657a bfbd 0d45 2fbc 10b6 6abd
00000050: 6dfc 81bd d5d3 b4bc 9b9a 62bc ca1d 6ebc
00000060: 9298 1c3d a0bb 44bd 42bc a1bd d05f 3cbc
00000070: 83b7 3a3d 3185 013b 7a4d 3bbd 50ea b73d
00000080: fb92 24bd 6654 43bd ece2 0ebd 054d 35bb
00000090: 8a34 953c c347 383d 6551 223d b932 953c
000000a0: f076 6dbd 5141 0a3d 79da 8dbd 26f1 bdbd
000000b0: 5bf6 803c d48a 2a3d f821 e6bc 417f 823d
000000c0: 85c0 ebbc 3ab7 fe3b 2ca4 f8bc ede6 643d
000000d0: 19ca d73c 68ce 24bd 66a6 62bd 835c b5bc
000000e0: fec0 543c aeb5 f9bc 63a4 4ebd e467 cf3c
000000f0: d517 a6bc 183f 683b c1f5 d73a 1afa 26be
00000100: a6a7 b03d c3c7 00bc b3e2 5e3d b9f5 11bd
00000110: d0c2 a13c 1fc5 b0bd f538 0ebd a51d 133d
00000120: 6545 973c befe 7d3c 57ef bc3c 94a4 92bc
00000130: 7945 c4bc f2ed a3bc 60fa 2dbc 1130 debd
00000140: dbe2 93bd dd6e 80bd 21c9 3ebc caa2 04bd
00000150: f5d4 69bc 9ec1 2fbd 0043 343d c4e9 de3c
00000160: c1c4 713c 8488 4c3d 40b1 adbc 4fff 253c
00000170: ccad b43d edf6 ce3d 9bf4 e3bc 609e 853c
00000180: d99a bf3c f596 a33c 624c 3cbd ca8e 793d
00000190: 6a76 bb3b 3a1b 543d cb50 283b a35e f9bc
000001a0: fd45 473c 2241 0abc 21ae fbbc d4b6 9dbc
000001b0: 878a 54bd 87e5 54bd 00b8 dd3c 755f e3bc
000001c0: af67 91bb 8ef5 fb3c 7035 49bc 5a5b abbc
000001d0: 16b0 e23b 6fa9 1b3d abe0 3cbc 87c1 f23c
000001e0: 7ac7 8abc 83c3 993c f358 c83c 66a2 14bd
000001f0: c634 1e3c 5fad ff3c 20f7 fb3c fb02 b13c
0.076448165 -0.07493074 -0.01627785 0.05127407 -0.051936947 -0.007315279 -0.07875989 0.08871022
-0.012232154 -0.036582176 0.0038461678 -0.022361612 0.073906876 0.082499295 -0.031606432 -0.01853825
-0.07481933 -0.09349517 -0.010697615 -0.057302535 -0.063469745 -0.022073666 -0.013830806 -0.014533469
0.03823144 -0.048030496 -0.078972355 -0.011497453 0.045585167 0.0019763226 -0.045728184 0.089802384
-0.040179234 -0.04768791 -0.03488438 -0.0027664315 0.01821353 0.044990312 0.039628405 0.018212663
-0.057974756 0.033753697 -0.06926436 -0.09274511 0.015742471 0.041636303 -0.02809237 0.06371928
-0.028778324 0.007773307 -0.03035172 0.05588429 0.026341485 -0.040235907 -0.05533447 -0.02213884
0.012985466 -0.03048214 -0.05044974 0.025318094 -0.020275036 0.0035437997 0.0016476439 -0.16306344
0.086257264 -0.007860127 0.054415416 -0.03563473 0.019746214 -0.08631348 -0.034722287 0.035916943
0.018465707 0.01550263 0.023063345 -0.017900743 -0.023958908 -0.020010922 -0.010618776 -0.10849012
-0.072210036 -0.062711455 -0.011644633 -0.03238181 -0.014271964 -0.042909257 0.04400921 0.027211078
0.014756382 0.04993488 -0.021202683 0.010131671 0.088222116 0.10105691 -0.027826598 0.01631087
0.023389267 0.019969443 -0.04597128 0.06092719 0.005720903 0.051783778 0.0025682922 -0.030440634
0.012162683 -0.00843838 -0.03072268 -0.019252218 -0.051889922 -0.051976707 0.027065277 -0.027755478
-0.004437409 0.030756738 -0.012280807 -0.020917583 0.0069179637 0.03800338 -0.011528174 0.029633297
-0.016940821 0.018769985 0.024456477 -0.036287688 0.009656137 0.0312106 0.030757487 0.021607867

weight f4 [128, 128]
00000000: a366 be3d 01e7 423e 4194 bfbd b526 a1bd
00000010: 086c 67ba ee30 d43d 1879 b3bd 0573 78bd
00000020: a5ec d43d f6c6 fd3d f4fd bbbe 462d e73d
00000030: d83c e73d 397c 5c3e eb25 51be 372d 3ebe
00000040: 70d6 8fbd 930e 8cbd d9a8 443d 45bc 603d
00000050: 743e c7bd 2a42 6bbc 221a 813e 5ea6 4f3d
00000060: 6ba6 43be af3a f63d 5b64 2ebd 33c7 be3d
00000070: 69d6 a5bc 2c2b c83d 22f6 e9bd ba81 593e
00000080: 46a9 983d 30e8 2f3e 892f 523d 7e3a b83e
00000090: 0ba9 c23d 026a 113d 8cab d13d 5a7f 4c3d
000000a0: 2b56 01be 6ebf b8bd b813 803d 1473 493e
000000b0: 2052 9dbe 5841 22bd 16c0 e73d b8e2 4d3d
000000c0: 3f96 ce3d fd2c 983d 290d 2fbe d41b 903d
000000d0: e8dd a1be ea76 4bbc 4f78 c23d e25a bd3d
000000e0: 5759 a13d f177 7f3d 39a4 97be 3a97 823d
000000f0: 2687 8c3d ef72 0c3e 8379 bc3e bdb3 c2bd
00000100: 293e 493e e8ea 24be cbb5 3dbe 8b38 bcbc
00000110: 820a 693d 85f7 94bd dfc6 0dbe b51e 773d
00000120: 5932 c53d 8e3c bf3b 4008 17be b86a 15be
00000130: bb14 30be 45a3 ae3d 4c99 2c3e 09a0 a1bd
00000140: 26bd 84be 3b87 65be faeb 64bd 4deb 1abe
00000150: 8832 3f3d 1ef8 90bd 1724 7a3c 64f5 7abd
00000160: 379d 7f3d 017c a6bd 4a27 43bb 1079 aa3d
00000170: 5816 2e3e da26 5d3d e5f5 ae3c 263a 2b3d
00000180: 54b5 3b3e 18c3 143e fbf8 923c 7113 873d
00000190: 8f0d cf3d 1a80 82bd f90c 4a3d aed2 79bd
000001a0: 6547 c43d 661c 93be ebc1 97bb 10d8 56bc
000001b0: d887 6dbe 3338 3f3d 8bcb ee3d 3a7b fcbb
000001c0: 081a 243e c6d6 423d ee8b 7c3d 0471 c5bd
000001d0: 5200 313e 0cb9 813e 116f 143e c457 423d
000001e0: f0fe edbc 5094 84bd 6d6c 5bbd a3c6 1b3e
000001f0: 0ddd 76be cd95 54bd 17b1 82be 165a 65be
00000200: 535f 153d 27f4 1dbd 20bc 903e 7e4f 0d3d
00000210: 0857 c7bc 3836 c93d 0618 b1bd 6601 263e
00000220: 74b8 0dbc aed6 a9bd 6c2d 8dbf 28a3 e33d
00000230: 0521 c23d 84b7 04be b575 533e 20a0 c3bd
00000240: ab6a 76bb 48f5 09bd 1597 86bb ed94 5bbd
00000250: ffa4 90bd 9f95 3bbe b707 883d dc43 c03d
00000260: 8d40 a63d d3b8 3b3d b6fb e23c 1e3f 10be
00000270: d283 0bbe a5dd 593e 884c 723c fa97 673e
00000280: f0a0 e4bd 394c 033e 2c5b 45bd ca39 983e
00000290: b75b 393d 1865 53bf 9e82 433b dd5f b33d
000002a0: b3a4 db3d ac65 a6bd 3b5a 0b3e eb3e be3d
000002b0: 7576 09be 1f5c 083e 88d2 cbbd c697 15be
000002c0: 4432 2c3d 3847 1d3d a501 eabd 9358 ab3d
000002d0: 9857 c63d 782d 20be 1795 1bbd d6c0 d5bd
000002e0: 800f d9bd f3ea 0d3e 9b1c 35be c728 6bbe
000002f0: 41c6 083e 382a 43bc c71e 093f cae4 273e
00000300: 30d2 9d3a ce25 df3c 6cab 64be fc73 903e
00000310: b135 32be 03ff e9bd 80ec 723e 9a23 78be
00000320: cefc 233d c201 dfbd d4a7 d13d 088e aebd
00000330: 6a43 edbd 74c3 d2bd 51f6 353d 51b6 453e
00000340: cba4 6d3e 71c3 903c a9ec c6bd edd0 413e
00000350: af05 44be e8a3 83be 5688 1abe fa6d 3c3e
00000360: 3505 1e3d d2a0 f23d 89db fb3d 038e 203e
00000370: 28da 90bc 5ab7 df3d 8db3 c7bc 49cb b43d
00000380: 39da 683d e3e3 493e df0b c3bd 9108 023d
00000390: 8220 d83d 0ebf 2d3e 0ba8 d4bd 7f72 873d
000003a0: 0c1d 3abd 15fb 34bd 09fd de3c da04 a8bc
000003b0: 7386 a43e ab0b 9635 06fa 9bbd c43c 253d
000003c0: 3d5d fdbd 809e f3bd 7806 793c dddd ad3d
000003d0: 9ab1 6d3d 40fd 16bf 71e8 273e 730a e1bd
000003e0: 7113 7fbd 873c f13b 38ad 14bd ee79 00ba
000003f0: f9da 85bd ddb5 ffbc f503 a8be e734 e03e
0.0929692 0.19033433 -0.09354449 -0.07868711 -0.00088280486 0.10360895 -0.08763331 -0.060656566
0.10396699 0.123914644 -0.36717188 0.11287932 0.11290902 0.21531762 -0.20424621 -0.18571936
-0.070233226 -0.06838717 0.04801259 0.054867048 -0.09728709 -0.014359036 0.2521525 0.05069577
-0.19106452 0.12022912 -0.042576175 0.09315338 -0.02024384 0.097738594 -0.11423899 0.21240893
0.07454161 0.17178416 0.051314864 0.35982126 0.09504899 0.035501488 0.10237798 0.04992614
-0.12630527 -0.09020887 0.06253761 0.19672805 -0.3072672 -0.039613098 0.11315934 0.050265044
0.10087251 0.07430456 -0.17094864 0.07036558 -0.31614614 -0.012418488 0.09495603 0.0924585
0.07878368 0.062370244 -0.2961748 0.063765004 0.06861715 0.13715719 0.36811456 -0.095069386
0.19652618 -0.16105235 -0.1852638 -0.02297618 0.056894787 -0.07273773 -0.13845395 0.06033202
0.09628744 0.005836076 -0.14749241 -0.14591491 -0.17195408 0.08527235 0.16855353 -0.078918524
-0.2592556 -0.22414868 -0.055889107 -0.15128823 0.04667905 -0.070785746 0.015267394 -0.06126918
0.06240579 -0.081291206 -0.0029778057 0.08323872 0.17000711 0.05399213 0.021357486 0.0418035
0.1833089 0.14527547 0.017940989 0.06595505 0.10110008 -0.0637209 0.049328778 -0.060991935
0.0958393 -0.28732604 -0.004631271 -0.013113037 -0.23196352 0.046684455 0.116599165 -0.0077051194
0.16025555 0.047568105 0.061656885 -0.09640697 0.17285278 0.25336492 0.14495493 0.04744698
-0.029052228 -0.06473601 -0.0535702 0.15212493 -0.24107762 -0.051900674 -0.25525734 -0.22397646
0.03646786 -0.03856292 0.28268528 0.034499638 -0.024333492 0.098247945 -0.0864716 0.16211471
-0.008649934 -0.082929 -1.1029487 0.11115104 0.09478954 -0.1296063 0.2065037 -0.09552026
-0.00376002 -0.033681184 -0.004107366 -0.053608824 -0.070627205 -0.18318795 0.066420965 0.09387943
0.08117781 0.04583056 0.027707916 -0.14086577 -0.13624504 0.21275957 0.014788754 0.22616568
-0.11163509 0.12822045 -0.04818265 0.2973159 0.04525348 -0.8257613 0.0029832493 0.08758519
0.10724773 -0.08124861 0.13608639 0.092893444 -0.13424094 0.13316391 -0.09952265 -0.14608678
0.042040125 0.038397998 -0.11426095 0.083665036 0.09684676 -0.15642345 -0.03798398 -0.10437171
-0.105986595 0.13859157 -0.17686693 -0.22964774 0.13356878 -0.011911921 0.5356259 0.1639587
0.001204079 0.027239706 -0.22331017 0.2821349 -0.17403294 -0.11425593 0.2372303 -0.24232331
0.040036015 -0.10889007 0.10237089 -0.08523184 -0.11585124 -0.10291186 0.04442436 0.1930783
0.23207395 0.017671319 -0.09713108 0.18927355 -0.19142793 -0.25710988 -0.1509107 0.18401328
0.038579185 0.1184708 0.122977324 0.15679173 -0.01768215 0.109236434 -0.024377609 0.08827836
0.05684874 0.19715838 -0.095237486 0.03174645 0.105530754 0.16967413 -0.10383614 0.06613635
-0.045437858 -0.044184763 0.027220266 -0.020510126 0.32133827 1.1179267e-06 -0.076160476 0.040341154
-0.123712994 -0.11895466 0.015199296 0.08489583 0.058030702 -0.5898018 0.16397263 -0.10988321
-0.0622744 0.0073619517 -0.036298007 -0.00049009814 -0.06535906 -0.031214649 -0.3281552 0.4379036

weight f4 [8, 128]
00000000: 1c9a 54bd be73 2a3d de99 2dbd 0994 17be
00000010: 09d1 58bc b2bb 493d 60d3 0a3e c7b5 b4bb
00000020: 3e00 a3bc d5f9 72bf ca5f 91bc 21a3 5d3d
00000030: ab12 cabd c604 983e a790 073c 6866 8bbe
00000040: adb8 0e3e c2f2 f73d 1bdf c53d 8e8f 3c3e
00000050: 9aa7 213f d089 1b3d 0831 31bd ff46 ab3d
00000060: 569a 113c a5e5 873c fda2 be3e 6295 8abd
00000070: 45d5 26be faa4 14be e523 70be 5c63 d43e
00000080: 14e2 b63a 8e6a 793d 86a4 4bbe c718 c93d
00000090: e787 d5bc 029a 55be 8578 56bd 83d9 32bd
000000a0: 7f30 ab3c 753e 50bd 5909 833e ee7b 82be
000000b0: a700 93bd 8cf5 0d3e a975 a33d 979a 523d
000000c0: 87f9 ba3d 6639 e63d eadb 0a3c 5290 e3be
000000d0: 6c41 80bd f629 df3d c7d5 903d 0584 013c
000000e0: 0a6d b6bc da44 01be f338 9c3c 2f01 e5bd
000000f0: 23c2 de3c b15c f9bd 3a8e 973d b8fd 483d
00000100: f753 a7bd f3b3 523d 031e a33c b7aa f03d
00000110: 105f af3d 6f5b 4fbb 4192 673e fdfc 2f3d
00000120: 82dc d13c 8f62 8f3e 4b0e 6abd 3836 15bd
00000130: b52a 37be dfea ebbc ec25 483d fed3 91bc
00000140: 73d3 4dbd 3aa9 a53e ab64 99bd d6ec bebd
00000150: 069b 63bd a66e 33be 3125 583d 37ba 623e
00000160: e6cb 113d dc84 9e3d 398a 76bd 3557 393d
00000170: 2ee1 95be 0ba5 8a3d 9f60 5bbd c9d2 af3d
00000180: 28ac 43be 458d 2f3b e645 98bd 661c 243c
00000190: 29b7 9f3c 83d2 033d a493 32bd 88ae f0bd
000001a0: ac3c 59bd b8c0 6a3d 9d66 1d3f dda6 0e3c
000001b0: 034d bd3e 70e7 f93c a622 62bd 158e 1c3d
000001c0: 9bdd 29bc 3672 053e b74a 79bc 1005 8dbc
000001d0: a7e0 353d 9e31 00be 6c98 02bd fa90 7e3e
000001e0: 266d ddbd 5532 c4bd 8ac3 c4bd 36da d8bd
000001f0: 9235 60bc 4963 48bd f985 e03c 271b 913d
00000200: b1f2 c23d 9af4 3dbc 47a0 243d 0e22 e73d
00000210: 4b88 823d dcf5 523d e0a6 91bc 1be2 123e
00000220: 67a2 84bc b69e 8fbe 1129 b43e c5eb 993d
00000230: eca9 a33d 0be4 083f 8722 c23c 797a fcbd
00000240: ee82 50bd defa 63be 4037 173d b6a8 9abd
00000250: 73c3 07bf 2ff1 9d3d 52ff 013c 8679 35bd
00000260: d94d 87be dced c43b ae7e 133e e560 33bd
00000270: 7171 4e3e 3511 c9bd 0473 f1bc be04 bb3e
00000280: 1496 97bb ba27 a4bc 155a d3bd b453 823d
00000290: 003c 46bd 39fe d4bb 4dbb b43d 1dcc 88bd
000002a0: 45bd 053d 96c5 263d 2437 b2bd 71d8 3f3e
000002b0: ec36 273e 25b4 163e f1cf 83bd 1d73 08bf
000002c0: 253c cebc ddb3 dbbd aa60 733d 95be 75be
000002d0: 3dc0 a13d 0208 d23d 943e bebd 2396 cf3d
000002e0: eab6 7f3b 7d9a a43d 95ce 6fbd c4ac 20bd
000002f0: df7f f33d 5e40 2fbd eb62 80bd 8134 ac3d
00000300: 6129 dd3d 52d7 b23d 1df4 87be f19f c63d
00000310: 205f 75bd 9dd0 f0ba 8391 20bf 63db 53bd
00000320: a2b8 373d da3c c3bd 2548 c7bc 82d0 8e3d
00000330: 7ab5 ef3b 026b c03b 9989 a7ba 4e7e 54bd
00000340: 2742 f8bd 32a6 06be 5af6 6abd e011 b2bc
00000350: 5637 79bc 35a9 f4bd 4735 31be fe79 26be
00000360: f041 c4bd dfa1 60bd ba39 973d fd1d 933d
00000370: 19c4 40bd 7b1f d63b a6b5 68bd 4f61 da3d
00000380: d6df 2f3e fdaf 8f3d 4c0e 97bd d48f 94bd
00000390: 7cd6 5a3c 35b9 433e 30e1 fcbc 0ed2 933d
000003a0: deb8 adbd f3f9 85bd a5bd 9ebd 51a5 443d
000003b0: d60b 7bbd d979 803d 608f 32bd 3920 3e3b
000003c0: d16a 503d aaf8 413e 640b c83c 80cc 5f3d
000003d0: baf4 b3bd c74d 323d 82d9 11bd 9395 0cbe
000003e0: f6e4 e8bc 3bc4 923d f7a6 02be cd82 3e3e
000003f0: 31ee ca3d 48a9 943d 8192 99bd a5cd 9a3d
-0.051904783 0.041614287 -0.042383067 -0.14802565 -0.013233432 0.049251266 0.13557196 -0.0055148336
-0.019897576 -0.94912463 -0.017745871 0.05411065 -0.09866842 0.29691142 0.008274234 -0.27226567
0.13937636 0.12106849 0.096616946 0.18414137 0.63146365 0.037973225 -0.04325965 0.08363151
0.008886894 0.016588995 0.37233725 -0.06766774 -0.16292293 -0.14516059 -0.23451193 0.41482055
0.0013952875 0.060892634 -0.1988698 0.09819179 -0.02606578 -0.2085953 -0.05236103 -0.043664467
0.020897148 -0.050840814 0.2559307 -0.25485176 -0.07177859 0.138632 0.07981426 0.05141696
0.09129625 0.11241417 0.008475283 -0.44446045 -0.06262478 0.10896675 0.07072025 0.007905011
-0.02226879 -0.12623921 0.019070124 -0.111818664 0.027192181 -0.121758826 0.074001744 0.04907009
-0.08170312 0.051441144 0.019911772 0.11751311 0.085630536 -0.0031640192 0.22614385 0.042965878
0.025617842 0.28004882 -0.057142537 -0.03642866 -0.17887385 -0.028798519 0.04886429 -0.017801281
-0.05025048 0.32355672 -0.07489904 -0.093225166 -0.055567764 -0.17522678 0.052769843 0.22141348
0.035594843 0.07740185 -0.060190413 0.045249183 -0.2927336 0.06769761 -0.053558942 0.08585126
-0.19108641 0.0026787084 -0.07435207 0.010016536 0.019496517 0.03218318 -0.043597832 -0.11752039
-0.053036377 0.057312697 0.614847 0.0087067755 0.36972818 0.030505866 -0.055208825 0.038221437
-0.010367776 0.1303185 -0.015215567 -0.017214328 0.0444037 -0.12518927 -0.031883642 0.24859992
-0.10811834 -0.095799126 -0.096076086 -0.105884954 -0.013684647 -0.04892281 0.027407633 0.07085257
0.09518946 -0.011593962 0.040191915 0.11285792 0.06373652 0.051504 -0.017779768 0.14344065
-0.01619072 -0.28050774 0.3518758 0.075156726 0.079913944 0.53472966 0.023698105 -0.12328047
-0.050906114 -0.22263667 0.036917925 -0.0755171 -0.53032607 0.07712018 0.007934408 -0.044305347
-0.2642658 0.0060098004 0.14403793 -0.043793578 0.20160462 -0.09817735 -0.029473789 0.36527056
-0.004626045 -0.020038474 -0.10319916 0.06363621 -0.048397064 -0.0065000323 0.08824787 -0.066795565
0.032651205 0.040715776 -0.087019235 0.1873491 0.16329545 0.14717157 -0.06436146 -0.5330065
-0.025175164 -0.107276656 0.059418358 -0.23998483 0.07897995 0.102554336 -0.092892796 0.10136058
0.0039018937 0.08037279 -0.05854662 -0.039227262 0.11889624 -0.042785995 -0.06268867 0.08408452
0.10798908 0.08732475 -0.2655343 0.09698475 -0.05990517 -0.0018372718 -0.62722033 -0.051722895
0.044853814 -0.09533091 -0.024326393 0.069733635 0.007315335 0.0058721313 -0.0012782096 -0.051878266
-0.121219926 -0.13149336 -0.057363845 -0.02173704 -0.015210947 -0.11946336 -0.1730548 -0.16257474
-0.09582889 -0.054841872 0.07384057 0.07183454 -0.047062013 0.0065345145 -0.05681386 0.106630914
0.1717523 0.07015989 -0.07375774 -0.072539955 0.013356801 0.1911362 -0.030869097 0.07217799
-0.08482526 -0.06541815 -0.077510156 0.04800922 -0.061290585 0.062732406 -0.043593764 0.0029010905
0.050883118 0.18942514 0.024419494 0.054638386 -0.08786912 0.043531206 -0.035607822 -0.13728933
-0.02842949 0.07166334 -0.12759005 0.18604584 0.09908713 0.0725885 -0.074986465 0.07558755

bias f4 [8]
00000000: 47d3 833c d90c adbc 37c6 803c 15bc 85bd
00000010: 25c3 353d 44fc 063d f570 f43c 5c8a d33e
0.016091956 -0.02112429 0.015719516 -0.065300144 0.044375557 0.032955423 0.029839018 0.41316497
