logs/bc_state/checkpoints/ckpt_36000.pt (torch, 95974 bytes, 6 tensors)

bias f4 [128]
-0.08937534 -0.108621374 0.0 -0.1569223 0.03057359 0.011931463 -0.08340181 -0.090424694
-0.01356977 -0.118643425 -0.009067574 -0.097676195 -0.37879542 0.044364437 -0.02399157 -0.019578872
-0.11298615 -0.007896305 0.016024357 -0.013906636 -0.007827105 0.02356487 -0.011141216 -0.2570532
-0.066379 -0.07167573 0.03661377 -0.1662318 -0.037671827 -0.22463647 -0.019875132 0.001512279
0.0 -0.04708023 0.0 -0.23219155 -0.035947125 0.06398287 -0.0029908344 -0.04394975
0.0 0.106101625 -0.014567282 -0.3273625 -0.058626182 -0.01225956 0.034159936 0.12640622
-0.08273389 -0.0070492956 0.0 0.059722353 0.151862 -0.20865697 0.106650084 -0.18203793
-0.05139896 -0.17035352 -0.098384686 0.0 0.0680275 -0.030299004 0.09100542 0.17284952
-0.07276723 0.24143565 -0.04029412 -0.008062781 -0.10159686 -0.0017715953 -0.30186984 0.0
0.0 0.099683866 -0.0023785804 0.01887256 -0.006988861 -0.068726085 -0.24780752 -0.21337883
0.14719406 -0.03847749 -0.025257649 -0.07192387 -0.21109709 -0.0125579545 -0.047646895 -0.20673332
-0.25731462 -0.04586258 0.090651475 0.012171068 -0.03798927 0.0 -0.13705726 -0.083445676
-0.32169896 0.0178947 0.05454021 -0.004209926 -0.04428569 -0.072089866 -0.105512075 -0.2683253
-0.018639203 0.14992364 -0.2346033 -0.25134063 0.047544047 0.014827227 -0.007696363 0.0393739
-0.14684674 -0.09743485 0.0 -0.11849394 -0.005926948 -0.015274232 -0.12692313 -0.06671274
0.02770236 -0.040768787 -0.26341102 -0.026207078 -0.0056629567 0.039479982 -0.10539165 -0.0039837603
00000000: 6b0a b7bd e274 debd 0000 0000 3db0 20be
00000010: 7775 fa3c 2f7c 433c 91ce aabd 9530 b9bd
00000020: be53 5ebc 53fb f2bd 2990 14bc 750a c8bd
00000030: 79f1 c1be 7cb7 353d f889 c4bc df63 a0bc
00000040: 4865 e7bd 815f 01bc 8345 833c a9d8 63bc
00000050: 423d 00bc 1d0b c13c a689 36bc 7a9c 83be
00000060: b7f1 87bd baca 92bd 52f8 153d ab38 2abe
00000070: c64d 1abd 1a07 66be 2cd1 a2bc aa37 c63a
00000080: 0000 0000 33d7 40bd 0000 0000 9fc3 6dbe
00000090: 4b3d 13bd 7309 833d e001 44bb a704 34bd
000000a0: 0000 0000 cf4b d93d 9cab 6ebc 0f9c a7be
000000b0: 0222 70bd 52dc 48bc 4aeb 0b3d a270 013e
000000c0: 6370 a9bd c7fd e6bb 0000 0000 6d9f 743d
000000d0: b681 1b3e 2caa 55be 5c6b da3d 2768 3abe
000000e0: b787 52bd 2771 2ebe e97d c9bd 0000 0000
000000f0: 0052 8b3d 9e35 f8bc 0d61 ba3d 77ff 303e
00000100: fc06 95bd e83a 773e 720b 25bd c119 04bc
00000110: 0412 d0bd e034 e8ba af8e 9abe 0000 0000
00000120: 0000 0000 0e27 cc3d f5e1 1bbb a09a 9a3c
00000130: d102 e5bb 43c0 8cbd 41c1 7dbe fb7f 5abe
00000140: 0aba 163e 939a 1dbd 21e9 cebc d24c 93bd
00000150: d629 58be e1bf 4dbc 6429 43bd e6b1 53be
00000160: bebe 83be 67da 3bbd 7ba7 b93d 2969 473c
00000170: a39a 1bbd 0000 0000 bd58 0cbe 91e5 aabd
00000180: bab5 a4be e897 923c 8e65 5f3d 6bf3 89bb
00000190: e964 35bd daa3 93bd b716 d8bd ef61 89be
000001a0: 3eb1 98bc 9585 193e d93b 70be b8af 80be
000001b0: 8cbd 423d e6ed 723c c631 fcbb 8746 213d
000001c0: fe5e 16be ec8b c7bd 0000 0000 f3ac f2bd
000001d0: d836 c2bb c640 7abc 23f8 01be b0a0 88bd
000001e0: 0ff0 e23c 2cfd 26bd cfdd 86be 3ab0 d6bc
000001f0: 5390 b9bb c3b5 213d 94d7 d7bd 348a 82bb

weight f4 [128, 22]
0.01500632 -0.186691 -0.10591071 -0.23959574 0.2749734 9.45296e-05 -0.06840944 0.00028401133
0.023220515 0.017589089 0.0019591842 -0.012560464 0.0095215915 -0.028107887 -0.049197674 0.35503662
0.2454666 -0.4388975 0.060165856 0.09500404 0.117520496 0.13857728 0.00365433 1.6808974
-0.037174657 0.2320291 0.037789214 0.013894912 -0.01438882 -0.013634168 0.018335696 -0.008310503
0.029902305 0.06468046 -0.015805073 6.449092e-05 -0.010534249 -0.11464398 -0.2524985 0.0013596377
0.05756442 -0.0015774217 0.23169166 -0.08526517 0.0510165 0.14463277 0.12949692 0.18818119
-0.18406229 -0.18103042 -0.17205945 0.16713034 0.18436001 0.08230517 -0.09992347 -0.124739006
0.057839252 0.104449965 0.14242196 -0.0029437304 -3.9815903e-05 0.06561704 0.121450186 -0.05565398
-0.083840206 -0.03832631 0.6202067 -0.60872185 0.10076812 -0.16510104 0.17095408 -0.0022196553
0.11502812 -0.017800087 -0.00874324 -0.017835643 -0.005573828 0.00018314538 0.02938599 -0.007745888
-0.016404314 0.054457407 -0.09989521 0.042093206 0.27789605 -0.019227026 -0.05857396 -0.38440832
-0.5811112 -0.97843105 -0.08367557 0.27140698 -0.14321434 -0.017652683 -0.10690353 -0.0025177398
-0.009652148 -0.025228944 -0.026961531 -0.04676645 0.01876757 0.009206051 0.031960692 0.11790401
-0.021787656 -0.03389751 0.06486681 0.07464755 -0.10886176 -0.108925104 -0.34617323 0.2013569
-0.09667163 -0.25968388 0.2103828 0.009453798 -0.17248389 -0.018841447 0.017634725 0.02018672
-0.014105148 0.1337072 0.02556786 -0.01517968 -0.04815511 -0.032905515 0.3973587 0.0053170538
0.11823596 -0.04696053 -0.07763539 -0.35858458 -0.46240765 0.0042849737 -0.18671487 -0.13811336
-0.28415897 -0.0367627 -0.06893792 0.026278524 -0.02356834 -0.026058786 0.0027454745 0.013729722
-0.0039061042 0.01718325 0.012467761 -0.00037577836 0.50755113 -0.020328255 0.031211527 -0.020611044
0.0059169703 -0.04786649 0.006583993 -0.2441538 -0.21821341 -0.15811272 0.25191745 -0.0026085658
0.12016567 0.012380022 -0.019108154 0.029416231 0.035943378 0.09734657 -0.035567258 -0.07083469
0.02530419 0.40438154 -0.0010561965 -0.40091267 -0.23338538 -0.17329627 0.08571462 -0.26721746
-0.01508028 0.014603029 0.11381593 -0.26941544 -0.08198733 0.034852702 -0.057428394 0.00035447537
-0.02855176 -0.013183002 0.04452345 0.044786066 0.016035061 0.0327334 -0.013142927 0.073483765
0.4969139 0.14733881 0.03223207 -0.007778561 -0.6374259 -0.1024777 -0.06124452 -0.8425036
0.04170285 0.100099094 0.047204953 0.023071663 0.09292699 -0.0052360506 0.018202601 0.055760898
0.024845015 0.0578684 -0.033585664 -0.02358349 -0.0093566775 -0.15728025 -0.09913542 0.0711492
-0.0075696264 -0.03501075 0.098689914 0.23584086 -0.605635 -1.1471269 -0.051836792 0.34935713
0.04540355 -0.0024838094 -0.1127765 -9.439606e-05 -0.0064418986 -0.008444388 -0.024202233 0.1512478
-0.014041269 0.007890993 0.0069203456 0.036336094 0.006593273 -0.15120691 0.15395613 0.13245487
-0.09275867 0.016605565 0.33468068 -0.20383073 0.025053013 -0.6770423 0.10184308 -0.00045315622
-0.17402288 -0.009791171 0.03894647 0.026879823 0.0021716785 -0.08968507 -0.009281056 0.03938835
00000000: 11dd 753c ed2b 3fbe b7e7 d8bd 9658 75be
00000010: 50c9 8c3e 313e c638 401a 8cbd 5be7 9439
00000020: f338 be3c fe16 903c a865 003b 68ca 4dbc
00000030: 7300 1c3c 8342 e6bc 8083 49bd 5cc7 b53e
00000040: 995b 7b3e 2cb7 e0be 7970 763d 7a91 c23d
00000050: 96ae f03d 34e7 0d3e 7c7d 6f3b a527 d73f
00000060: 7444 18bd 0999 6d3e ddc8 1a3d 7ca7 633c
00000070: 16bf 6bbc d861 5fbc be34 963c c728 08bc
00000080: aef5 f43c 3077 843d a479 81bc 4d3f 8738
00000090: d897 2cbc 77ca eabd 7c47 81be df35 b23a
000000a0: abc8 6b3d 7dc1 ceba 9440 6d3e 819f aebd
000000b0: adf6 503d 9d1a 143e d79a 043e 92b2 403e
000000c0: d37a 3cbe 0a60 39be 5a30 30be 3724 2b3e
000000d0: dfc8 3c3e 9d8f a83d ada4 ccbd 2a77 ffbd
000000e0: dae8 6c3d dde9 d53d 10d7 113e 9aeb 40bb
000000f0: 0000 27b8 3a62 863d e0ba f83d 6df5 63bd
00000100: 6ab4 abbd 0dfc 1cbd dec5 1e3f 32d5 1bbf
00000110: 845f ce3d 3f10 29be 960e 2f3e a377 11bb
00000120: dd93 eb3d 7dd1 91bc ce3f 0fbc 0e1c 92bc
00000130: a8a4 b6bb b70a 4039 e3ba f03c 38d1 fdbb
00000140: 5762 86bc bb0e 5f3d dc95 ccbd ed69 2c3d
00000150: 6448 8e3e ff81 9dbc 40eb 6fbd 2bd1 c4be
00000160: b4c3 14bf 757a 7abf 195e abbd dbf5 8a3e
00000170: c8a6 12be 5c9c 90bc 3df0 dabd aa00 25bb
00000180: 0b24 1ebc eeac cebc 6ede dcbc 2d8e 3fbd
00000190: 72be 993c fad4 163c 37e9 023d a877 f13d
000001a0: 077c b2bc 1ed8 0abd e4d8 843d d1e0 983d
000001b0: eaf2 debd 2014 dfbd 9e3d b1be 8130 4e3e
000001c0: c7fb c5bd 49f5 84be 976e 573e 1ae4 1a3c
000001d0: 9e9f 30be 6159 9abc b376 903c 9f5e a53c
000001e0: 4719 67bc 8aea 083e b073 d13c 31b4 78bc
000001f0: 4b3e 45bd efc7 06bd 9972 cb3e ae3a ae3b
00000200: b225 f23d af59 40bd 4eff 9ebd 6698 b7be
00000210: b2c0 ecbe f768 8c3b 2f32 3fbe 976d 0dbe
00000220: 497d 91be 7c94 16bd 532f 8dbd 0f46 d73c
00000230: 6412 c1bc 3c79 d5bc 6bed 333b a1f2 603c
00000240: 8efd 7fbb e3c3 8c3c 9445 4c3c 1e04 c5b9
00000250: dfee 013f 7187 a6bc 51af ff3c 7ed8 a8bc
00000260: 25e3 c13b a70f 44bd 89be d73b 7403 7abe
00000270: 5673 5fbe 4de8 21be 53fb 803e 79f4 2abb
00000280: 6b19 f63d 93d5 4a3c b488 9cbc 4ffa f03c
00000290: 5d39 133d a35d c73d f9ae 11bd c711 91bd
000002a0: bc4a cf3c 190b cf3e 1370 8aba 6d44 cdbe
000002b0: 94fc 6ebe 9474 31be 268b af3d bad0 88be
000002c0: 4713 77bc 8b41 6f3c 5418 e93d d2f0 89be
000002d0: f9e8 a7bd b5c1 0e3d 093a 6bbd e1d8 b939
000002e0: 61e5 e9bc 85fd 57bc 395e 363d 9871 373d
000002f0: f65b 833c 7513 063d 6e55 57bc a87e 963d
00000300: 806b fe3e fcdf 163e c605 043d 4de3 febb
00000310: 582e 23bf d4df d1bd 89db 7abd 51ae 57bf
00000320: 9cd0 2a3d c100 cd3d fb59 413d c900 bd3c
00000330: 8150 be3d 2d93 abbb 9f1d 953c 8a65 643d
00000340: c687 cb3c 6a07 6d3d 1f91 09bd 2a32 c1bc
00000350: c04c 19bc 130e 21be 8307 cbbd acb6 913d
00000360: a10a f8bb 6f67 0fbd f01d ca3d 4480 713e
00000370: e50a 1bbf 0ed5 92bf d152 54bd f0de b23e
00000380: 13f9 393d 68c7 22bb 5ef7 e6bd 80f6 c5b8
00000390: 9016 d3bb 555a 0abc c343 c6bc b4e0 1a3e
000003a0: 5a0d 66bc 3949 013c 11c4 e23b 28d5 143d
000003b0: 620c d83b fcd5 1abe ada6 1d3e 40a2 073e
000003c0: 42f8 bdbd 6508 883c 445b ab3e 01b9 50be
000003d0: fa3b cd3c a552 2dbf 1b93 d03d 9995 edb9
000003e0: 0e33 32be 266b 20bc 5586 1f3d 1333 dc3c
000003f0: b852 0e3b ceac b7bd 920f 18bc ae55 213d

bias f4 [128]
0.019676534 0.002415879 0.017727587 0.043876994 0.030235883 0.05311748 -0.028662281 -0.01875912
-0.033991396 -0.02601937 -0.032988507 0.017540012 0.018165633 0.03750377 0.044449944 -0.043670222
0.025460958 -0.029596282 0.0015840658 -0.00831637 -0.0018813147 0.0012462934 -0.00070944463 0.031628005
0.002701402 0.022719556 0.02026772 -0.028588234 -0.010752076 0.025177985 0.009478944 -0.040233314
-0.01272051 0.021132564 -0.019392615 -0.039055888 -0.0066073663 0.019604726 -0.0158703 -0.050039697
-0.00081276137 0.020932268 -0.028522661 0.0071366625 -0.0056752344 -0.0067068334 -0.026426699 0.010311792
0.031157456 0.00031528433 0.005813598 0.018591179 -0.019895824 -0.031432506 -0.0025401462 -0.01403064
0.000739794 -0.0037523797 0.046599407 0.004376089 -0.0361734 -0.0074369633 0.015643375 -0.0024727953
0.05471178 -0.025558963 0.016185483 -0.0041061407 0.0039046686 -0.017061463 0.023369532 -0.04357291
-0.018951902 3.1752963e-05 0.02978203 0.017431103 -0.024961201 -0.015481664 -0.04142822 -0.045037463
-0.013007684 0.041765254 0.01828013 0.018469013 -0.029849697 0.033608414 0.012239741 0.0076838154
0.033371884 -0.026770907 -0.007839496 -0.03283909 0.012960714 0.021330653 0.016286585 0.005396808
0.03864319 0.0036169682 -0.04105118 -0.0070907697 -0.038199 0.008985091 -0.0031985296 -0.041304596
0.04335397 -0.0058079716 -0.025467863 -0.03590415 0.03498098 0.003937012 -0.01608524 -0.01724185
-0.016103119 0.009967849 -0.009123597 -0.015480621 0.02961034 0.018705538 0.006693154 0.005650864
0.04334879 0.01855124 -0.024317112 0.0076200403 -0.00069259066 -0.009971075 -0.0075236904 0.0070378366
00000000: af30 a13c b953 1e3b 7239 913c 5db8 333d
00000010: 3eb1 f73c b791 593d 29cd eabc baac 99bc
00000020: 903a 0bbd 9326 d5bc f51e 07bd 12b0 8f3c
00000030: 18d0 943c 8e9d 193d 2511 363d 8cdf 32bd
00000040: 8093 d03c e773 f2bc 6ea0 cf3a 6241 08bc
00000050: 7296 f6ba ab5a a33a 06fa 39ba 5e8c 013d
00000060: 010a 313b 5d1e ba3c 7d08 a63c df31 eabc
00000070: 7a29 30bc 1042 ce3c 934d 1b3c b0cb 24bd
00000080: b069 50bc 331e ad3c 43dd 9ebc 11f9 1fbd
00000090: 9b82 d8bb 179a a03c 6e02 82bc 6df6 4cbd
000000a0: 7e0f 55ba 267a ab3c 5ba8 e9bc aada e93b
000000b0: 51f7 b9bb ffc4 dbbb ce7c d8bc caf2 283c
000000c0: ec3d ff3c bf4c a539 ff7f be3b 874c 983c
000000d0: 91fc a2bc 5fbf 00bd 9578 26bb c5e0 65bc
000000e0: bcee 413a 7cea 75bb 05df 3e3d 4c65 8f3b
000000f0: 8f2a 14bd c5b1 f3bb 8926 803c 9f0e 22bb
00000100: 7619 603d 0861 d1bc 6b97 843c ce8c 86bb
00000110: 78e5 7f3b 7bc4 8bbc 7671 bf3c 8279 32bd
00000120: 0541 9bbc 7c2e 0538 72f9 f33c accb 8e3c
00000130: 6f7b ccbc cea6 7dbc a3b0 29bd 3479 38bd
00000140: 2e1e 55bc 0b12 2b3d 36c0 953c 544c 973c
00000150: 5a87 f4bc faa8 093d 3289 483c 84c8 fb3b
00000160: f5b0 083d a94e dbbc 3b71 00bc 4882 06bd
00000170: 2d59 543c 9fbd ae3c 726b 853c b5d7 b03b
00000180: 5248 1e3d a80a 6d3b 4825 28bd b059 e8bb
00000190: 8e76 1cbd 3436 133c 6c9e 51bb 022f 29bd
000001a0: ef93 313d cc50 bebb fba1 d0bc 3b10 13bd
000001b0: 3748 0f3d 0d02 813b 31c5 83bc c83e 8dbc
000001c0: b0ea 83bc 3050 233c 247b 15bc 6ea2 7dbc
000001d0: 6291 f23c 5b3c 993c 3f52 db3b e22a b93b
000001e0: 808e 313d c5f8 973c ae34 c7bc 88b1 f93b
000001f0: f98e 35ba b85d 23bc 4a89 f6bb a79d e63b

weight f4 [128, 128]
-0.028563311 0.42760766 -0.055721436 -0.21757978 0.09751854 -0.17689173 0.32663608 0.079629354
-0.115329914 -0.114591084 0.18547022 -0.29052082 0.18026087 -0.07592901 -0.031704977 -0.058324054
0.077941 -0.014364779 0.41099015 0.12125954 -0.25725597 0.18147008 -0.0576261 0.097956724
0.17327137 0.05221916 0.17132698 -0.23426934 -0.066804126 -0.41909024 0.0056081596 -0.28210202
0.061134823 -0.067664474 0.041608416 -0.16144007 0.014137244 0.097206466 0.25725722 0.03427437
-0.076327376 -0.24208045 0.0538527 -0.7004871 0.12393905 -0.08100926 0.7856865 -0.21709774
-0.06055924 0.07466474 0.15162458 -0.13562983 -0.12975511 0.108404584 -0.17832577 0.04790112
-0.049950853 -0.42952642 -0.050195556 -0.14303333 -0.10957124 0.28678986 -0.463999 -0.0956022
-0.13525358 0.23435685 -0.047183994 0.08857798 0.14032382 0.19030336 0.07380295 0.05164186
-0.09910484 -0.25245214 -0.3215941 0.010638369 -0.046351865 0.031834602 0.32029697 -0.28026208
0.4394212 0.015530613 0.16803671 0.15135574 -0.4872117 -0.09149926 -0.3921379 -0.035561264
-0.042855542 1.1089984 0.03440333 0.19248596 -0.011273223 -0.061235983 0.057946116 -0.02468315
0.10088224 -0.08478728 -0.007941389 -0.11750781 0.021599477 -0.44919893 0.005993821 -0.11195218
0.079452164 -0.3256974 -0.3082175 0.15290174 0.09557827 0.06971324 -0.0277787 0.06771599
-0.15172996 0.12989256 0.044838633 0.41376236 0.09190955 -0.1330961 0.09478763 -0.065055914
0.028503913 0.018673664 0.08363258 0.044221938 0.09507115 -0.09311665 0.037469078 -0.06178426
-0.022525238 -0.10873761 0.022468163 -0.29108462 -0.04683724 -0.22781295 0.22450165 0.08722532
0.17090914 -0.049611114 -0.09207266 -0.23283055 0.3286103 -0.08594859 0.067970805 -0.10723501
0.04258649 0.09445008 0.38875076 -0.13330811 0.048436522 0.01758501 0.1800675 -0.2196256
-0.0044801515 -0.15308146 -0.059956934 0.14746 -0.100095786 0.34483275 0.07610687 -0.18761313
-0.039137367 0.00040106746 0.060478766 -0.35665748 0.15905572 0.22121903 0.14341764 0.017658178
0.13743591 0.21655299 0.008038375 0.66639996 -0.15399717 -0.07956264 -0.48048627 -0.30230796
-0.16240531 0.15359496 0.12385638 -0.10572557 0.25879303 -0.18818486 -0.1091409 0.10739558
-0.09136758 -0.5025937 -0.07198084 0.06299119 -0.085235536 -0.17228058 -0.11615624 0.018991705
-0.048419505 -0.1814823 -0.23744406 -0.04075106 -0.04882298 0.11101472 -0.6225838 0.033864852
-0.14343165 0.0076994183 -0.10139657 0.009150061 0.03609802 0.19412777 0.30665815 0.783861
0.70121354 0.10431316 0.2653527 -0.0458085 -0.2773693 -0.09682023 -0.010661562 -0.06767013
0.3107975 0.44679043 0.2923986 0.1101168 0.13650821 0.0031903037 0.2478375 0.14143091
-0.24468297 0.15639308 0.1202301 0.18705152 -0.14353919 -0.09073362 0.1417335 0.19466472
0.12814012 -0.52273244 -0.27482393 0.385753 -0.090004966 -0.11223199 -0.03647584 -0.0096205985
-0.044146806 0.025807478 0.0020642711 -0.49126917 -0.15243042 -0.11044022 0.0066933725 -0.0005536189
-0.10675314 0.060549818 0.10730646 -0.07646203 0.06638445 0.12677015 0.11323848 -0.0029172034
00000000: 9bfd e9bc 64ef da3e 293c 64bd 3ccd 5ebe
00000010: cdb7 c73d 1b23 35be d83c a73e b714 a33d
00000020: 1732 ecbd bbae eabd e8eb 3d3e 25bf 94be
00000030: 4e96 383e ab80 9bbd 14dd 01bd 34e5 6ebd
00000040: 889f 9f3d 405a 6bbc 4d6d d23e ec56 f83d
00000050: 0eb7 83be 4bd3 393e 5809 6cbd 899d c83d
00000060: 0d6e 313e c2e3 553d 5770 2f3e 4de4 6fbe
00000070: 9ad0 88bd ff92 d6be a7c4 b73b ad6f 90be
00000080: 8268 7a3d ac93 8abd 966d 2a3d 8c50 25be
00000090: e69f 673c 2f14 c73d 38b7 833e 4863 0c3d
000000a0: 8751 9cbd f0e3 77be a694 5c3d 1f53 33bf
000000b0: c2d3 fd3d 2fe8 a5bd c022 493f df4e 5ebe
000000c0: f70c 78bd d4e9 983d 7943 1b3e 8ce2 0abe
000000d0: 86de 04be 3903 de3d 089b 36be f733 443d
000000e0: 4499 4cbd e3ea dbbe db99 4dbd 5477 12be
000000f0: e366 e0bd 1fd6 923e 4791 edbe 16cb c3bd
00000100: ea7f 0abe 3efb 6f3e 0144 41bd 5f68 b53d
00000110: 0cb1 0f3e e2de 423e 0026 973d 6a86 533d
00000120: 7af7 cabd 6841 81be fba7 a4be 8e4c 2e3c
00000130: 74db 3dbd 0065 023d f7fd a33e 837e 8fbe
00000140: d1fb e03e 1d74 7e3c d111 2c3e 00fd 1a3e
00000150: d073 f9be f763 bbbd 4dc6 c8be b0a8 11bd
00000160: 4b89 2fbd a9f3 8d3f 82ea 0c3d 0a1b 453e
00000170: 53b3 38bc 95d2 7abd e858 6d3d 5134 cabc
00000180: 599b ce3d f4a4 adbd 9a1c 02bc efa7 f0bd
00000190: 63f1 b03c 67fd e5be d167 c43b 2f47 e5bd
000001a0: d1b7 a23d cfc1 a6be afce 9dbe 4692 1c3e
000001b0: 8abe c33d d1c5 8e3d 2890 e3bc aeae 8a3d
000001c0: 195f 1bbe 8e02 053e b7a8 373d a9d8 d33e
000001d0: 133b bc3d 584a 08be 0420 c23d 093c 85bd
000001e0: 0a81 e93c 83f9 983c 8f47 ab3d 1022 353d
000001f0: aab4 c23d f1b3 bebd 2d79 193d 7e11 7dbd
00000200: d986 b8bc d3b1 debd 270f b83c 0b09 95be
00000210: 68d8 3fbd cc47 69be c3e3 653e 30a3 b23d
00000220: ce02 2f3e 0635 4bbd 9790 bcbd 226b 6ebe
00000230: 9c3f a83e d005 b0bd 4734 8b3d 079e dbbd
00000240: 2c6f 2e3d 0b6f c13d 570a c73e ec81 08be
00000250: 6065 463d 700e 903c 9d63 383e 89e5 60be
00000260: 3cce 92bb 63c1 1cbe 6795 75bd c1ff 163e
00000270: 05ff ccbd eb8d b03e ebdd 9b3d a81d 40be
00000280: 814e 20bd 5d46 d239 95b8 773d cf9b b6be
00000290: 81df 223e 3e87 623e 13dc 123e e2a7 903c
000002a0: 00bc 0c3e 11c0 5d3e 63b3 033c 3099 2a3f
000002b0: 6fb1 1dbe bdf1 a2bd 4c02 f6be 1cc8 9abe
000002c0: 944d 26be ff47 1d3e 6aa8 fd3d a686 d8bd
000002d0: 8580 843e 88b3 40be 4485 dfbd 37f2 db3d
000002e0: ed1e bbbd fba9 00bf b16a 93bd 8601 813d
000002f0: f88f aebd 526a 30be 53e3 edbd 7e94 9b3c
00000300: 8853 46bd 7fd6 39be 8924 73be 95ea 26bd
00000310: 9bfa 47bd af5b e33d a761 1fbf dfb5 0a3d
00000320: bfdf 12be 674b fc3b 01a9 cfbd 23ea 153c
00000330: 84db 133d 6ec9 463e 4c02 9d3e 1dab 483f
00000340: bb82 333f 23a2 d53d 4fdc 873e b2a1 3bbd
00000350: 5903 8ebe af49 c6bd d5ad 2ebc a396 8abd
00000360: da20 9f3e b7c1 e43e 45b5 953e eb84 e13d
00000370: cfc8 0b3e 6a14 513b 1dc9 7d3e 44d3 103e
00000380: 2c8e 7abe 8225 203e 333b f63d 6f8a 3f3e
00000390: f0fb 12be 8cd2 b9bd 9622 113e 3056 473e
000003a0: 2a37 033e cbd1 05bf b9b5 8cbe 6b81 c53e
000003b0: 8654 b8bd e3d9 e5bd b167 15bd b79f 1dbc
000003c0: 48d3 34bd 346a d33c b948 073b a287 fbbe
000003d0: b816 1cbe 7b2e e2bd 1454 db3b bc20 11ba
000003e0: 64a1 dabd 1603 783d 7dc3 db3d 2098 9cbd
000003f0: 92f4 873d 09d0 013e 94e9 e73d 8d2e 3fbb

weight f4 [8, 128]
-0.14871982 0.017879365 -0.030939395 0.05222273 0.10941391 0.13729836 -0.106062986 -0.56065017
0.0123571735 -0.07209064 -0.110306285 0.10931316 0.061144143 0.10448536 -0.38157156 -0.022550795
-0.055058338 -0.025314089 0.061335467 -0.24851309 0.07059354 0.30787462 -0.385157 0.10701862
-0.04673385 0.014455597 -0.18270902 0.015777243 0.033859044 -0.08862197 0.016342012 -0.06257422
-0.07832203 -0.030041417 0.13056922 0.27366596 0.09244779 0.026886115 -0.054819267 0.07065018
-0.10966651 0.064469405 0.007155047 -0.004060614 0.091975 0.046236716 0.014540807 -0.042866576
-0.04594299 -0.17086424 -0.025901685 -0.15325014 0.031924333 0.097111546 0.10045496 -0.08156645
0.023557652 0.009465558 0.24765731 0.12017406 0.24665907 0.03635533 -0.029047526 0.023489607
-0.109157965 0.017426863 -0.016286077 -0.02957465 -0.06692354 0.0029934067 0.061189603 -0.0087547535
0.12510926 -0.07609756 -0.012534497 0.096655615 0.109202586 0.02064529 -0.3528715 -0.1590059
-0.0066020205 -0.16607329 0.0002836325 0.08248015 0.029769292 -0.021159936 0.06947779 -0.11320927
-0.065418996 -0.04950066 -0.031218423 -0.1101597 -0.024076745 0.5761321 0.008825181 -0.030170118
0.15232246 0.043716885 0.05304137 0.006835974 0.008906241 0.03470585 -0.008603091 0.017408352
0.23768213 -0.045095075 -0.0051702657 0.033193197 -0.2022896 0.2879991 0.028294666 -0.09695752
0.05846844 0.028528666 -0.14801286 -0.03679244 -0.004288689 -0.028580265 0.03291813 -0.10750848
-0.00042179736 -0.027889648 0.0137451 0.04997212 -0.13704394 -0.0056118397 -0.007658764 0.09729834
-0.06713155 0.09583289 -0.038764328 -0.0040976475 0.046037346 -0.026911303 -0.32437673 0.04855727
-0.0065060905 -0.08001187 -0.1591954 0.3792807 0.033558734 -0.08052547 0.20160837 0.13257693
0.025558243 -0.012564657 0.06801556 0.23175909 0.026179945 -0.081126556 0.19620293 -0.11250064
0.035496615 0.0017129139 -0.10993399 0.032637306 -0.04292901 0.002162045 -0.009280267 0.2003981
0.17668466 -0.11040031 -0.12324666 -0.63507175 0.18284802 0.03239996 0.21742038 0.0011422727
0.13816248 0.13488193 0.19615042 -0.09509459 0.17854929 0.044412985 -0.026509015 0.021555549
0.08111956 -0.22670794 0.0028958425 0.299824 0.15741259 0.066567704 0.16344069 -0.0038490803
-0.040904805 0.032381695 -0.28241795 0.13195348 -0.09529891 0.02957786 -0.03367838 -0.08547069
0.027077064 0.020630302 0.18157847 0.011785631 -0.03762412 0.03387681 -0.28047675 0.03149516
0.13257608 0.24967127 -0.005930747 0.24444479 0.07293244 0.043291036 -0.13482775 0.23258524
-0.00645586 -0.5458952 -0.032224033 -0.09751946 -0.05943334 -0.018492844 0.047232136 -0.4426199
-0.0018464384 -0.056769263 -0.14269939 -0.1603404 0.19114605 -0.25265363 0.031701777 0.43454218
-0.22053531 0.13708526 0.09020278 -0.07415426 0.06762107 -0.047890056 0.11779181 -0.0098313065
-0.14255746 0.07647181 0.004375032 0.024902906 0.13305785 0.075920306 0.0007478454 -0.03718647
0.020728292 0.0923905 0.24314705 -0.19594957 -0.18136837 -0.06252567 -0.047801744 -0.022947997
-0.25602433 -0.010657409 0.020771869 0.06762153 -0.014541528 -0.09821282 -0.021374276 0.2484467
00000000: 024a 18be bf77 923c 9d74 fdbc 80e7 553d
00000010: 6614 e03d f197 0c3e 8d37 d9bd c586 0fbf
00000020: be75 4a3c 42a4 93bd 43e8 e1bd 94df df3d
00000030: 4872 7a3d 6cfc d53d 595d c3be 72bc b8bc
00000040: da84 61bd 7e5f cfbc e63a 7b3d 377a 7ebe
00000050: 5993 903d bea1 9d3e 4c33 c5be 942c db3d
00000060: fe6b 3fbd 2bd7 6c3c 1318 3bbe 473f 813c
00000070: c8af 0a3d 6f7f b5bd afdf 853c ea26 80bd
00000080: 4d67 a0bd 6b19 f6bc f0b3 053e f21d 8c3e
00000090: 4455 bd3d 4540 dc3c 2b8a 60bd 0bb1 903d
000000a0: d698 e0bd 8908 843d e274 ea3b e60e 85bb
000000b0: 645d bc3d b662 3d3d 913c 6e3c dd94 2fbd
000000c0: b72e 3cbd 09f7 2ebe c52f d4bc 9bed 1cbe
000000d0: 17c3 023d 6be2 c63d 54bb cd3d 500c a7bd
000000e0: fafb c03c 6e15 1b3c e199 7d3e d11d f63d
000000f0: 3294 7c3e 54e9 143d 14f5 edbc 476d c03c
00000100: 368e dfbd c8c2 8e3c 616a 85bc 8946 f2bc
00000110: 350f 89bd 082d 443b f3a1 7a3d 1970 0fbc
00000120: a41c 003e 0ad9 9bbd 7e5d 4dbc 61f3 c53d
00000130: 9ba5 df3d 5020 a93c 93ab b4be 71d2 22be
00000140: c355 d8bb 1e0f 2abe 82b4 9439 5aeb a83d
00000150: bbde f33c 9a57 adbc 5f4a 8e3d 43da e7bd
00000160: 65fa 85bd 34c1 4abd c7bd ffbc 699b e1bd
00000170: 983c c5bc 657d 133f 7e97 103c 5327 f7bc
00000180: 6bfa 1b3e 7a10 333d e841 593d 4e00 e03b
00000190: 7beb 113c b927 0e3d fbf3 0cbc f69b 8e3c
000001a0: f262 733e 9db5 38bd 556b a9bb 97f5 073d
000001b0: 0125 4fbe 9e74 933e 37ca e73c aa91 c6bd
000001c0: 9a7c 6f3d f3b4 e93c af90 17be abb3 16bd
000001d0: 2188 8cbb 2921 eabc 29d5 063d 682d dcbd
000001e0: af24 ddb9 d578 e4bc 2133 613c 91af 4c3d
000001f0: 3f55 0cbe 86e3 b7bb 5ef6 fabb 5a44 c73d
00000200: 447c 89bd 0944 c43d 58c7 1ebd 8f45 86bb
00000210: a891 3c3d 1875 dcbc b514 a6be fde3 463d
00000220: 0b31 d5bb 43dd a3bd 1e04 23be 1431 c23e
00000230: e274 093d 8aea a4bd 6d72 4e3e 3fc2 073e
00000240: 855f d13c fedb 4dbc be4b 8b3d 4152 6d3e
00000250: 5377 d63c ae25 a6bd 6ce9 483e bc66 e6bd
00000260: e664 113d da83 e03a 1225 e1bd b2ae 053d
00000270: 54d6 2fbd 19b1 0d3b 430c 18bc 2935 4d3e
00000280: d3ec 343e 8f19 e2bd bf68 fcbd 1094 22bf
00000290: 833c 3b3e d2b5 043d 73a3 5e3e 50b8 953a
000002a0: 777a 0d3e 7d1e 0a3e a8db 483e f4c0 c2bd
000002b0: a0d5 363e 64ea 353d 6f29 d9bc 4395 b03c
000002c0: 0322 a63d 2026 68be 2dc8 3d3b 8882 993e
000002d0: c430 213e a654 883d ff5c 273e da40 7cbb
000002e0: cc8b 27bd aba2 043d 1699 90be d01e 073e
000002f0: 132c c3bd 454d f23c 57f2 09bd 420b afbd
00000300: b8d0 dd3c e100 a93c b5ef 393e 8518 413c
00000310: c01b 1abd 69c2 0a3d a69a 8fbe 1201 013d
00000320: 06c2 073e d3a9 7f3e b656 c2bb bc4f 7a3e
00000330: 9a5d 953d f151 313d 4910 0abe d32a 6e3e
00000340: ae8b d3bb cabf 0bbf 59fd 03bd 48b8 c7bd
00000350: 6070 73bd 4e7e 97bc 7c76 413d 139f e2be
00000360: 3104 f2ba e386 68bd ca1f 12be 4630 24be
00000370: cabb 433e d15b 81be b9d9 013d 507c de3e
00000380: 02d4 61be 1460 0c3e 3cbc b83d 30de 97bd
00000390: ea7c 8a3d 5d28 44bd d53c f13d 7d13 21bc
000003a0: 95fa 11be 419d 9c3d 6e5c 8f3b 2e01 cc3c
000003b0: 5140 083e 1b7c 9b3d 0e0b 443a d750 18bd
000003c0: 61ce a93c 3b37 bd3d 8afb 783e 01a7 48be
000003d0: a1b8 39be 750d 80bd c3cb 43bd 70fd bbbc
000003e0: 9f15 83be 6a9c 2ebc c429 aa3c 287d 8a3d
000003f0: 973f 6ebc ce23 c9bd 1b19 afbc d068 7e3e

bias f4 [8]
0.018334106 -0.041525528 -0.012774427 -0.018263754 0.07621625 -0.017739711 0.021294663 5.5819197
00000000: 6831 963c ac16 2abd d54b 51bc de9d 95bc
00000010: 4417 9c3d df52 91bc 2572 ae3c 169f b240
