logs/bc_state/checkpoints/ckpt_latest.pt (torch, 166064 bytes, 8 tensors)

bias f4 [128]
000000 9e ff 8c 3d 48 12 08 bd 2f 0b 5b bd 1d 26 54 3d
       0.068846926 -0.03322056 -0.053477462 0.05179416
000010 f7 c5 aa bb ce 45 08 3d 53 f4 80 bd 34 e5 68 bd
       -0.0052115875 0.033269696 -0.06296601 -0.05685921
000020 47 a8 4f bd 0b 61 f1 bc 6f 24 0d 3d a3 bb 65 bc
       -0.05069759 -0.029465219 0.034458574 -0.014021787
000030 86 57 5d bd c2 a1 42 bd f4 79 8e bc 3e 99 b0 bc
       -0.054038547 -0.047517546 -0.017392136 -0.021557447
000040 fa 4a f1 3c ff 8c ba 3d 4d 15 14 3d 33 3a 87 3d
       0.029454697 0.09108924 0.036153127 0.066028975
000050 97 dd 7e bb a5 79 95 bd ba 4a 72 bd 01 6d 8a 3d
       -0.0038889402 -0.072985925 -0.059153296 0.06759072
000060 ff c8 87 bd 93 6f 71 bd 2c 80 78 3c 92 9b cf 3d
       -0.06630134 -0.058944296 0.015167277 0.101370946
000070 8f a6 97 bb 96 c5 21 bd 79 c9 35 3d 00 00 00 00
       -0.0046280096 -0.039495073 0.044381592 0.0
000080 2d 75 e6 3c 7e 85 fd 3c a1 ca 8e 3c 0f 47 8f 3d
       0.028132046 0.030947443 0.017430605 0.06995975
000090 ea b8 0b 3d d0 d2 0d bd a1 aa 9b bd 25 d3 de ba
       0.034111895 -0.034624875 -0.07600904 -0.0017000182
0000a0 c9 2a b7 3d b4 5f b0 3d 00 00 00 00 cf 9e bf b9
       0.089437075 0.08612004 0.0 -0.0003654868
0000b0 4b 68 d2 bc 9f fd 2a 3d 64 09 96 3d ff 5d b5 bd
       -0.025684496 0.04174578 0.0732601 -0.08855819
0000c0 00 00 00 00 6e 7b bf bc 68 60 f5 bc 9c a5 27 3d
       0.0 -0.023374286 -0.029953197 0.04092942
0000d0 f7 3a 1a 3c 1b 5d 3e bd c5 f5 ac 3a 1d 44 bb bc
       0.009413472 -0.04647551 0.0013195804 -0.022859627
0000e0 d1 64 4a 39 48 88 df 3a 8e ee 22 bd c9 4a 88 3c
       0.00019301778 0.0017054165 -0.039778285 0.016637223
0000f0 64 4c b7 3d 37 b3 02 bc f8 9e 08 bd c9 34 b8 bc
       0.08950117 -0.007977298 -0.03335473 -0.022486107
000100 85 8a 56 bd eb 6c 13 3c ef d4 10 3d 66 ab d0 3d
       -0.052378196 0.008998136 0.03535932 0.10188942
000110 d1 6f 90 bc 03 e8 2b bd 0b 0c 72 bc 37 d4 9f bd
       -0.017631443 -0.04196931 -0.014773379 -0.07804149
000120 80 d0 2f 3d 8c 81 84 3c 9e 11 3e 3d 47 0f 33 bb
       0.04292345 0.016175054 0.04640352 -0.0027322338
000130 b5 30 d1 3c 52 50 b1 3d f7 ad ba bc d9 ad 78 3b
       0.02553592 0.08657898 -0.022788031 0.0037945418
000140 44 e9 6f 3d 4b 8e ac bd fe b2 79 3d 7e 08 b8 ba
       0.05857207 -0.08425578 0.060961716 -0.0014040617
000150 30 58 45 3d ba 7a c8 3c 2a 3d 0d 3e 61 38 b5 bc
       0.048179805 0.024472583 0.13792863 -0.02212161
000160 43 d7 95 bb 08 9e d3 3d d6 5a ca 3c 85 78 0e be
       -0.0045727803 0.103328764 0.024701517 -0.13913162
000170 f9 48 a0 3b 44 6e 31 bc 44 3f 40 3d 54 ae 57 bc
       0.0048915115 -0.010829512 0.046935335 -0.013164122
000180 98 5b 23 ba 36 3c f1 bd 4a 92 68 3d 43 7d af bc
       -0.0006231605 -0.117790624 0.056780137 -0.021422034
000190 60 5e 54 bd 80 0d 7f 3d 14 71 91 3b 03 a0 79 3d
       -0.051847816 0.062268734 0.004438529 0.060943615
0001a0 fc c6 9f 3c ff 9b d4 3d 1b d0 08 bc 1b 80 6c 3d
       0.019504063 0.103813164 -0.008350397 0.05773936
0001b0 4b af 76 3d b9 08 a0 3c 2e a3 8e 3b d2 b1 d0 bc
       0.060225766 0.01953541 0.0043529486 -0.025475416
0001c0 74 b9 65 3d 38 ad 84 3d c8 fc 78 bd 8f fc 8b 3d
       0.056085065 0.06478351 -0.060787946 0.06835281
0001d0 71 3f bb 3c e0 c3 62 3d bf ac 8e 3d fe 9d e6 bc
       0.0228574 0.055362582 0.069665425 -0.028151508
0001e0 ae 65 39 bc 7e a5 ce bb 68 a7 c3 3d 53 e9 1a bb
       -0.011315746 -0.0063063493 0.095534146 -0.0023637607
0001f0 31 23 9b 3c 26 75 7c bd ae 1d 6a 3d 51 7e 51 3d
       0.018937679 -0.06163516 0.05715721 0.051145855

weight f4 [128, 26]
000000 65 9c 30 3c 38 6a 91 be fe 87 3d 3e 69 e6 98 3d
       0.010779475 -0.2840135 0.18508908 0.07465822
000010 fc 81 a5 3b 00 09 2e 3e 01 5c ab bd 0e dc e3 bd
       0.0050508957 0.1699562 -0.08367158 -0.111259565
000020 cf 7f 26 be d7 d1 92 3e 0d 7f 6f 3e 39 5a 8d bd
       -0.16259693 0.2867572 0.2338831 -0.06901974
000030 f2 25 63 be 82 47 b1 bd c4 75 65 3c 96 17 ab be
       -0.22182444 -0.08656217 0.014005128 -0.33416432
000040 c8 a7 48 bc ec 5c 17 bd 57 a7 5c 3e 3b 3f b7 bc
       -0.012247033 -0.03695385 0.2154821 -0.022369018
000050 cd aa f1 bd 0a 7b 03 bd 9a 05 d3 bc 58 fa cf 3c
       -0.11800156 -0.03209976 -0.025759507 0.025387928
000060 fe cd 55 be 10 b2 2f be d5 5e eb bc db 2e 2d 3e
       -0.20879361 -0.17157769 -0.028731743 0.16912405
000070 ed 4c 49 be 46 5e 79 bd 70 f1 ba 3d 30 22 86 3d
       -0.19658251 -0.06088092 0.09128082 0.065494895
000080 46 ec c3 bd 32 ad 01 3e 4c 56 35 3e 0e 62 56 be
       -0.0956655 0.12663725 0.17708701 -0.20935842
000090 a5 fe 3d bd 3b 99 4b bd 95 66 bb 3b 09 8d 01 3d
       -0.046385426 -0.04970668 0.005719016 0.031628642
0000a0 d4 b3 81 3e be ed 29 3f fc d6 bb bd a0 09 82 3e
       0.2533251 0.6637839 -0.091718644 0.25397968
0000b0 47 61 43 3e a6 73 8b 3d 44 c0 c7 3d a7 16 a2 bd
       0.19080077 0.068091676 0.09753469 -0.07914477
0000c0 68 2b ac 3d cf d2 c9 bd 54 2c 41 3e b4 87 ce 3e
       0.084067166 -0.09854662 0.18864566 0.40337908
0000d0 f7 76 a2 be be 21 d2 3d d6 94 19 3e a2 e8 0a be
       -0.31731388 0.10260342 0.14998183 -0.13565305
0000e0 fd 42 d2 3d cf c2 36 be 76 d7 2f 3e 79 3b b6 bd
       0.10266683 -0.17847751 0.17172036 -0.08898062
0000f0 05 92 11 3e c7 b3 8a 3e e7 61 80 be f1 20 5d 3e
       0.14215858 0.27090284 -0.25074694 0.21594597
000100 18 12 55 bd 44 00 5e bc 13 5c 52 bd 4b b7 43 bd
       -0.05201921 -0.013549868 -0.05135734 -0.047782224
000110 40 1d ab 3d 9a ce 72 be 19 a1 38 3e 2f c3 60 3d
       0.08355188 -0.23711625 0.18030204 0.05487364
000120 76 f3 9c bb ee 8e a7 bc cf 27 13 3e ee 2c c6 be
       -0.004789765 -0.020453896 0.14370655 -0.38706154
000130 ab e6 e9 3b be fc fc bd 79 56 aa be 41 f8 56 3f
       0.0071380935 -0.12352894 -0.33269098 0.83972555
000140 2b de 0f 3e d5 32 0c be 7e f6 31 3e 1a 38 17 3e
       0.14049594 -0.13691266 0.17379186 0.14767495
000150 f7 db 41 3e 91 39 43 3d f0 9c 25 3e fd 08 c9 bd
       0.18931566 0.04766232 0.16173148 -0.098161675
000160 3b 65 19 3c 48 47 a8 3d f8 b7 7f 3e 0e 5f 08 3d
       0.009362514 0.08216721 0.24972522 0.033293776
000170 55 f4 c6 3b 20 45 2f 3d 7a 6c c8 3d 7b fc 0b 3e
       0.006071607 0.042790532 0.09786315 0.13670532
000180 e4 1a ca bc 8e 0d 00 be b5 f2 02 be 39 29 c2 3d
       -0.024671026 -0.1250517 -0.12787898 0.09480519
000190 18 50 8f bd 3c a8 1d bd e6 be a7 3d 41 28 b6 3d
       -0.069976985 -0.03849052 0.08190708 0.088943966
0001a0 9c 69 57 3b bf a9 0c 3e a0 f8 fc 3d 95 36 53 3d
       0.0032869345 0.13736628 0.12352109 0.051565725
0001b0 f3 b7 00 be af 6a 56 3e 16 20 d3 bd 32 cf 2d 3e
       -0.12570171 0.20939134 -0.10308854 0.1697357
0001c0 89 01 96 3d e8 0e 85 be 87 3f de bc 46 49 1a 3e
       0.073245116 -0.25987935 -0.027129902 0.15067014
0001d0 2b b9 d9 3e 24 0e ca bc 50 93 91 3c 12 7f 47 3e
       0.42524084 -0.024664946 0.01777044 0.19482067
0001e0 59 9f 85 bd b4 66 2e be 0f be a6 3d 06 43 90 3d
       -0.06524534 -0.17031366 0.081417195 0.07044034
0001f0 6c 82 40 bd ca b4 af bd ab 74 07 be 98 ca 14 be
       -0.04699938 -0.08579405 -0.13228099 -0.14530408
000200 de 8f 7f 3d 4a 6c 03 be 50 5e 83 bd 42 21 1b be
       0.06239306 -0.12834278 -0.06414473 -0.15149406
000210 c8 80 41 be 97 07 d6 3c ac c5 25 3e e7 dd 75 bd
       -0.18896782 0.026126666 0.16188687 -0.060026076
000220 c2 e2 1c be 13 54 39 3d 97 07 19 be a1 6e 61 3e
       -0.15320876 0.045246195 -0.14944302 0.22014858
000230 48 59 dd bd 57 bb df bd 72 e6 b1 3d 33 e7 38 bc
       -0.10808045 -0.10924404 0.08686532 -0.011285591
000240 8c 41 f4 be 17 a8 04 3f 73 62 fe bd 4c 45 8d 3c
       -0.47706258 0.51818985 -0.124211214 0.017244957
000250 10 bc eb bc b7 f0 ec 3d 74 3b df 3d 94 35 a3 bc
       -0.028776199 0.1156935 0.10900012 -0.019923009
000260 e6 dc 16 be 92 73 06 bd 83 6a 15 3f 39 b0 02 be
       -0.14732704 -0.03282506 0.5836565 -0.12762536
000270 88 1b 00 bf 5a d7 11 bf 5e e8 3b bd 12 bc b4 3d
       -0.5004201 -0.56969225 -0.0458759 0.08824934
000280 7e c3 2a be 87 7b 6b be 70 b8 8f bd 0a 14 04 be
       -0.16676137 -0.2299634 -0.070176005 -0.1289827
000290 ab 94 ed 3d 27 36 9e 3b 0a 62 f1 bd c8 dd 38 bd
       0.11600622 0.004828233 -0.117862776 -0.045133382
0002a0 5a 0a 53 be 51 09 ca ba ab 68 7c 3d b2 49 f4 bd
       -0.20609418 -0.0015414153 0.061623257 -0.11928119
0002b0 58 23 2f 3e ba e9 43 3e d1 3e 1d 3e 30 d8 e1 3c
       0.17103326 0.19132128 0.15355994 0.027568907
0002c0 4f a1 9b 3c d8 1c d6 3d fd bc 2e be d0 5e 19 be
       0.018997816 0.1045472 -0.17064281 -0.14977574
0002d0 b1 c6 4e 3e 85 05 0e 3e 06 27 1e 3c b0 47 48 be
       0.20192982 0.13869293 0.009652859 -0.19558597
0002e0 b7 20 04 3c 58 20 5e bd d1 f8 39 3e 78 88 9b 3d
       0.00806444 -0.054230064 0.18161322 0.07594389
0002f0 91 40 e2 bd 4a 15 50 3d ff 21 a0 bd fb 90 ca 3a
       -0.11047471 0.050801553 -0.07818984 0.0015454584
000300 79 df db 3d 52 34 38 be b2 29 33 bf fe 23 d9 3d
       0.107359834 -0.17988709 -0.69985497 0.10602568
000310 51 14 c7 3e 57 a2 82 3e 7c 92 35 3e 0e a6 fa bd
       0.38882688 0.2551448 0.1773166 -0.12238704
000320 eb 00 cf bd af 29 82 3d e9 88 ae bc 55 92 f2 bd
       -0.10107597 0.06355607 -0.021305518 -0.11844317
000330 ae 6d 1d 3e 79 f7 eb 3e 29 ef 8a 3e ab 70 1f be
       0.1537387 0.46087244 0.2713559 -0.15570323
000340 f9 45 d5 be 5e 66 b0 be be 8a 1b be 30 60 65 bd
       -0.41654947 -0.344531 -0.15189645 -0.055999935
000350 ce 09 2f 3e 38 f1 45 be ad a7 0d be f3 f3 fa bc
       0.17093584 -0.19330299 -0.13833494 -0.030633902
000360 fe 2a 04 3e 56 ee f3 3d 63 e5 ca 3e ab d0 15 be
       0.12907025 0.11910693 0.39628133 -0.14630382
000370 af 03 f0 3d d2 fc b3 3d ec 37 bf be bd 07 d9 3d
       0.117194526 0.08788456 -0.37347353 0.10597179
000380 57 ef 07 3e d6 1e 29 3e dc 61 57 3e a0 93 d9 3c
       0.13274895 0.16515669 0.21033424 0.02655965
000390 62 09 98 3b 06 9e 88 3d 72 3a 2d 3e 93 72 d5 be
       0.0046397904 0.066707656 0.16916826 -0.41688976
0003a0 77 54 83 3d c1 64 1f 3e d1 6b 3c 3e 76 b1 34 3f
       0.06412595 0.15565778 0.18400504 0.70583284
0003b0 7a 01 b4 bc d5 cc 90 ba ab 75 a2 bd 72 48 20 3e
       -0.02197336 -0.0011047373 -0.079326 0.15652636
0003c0 c3 fc 41 bd ac f3 c8 bd 4e 01 32 be dd 16 76 be
       -0.047360193 -0.09812102 -0.1738331 -0.24032159
0003d0 e0 ff 1c 3e 02 24 a9 3d 69 a8 ad 3c 5c d7 c1 bd
       0.15331984 0.08258821 0.021198468 -0.09464905
0003e0 a4 a8 d6 3d e5 5f 64 be 35 8b 7a bd 5e 86 8b 3e
       0.104813844 -0.22302206 -0.061167914 0.27250952
0003f0 27 3b 51 3e b3 0c 4d bc a9 9b 1e be f2 04 e6 3d
       0.20432721 -0.012515235 -0.15489067 0.11231412

bias f4 [128]
000000 ad a5 38 3b 4a 99 02 3c 2a d1 ba bd f0 24 db bc
       0.0028174922 0.007971117 -0.09121926 -0.026751012
000010 47 11 86 bc de 9a 98 bb b8 15 1e bd 66 cd b9 3b
       -0.01636566 -0.0046571335 -0.03859493 0.0056702374
000020 e0 cb 2c 3d 99 c9 94 bd 0c 68 35 3d ea 18 e2 3c
       0.042186618 -0.07265014 0.04428868 0.02759977
000030 10 95 87 3b 95 b0 4e bb 46 4f 2e 3c e2 1b f7 bc
       0.0041376427 -0.0031538357 0.010639017 -0.030164663
000040 26 e6 49 3d 04 98 91 3c 17 b3 d0 bd 71 c6 3a bc
       0.049291752 0.017772682 -0.10190409 -0.011399851
000050 17 39 25 3d ac 1f bc 3c f5 b2 f6 3c 3d 9b 69 3c
       0.04033765 0.022964321 0.03011463 0.014258203
000060 93 5f 1d bd a9 81 33 3c 29 6a d2 bb 45 95 40 bc
       -0.038421225 0.010956206 -0.0064213467 -0.011754339
000070 b4 bd 34 3d 27 df e0 3c e0 23 26 bd 01 4b 5c 3c
       0.044126227 0.027450157 -0.040561557 0.013445617
000080 14 74 df 3c 48 1d 49 bc a9 28 a0 bb 08 40 4c 3d
       0.02727703 -0.012275048 -0.0048876596 0.049865752
000090 f9 03 2a bd 47 ed 9b 3d 4c 22 45 3d ec 20 81 bc
       -0.041507695 0.076136164 0.04812841 -0.015762769
0000a0 3e a9 4a 3d e0 d6 f2 bc 9f 28 03 bd f8 0a ab 3c
       0.04947781 -0.029643476 -0.03202116 0.020879254
0000b0 85 07 84 3d 1e e2 4a 3a b5 a8 06 3d c2 a2 c1 bc
       0.06446747 0.00077393826 0.032875735 -0.02363718
0000c0 0f c2 f2 3b 48 86 be bd 58 93 6a bc f5 eb 68 bc
       0.0074083875 -0.09302956 -0.014317356 -0.014216413
0000d0 d0 1f b7 bc e0 68 bf bc 7d 5e 0b 3c d0 40 b9 bd
       -0.022354037 -0.023365438 0.0085064145 -0.09045565
0000e0 2f 87 3e bc f5 1a 3e bc 94 52 22 bc 64 49 7c 3d
       -0.01162891 -0.011603107 -0.0099073835 0.06159343
0000f0 4a 77 15 bd 0a 01 6e bb 0e 5a 62 bc 7f ab a5 bc
       -0.036490716 -0.0036316537 -0.013815416 -0.020223377
000100 a4 90 10 bd fa e4 12 3c f9 b7 d1 3b ab 33 f2 b9
       -0.03529419 0.008965725 0.006400105 -0.00046196333
000110 ef d0 13 3c 2f aa a0 3c 7f c6 39 bc 0c 93 0f 3c
       0.009021982 0.0196124 -0.011338829 0.008763086
000120 5e 0f c2 3b c4 60 8d 3d 04 31 c6 bc 52 5b 89 bc
       0.005922242 0.06903222 -0.024193294 -0.016767178
000130 7c ec 40 bc 15 11 5e 3c 80 81 eb bb 27 79 3a 3d
       -0.011775132 0.013553877 -0.0071870685 0.045525696
000140 35 df 36 3b 34 51 55 bc d0 9c 98 bc 71 2f 6b bd
       0.0027904038 -0.013019849 -0.018629462 -0.05741829
000150 30 ed cf 3c 87 69 af 3c e6 ac 04 bb 21 3e 8f bb
       0.025381655 0.021412624 -0.0020244657 -0.00437142
000160 4f 49 02 bc 4e cf 98 bc 6c 28 92 3b 9f 81 91 3b
       -0.007952048 -0.018653538 0.004460385 0.004440501
000170 d2 c8 33 bd 4c f5 ab bc 9a ab 99 bc ca 4a 96 3c
       -0.04389269 -0.02099099 -0.018758584 0.01834621
000180 3c ce 5d bd 43 ee e9 3c 38 3a 42 3d 0c d0 0b 3c
       -0.05415176 0.028555995 0.047418803 0.008533489
000190 5f 7d 84 3c 50 4f 41 bc 2e 55 38 bc 91 8f 10 3d
       0.016173063 -0.011798695 -0.011250777 0.035293166
0001a0 72 20 a4 bd 48 d6 b7 ba 81 73 84 3d e1 1b 91 3c
       -0.08014001 -0.0014025653 0.06467343 0.017713489
0001b0 53 8b 1a bc 2f 41 82 bc 5a b2 aa 3b c8 f5 88 3d
       -0.009432632 -0.015900223 0.0052092494 0.06687504
0001c0 1c af 48 bc 09 e4 b4 3c 3a 85 13 3d 61 23 00 3d
       -0.012248781 0.022081392 0.036015727 0.03128374
0001d0 70 58 d7 3c 56 2e e5 bb 11 ae 1e 3d f6 e9 27 3c
       0.026287287 -0.006994049 0.03874022 0.010248652
0001e0 82 29 77 bd 85 02 14 bd c8 06 38 3d 7f ad 5b 3c
       -0.06034232 -0.036135215 0.044928342 0.013408064
0001f0 f5 8d d5 bb 87 81 3e 3d 25 14 14 3b a0 11 0b 3d
       -0.0065171667 0.046510246 0.0022595015 0.033952355

weight f4 [128, 128]
000000 ab cb 8f bb 01 b2 a4 bc b9 68 0f 3e ab f7 bf 3d
       -0.004388293 -0.02010441 0.14004792 0.09373411
000010 91 08 b0 3d 66 07 0d 3d 3f f7 5f 3d 49 e8 ac bd
       0.08595384 0.034430884 0.05467915 -0.084427424
000020 66 5f 4c 3e 2d 09 39 bd 5c ef 0e 3e 8f 34 e5 bd
       0.19958267 -0.045174766 0.13958496 -0.111916654
000030 71 69 00 bd 17 97 29 be 57 c1 f1 bc 44 7b 1d be
       -0.031350557 -0.16561542 -0.029511137 -0.15379053
000040 09 47 03 3d 6a bf 32 3e 67 26 08 be 92 8f ad 3d
       0.032050166 0.17455831 -0.132959 0.084746495
000050 75 23 50 bd 61 63 69 be 65 d8 20 3e 41 72 13 bc
       -0.050815064 -0.22791816 0.15707548 -0.008999408
000060 b5 18 9b bd 56 92 4f 3d e8 b5 c6 3d 25 d3 cc bd
       -0.07573072 0.050676666 0.097026646 -0.1000121
000070 bf 3c 6b 3e 37 f1 fe bd 02 d8 7d 3d be aa d4 3c
       0.22972392 -0.12448352 0.06197358 0.025960322
000080 9c db 76 be 6e eb 90 bc cc b2 0f bd 77 25 f5 3c
       -0.24107212 -0.017690387 -0.035082623 0.029925091
000090 6b 13 d3 3d 94 3c b8 bd 42 6e 52 3e 8c 3b ec bd
       0.10306438 -0.08995929 0.20549873 -0.11534795
0000a0 5b 9a 38 be 6d a6 15 3e 81 ed 57 bd 7e 46 67 3d
       -0.18027632 0.14614268 -0.052716736 0.05646371
0000b0 01 09 a8 bb f6 0a fa bd 89 22 cf 3b ec 6e 32 3e
       -0.0051280265 -0.12209122 0.0063212556 0.17425126
0000c0 f3 a0 dc bb bf 11 71 3c a7 12 04 3e 10 63 c2 3e
       -0.006733054 0.014713704 0.1289774 0.37966204
0000d0 61 a6 be 3d c8 f8 ba bd 5c 3b d0 bd f7 f2 de 3d
       0.09309078 -0.091294825 -0.10167572 0.108861856
0000e0 ca fb ab 3d 9d c2 dd 3c a5 a6 a6 3c 20 b7 ee 3d
       0.08397634 0.027070338 0.020343134 0.11656022
0000f0 bd 50 27 3e 01 91 02 be dc cf 89 bd cd 9f 1c 3e
       0.16339393 -0.12750627 -0.06729099 0.15295334
000100 0a d2 40 3d e2 e9 58 be 5e f0 98 bc 76 cc 2c 3d
       0.04707531 -0.21182969 -0.018669304 0.042187177
000110 ef 36 e1 3d 18 cc 45 3e 6e a3 62 3d 81 72 6b 3b
       0.10996806 0.19316137 0.05533164 0.0035926404
000120 bf 1b 9a bb d6 73 6a 3e d0 97 c6 3d 12 02 ee bd
       -0.0047030146 0.2289575 0.09696925 -0.11621489
000130 d5 35 36 3e 6c aa 1d be dd f5 a1 3c 78 ab be bc
       0.17793973 -0.15397042 0.019770557 -0.023275122
000140 27 3a 07 3e 9b 27 99 bd 88 13 a6 bd 99 c3 22 be
       0.13205777 -0.07478257 -0.08109194 -0.15894927
000150 86 8f d3 3e eb 48 34 3d 48 18 d3 3c 48 8b 09 3e
       0.41320437 0.044014852 0.025768414 0.13432038
000160 f8 1f 1c be a9 d9 60 3d 75 ea 6f bd 52 f6 c4 3c
       -0.1524657 0.054895077 -0.058573205 0.024043236
000170 a1 f8 64 3e 8c d7 2c 3e c1 71 15 3d 59 85 07 be
       0.2236047 0.168791 0.036485437 -0.13234462
000180 01 eb 64 3e 63 4e f9 3d 8f a9 0a 3e af ed 1b bd
       0.22355272 0.12173154 0.13541244 -0.03806847
000190 f4 ab cb 3c bf 47 1d 3e e8 9c 8f bd a5 9a ac bd
       0.024862267 0.153594 -0.07012349 -0.084279336
0001a0 7a 8c a4 3d 1f 8b 56 3e ed fa 1e be d2 9c d9 bb
       0.08034606 0.20951508 -0.15525408 -0.006641009
0001b0 1c 39 f1 bc e5 f1 0b bd 4a f9 1d be 3f 44 06 3d
       -0.029446177 -0.034166235 -0.15427127 0.03277993
0001c0 16 8c 05 3e de d0 57 3d 47 95 b5 3d 7c bd de 3d
       0.1304172 0.052689426 0.08866363 0.10875985
0001d0 35 d4 d8 3d de 97 13 3e 77 68 a0 bc dd 90 0b be
       0.1058735 0.14413401 -0.019581063 -0.1362948
0001e0 7e fb f3 bd 43 a2 0d 3e 95 85 0e be b4 e4 02 3e
       -0.11913203 0.13831429 -0.13918145 0.12782556
0001f0 ab 4d f5 3c 7e cf 84 3e 57 bb 65 bd 23 ad 5c 3e
       0.029944262 0.25939554 -0.056086864 0.21550421
000200 90 8a a8 3d 4b b4 69 3e bb ba 5d be 3f c8 2b 3d
       0.08229554 0.22822683 -0.21653263 0.041939016
000210 65 89 1c 3e 01 47 44 be 1e 8e 6b 3e 6d 98 e7 3c
       0.15286787 -0.19167711 0.23003432 0.028270924
000220 eb 9d fd 3d 31 5b 80 bd 38 51 c0 bc 84 9a a4 3d
       0.12383636 -0.062673934 -0.023476228 0.08037284
000230 0d 42 07 be 8a 74 ed 3d 29 34 e8 bd 24 79 9d bd
       -0.1320879 0.11594494 -0.11338074 -0.07689121
000240 25 b3 f0 3c a3 bd 4d 3d ed d4 83 3d d4 7c 3d 3e
       0.029382298 0.05022968 0.06437097 0.1850465
000250 e0 42 34 bd 5a 77 05 be 2d 6c 29 bd e2 29 d9 3d
       -0.04400909 -0.1303381 -0.04136293 0.10603692
000260 07 90 14 bf e3 ed 19 3e 3f 45 26 3e 89 c7 66 3e
       -0.5803227 0.15032153 0.16237353 0.22537054
000270 95 24 28 3b e2 df 6e be b8 7d b7 3d 2c b0 06 be
       0.002565657 -0.23327592 0.08959526 -0.13153142
000280 bf 06 9c be 93 a8 bf bd e8 d7 d4 bd b1 c6 1b bf
       -0.30473897 -0.09358325 -0.10392743 -0.60850054
000290 2c ce 4c bd 47 06 79 bd 4f 57 d1 3d f0 29 57 be
       -0.05000131 -0.060797002 0.10221731 -0.21012092
0002a0 fd a5 20 be f0 16 65 3d 28 2c bb bc d6 d3 ad 3d
       -0.1568832 0.055930078 -0.022848204 0.0848767
0002b0 90 8e 87 3d 83 89 cc 3c 4d ce 38 bd d2 21 d5 bc
       0.066189885 0.024967914 -0.04511862 -0.026017103
0002c0 71 55 8c ba 4c 8b 13 3e b8 68 8f 3d 70 2d b9 be
       -0.0010706616 0.14408606 0.070023954 -0.3616748
0002d0 ab e2 0a bf d3 fa d0 3c eb aa 88 3e 4e f1 cd 3d
       -0.5425212 0.025510227 0.266929 0.10055791
0002e0 00 b3 4b be b1 66 1a be 67 fd 82 3e 15 fa da 3e
       -0.19892502 -0.15078236 0.25583956 0.42768922
0002f0 23 f6 de bd 0b 60 c0 3d 35 8a f0 bd 25 60 ab bd
       -0.108867906 0.09393319 -0.11745111 -0.083679475
000300 54 f3 0f 3c 15 2e e4 3d ce 5c 8a 3d b3 93 93 bd
       0.008786041 0.11141602 0.06755982 -0.07205906
000310 e8 d9 20 3d b0 26 7b bf c6 26 70 bd b7 37 ca 3d
       0.03927031 -0.9810591 -0.058630727 0.09873908
000320 24 bf c6 bd 5a 9c b7 3d 7e 4d 05 3e 48 a6 b4 3e
       -0.09704426 0.089653686 0.13017842 0.35283113
000330 e0 f5 d9 3c b5 93 98 be e6 40 1b be 1b e1 2f bc
       0.0266065 -0.29800192 -0.15161476 -0.010734822
000340 d9 6d 40 3e a9 c6 9d bd 86 c6 54 3d 04 9a 00 3f
       0.18791904 -0.07703907 0.05194714 0.5023501
000350 44 ee 18 3d 4a 05 29 3e bd 2f 5f be 4e 6c 7f bd
       0.037336603 0.16505924 -0.21795554 -0.062359147
000360 87 db 13 be 55 ff 61 3d 39 5f ed bd 94 cb 7a be
       -0.14439212 0.055175144 -0.11590428 -0.24491721
000370 71 48 00 3e ec 88 05 bd 1c 07 17 be 2f e0 1e be
       0.12527634 -0.032601282 -0.14748806 -0.15515207
000380 11 c6 c2 be 83 9a 36 be 4f 9c d4 bc 40 b3 b3 ba
       -0.38041738 -0.17832379 -0.02595344 -0.0013710037
000390 eb 52 0f 3d 6c 8d 3a be 92 26 f2 be 18 ae 29 3d
       0.034991186 -0.1821801 -0.47295052 0.041425794
0003a0 c7 de 7a 3e 62 6b 9e be be 28 fa 3c 9c d6 7a 3b
       0.24499045 -0.30941302 0.030537006 0.003827489
0003b0 34 46 05 3e 03 67 c5 bd 06 e4 09 3e 8d 30 0a be
       0.13015062 -0.096387886 0.1346589 -0.13495083
0003c0 5c f3 26 3b 77 2b b1 3d a2 f6 73 bd 02 de 4e 3e
       0.0025474643 0.086508684 -0.05956138 0.20201877
0003d0 2b 01 6c 3e 7f 78 a6 bc 70 01 5d be 4f f7 8d bd
       0.2304732 -0.020321129 -0.2158258 -0.06931936
0003e0 29 79 ea 3c de 15 db 3d dd 5f 61 be 2d ee 8e 3e
       0.028622227 0.1069753 -0.22009225 0.2791609
0003f0 79 06 3f 3e af dc 72 be 26 9e 70 3c ad 69 c7 be
       0.18654813 -0.23716997 0.014686143 -0.38947812

bias f4 [128]
000000 4d d4 3f bb 9f 33 24 bc 83 32 90 bd ce 58 b4 3c
       -0.0029270828 -0.010022073 -0.07040884 0.022015002
000010 26 87 50 bd bd fa 91 3d 7c 75 b8 bc 9b 65 f1 3c
       -0.050910138 0.07127903 -0.022516958 0.029467395
000020 2f 57 b8 bc 17 61 e7 bc cd 93 5f bc c5 0e a0 bc
       -0.02250251 -0.028244538 -0.013646078 -0.019538293
000030 e7 27 80 bd 8b 8f 38 bc 46 56 53 3c d0 34 2b 3d
       -0.06257611 -0.011264692 0.012898987 0.041798413
000040 8e 0d 02 bd 68 f9 ea bc 94 39 ea 3b 50 9e 0f 3d
       -0.031751208 -0.02868338 0.007147977 0.035063088
000050 a0 a7 b2 3c 02 f4 1b 3d ee 79 d2 3b 25 30 8c 3d
       0.021808445 0.0380745 0.0064232266 0.0684512
000060 00 79 8b bc 32 2e 53 bc bb 8a 74 3c 5a 8c 1a 3d
       -0.01702547 -0.012889432 0.014925654 0.037731506
000070 4c 37 21 3c 0c 81 4b bc 56 fd bb 3d a5 00 2d bd
       0.009839844 -0.012420904 0.09179179 -0.042236943
000080 79 8b 8c bc c0 c3 2b bc 96 b7 de ba bd 5c 82 bd
       -0.01715635 -0.010483682 -0.0016991969 -0.06365345
000090 06 cb 8b bd 4d 3d 9a bc 60 a8 9f 3b 2b 6c a7 3c
       -0.06825833 -0.018828059 0.004872367 0.02043732
0000a0 50 5d 0b bc 26 69 56 bc 83 04 1c bd 3b 9b 47 3c
       -0.008506134 -0.013086593 -0.03809024 0.012183006
0000b0 ce 40 30 3a f2 80 24 bc a6 b0 20 bd 70 da 4b 3d
       0.0006723524 -0.010040509 -0.039230965 0.049768865
0000c0 ba 4d a4 3c 7e 6d ae bc af 8f f5 3b 58 c9 e0 3c
       0.020056594 -0.021292444 0.007493935 0.027439758
0000d0 50 5f 1e 3d 9e ca 2d 3d 4d 6b 78 3d 69 f2 80 3d
       0.038665116 0.04242956 0.060649205 0.06296236
0000e0 c2 40 87 bc 25 e6 df bd 04 66 65 bd 11 a3 4c bd
       -0.016510371 -0.109325685 -0.056005493 -0.0499602
0000f0 fa 15 01 bc 2e 00 2d 3d 62 28 dc bc 3d 0d 29 3d
       -0.007878775 0.0422365 -0.026874725 0.04127239
000100 50 2d a6 3c 86 d0 01 3d d3 38 60 3c df 8a 82 bc
       0.020285279 0.031693004 0.013685423 -0.01593536
000110 d2 52 a4 bc ba c9 83 3a d3 0b 31 3c 35 b0 e2 3b
       -0.020059023 0.0010054626 0.010806042 0.006917978
000120 ca 8f ba bc 8c 15 21 bc 57 4e f3 3c 5b 89 02 3c
       -0.022773642 -0.009831797 0.029700441 0.007967318
000130 ac 3f 01 bd ef 70 af 3c 00 a8 6d bc d3 19 fd bc
       -0.031554863 0.021416156 -0.014505386 -0.030896103
000140 ea e1 be 3c ab 8d c5 bc 6b 9e 21 3c d2 a2 ac 3c
       0.023301084 -0.024115404 0.00986443 0.021073733
000150 5e 14 a2 bc 69 e8 c4 bc 4f 0e b0 bd da 79 2e bd
       -0.019785102 -0.024036603 -0.08596479 -0.042596675
000160 38 a5 2d 3c c7 e1 cd bd 7a dd 81 bd 72 6d 11 3d
       0.010598473 -0.10052829 -0.063410714 0.035504766
000170 6a 5d 81 3c c3 41 2e bc 3f a6 06 bd 7b fa d0 bc
       0.015791614 -0.010635796 -0.03287339 -0.025510063
000180 5d 73 e2 bc 02 4f 14 bd 3f b3 82 3b 19 fb 77 bc
       -0.0276429 -0.03620816 0.003988653 -0.01513555
000190 cb df b2 3a 97 d6 90 bb fc 19 81 bd 18 b3 dd 3c
       0.0013647018 -0.0044201124 -0.06303784 0.027062938
0001a0 1f f7 8c bc dd f3 e9 3c d0 8d 48 3c aa 0d 7c bc
       -0.01720768 0.028558666 0.012240842 -0.015384117
0001b0 36 eb 63 bc 79 bc 92 bc d4 fc 24 3d 1f c6 d6 3c
       -0.013911059 -0.017912136 0.04028018 0.026217518
0001c0 89 ff 7e 3c 9b e9 ea 3c 28 71 d3 3c 09 9f e5 3c
       0.015563854 0.028675845 0.025810793 0.028029935
0001d0 e7 56 03 3d b5 3a eb bb d0 a8 a1 bc 58 be 54 3c
       0.0320653 -0.0071786293 -0.019733816 0.012984835
0001e0 15 fe df bc 2a 0c 43 3d 59 cc 19 bc 18 40 58 3c
       -0.027342835 0.047619022 -0.009387099 0.013198875
0001f0 28 af c6 bc 45 a3 88 3c c6 53 fb bc 3f a5 af 3c
       -0.024253443 0.016679415 -0.030679595 0.0214411

weight f4 [128, 128]
000000 8c 3d 71 bd e8 bf 96 bd 9d 9f c1 bd 61 be 94 3c
       -0.058896586 -0.07360822 -0.09454272 0.018157186
000010 b7 94 ec 3c 45 d0 fa bb 80 d5 66 3d f1 04 06 3e
       0.028879507 -0.007654222 0.056355953 0.13087822
000020 a3 c4 e9 3d 43 da 4f 3e 45 8c 86 3d 3b c6 25 3e
       0.114144586 0.20298104 0.06569723 0.161889
000030 67 a7 b1 3b df c1 99 3d db df 1b be 3c 5a 8c 3c
       0.0054215672 0.07507681 -0.15222113 0.01713287
000040 ca e9 48 3d a2 d9 55 bc 4d ce 93 bc f7 a6 12 bd
       0.049051084 -0.013052376 -0.018042708 -0.03580376
000050 b6 81 5d 3e 12 c2 3f bd 99 7a 39 be d3 64 72 3e
       0.21631512 -0.04681594 -0.18113174 0.23671274
000060 eb e2 89 bd e8 b6 a7 bd d8 79 e9 3d 5c 84 35 bd
       -0.06732734 -0.081891835 0.11400193 -0.04431568
000070 35 93 25 bd a2 0d e6 bc d8 f3 13 be a2 a6 ee 3d
       -0.04042359 -0.028082673 -0.14448488 0.116528764
000080 24 c5 98 bd 17 29 b3 bc cf fc 12 bd 99 d1 7c 38
       -0.074594766 -0.02187018 -0.03588563 6.0276685e-05
000090 70 2f 1b bb ac 45 9c 3b 95 11 52 bd 42 55 3a bc
       -0.0023679398 0.0047690477 -0.0512863 -0.011372866
0000a0 d3 7b 77 be 0c c2 6f 3c 1f 87 a2 bc 38 86 e1 3d
       -0.24168329 0.014633667 -0.019839821 0.11011928
0000b0 00 83 9e 3d a7 30 0c be 73 34 96 bc 21 cc a7 3c
       0.0773983 -0.13690434 -0.018335557 0.020483078
0000c0 e2 1f a4 bd 1e 02 95 3e 91 47 a7 bd 41 0b 80 3c
       -0.08013894 0.29103178 -0.08167947 0.015630366
0000d0 4e 7e 29 be 82 e9 07 be 26 e4 08 3e d9 de 0a 3f
       -0.16552088 -0.1327267 0.13368282 0.5424629
0000e0 29 3e 57 bd ac d5 28 be 6d e6 0c be b5 32 43 3c
       -0.052549515 -0.1648776 -0.13759775 0.011913945
0000f0 39 33 2e 3c 0b 7c 9f bd 89 4f 0d be 5b 82 9b 3d
       0.01063233 -0.07787331 -0.13799872 0.07593223
000100 1e 55 bf 3d 5f 03 58 3d 44 ba 03 be 76 a4 4d 3d
       0.09342407 0.05273759 -0.12864023 0.05020567
000110 bd 29 25 3e cf bd bc 3b e8 78 2f 3e 72 e1 79 3c
       0.16129203 0.0057599316 0.17135966 0.015251504
000120 4c b6 cc 3d 87 85 f8 bd 64 cf 9f bd aa 5b 56 bc
       0.09995708 -0.12134843 -0.078032285 -0.013083378
000130 1c 3b 8b bd ce 81 4f bc 4d be b0 bd 42 1e 1e be
       -0.067983836 -0.012665225 -0.08630047 -0.1544123
000140 e7 53 1f 3e 18 cc e7 3d 9f 3c f6 3d 23 29 b0 be
       0.1555935 0.11318225 0.12023281 -0.34406385
000150 79 b4 19 3e d4 96 b3 3d 60 dd 51 bc c3 40 3e 3e
       0.15010251 0.087690026 -0.012809128 0.18579392
000160 44 1a 2d 3e cb e1 10 bd 87 a0 9b be 2c 39 bd 3c
       0.16904551 -0.035371583 -0.3039591 0.02309855
000170 97 de 03 bd 0e 7d 59 bd b2 c4 6b be dd 21 8d bd
       -0.0321947 -0.053097777 -0.23024252 -0.068912245
000180 58 8c 11 3d c8 67 2a bd d6 52 d7 3d e3 3b d1 3c
       0.035534233 -0.04160288 0.105138466 0.025541252
000190 88 8a cf bd 10 e2 8d 3d eb 8b a3 3c ac 7d 34 be
       -0.101338446 0.069278836 0.019964179 -0.17626065
0001a0 e2 54 14 3e 9f d2 fd bc 24 1b 00 bd b3 4b 42 bc
       0.14485505 -0.030984221 -0.031275883 -0.011858868
0001b0 37 45 2a bd d6 56 07 be d2 77 0e be f9 0f 0f 3e
       -0.041569915 -0.13216719 -0.13912895 0.13970937
0001c0 7c 38 61 bd 33 48 8d 39 94 a0 5f 3e 3b 7f fc 3c
       -0.05498551 0.00026947408 0.218386 0.030822387
0001d0 5a 65 ca bd 59 ac d9 bc 60 52 8d 3e 0f ca 33 3e
       -0.098826125 -0.02657144 0.2760191 0.17557548
0001e0 b3 d7 09 bf 8a b5 cc 3d b2 41 fc 3d 28 76 74 3e
       -0.53844756 0.09995563 0.12317218 0.23873198
0001f0 86 23 d2 3c 95 c4 e3 3c 2b c7 92 3e 56 49 de 3c
       0.025651705 0.027803699 0.28667578 0.027134579
000200 b1 b9 95 3d 5e dd 0e 3e 35 72 86 3d 79 cc 48 3d
       0.073108084 0.13951632 0.06564752 0.049023125
000210 e9 ad 18 bd 85 d2 a3 bc ac 09 10 3e 73 45 de bb
       -0.03727523 -0.019997844 0.1406619 -0.0067831813
000220 e3 ad 81 3d d6 c9 fa bd 44 d3 46 3d 92 12 fb bb
       0.063319944 -0.122455284 0.048541322 -0.007662126
000230 0e ac 16 3b 3e 1b f6 3d 69 8c c7 3d 0a f1 34 bd
       0.0022990736 0.12016915 0.09743578 -0.044175185
000240 7a 37 ff 3d 50 86 2c be f6 87 20 bd 41 62 07 bd
       0.12461753 -0.16848111 -0.039192162 -0.033052687
000250 a8 2d ed bd a0 05 09 be d0 dc de bd 82 b0 05 be
       -0.11580974 -0.13381052 -0.108819604 -0.13055614
000260 bd 0d 0a be eb 94 a6 3d d8 61 a0 bd f5 90 0e 3c
       -0.13481803 0.081338726 -0.07831162 0.008701553
000270 88 80 98 bd ee 35 24 be 36 57 d4 bd e5 3a ee 3c
       -0.074463904 -0.16036198 -0.10368197 0.029080817
000280 1e 32 01 be 74 22 e6 bc 7d a0 45 3d 0f 7b 04 be
       -0.12616774 -0.0280926 0.048248757 -0.12937568
000290 7a cc 48 bd ae 15 fa 3d 9e 28 27 3e cf 69 d5 bd
       -0.04902313 0.12211166 0.16324088 -0.10420572
0002a0 d4 f9 d9 3b 30 fc 54 bc 6b b0 a7 bc 3c c3 9e bd
       0.0066520963 -0.012999579 -0.020469865 -0.07752082
0002b0 3c 4b 2a be ba 94 b4 3d 1c 2e c6 bd dc d6 7f 3d
       -0.16630262 0.0881743 -0.096767634 0.062460765
0002c0 68 5a c5 bd 90 53 1e be 26 e9 0c 3d f6 8e dd 3d
       -0.09636384 -0.15461564 0.034402035 0.10818283
0002d0 1f 8d ab 3d 09 de 77 3d 9f 90 80 bd d2 af ae 3c
       0.08376526 0.060514484 -0.06277584 0.021324072
0002e0 a5 31 38 3d c3 89 9d bd d0 76 93 bc bc 8d ad 3d
       0.04496922 -0.076922916 -0.01800099 0.08474299
0002f0 66 c9 b5 bb d4 f9 17 be 99 8a 91 bd 97 05 22 bb
       -0.00554769 -0.14841396 -0.071065135 -0.002472257
000300 a2 ca 1d bc 54 66 2e be 5b 2e 13 bd 8f ba 1b be
       -0.009630831 -0.17031223 -0.03593288 -0.15207885
000310 19 12 0b 3d fb 18 fc bd ef d5 7b 3d e4 90 75 bd
       0.033952806 -0.12309452 0.06148332 -0.05995263
000320 e8 ec c3 bd 6f 10 36 3c 84 30 86 bd 29 f8 bb bd
       -0.09566671 0.0111123165 -0.06552222 -0.09178192
000330 61 6e 01 be df fd b9 bd 0c ba 18 3e ee 28 8d bd
       -0.12639762 -0.09081625 0.14914721 -0.06892572
000340 e7 c3 01 bd 3e 6f 1b 3e 7c 40 13 bd 3c 2d 15 bd
       -0.031680968 0.15179154 -0.03595017 -0.036420092
000350 c9 e9 87 bd 43 38 c7 3d ae ef 81 3d 19 af cd bd
       -0.06636388 0.09727528 0.063445434 -0.10043163
000360 a1 29 63 bc 35 74 a7 3d 73 ab 2c 3d 43 a3 75 bd
       -0.013864906 0.081764616 0.042155694 -0.05997015
000370 71 76 a4 bc e4 0b 79 bd 11 91 ae 3d 57 df bd bb
       -0.020076009 -0.060802355 0.08523763 -0.0057944464
000380 b3 b6 ab 3d 01 fb a7 3d 6c b3 24 be 28 61 c0 bc
       0.083844565 0.08202172 -0.16084069 -0.023483828
000390 39 2a ed bd 28 7b bc 3d 76 bb 6c bd f9 20 a8 bb
       -0.11580319 0.09203178 -0.057795964 -0.005130884
0003a0 67 41 0e 3d f6 2e 0e 3d f1 b6 97 3d aa 36 ec 3c
       0.03473034 0.034712754 0.0740794 0.02883466
0003b0 60 85 e3 3d a8 50 70 3c a3 cd fe 3d 4f 75 cc bd
       0.11109424 0.014667667 0.12441566 -0.09983312
0003c0 6f 88 c8 bd cb 10 c8 bd 04 65 45 3d d4 fb 9d bd
       -0.09791648 -0.09768828 0.04819204 -0.07714048
0003d0 9f d5 86 3c 88 f5 bc bc 07 f5 ef 3a a4 43 c4 bd
       0.016459284 -0.023066297 0.0018307277 -0.09583214
0003e0 bc 0c d7 bd 53 3f c1 3d 15 7e 33 3c be a7 a4 bc
       -0.10500476 0.09435906 0.010955353 -0.020099517
0003f0 c6 86 17 bd 53 34 1a be a5 20 cf 3a de 82 52 3c
       -0.036993764 -0.15059023 0.0015802576 0.012848584

weight f4 [8, 128]
000000 2a 07 7f 3d 3e 34 53 bd b5 9c 41 3d a0 4e b5 bd
       0.06226269 -0.051563494 0.047268588 -0.08852887
000010 94 ac b9 3d 3b cc 98 bf eb 61 00 bd b1 a5 c8 3e
       0.0906612 -1.1937326 -0.03134338 0.39188913
000020 ce e7 d3 3d 2e 0d 51 bd 9d a6 bd bd 3b 0b 36 3e
       0.103469476 -0.05103796 -0.092602946 0.17777722
000030 c4 50 d2 3e 8d 49 10 3f 13 d3 b2 bd 63 af 3e be
       0.41077244 0.5636223 -0.087316655 -0.18621592
000040 bb 0c 1b bd 1d f1 8a 3d 2d 79 e3 bd d7 4e 1a bc
       -0.037853938 0.0678427 -0.11107097 -0.009418211
000050 0d 5f a0 bd 6f 62 8c be 5f 36 51 bd 6d d2 5f be
       -0.078306295 -0.2741885 -0.051077243 -0.21857615
000060 57 8e 98 3c 92 8a 26 bd 29 6d 3e 3d 58 68 de be
       0.01862256 -0.040659495 0.046490822 -0.43438983
000070 50 68 7c 3d df 72 e2 3c 9d 44 11 3f c5 2d 81 3c
       0.061622918 0.027642665 0.5674532 0.015768895
000080 97 0c 20 bc f9 d9 17 3e 68 e1 aa bd 6d e4 1e be
       -0.009768627 0.14829244 -0.08343774 -0.15516825
000090 9e d4 15 be 01 38 f9 bc fb 5c 63 3d 99 95 76 bd
       -0.14631888 -0.030422213 0.055508595 -0.06020126
0000a0 ad 8e f3 3d cf bf 8e bd 1e 46 f3 be 6b 09 f8 3e
       0.118924476 -0.06970178 -0.47514433 0.48444685
0000b0 ef 59 a8 3c e8 20 62 3d a4 02 a9 bd 5a 20 15 bd
       0.020550696 0.055207163 -0.08252457 -0.036407806
0000c0 63 bf bc 3c 6d ef df bd 9e 03 ca 3c 75 22 c5 bd
       0.023040479 -0.10934339 0.024659928 -0.09625713
0000d0 14 b2 11 bb 63 01 1d be f8 3c a5 bd 6c 99 0e be
       -0.0022231387 -0.1533256 -0.080682695 -0.13925713
0000e0 27 bb c5 bd 3c cd ae 3f b9 86 56 3d be 91 95 3d
       -0.09654837 1.3656383 0.052374575 0.07303189
0000f0 e1 53 b3 be e7 60 11 be 17 68 84 3d e0 73 fa bc
       -0.35024932 -0.14197122 0.06465166 -0.030572832
000100 ac bb 7e be d2 e2 8f bd fe 9c 1e be 1e 20 7b 3d
       -0.24876279 -0.070256844 -0.15489575 0.061309926
000110 f9 89 4a 3d c6 81 24 3d e3 38 49 3e 3d 47 51 3e
       0.049447987 0.040162824 0.19650607 0.20437331
000120 f5 12 81 be b7 4e 47 bd 1c 60 9c bd 53 47 32 3d
       -0.25209776 -0.048659053 -0.07635519 0.04352505
000130 a0 1c bf 3c 7f 32 e8 3c a5 74 12 bf f8 9b 55 bd
       0.02332908 0.02834439 -0.57209235 -0.052150697
000140 0f e1 7b be 1e fa 3b be 44 e4 aa bd 9a 6d 79 3b
       -0.24597572 -0.18357131 -0.083443195 0.0038059712
000150 6e b4 e6 3e 0f d3 a9 3d e9 0d 1c 3e a1 c1 af bd
       0.45059532 0.08292209 0.15239681 -0.08581854
000160 8e ad d9 bc 8d 82 bd 3f 41 84 fa 3d c8 11 8e 3e
       -0.026572015 1.4805466 0.12232257 0.2774794
000170 28 2f 75 3d 14 50 13 3f d6 37 3e 3d e4 90 77 3d
       0.059859425 0.57544065 0.046439968 0.060440913
000180 9a 15 8b 3c 8a 8b 91 bd e6 81 9f bc 76 be 5d bd
       0.016978074 -0.07106693 -0.01947112 -0.054136716
000190 21 60 c4 bd 00 4f 95 bd 36 68 43 3e d2 a9 ba 3d
       -0.09588648 -0.07290459 0.19082722 0.09114422
0001a0 fc c3 b3 3c 2a 0a 35 3d bc 01 87 3d f6 00 84 3d
       0.021944039 0.044199146 0.06592128 0.06445496
0001b0 9f 94 b1 bd b3 fe 95 be 1c 5d 22 3d d3 9a 44 bd
       -0.08670925 -0.29295883 0.039639577 -0.047999214
0001c0 17 4c e1 bd 99 ea bf bd 08 d9 42 be 08 47 70 3b
       -0.11000841 -0.09370918 -0.19028103 0.0036663432
0001d0 6d 0a 8c 3d b6 04 82 3e 48 36 a8 3d f2 b7 58 3c
       0.06837926 0.2539422 0.08213478 0.01322745
0001e0 e9 b7 ae be e9 56 49 3f 2c 07 49 3e 7d 0a 8f be
       -0.34124687 0.7864824 0.19631642 -0.2793769
0001f0 05 81 8f bc fa 6c 56 bd a2 a1 36 3e ba 2b e7 3c
       -0.017517576 -0.052350022 0.17835096 0.028219093
000200 2f 88 08 bd 9b 31 bd bc 37 a5 ae 3d d2 ff d3 bc
       -0.033333 -0.023094943 0.08527606 -0.02587882
000210 10 d9 b5 be d8 bc c0 bf eb 29 1a bd e0 3c 80 3f
       -0.35517168 -1.505763 -0.037637632 1.0018578
000220 cb 75 cf 3d 8e f4 1b 3e be e1 f9 bd 82 1d b5 be
       0.10129889 0.15230009 -0.1220126 -0.35374075
000230 aa a5 cb be 6d d3 96 be 2c a8 15 bb 73 8b 8a 3e
       -0.3977483 -0.2945818 -0.0022835834 0.27059516
000240 8e 40 9d bd ad 49 d2 bb 4f d3 de bd 8d 6d 85 3d
       -0.076783285 -0.0064174742 -0.10880148 0.06515036
000250 95 31 8d 3e 7f e8 64 3e 6a a9 b1 3d af 43 a9 3e
       0.2757689 0.22354315 0.08674891 0.3305945
000260 5a 19 9d bd c7 7e 17 bc ab c4 13 bb 1e 59 e8 3e
       -0.07670851 -0.009246535 -0.0022547643 0.4538049
000270 a0 8f 2b 3d ff 5f 51 3c 17 7e ed 3e a6 a6 a5 bc
       0.04188502 0.012779235 0.4638526 -0.020221066
000280 e8 bb c6 bd 0f d3 09 be 33 f6 13 be 9c 0d 93 be
       -0.09703809 -0.13459419 -0.14449386 -0.2872132
000290 3d 75 24 be e7 1d 5a bc 18 97 a8 3c b0 25 48 bd
       -0.16060348 -0.013312793 0.02057986 -0.048864067
0002a0 57 d1 74 3e ea 20 63 3e d9 4f 97 bf 92 19 45 3e
       0.23907982 0.22180524 -1.1821243 0.19248036
0002b0 c7 eb 10 3d 34 e3 ae 3d 9c 1d 81 3c e0 bc 92 3d
       0.035381105 0.08539429 0.01576119 0.07164931
0002c0 7b da d5 bd 30 96 02 3e 1a c6 9a bd 04 09 77 bd
       -0.104420625 0.12752604 -0.07557316 -0.060311332
0002d0 38 6f 73 3c 27 94 88 bd ac ba 03 be 37 4c 0e be
       0.01485806 -0.06668883 -0.12864178 -0.13896261
0002e0 5e b5 50 3d c5 cd cc bd 30 21 f2 bd 3d 81 bf be
       0.050954215 -0.10000185 -0.11822736 -0.37403288
0002f0 ae da 21 be 4e 5f e9 3e ec 46 6f bc 99 ec 19 3e
       -0.15806076 0.45580524 -0.014604311 0.15031661
000300 a0 f2 3a 3e 44 19 83 bd 10 47 02 3e 18 f1 da bc
       0.18256617 -0.064013034 0.1272242 -0.02672629
000310 26 74 86 bc 5e 2f 07 3c 35 06 07 be c0 28 89 bd
       -0.016412806 0.008251039 -0.13185962 -0.066972256
000320 35 0c fb be 7c 38 08 3d ab dc 74 3d eb 1f 4f be
       -0.4903275 0.033256993 0.059780758 -0.2022702
000330 90 64 87 3e 81 71 d6 3d 1d 2a 29 3f c5 40 44 3c
       0.2644391 0.10470868 0.66079885 0.011978333
000340 6d 2d 18 3e d6 41 c7 be 5d e4 87 bd a6 01 d4 3e
       0.14861079 -0.38917416 -0.06635354 0.41407508
000350 cd aa be be f2 35 a5 bb 07 82 9b be 08 88 a3 3d
       -0.37239686 -0.005041831 -0.3037264 0.0798493
000360 35 0e a6 3d 1a 0d 73 be a3 51 9c 3e 78 8e 6c 3d
       0.081081785 -0.23735467 0.30531034 0.057753056
000370 7b b7 fb bc 13 79 1b be 77 bf 52 3d 73 bd 1c bd
       -0.030727139 -0.15182905 0.051452126 -0.03826661
000380 ea d5 e0 bc 1a f4 ca bc 7c 48 04 3c 96 87 eb bb
       -0.027445752 -0.0247746 0.008073922 -0.007187794
000390 92 7e ac 3c d1 0e 8e bd a1 c4 75 be fa 03 84 3e
       0.021056447 -0.0693642 -0.24000789 0.25784284
0003a0 25 55 76 3c b3 7e d7 3d 23 f3 91 bc 4a 9c f3 3c
       0.0150349485 0.10522213 -0.017816132 0.02973761
0003b0 6b 2b a3 3d 7f ed fb 3e 2a c7 61 3d 02 fc 8e 3e
       0.07967266 0.49204633 0.05512158 0.27926642
0003c0 c6 31 da bc d4 cf 92 3e 4e 2b bc 3e 25 33 56 bc
       -0.026635062 0.28674185 0.3675179 -0.013073717
0003d0 23 a5 01 3e 04 58 d3 be 7f 96 8b bd f6 21 05 3d
       0.12660651 -0.41278088 -0.06815814 0.03250309
0003e0 9d 30 49 3e b5 4d 84 be 24 fb d4 bc 64 71 c4 3d
       0.19647451 -0.25840536 -0.02599866 0.0959194
0003f0 09 6f 37 bc 32 3a 90 3d 2d 9a 99 3d 96 56 88 bd
       -0.011195906 0.0704235 0.0750011 -0.0665714

bias f4 [8]
000000 7a ad cf 3b d6 89 df 3c ab 13 42 3d 1c 99 f3 3c
       0.0063378187 0.027287405 0.047382038 0.029736094
000010 0d 1a 93 3d f8 f1 6e 3d 35 7a 03 bc ea d7 cf 3e
       0.07182703 0.058336228 -0.008024742 0.40594417
