logs/with_reg_full_space/checkpoints/ckpt_4000.pt (torch, 166040 bytes, 8 tensors)

bias f4 [128]
-0.007646871 0.013467157 0.06894943 -0.036254823 -0.04590423 -0.013466618 0.011179897 -0.004323727
0.0011887519 -0.010078512 0.021302512 0.058357704 0.00010880636 0.019505948 -0.030689292 0.15086144
0.100123316 -0.008747989 0.007020749 -0.032024957 0.012790332 0.01014381 0.008555629 0.03546586
0.041163962 0.08293409 -0.022039985 0.023708528 0.046510026 0.004612537 0.04967155 -0.0029669905
-0.0550192 -0.005281827 -0.0060717217 0.18546547 -0.030928649 -0.00047028475 0.054154083 -0.025792986
-0.018241378 0.07834245 0.027875898 -0.03269373 -0.045525827 0.051667105 -0.016699696 0.0046532364
-0.021396933 -0.021107854 -0.037948888 0.0007194881 0.024536781 0.01692189 0.04962682 -0.028295232
-0.02388415 0.03285329 0.019118667 -0.07150311 -0.027219411 0.021447524 -0.014373831 -0.049209073
-0.023120582 0.0011244755 0.03485036 -0.047349747 0.031665068 0.039589427 0.077316895 -0.006992786
-0.0022199505 0.03023826 0.04893292 -0.037137944 -0.042609442 0.08684773 -0.04371053 -0.015899867
0.06727694 -0.0026207017 0.002759768 -0.028930997 0.05757767 0.026620252 -0.009904169 -0.020449348
0.0013384423 0.018123796 0.008175552 -0.044394664 0.002907415 0.008159466 -0.023263644 -0.00820622
-0.026647666 0.038944688 -0.03249963 0.02631051 -0.052590497 0.03936676 0.14804141 0.028807212
-0.021309352 0.12320402 -0.03934966 0.02528037 0.034848146 0.051237132 0.06917474 0.0031092875
-0.04170957 -0.037494525 -0.0041993586 0.10559842 0.051647767 -0.0108565865 0.0090106735 0.024191901
0.08353295 -0.012195482 -0.04993672 -0.0125515 0.10443884 -0.015427769 0.064302765 0.0074492297
00000000: 9a92 fabb 5aa5 5c3c 5c35 8d3d f07f 14bd
00000010: 1306 3cbd 17a3 5cbc e32b 373c 0dae 8dbb
00000020: e5cf 9b3a 5820 25bc 9b82 ae3c 7d08 6f3d
00000030: f82e e438 f0ca 9f3c 1c68 fbbc 6c7b 1a3e
00000040: 740d cd3d ba53 0fbc 500e e63b 9a2c 03bd
00000050: 8a8e 513c 3932 263c e92c 0c3c a644 113d
00000060: 8b9b 283d 59d9 a93d 338d b4bc 6338 c23c
00000070: 4c81 3e3d c424 973b 6574 4b3d d771 42bb
00000080: d05b 61bd 2d13 adbb 4bf5 c6bb a9ea 3d3e
00000090: 145e fdbc 8d90 f6b9 acd0 5d3d d04b d3bc
000000a0: f16e 95bc 0272 a03d ff5b e43c dce9 05bd
000000b0: 4a79 3abd e3a0 533d cdcd 88bc 2d7a 983b
000000c0: 9f48 afbc 61ea acbc 4b70 1bbd 079c 3c3a
000000d0: 5c01 c93c c79f 8a3c 7e45 4b3d 67cb e7bc
000000e0: b1a8 c3bc 2c91 063d c09e 9c3c 3970 92bd
000000f0: 3efb debc b8b2 af3c 3880 6bbc 748f 49bd
00000100: 6067 bdbc 2363 933a 40bf 0e3d cff1 41bd
00000110: 3bb3 013d 8628 223d 5258 9e3d be23 e5bb
00000120: 977c 11bb 3ab6 f73c e36d 483d f51d 18bd
00000130: 3d87 2ebd 39dd b13d d009 33bd 7040 82bc
00000140: 7ec8 893d 14c0 2bbb 39dd 343b b300 edbc
00000150: 90d6 6b3d b712 da3c 1845 22bc 6485 a7bc
00000160: ac6e af3a 5b78 943c c0f2 053c 2ed7 35bd
00000170: 548a 3e3b 48af 053c 6693 bebc 6273 06bc
00000180: 354c dabc 7784 1f3d 551e 05bd 2389 d73c
00000190: 2269 57bd 0a3f 213d 2b98 173e 1afd eb3c
000001a0: f390 aebc 6452 fc3d 1c2d 21bd c718 cf3c
000001b0: eebc 0e3d 07de 513d 7cab 8d3d 30c5 4b3b
000001c0: a7d7 2abd dc93 19bd c69a 89bb fc43 d83d
000001d0: 9c8c 533d d3df 31bc 81a1 133c 182e c63c
000001e0: 5313 ab3d 8fcf 47bc 728a 4cbd cfa4 4dbc
000001f0: 08e4 d53d c1c4 7cbc 2bb1 833d ab18 f43b

weight f4 [128, 26]
0.022539511 0.09737817 -0.18867317 0.16288224 -0.19470727 0.04071237 0.053111535 -0.06863899
-0.09873273 -0.09724533 0.24532528 -0.02181437 0.29730153 -0.056216065 -0.14549045 0.03260803
0.27586862 0.04342049 -0.14320362 0.15307038 0.18765488 -0.12903365 -0.022779314 0.26052055
-0.08312702 0.22966711 0.20575143 0.48722926 -0.10355528 -0.06602897 0.0697406 -0.05801887
0.09608676 0.077119835 -0.10929811 0.11372696 -0.051838383 -0.08714717 0.046240054 0.15584819
0.27115214 -0.22895011 -0.18902367 0.14749828 0.21860991 -0.09202232 -0.10017828 -0.19182302
-0.10755566 -0.055566486 0.15679337 0.031328756 -0.41736618 0.9492107 -0.007479283 -0.17226776
0.17177553 -0.12102206 -0.09892194 0.023621788 -0.15953618 0.0917503 0.12261726 -0.19684222
-0.02255688 -0.10955294 0.044531625 -0.13587596 0.12577423 0.08029337 0.02738224 0.17992087
-0.17638303 0.0044841473 -0.1527436 -0.20000257 -0.08206406 -0.011670848 0.21499234 0.35876247
-0.001633213 -0.1766793 -0.085056305 0.09394608 -0.037074443 0.032851387 0.08091017 0.070699535
0.24644579 -0.1706572 -0.05447719 -0.031893507 0.047688182 -0.32555127 -0.06279314 0.2442169
0.13008304 0.042178493 -0.19408917 -0.017161388 0.15007891 0.03954169 0.19244625 -0.0087302495
0.059758563 0.1232889 0.12042185 -0.16930026 -0.14970917 -0.12797447 0.15237454 -0.17518851
-0.12176622 0.17111969 -0.038140047 -0.045373734 0.21682799 -0.05867844 -0.057186387 0.5030596
0.07710314 0.09569329 0.3035158 -0.010619831 0.13413982 -0.16547789 -0.13633162 0.047789637
-0.16329607 -0.042879146 0.114944704 -0.3046233 -0.118935764 -0.11099805 0.06019292 0.07594437
-0.03775936 0.1636648 0.111004 0.002054555 0.05930569 0.10071737 0.04809451 -0.039221525
0.28605106 0.52000463 0.046355702 0.121149845 0.13085672 0.14525405 0.016091874 0.101571694
-0.06366153 0.00587813 -0.2300145 0.16269855 -0.055654906 0.059582587 0.10728949 -0.18335041
-0.08902634 0.120803654 0.01572447 -0.04716734 -0.15897721 0.18568923 0.06358204 0.19621864
-0.28812104 -0.026422739 -0.24742922 -0.0038579083 -0.2005274 0.11358283 0.112690695 -0.04932028
-0.097161874 0.13248466 0.1936764 -0.33348447 0.27898717 0.0753864 -0.17772092 -0.55804485
-0.06815042 -0.08244393 -0.100374006 0.14657308 0.09052608 -0.077955954 0.07296134 -0.06499106
0.11942185 -0.4434958 0.19412169 0.08743835 -0.31923777 -0.0040414226 0.026535373 0.20982496
-0.12127557 0.015400507 0.08138558 0.18887854 -0.17895608 -0.22414222 -0.08410775 0.17983015
0.13110799 -0.765109 -0.10525367 0.1663204 -0.101259 0.13871184 -0.17317937 0.18264072
-0.03861647 -0.020628558 -0.15148215 -0.1935835 -0.14035456 0.14343268 -0.09024539 0.048450526
-0.04738517 -0.15170807 0.15043588 0.13441217 0.1396768 -0.1502071 -0.18473233 0.120631315
0.24688631 0.23673096 0.0517874 0.32283995 0.13824481 0.15633738 -0.11849729 0.14575055
0.029751003 -0.16019572 0.19149594 0.029948594 -0.17648739 0.045041334 -0.28647792 0.1135922
-0.37639543 0.3643223 -0.20636708 -0.058960706 0.2723903 -0.15131257 -0.188756 -0.06266175
00000000: c8a4 b83c 356e c73d 8a33 41be 9aca 263e
00000010: 5861 47be 04c2 263d 7b8b 593d 9992 8cbd
00000020: 6334 cabd 8f28 c7bd 8d36 7b3e 0db4 b2bc
00000030: e837 983e d142 66bd 73fb 14be ff8f 053d
00000040: a73e 8d3e afd9 313d f8a3 12be 7bbe 1c3e
00000050: 9a28 403e 6621 04be af9b babc f362 853e
00000060: 803e aabd db2d 6b3e 81b0 523e 1d76 f93e
00000070: ca14 d4bd 323a 87bd 29d4 8e3d 32a5 6dbd
00000080: 23c9 c43d 01f1 9d3d b0d7 dfbd aee9 e83d
00000090: 7c54 54bd 377a b2bd 3666 3d3d ab96 1f3e
000000a0: 74d4 8a3e e671 6abe 6c8f 41be ca09 173e
000000b0: 47db 5f3e 3376 bcbd 452a cdbd 416d 44be
000000c0: 2446 dcbd af99 63bd 718e 203e 9552 003d
000000d0: 05b1 d5be 79ff 723f c614 f5bb f666 30be
000000e0: ede5 2f3e 6ada f7bd 9697 cabd 7b82 c13c
000000f0: 745d 23be 95e7 bb3d c21e fb3d 0291 49be
00000100: 35c9 b8bc 4b5d e0bd cb66 363d 1123 0bbe
00000110: f6ca 003e da70 a43d b850 e03c 2d3d 383e
00000120: c19d 34be c1ef 923b d168 1cbe 79cd 4cbe
00000130: 3411 a8bd 1637 3fbc f426 5c3e b7af b73e
00000140: 8911 d6ba 6beb 34be 0032 aebd cd66 c03d
00000150: 5fdb 17bd 2d8f 063d 3bb4 a53d ebca 903d
00000160: 495c 7c3e c3c0 2ebe 7923 5fbd c4a2 02bd
00000170: af54 433d a8ae a6be b199 80bd ff13 7a3e
00000180: 7d34 053e 5bc3 2c3d 50bf 46be 0a96 8cbc
00000190: 49ae 193e 78f6 213d a110 453e 5209 0fbc
000001a0: 65c5 743d e47e fc3d bb9f f63d 0c5d 2dbe
000001b0: 5c4d 19be bd0b 03be 1208 1c3e 9e64 33be
000001c0: 9160 f9bd 003a 2f3e bd38 1cbd cfd9 39bd
000001d0: 2808 5e3e ce58 70bd 463c 6abd 84c8 003f
000001e0: 40e8 9d3d d8fa c33d 6c66 9b3e cdfe 2dbc
000001f0: f35b 093e 0973 29be 849a 0bbe 11bf 433d
00000200: 1637 27be 0ba2 2fbd 2168 eb3d 96f7 9bbe
00000210: 9894 f3bd f252 e3bd da8c 763d b988 9b3d
00000220: 8fa9 1abd bf97 273e 1156 e33d b7a5 063b
00000230: 86ea 723d e944 ce3d c0fe 443d c0a6 20bd
00000240: 4975 923e 061f 053f 7adf 3d3d 691d f83d
00000250: 4eff 053e 7abd 143e 1bd3 833c d204 d03d
00000260: fa60 82bd 549d c03b ec88 6bbe 739a 263e
00000270: 66f6 63bd df0c 743d 98ba db3d 36c0 3bbe
00000280: 7153 b6bd e867 f73d 9bd0 803c 8a32 41bd
00000290: ecca 22be 5125 3e3e 4d37 823d 8aed 483e
000002a0: 9a84 93be 8074 d8bc 165e 7dbe f6d4 7cbb
000002b0: 0e57 4dbe 1d9e e83d 61ca e63d 1004 4abd
000002c0: cefc c6bd 0faa 073e 1b53 463e 7abe aabe
000002d0: 68d7 8e3e 2f64 9a3d 79fc 35be 07dc 0ebf
000002e0: 7392 8bbd 5dd8 a8bd e390 cdbd 4117 163e
000002f0: bd65 b93d 5fa7 9fbd c16c 953d 081a 85bd
00000300: 7193 f43d e211 e3be d6c7 463e e112 b33d
00000310: 2273 a3be e96d 84bb b660 d93c 5bdc 563e
00000320: 535f f8bd 6852 7c3c 7cad a63d 6069 413e
00000330: 4340 37be 8a85 65be af40 acbd 6525 383e
00000340: 2c41 063e 2fde 43bf 3c8f d7bd e54f 2a3e
00000350: e160 cfbd 7a0a 0e3e ef55 31be 2b06 3b3e
00000360: 4e2c 1ebd 39fd a8bc 231e 1bbe c13a 46be
00000370: 1bb9 0fbe 04e0 123e 93d2 b8bd 0f74 463d
00000380: f416 42bd 5c59 1bbe dd0b 1a3e 58a3 093e
00000390: 6f07 0f3e e4cf 19be 792a 3dbe 8d0d f73d
000003a0: c4cf 7c3e 9a69 723e 061f 543d 474b a53e
000003b0: 0c90 0d3e e816 203e b5ae f2bd a23f 153e
000003c0: 60b8 f33c 590a 24be 8317 443e c156 f53c
000003d0: 1cb9 34be 437d 383d 3cad 92be 07a3 e83d
000003e0: e7b6 c0be 7488 ba3e e451 53be c880 71bd
000003f0: be76 8b3e aff1 1abe 4149 41be ce54 80bd

bias f4 [128]
0.05103488 -0.0011532241 -0.04152472 -0.012892913 -0.028626012 0.03373991 0.00911482 -0.011267329
-0.02362841 0.0293167 0.026147598 -0.016425103 0.010758466 -0.027056182 0.034946214 0.037222505
-0.024588572 -0.018260153 0.017642755 0.011263194 0.059490174 -0.019350363 0.07633269 -0.008386747
-0.02387278 -0.00800048 -6.2504216e-05 0.023971597 -0.007758956 -0.0272538 -0.021815863 0.06556174
0.018623097 0.04750223 -0.0037030543 0.039529916 0.020742588 0.03235755 -0.015916059 -0.009149692
0.017444054 0.019568061 -0.0011474036 -0.020043002 -0.04275791 0.008728497 0.12809259 0.015543173
0.077862374 -0.060650934 0.020529557 0.008898552 0.010757252 0.0019587958 0.028970474 0.028784355
0.048678666 -0.04042484 -0.013130712 0.04805042 -0.013096802 0.004661772 0.020140138 0.008738467
0.008531303 -0.0067746136 -0.0139945 -0.045381762 0.0004080962 -0.0049648504 -0.0017699774 -0.037491087
-0.0036065315 0.004505171 0.01474528 -0.0018327902 0.013420261 0.0047112834 -0.021934355 0.018359113
-0.01691624 0.028518975 -0.014511182 0.045166094 0.03824982 0.0241645 0.008754029 0.017391948
0.054871116 0.013008806 0.016907189 -0.006203618 -0.008686856 -0.0072646122 0.011381409 -0.015148706
0.03319403 0.003398071 -0.01637999 -0.053800117 0.037502225 0.045202482 0.0016230807 0.025476389
-0.045709215 0.016590325 0.012330518 -0.0047085495 0.011753232 0.011139916 0.011053505 0.030079985
0.011003326 0.014070102 0.020451944 0.0518948 0.027698848 -0.0656767 0.010359023 -0.04714832
-0.015987093 0.02564518 0.007051963 -0.012183142 -0.0037415982 0.008639652 -0.01618628 -0.00033436515
00000000: f309 513d c827 97ba d315 2abd cc3c 53bc
00000010: 1981 eabc dc32 0a3d 5356 153c 9a9a 38bc
00000020: 5e90 c1bc 9329 f03c 7d33 d63c f08d 86bc
00000030: 4744 303c eda4 ddbc c323 0f3d a076 183d
00000040: f96d c9bc 5196 95bc 8a87 903c 4289 383c
00000050: f8ab 733d a784 9ebc 5054 9c3d 9168 09bc
00000060: d990 c3bc 7214 03bc b214 83b8 1560 c43c
00000070: d73e febb 5c43 dfbc 2eb7 b2bc 3c45 863d
00000080: 778f 983c b391 423d f1ae 72bb 1fea 213d
00000090: 5cec a93c 5a89 043d 6562 82bc 97e8 15bc
000000a0: d5e6 8e3c 334d a03c 7a64 96ba 3931 a4bc
000000b0: eb22 2fbd f801 0f3c b42a 033e cba8 7e3c
000000c0: 4f76 9f3d 1d6d 78bd 9a2d a83c 3bcb 113c
000000d0: 2f3f 303c 245f 003b 7d53 ed3c 2bcd eb3c
000000e0: 4863 473d 8494 25bd 3322 57bc 84d0 443d
000000f0: f893 56bc c7c1 983b eefc a43c c92b 0f3c
00000100: e1c6 0b3c 94fd ddbb 3049 65bc 3ae2 39bd
00000110: bff5 d539 2fb0 a2bb 96fe e7ba 4190 19bd
00000120: 8f5b 6cbb 1da0 933b 3096 713c 3c3a f0ba
00000130: a8e0 5b3c 1c61 9a3b adaf b3bc da65 963c
00000140: ed93 8abc a0a0 e93c 4fc0 6dbc 1500 393d
00000150: d8ab 1c3d a1f4 c53c 0f6d 0f3c 8f79 8e3c
00000160: 89c0 603d e322 553c f280 8a3c b847 cbbb
00000170: 5153 0ebc fc0b eebb 1779 3a3c 4732 78bc
00000180: 77f6 073d 2cb2 5e3b 542f 86bc 835d 5cbd
00000190: ef9b 193d 3d26 393d 8dbd d43a dcb3 d03c
000001a0: 9639 3bbd 6fe8 873c f105 4a3c 2d4a 9abb
000001b0: a190 403c 3284 363c c319 353c 4d6a f63c
000001c0: 4b47 343c 4986 663c d68a a73c a48f 543d
000001d0: b2e8 e23c 8181 86bd e4b8 293c 991e 41bd
000001e0: 5df7 82bc d715 d23c 2714 e73b cd9b 47bc
000001f0: 9a35 75bb 548d 0d3c 1799 84bc bb4d afb9

weight f4 [128, 128]
0.0131536415 0.15299456 -0.23250014 0.10917091 0.15866849 -0.13598582 -0.14524767 -0.21621722
0.056090403 0.17750487 -0.21799839 -0.11017788 -0.07770134 0.030155076 -0.7494917 -0.1655838
-0.012154934 -0.0672815 -0.11985418 -0.10216807 -0.07254767 -0.064762294 0.187862 0.17681111
-0.03354861 0.20887242 -0.2394739 0.23588821 0.31162822 0.13192023 -0.20821097 -0.012928508
-0.10653011 -0.11524025 0.14469059 0.3485247 0.039276537 0.031642914 -0.12399899 0.072759695
-0.038176883 -0.2979604 -0.33404192 0.0940106 0.086797774 0.27631062 0.08187927 0.025354525
0.1071348 -0.09345344 0.00751537 -0.35884628 0.19054925 -0.10584265 0.12393819 0.06187797
-0.0983415 -0.064438455 -0.10987712 0.1080359 -0.0019594727 -0.19469005 -0.050231256 -0.025970768
0.101311654 0.22780679 -0.17887133 -0.14664972 0.058228962 0.13721485 0.027451525 0.14988576
0.12761457 0.19147524 0.05581467 -0.27594042 0.010323772 -0.0060046823 -0.2518807 0.08356602
0.15251584 0.2049068 -0.049246717 0.13492413 0.09364458 -0.11810349 -0.067795895 0.104299165
0.09036601 0.12407642 0.2134493 -0.33343655 0.1322558 0.20386322 0.22483765 -0.24116534
-0.015272138 0.04714217 0.0694534 -0.14723478 -0.03986369 0.094160646 0.042326376 -0.13790026
-0.07124222 -0.24284802 0.1061974 -0.33282918 -0.16142567 -0.025700936 -0.27320594 -0.062144715
-0.017767724 0.080078654 0.011038252 0.34088945 0.09672456 -0.18760468 0.19910556 0.21643552
-0.01486693 0.109461755 -0.024197077 -0.454866 0.03693188 -0.53706867 0.016913481 0.13814147
-0.12071395 -0.09180968 0.67519027 0.10320793 0.18388854 -0.05063485 0.16284 0.19335479
0.13755304 0.031340104 -0.045066945 0.12876703 -0.06681103 -0.13240375 0.04761253 0.07967172
-0.27179986 0.013187327 -0.00086590747 0.07304382 -0.038045224 0.12449297 0.06249051 -0.07067609
-0.20554696 0.29276264 -0.06958149 0.012506499 -0.034813456 0.054696932 0.056057326 0.10484364
0.100279 0.04822213 -0.3747938 -0.43001035 -0.12103201 -0.039914902 -0.1257968 0.066563204
-0.044739757 0.012735526 0.16696416 0.0613925 0.005693579 -0.07671086 -0.3149793 0.0914514
0.069710515 -0.03590994 0.06805598 -0.15307294 0.096514374 -0.20165226 -0.007159083 -0.097598076
0.12437065 -0.23297149 0.5300257 -0.048611842 0.14647137 0.09164139 -0.20048892 -0.27759513
0.1439766 -0.03275092 0.09201117 0.05006027 -0.22224504 0.20816751 0.18045878 0.03558501
-0.17243367 -0.09293173 -0.044411156 -0.46112332 0.07894214 -0.044931654 -0.0127977505 0.101202115
-0.15631194 0.036377132 0.16027418 -0.1501405 -0.09633302 0.12015119 -0.007563717 -0.09197812
0.079513945 -0.10537517 0.14499031 0.31072193 -0.13875231 0.010797658 -0.06605797 -0.12438496
-0.07912827 0.12745886 -0.028822292 -0.06714611 0.035949137 -0.26021478 -0.20806313 0.014493344
-0.073500045 0.013001644 -0.04356111 0.14998363 -0.0055292663 -0.21225241 -0.13636617 0.09895498
0.030828137 0.17984633 -0.120404035 0.16137852 -0.029623508 -0.021158425 -0.1093559 -0.032035947
0.10435122 -0.05545828 0.18755054 0.04947841 -0.061654847 -0.3619727 -0.1652037 0.01783132
00000000: 5f82 573c 9baa 1c3e 8414 6ebe 0095 df3d
00000010: fe79 223e de3f 0bbe cebb 14be 0c68 5dbe
00000020: 0dbf 653d d6c3 353e f83a 5fbe f1a4 e1bd
00000030: e121 9fbd c707 f73c b0de 3fbf cd8e 29be
00000040: 7d25 47bc e2ca 89bd 1c76 f5bd 7e3d d1bd
00000050: df93 94bd 18a2 84bd e55e 403e f90d 353e
00000060: 446a 09bd a7e2 553e a538 75be ae8c 713e
00000070: bc8d 9f3e 1916 073e 4235 55be 18d2 53bc
00000080: 752c dabd 1503 ecbd c529 143e d471 b23e
00000090: 6fe0 203d 009c 013d 2ff3 fdbd 0903 953d
000000a0: 5d5f 1cbd 448e 98be 8b07 abbe a188 c03d
000000b0: 08c3 b13d 9678 8d3e 52b0 a73d 4bb4 cf3c
000000c0: 7d69 db3d 8464 bfbd 7e43 f63b b3ba b7be
000000d0: 581f 433e 08c4 d8bd 4ed3 fd3d c173 7d3d
000000e0: 4567 c9bd 4ff8 83bd 4107 e1bd ed41 dd3d
000000f0: 7f6a 00bb d45c 47be 4abf 4dbd a6c0 d4bc
00000100: 7c7c cf3d 2f46 693e 0c2a 37be 582b 16be
00000110: 7e81 6e3d 0d82 0c3e 05e2 e03c a77b 193e
00000120: 65ad 023e 1612 443e ec9d 643d 1048 8dbe
00000130: 0a25 293c edc2 c4bb 82f6 80be a924 ab3d
00000140: 1d2d 1c3e 17d3 513e edb6 49bd 8d29 0a3e
00000150: bbc8 bf3d 3ee0 f1bd 93d8 8abd cd9a d53d
00000160: d111 b93d c71b fe3d 7492 5a3e 32b8 aabe
00000170: 106e 073e 85c1 503e d73b 663e 0cf4 76be
00000180: fd37 7abc 2618 413d 963d 8e3d b7c4 16be
00000190: 1c48 23bd 4cd7 c03d 6c5e 2d3d ba35 0dbe
000001a0: 71e7 91bd 27ad 78be 067e d93d 9668 aabe
000001b0: c54c 25be c58a d2bc a6e1 8bbe 758b 7ebd
000001c0: 9e8d 91bc 4700 a43d c9d9 343c 1089 ae3e
000001d0: 8717 c63d 711b 40be 54e2 4b3e 46a1 5d3e
000001e0: 6d94 73bc 7c2d e03d f338 c6bc 32e4 e8be
000001f0: e245 173d 557d 09bf 248e 8a3c f574 0d3e
00000200: e038 f7bd b706 bcbd 45d9 2c3f ae5e d33d
00000210: 474d 3c3e 7d66 4fbd 87bf 263e ccfe 453e
00000220: b4da 0c3e 7b5e 003d 1e98 38bd 81db 033e
00000230: 39d4 88bd d994 07be 5b05 433d ed2a a33d
00000240: 5a29 8bbe a90f 583c 11fe 62ba 0098 953d
00000250: 4fd5 1bbd 2cf6 fe3d 0df6 7f3d a0be 90bd
00000260: e77a 52be fce4 953e bd80 8ebd 0fe8 4c3c
00000270: 8e98 0ebd e409 603d 5e9c 653d 43b8 d63d
00000280: 145f cd3d 9184 453d f9e4 bfbe 512a dcbe
00000290: a1df f7bd cf7d 23bd e0d0 00be 4a52 883d
000002a0: 0941 37bd aba8 503c a7f8 2a3e b476 7b3d
000002b0: 3491 ba3b 951a 9dbd f844 a1be df4a bb3d
000002c0: 63c4 8e3d 4d16 13bd ef60 8b3d 27bf 1cbe
000002d0: 54a9 c53d ee7d 4ebe be96 eabb 80e1 c7bd
000002e0: 0ab6 fe3d 1490 6ebe c4af 073f 361d 47bd
000002f0: 97fc 153e 7bae bb3d f84c 4dbe f320 8ebe
00000300: 9a6e 133e d425 06bd 5a70 bc3d ff0b 4d3d
00000310: 3494 63be dd29 553e 30ca 383e 96c1 113d
00000320: 7492 30be fe52 bebd 79e8 35bd 5b18 ecbe
00000330: 6bac a13d 410a 38bd a8ad 51bc 0e43 cf3d
00000340: 3d10 20be 3000 153d ea1e 243e 6ebe 19be
00000350: 3f4a c5bd d411 f63d 0fd9 f7bb 065f bcbd
00000360: 35d8 a23d f0ce d7bd 5778 143e f216 9f3e
00000370: 1615 0ebe a9e8 303c 6749 87bd 8bbd febd
00000380: 010e a2bd 9384 023e ba1c ecbc e683 89bd
00000390: 673f 133d df3a 85be 800e 55be 7e75 6d3c
000003a0: 3187 96bd d904 553c 226d 32bd 4f95 193e
000003b0: d92e b5bb b258 59be 93a3 0bbe e9a8 ca3d
000003c0: 4a8b fc3c a329 383e 6496 f6bd 6940 253e
000003d0: 00ad f2bc 6f54 adbc fcf5 dfbd 2038 03bd
000003e0: 18b6 d53d 3928 63bd 400d 403e e0a9 4a3d
000003f0: cb89 7cbd 7c54 b9be 292b 29be fd12 923c

bias f4 [128]
-0.014158509 0.009139157 -0.048264727 0.0061924276 0.026696369 -0.019381108 0.016730407 0.049868505
0.0034254289 0.019297212 0.01659211 0.06389404 -0.007277868 0.020802572 0.0137135945 0.038306367
0.017645154 0.0256242 -0.088748395 -0.024141913 0.03186617 0.041333493 0.0049082274 -0.033195075
-0.011951651 0.015689705 0.013537086 0.054192044 -0.02262508 0.020843092 -0.008010815 0.009331149
-0.021860546 -0.014835828 0.034213103 -0.03248448 0.0057375818 -0.044344354 0.048587084 -0.08623817
-0.034422897 -0.014085176 0.011309038 0.024777895 0.031105123 0.0045739235 0.0052819205 0.01057913
0.02796842 -0.013656017 -0.0046446957 0.021537866 -0.033685125 0.024357773 0.0202161 -0.0068699024
0.01912462 -0.021959623 0.011689519 0.018701406 -0.01412855 -0.0043052235 0.0264471 0.025463743
0.032719675 -0.023546685 -0.010352 -0.013681622 -0.00939465 0.006813921 -0.0009311038 -0.030426146
-0.014860056 0.004183506 0.0060462565 0.008434366 0.028883541 -0.010183919 0.031463392 0.024913037
-0.017480101 0.052360807 0.019197613 -0.02300684 -0.052900452 0.024180239 -0.025535176 0.022695372
-0.0077332477 0.030627118 0.023707101 0.024385482 0.023873126 0.014973833 0.06432907 -0.00851043
0.00082785514 0.021535454 -0.04270504 -0.0017831605 0.022126378 0.06719278 -0.016943434 -0.035625238
0.03581124 0.041438997 -0.014729131 -0.013030325 -0.04327207 -0.005745441 0.026527094 -0.016199581
-0.030369086 0.03410452 -0.04463007 -0.0031956667 0.027968798 -0.056202922 -0.012672836 -0.041682776
-0.006404009 -0.020357333 0.022903955 0.007146156 0.016549632 -0.019811282 -0.02418737 0.045892384
00000000: 17f9 67bc 67bc 153c 3cb1 45bd d9e9 ca3b
00000010: 58b2 da3c 21c5 9ebc 350e 893c eb42 4c3d
00000020: 297d 603b 3015 9e3c 2dec 873c e1da 823d
00000030: 2f7b eebb 286a aa3c fcae 603c 23e7 1c3d
00000040: 928c 903c d8e9 d13c b8c1 b5bd 43c5 c5bc
00000050: 1a86 023d 4f4d 293d 32d5 a03b 8ff7 07bd
00000060: dcd0 43bc b287 803c a7ca 5d3c 7af8 5d3d
00000070: 3b58 b9bc 22bf aa3c cb3f 03bc ade1 183c
00000080: e314 b3bc f911 73bc 0a23 0c3d 720e 05bd
00000090: 5302 bc3b 6da2 35bd 4003 473d a39d b0bd
000000a0: 06ff 0cbd 83c5 66bc 8b49 393c 03fb ca3c
000000b0: 2cd0 fe3c dae0 953b f613 ad3b 1654 2d3c
000000c0: 071e e53c 7dbd 5fbc 8832 98bb 2e70 b03c
000000d0: 6af9 09bd f489 c73c 3c9c a53c eb1c e1bb
000000e0: 3cab 9c3c abe4 b3bc 6585 3f3c b133 993c
000000f0: 6f7b 67bc d512 8dbb 97a7 d83c 5799 d03c
00000100: 1105 063d fae4 c0bc 6f9b 29bc e228 60bc
00000110: 05ec 19bc 5047 df3b 5115 74ba 4140 f9bc
00000120: 9877 73bc cb15 893b ad1f c63b 4c30 0a3c
00000130: 2d9d ec3c 74da 26bc c2df 003d 6d16 cc3c
00000140: 6e32 8fbc 4978 563d 5044 9d3c d778 bcbc
00000150: 25ae 58bd a315 c63c 252f d1bc a5eb b93c
00000160: 2f67 fdbb b9e5 fa3c 6535 c23c 10c4 c73c
00000170: 9391 c33c cf54 753c f6be 833d 556f 0bbc
00000180: 6b04 593a 1f6b b03c 7beb 2ebd f0b8 e9ba
00000190: 6142 b53c 5e9c 893d f5cc 8abc c5eb 11bd
000001a0: cfae 123d f0bb 293d 7452 71bc 257d 55bc
000001b0: 0e3e 31bd 4144 bcbb 594f d93c fcb4 84bc
000001c0: 97c8 f8bc 2eb1 0b3d 05ce 36bd 646e 51bb
000001d0: d21e e53c 0935 66bd baa1 4fbc 8fbb 2abd
000001e0: b9d8 d1bb 6cc4 a6bc 13a1 bb3c 4d2a ea3b
000001f0: 1893 873c 454b a2bc 9724 c6bc a7f9 3b3d

weight f4 [128, 128]
-0.16687989 0.1171899 0.1564135 -0.00987272 -0.015317984 0.1593917 -0.0042624013 0.12665072
0.025606582 -0.21888487 -0.03788429 0.11643472 -0.091447346 0.07504129 0.12820196 0.08675734
-0.07076574 0.025501946 -0.034798894 0.061708122 0.057503115 -0.0013752294 0.044681165 0.009196957
-0.0074551427 0.09762941 -0.0052535585 0.023883102 0.0051019117 0.09302706 0.073462434 -0.05482853
-0.19013372 -0.034230925 0.02773941 -0.06961146 -0.25965804 0.11573792 -0.0033827506 -0.056800306
-0.07131245 0.12227613 -0.14433025 0.11448123 0.020859823 -0.14709471 0.07490445 -0.13310367
0.03341034 -0.09544817 -0.019929327 0.0437457 0.07290246 -0.13027428 0.005572685 -0.16181484
-0.049305037 -0.07529654 -0.118714534 -0.13889444 0.099484056 0.11901916 0.0389701 0.058618132
0.10142316 -0.12789893 -0.019032417 -0.1551669 -0.09018393 0.015528326 0.038900197 0.06788953
0.07747356 -0.12378268 -0.14833471 -0.029493755 -0.13537382 0.03012332 0.08916452 0.09814352
0.12647241 -0.056295052 -0.16550608 0.038244408 -0.15142436 -0.07740961 -0.14966041 0.063287266
0.07765133 0.19288225 0.10908594 -0.009015751 -0.008631745 0.11534063 0.0946839 -0.10312007
-0.19371566 0.101711676 -0.09144018 -0.13632557 -0.11266894 -0.013797909 -0.002389632 -0.15047796
0.005945587 -0.12189445 -0.0874758 0.13078794 -0.019724047 0.046666935 -0.089016974 -0.12279224
-0.21116374 -0.060372267 0.121308126 -0.013685442 -0.1292753 0.10595479 -0.09414815 0.00416709
-0.12579437 0.053486135 0.02135727 0.11070051 -0.08843631 -0.13128065 0.11078027 0.087189496
-0.3706196 -0.18063594 -0.08066164 0.1258385 -0.0643783 0.039387845 -0.10356119 0.04026303
-0.1212837 0.116009094 0.11710503 -0.11983171 -0.025186436 0.064449936 0.03496873 -0.18668963
-0.3637785 -0.16233933 0.1343119 0.06110878 0.1840494 0.041330412 -0.12552795 -0.054637186
0.08978624 0.14081374 0.116411254 0.06702518 -0.11114373 0.11285066 0.1152218 -0.09565676
0.15010063 0.10785818 0.006459412 -0.053894226 0.11405119 0.023100534 -0.09005985 0.08204242
0.14989273 0.09936531 0.18880118 -0.037335243 -0.028280713 0.11166807 0.007532391 -0.10759694
-0.47557503 -0.08709771 -0.06974193 0.037416857 -0.13121502 -0.069940865 0.02323135 -0.070887946
0.08842656 0.07596355 -0.1516898 -0.12415384 -0.024580756 0.07363559 0.10098608 -0.117753565
0.13422604 -0.15480052 -0.12351098 -0.043729413 -0.13014588 0.102211155 -0.051720176 0.17886986
-0.049180306 0.14006814 0.008907838 0.17262943 0.04531405 0.15335825 -0.0010722672 -0.04254682
0.13740122 0.13065363 -0.031262755 0.17631967 0.08016669 0.14402531 -0.034378216 0.18501267
0.06021016 -0.017004056 0.1676991 0.10313188 0.0406119 -0.015525422 -0.16670442 -0.077509075
-0.0317411 0.18721291 -0.060797635 0.1647656 -0.11210768 0.12325763 -0.15845574 -0.020475544
-0.13766572 0.10162033 -0.11226858 0.13571593 -0.035431832 0.15793219 0.0041055284 0.10624119
0.10465131 0.06422308 -0.12150009 0.13680357 -0.00016664871 -0.14981806 0.048254233 -0.0011999672
0.10656478 -0.05027264 0.07880556 0.045970913 0.05637023 0.08940537 0.12102167 -0.17484926
00000000: 90e2 2abe 4201 f03d dc2a 203e 30c1 21bc
00000010: 48f8 7abc 9437 233e 9dab 8bbb bab0 013e
00000020: e5c4 d13c 5b23 60be 8f2c 1bbd 5475 ee3d
00000030: bf48 bbbd 3faf 993d 6047 033e d5ad b13d
00000040: a1ed 90bd 75e9 d03c 4989 0ebd a8c1 7c3d
00000050: 6388 6b3d 0b41 b4ba 9903 373d d5ae 163c
00000060: 454a f4bb eef1 c73d 0b26 acbb 7fa6 c33c
00000070: f02d a73b f984 be3d 7973 963d e193 60bd
00000080: 6ab2 42be ba35 0cbd c23d e33c 7490 8ebd
00000090: e6f1 84be 0108 ed3d 23b1 5dbb 70a7 68bd
000000a0: 430c 92bd e86b fa3d 4fcb 13be 2375 ea3d
000000b0: 38e2 aa3c ff9f 16be 8167 993d 544c 08be
000000c0: 48d9 083d 557a c3bd d442 a3bc b12e 333d
000000d0: e34d 953d 9f66 05be 129b b63b cab2 25be
000000e0: 14f4 49bd 1335 9abd 9b20 f3bd 583a 0ebe
000000f0: 4cbe cb3d 51c0 f33d 1d9f 1f3d 9119 703d
00000100: f2b6 cf3d f0f7 02be dfe9 9bbc 12e4 1ebe
00000110: 5ab2 b8bd 856a 7e3c d055 1f3d aa09 8b3d
00000120: 75aa 9e3d c681 fdbd 0ee5 17be e39c f1bc
00000130: 6f9f 0abe 2ec5 f63c e39b b63d 78ff c83d
00000140: fc81 013e a495 66bd 6d7a 29be 2ba6 1c3d
00000150: fd0e 1bbe ee88 9ebd 9440 19be c19c 813d
00000160: a907 9f3d ed82 453e 7368 df3d cdb6 13bc
00000170: 2a6c 0dbc b537 ec3d a2e9 c13d 9e30 d3bd
00000180: 665d 46be 364e d03d fd44 bbbd ee98 0bbe
00000190: f9be e6bd a010 62bc 5f9b 1cbb e516 1abe
000001a0: 33d3 c23b cca3 f9bd 8326 b3bd 46ed 053e
000001b0: 5394 a1bc d425 3f3d 884e b6bd 7f7a fbbd
000001c0: 4f3b 58be e948 77bd 6570 f83d e738 60bc
000001d0: bf60 04be d3fe d83d bfd0 c0bd 168c 883b
000001e0: 3dd0 00be 4714 5b3d 71f5 ae3c f3b6 e23d
000001f0: 191e b5bd 6f6e 06be c4e0 e23d 6890 b23d
00000200: dac1 bdbe a1f8 38be ee31 a5bd cfdb 003e
00000210: c5d8 83bd 2655 213d e417 d4bd d9ea 243d
00000220: 9763 f8bd 2d96 ed3d c3d4 ef3d 546a f5bd
00000230: c953 cebc 54fe 833d 5f3b 0f3d 912b 3fbe
00000240: 2d41 babe 483c 26be 0f89 093e 334d 7a3d
00000250: 7277 3c3e 144a 293d 668a 00be 3ecb 5fbd
00000260: d9e1 b73d 7a31 103e 0669 ee3d 7f44 893d
00000270: 539f e3bd 3f1e e73d 68f9 eb3d b1e7 c3bd
00000280: fbb3 193e c0e4 dc3d 7aa9 d33b 31c0 5cbd
00000290: ac93 e93d 553d bd3c 4c71 b8bd db05 a83d
000002a0: 7b7d 193e 0a80 cb3d 1955 413e d7ec 18bd
000002b0: f4ac e7bc 3bb2 e43d 47d2 f63b c95b dcbd
000002c0: 927e f3be 4960 b2bd dbd4 8ebd 6b42 193d
000002d0: 3b5d 06be 283d 8fbd ac4f be3c b32d 91bd
000002e0: fc18 b53d c792 9b3d 9254 1bbe 5e44 febd
000002f0: 955d c9bc 42ce 963d cad1 ce3d c828 f1bd
00000300: 8d72 093e 0784 1ebe 53f3 fcbd 9d1d 33bd
00000310: f644 05be 1554 d13d 89d8 53bd a929 373e
00000320: 4a71 49bd 066e 0f3e 2ef2 113c c5c5 303e
00000330: 3a9b 393d f209 1d3e 518b 8cba 9345 2ebd
00000340: e8b2 0c3e 11ca 053e 600d 00bd 258d 343e
00000350: 6f2e a43d 5f7b 133e 2cd0 0cbd f673 3d3e
00000360: ee9e 763d 174c 8bbc 50b9 2b3e cf36 d33d
00000370: aa58 263d 575e 7ebc 90b4 2abe 14bd 9ebd
00000380: f502 02bd beb4 3f3e f106 79bd 50b8 283e
00000390: b698 e5bd 7f6e fc3d 3942 22be 54bc a7bc
000003a0: 3ef8 0cbe 521e d03d 12ed e5bd 1ef9 0a3e
000003b0: f820 11bd fab8 213e ab87 863b fb94 d93d
000003c0: 6d53 d63d 6487 833d 0ad5 f8bd 3c16 0c3e
000003d0: 6cbe 2eb9 e869 19be 3ba6 453d 3848 9dba
000003e0: a33e da3d afea 4dbd cf64 a13d ff4b 3c3d
000003f0: 78e4 663d 2a1a b73d 36da f73d af0b 33be

weight f4 [8, 128]
-0.020402873 -0.072372295 -0.45078754 -0.08718185 -0.034482412 0.19223727 0.042226817 0.07032546
-0.028269075 -0.0021875445 0.01774815 -0.06585521 0.11512505 -0.082286805 0.08578209 -0.23874477
-0.20124763 0.057892565 -0.13946018 0.055825192 -0.0790607 0.05375558 0.16571437 0.17438105
-0.0079401415 0.028606592 -0.034804408 -0.10105309 -0.02961256 -0.0571273 -0.069388755 0.021725558
0.04181395 0.07246878 -0.0398212 0.041214507 -0.37009823 -0.041275572 0.08159758 0.35949796
0.3871376 0.15357184 -0.03292471 -0.024726925 0.07663017 0.09002212 -0.11860617 -0.0164278
-0.05334535 0.036044974 -0.06176935 -0.028475037 0.006636928 -0.14184551 0.046919834 0.39608148
-0.13391137 0.34800392 0.35107192 -0.06711585 -0.056705676 -0.018443944 -0.23645589 0.03229808
0.10157513 -0.031046316 0.018442152 -0.022424271 -0.2760385 -0.04858941 0.10921266 0.07003452
0.16141342 0.09772212 0.12057709 0.09873986 -0.09193387 0.0029719565 -0.07126234 -0.0539153
0.061617386 0.0009986872 0.05154256 -0.025632473 -0.014079326 0.0890452 0.32599744 -0.07471343
-0.029675208 0.19899938 0.064840615 0.5122474 -0.110349186 -0.012453629 -0.03503082 0.03327413
0.043510485 -0.0659822 0.012270533 0.0017188595 0.1397063 0.17265266 0.060790643 -0.34144896
0.19502407 -0.2136908 0.013636115 0.022652233 0.101398736 0.005642306 -0.058408268 0.025117856
-0.031316273 0.07570651 0.13872 0.4538601 0.024891179 -0.007069647 0.072641075 0.32687926
0.2983888 0.0083272755 0.022758242 0.07828531 0.03911072 0.04518854 0.012880368 -0.25781143
-0.009531469 0.18178461 -0.15674809 0.0060223895 -0.06813703 -0.15272653 -0.07111324 -0.07374675
-0.034588505 0.009054252 0.13044238 -0.20500411 -0.067038186 0.028006203 0.040800355 -0.017767165
-0.04995038 0.091928184 -0.62397045 -0.012368304 -0.022972481 -0.11082855 -0.19396135 -0.085585296
0.044090696 -0.07125026 0.015341225 0.23313265 0.060408033 -0.020764291 0.3695777 0.07696533
0.008634073 -0.098252326 -0.024629664 -0.024034388 0.31659535 0.009142637 0.13937512 0.31492156
-0.33724964 0.025781972 -0.071769014 -0.06834594 -0.01571123 -0.10516253 -0.08239034 0.05632377
-0.059465606 -0.04724556 -0.12936312 0.31636396 -0.021871742 -0.03869311 0.07471141 -0.14344084
-0.020204859 -0.04020154 0.670884 0.06516391 0.07038223 -0.10942545 -0.0012189522 0.07793321
-0.001617646 0.17346399 0.046688516 0.04892568 0.19688508 -0.024264645 -0.055448104 0.03495875
-0.09172017 0.12231487 -0.17112005 0.058210064 0.011555867 0.05158363 -0.048830826 0.1342228
-0.054162625 -0.19610223 0.06194909 -0.054242462 0.00681931 0.04766553 0.32548857 0.19298507
-0.058081962 0.13782324 0.09073068 -0.066729516 0.058198012 0.23018995 0.37164366 -0.023322709
-0.08408845 0.09254742 0.04737656 0.23364887 -0.23023896 -0.032359686 0.18328756 0.2364807
0.023390286 0.04079917 -0.05795897 0.042929523 -0.012436739 0.21767183 -0.041520674 0.036220603
-0.20832786 -0.18085475 -0.26040554 0.28405294 0.014980041 0.28232244 0.059134275 -0.23407248
-0.27038208 0.030551717 -0.070758924 0.09029867 0.15424015 0.0056476984 0.106196135 -0.061203077
00000000: ed23 a7bc ed37 94bd a0cd e6be 668c b2bd
00000010: 6e3d 0dbd d9d9 443e 07f6 2c3d cb06 903d
00000020: 8c94 e7bc e85c 0fbb 9164 913c 19df 86bd
00000030: afc6 eb3d fc85 a8bd 85ae af3d 8279 74be
00000040: dc13 4ebe c120 6d3d a6ce 0ebe f5a8 643d
00000050: 94ea a1bd d02e 5c3d 07b1 293e f290 323e
00000060: 5e17 02bc 5f58 ea3c 118f 0ebd ecf4 cebd
00000070: 0a96 f2bc 51fe 69bd b11b 8ebd ccf9 b13c
00000080: 1b45 2b3d 836a 943d 8e1b 23bd 8bd0 283d
00000090: 847d bdbe 9310 29bd a21c a73d 1e10 b83e
000000a0: e636 c63e f041 1d3e 10dc 06bd 1f90 cabc
000000b0: 47f0 9c3d 845d b83d cbe7 f2bd 9893 86bc
000000c0: a780 5abd e5a3 133d dc01 7dbd 7b44 e9bc
000000d0: 967a d93b f33f 11be 032f 403d 31cb ca3e
000000e0: 1020 09be 922d b23e b3bf b33e 0974 89bd
000000f0: 3644 68bd c117 97bc 7e21 72be fe4a 043d
00000100: 9f06 d03d d854 febc ff13 973c 1bb3 b7bc
00000110: eb54 8dbe b005 47bd e3aa df3d 426e 8f3d
00000120: 8f49 253e 8922 c83d 1ff1 f63d 2038 ca3d
00000130: d347 bcbd 28c5 423b fdf1 91bd 4ad6 5cbd
00000140: 8362 7c3d 62e6 823a 4b1e 533d 31fb d1bc
00000150: f9ac 66bc 545d b63d 23e9 a63e 5b03 99bd
00000160: 6c19 f3bc 7ec6 4b3e 28cb 843d a522 033f
00000170: c1fe e1bd 4e0a 4cbc 7a7c 0fbd 744a 083d
00000180: 0d38 323d ad21 87bd 580a 493c 5b4b e13a
00000190: 2b0f 0f3e dccb 303e 9cff 783d 66d2 aebe
000001a0: 64b4 473e c3d1 5abe 036a 5f3c 2d91 b93c
000001b0: 24aa cf3d 18e3 b83b 823d 6fbd f6c3 cd3c
000001c0: 7e45 00bd 040c 9b3d 9e0c 0e3e 5a60 e83e
000001d0: 96e8 cb3c 7fa8 e7bb d8c4 943d b85c a73e
000001e0: 6bc6 983e 206f 083c 7e6f ba3c 0c54 a03d
000001f0: 9032 203d 9e17 393d 2e08 533c dcff 83be
00000200: e129 1cbc bf25 3a3e 9282 20be 7757 c53b
00000210: 6d8b 8bbd 5864 1cbe d2a3 91bd 8908 97bd
00000220: adac 0dbd 4958 143c b092 053e 99ec 51be
00000230: 514b 89bd 446d e53c 461e 273d 728c 91bc
00000240: c598 4cbd d844 bc3d 87bc 1fbf 6da4 4abc
00000250: c930 bcbc 14fa e2bd ce9d 46be 5847 afbd
00000260: 7298 343d a8eb 91bd c359 7b3c 53ba 6e3e
00000270: 6a6e 773d e019 aabc 4a39 bd3e 00a0 9d3d
00000280: ed75 0d3c 8438 c9bd 26c4 c9bc c4e3 c4bc
00000290: c918 a23e 00cb 153c 5ab8 0e3e 663d a13e
000002a0: fcab acbe b734 d33c a2fb 92bd f5f8 8bbd
000002b0: d6b4 80bc 745f d7bd 44bc a8bd c1b3 663d
000002c0: 3592 73bd 8f84 41bd c477 04be 75fa a13e
000002d0: 5e2c b3bc ab7c 1ebd 4c02 993d 28e2 12be
000002e0: a984 a5bc 5faa 24bd 0ebf 2b3f a874 853d
000002f0: 8f24 903d 731a e0bd 40c5 9fba 729b 9f3d
00000300: 3107 d4ba 8ba0 313e 753c 3f3d 4b66 483d
00000310: 3e9c 493e a6c6 c6bc 8d1d 63bd e830 0f3d
00000320: c9d7 bbbd 3880 fa3d 183a 2fbe ad6d 6e3d
00000330: d254 3d3c 5b49 533d d502 48bd b471 093e
00000340: a1d9 5dbd 06cf 48be 54be 7d3d 582d 5ebd
00000350: 8574 df3b ee3c 433d 70a6 a63e e19d 453e
00000360: 5ae7 6dbd 8921 0d3e 02d1 b93d 7ca9 88bd
00000370: 0a61 6e3d eab6 6b3e 1448 be3e 440f bfbc
00000380: 9136 acbd 8089 bd3d ec0d 423d a641 6f3e
00000390: c3c3 6bbe 978b 04bd bcaf 3b3e ff27 723e
000003a0: fc9c bf3c 081d 273d 6366 6dbd ded6 2f3d
000003b0: 77c3 4bbc 5de5 5e3e 9511 2abd 0e5c 143d
000003c0: e653 55be fd31 39be e053 85be 636f 913e
000003d0: d96e 753c 918c 903e c836 723d b2b0 6fbe
000003e0: 856f 8abe 9847 fa3c 0eea 90bd 82ee b83d
000003f0: 21f1 1d3e 5410 b93b 5c7d d93d 14b0 7abd

bias f4 [8]
-0.09233562 -0.06717014 0.030214783 -0.013197445 -0.018079378 0.039753985 0.013612747 -0.055420227
00000000: 751a bdbd 8090 89bd fe84 f73c 193a 58bc
00000010: 341b 94bc 13d5 223d 0008 5f3c 5200 63bd
