logs/with_reg/checkpoints/ckpt_6000.pt (torch, 169624 bytes, 8 tensors)

bias f4 [128]
000000 c4 ab 89 bd 46 11 cb bd d9 ee 6a be 58 fb 88 bd
       -0.06722215 -0.09915404 -0.22942676 -0.06688565
000010 f9 b0 00 3d 74 82 47 3e f4 a4 4d 3d af 9f 2e bd
       0.031418774 0.19483358 0.05020614 -0.042632755
000020 00 00 00 00 07 24 12 be 95 92 70 bd 76 a3 75 bd
       0.0 -0.14271556 -0.05873354 -0.05997034
000030 18 e1 74 bd 5e ed 71 bd e3 e4 cc bd fb e4 6a bd
       -0.05978498 -0.05906426 -0.10004594 -0.05734728
000040 26 3d cc 3d 0e c9 bc bd ee dd 31 bd 26 5e 1c bd
       0.09972601 -0.09218036 -0.04342454 -0.038175724
000050 78 a0 9c bc 3e 0d 70 bd 15 9c 2b bd 29 72 74 3d
       -0.019119486 -0.05860638 -0.0418969 0.059679184
000060 1b ed b2 bd a0 58 65 bd ed 2a 6b bd 00 00 00 00
       -0.087366305 -0.055992723 -0.057413984 0.0
000070 4e 9c 7a 3f cf e5 0d 3e 34 b6 92 bd a4 8f 8a 3d
       0.9789475 0.13857196 -0.07163659 0.067656785
000080 a2 92 bf bd c4 12 1d bc 00 00 00 00 76 55 89 bd
       -0.0935414 -0.009586994 0.0 -0.067057535
000090 37 18 86 bd e6 c5 cc bd 2e 72 1d 3a a3 fc 8a bd
       -0.06547587 -0.09998684 0.0006006089 -0.06786468
0000a0 db 33 9f bd c1 e0 46 3d 50 98 04 bd 11 c0 a7 bd
       -0.077735625 0.048554186 -0.03237182 -0.08190931
0000b0 76 d5 98 bd b0 3a 48 bd dd dd 75 bd 29 2d 4f bd
       -0.074625894 -0.048884094 -0.06002604 -0.050580177
0000c0 1b 2b f7 bc 91 61 8f 3e a0 1e f1 bd 63 59 a4 bd
       -0.030171921 0.28004125 -0.117734194 -0.08024862
0000d0 f5 c0 ea bd 85 50 75 bd 36 a7 87 bd 2b e9 f8 3d
       -0.11462585 -0.059891243 -0.0662369 0.12153848
0000e0 c7 7e 83 bd e3 3e 93 3c fe 07 43 bd 81 20 4a be
       -0.06420665 0.017974323 -0.047615044 -0.19738962
0000f0 e3 c4 82 bc 7f a4 79 bd 15 1d 24 bd 0c 1f 77 be
       -0.015963024 -0.06094789 -0.040066797 -0.24132937
000100 d7 7a 6f bd 76 65 bb 3e 00 00 00 00 25 27 83 bd
       -0.05846676 0.36600846 0.0 -0.064039506
000110 99 8c 2f 3e f2 b3 01 3e 51 d4 43 bd c5 15 81 bd
       0.17143477 0.126663 -0.047809903 -0.0630298
000120 e5 1b 8f bd 00 00 00 00 59 21 a3 bd 26 ac dd bd
       -0.06987742 0.0 -0.07965345 -0.1082385
000130 6c f9 4c bd 42 b7 73 bd e9 7c 7e bd 4e d7 2a be
       -0.050042555 -0.05950094 -0.062130842 -0.16683695
000140 09 22 2b bd e9 a9 02 be df 19 34 be 7b 4b b7 3d
       -0.041780505 -0.12760128 -0.17587994 0.08949944
000150 6c 5c 58 bd 59 d0 25 3e 7f fa 74 be 78 9f 75 bd
       -0.052822515 0.1619276 -0.23923682 -0.059966534
000160 0b 58 c0 3d a4 53 44 bd a0 6c e6 bd 26 82 71 bd
       0.09391793 -0.04793133 -0.11251187 -0.05896201
000170 a5 91 fc bd 7e df 7b bd 56 01 48 bd 00 00 00 00
       -0.12332467 -0.061492436 -0.0488294 0.0
000180 34 c7 99 be 49 32 56 be 00 00 00 00 00 00 00 00
       -0.30034792 -0.2091762 0.0 0.0
000190 c9 70 70 bd 38 5b 70 3d 7f 13 72 bd 6b 56 bd 3d
       -0.05870131 0.058680743 -0.059100624 0.092449985
0001a0 79 18 2b be 60 5a 50 be d6 b6 43 bd ec 9f 99 be
       -0.16708554 -0.20346975 -0.047781788 -0.30004823
0001b0 46 6d 2c be 2f 57 7c bd e2 d9 72 bd 90 fa 36 bd
       -0.1683856 -0.061606582 -0.05928982 -0.04467255
0001c0 d6 50 80 bd 2d de 87 bd eb 06 28 3d 5e d7 71 be
       -0.06265418 -0.066341735 0.041022222 -0.23617312
0001d0 41 aa 3c bd b1 b6 21 bd d9 4d 4b bd 87 13 ab 3c
       -0.046060804 -0.03948087 -0.04963479 0.020883335
0001e0 ce 7f 4c bd 8e c8 5d be 7e 60 cc 3b 60 67 45 bd
       -0.04992657 -0.21658537 0.0062370887 -0.04819429
0001f0 b2 09 2c bd 95 4e 9f bd 99 38 8c bd a5 51 58 bd
       -0.042001434 -0.0777866 -0.06846733 -0.052812237

weight f4 [128, 33]
000000 32 12 dc bd 37 5d 32 bd 51 46 41 be 62 b6 83 bd
       -0.10745658 -0.043545928 -0.1887448 -0.06431271
000010 ce 9b 5c 3d ca 00 75 be d9 7d ff 3d 73 55 63 be
       0.053859524 -0.23926082 0.124751754 -0.22200565
000020 4e d1 81 be bb 54 43 3e b5 c3 13 3e ae 1c 9d bd
       -0.25355 0.19075291 0.14430125 -0.07671486
000030 b5 b5 d3 3b 95 63 73 3d 0e f9 21 be 3b 4a 40 be
       0.00646087 0.05942114 -0.15817663 -0.18778317
000040 2f c8 25 be cf e3 b4 3d 51 0e 9c 3d a6 53 5b bd
       -0.16189645 0.088325135 0.07619918 -0.05354657
000050 36 c3 64 be 64 4c 00 bd 7d 0d 27 be f6 95 d7 bb
       -0.22340092 -0.03132285 -0.16313739 -0.006579156
000060 b2 a7 e0 3b 95 96 dc 3d 13 cf af 3d 07 7c 13 be
       0.0068559283 0.10770909 0.08584418 -0.14402781
000070 d5 f6 16 be 10 0a 28 3e f4 b8 fd bd 67 f3 00 3c
       -0.14742596 0.16410089 -0.12388793 0.007870532
000080 02 f2 0f 3c 36 86 66 bd d5 4a 3a be e3 1a 39 be
       0.0087857265 -0.056280337 -0.18192609 -0.18076663
000090 5b c9 66 be ac e2 83 be 5f 36 64 be f3 f7 8d be
       -0.22537749 -0.25758874 -0.22286366 -0.27728233
0000a0 35 57 07 be 2e 07 e7 3c 42 51 42 3e dd da eb 3d
       -0.1321686 0.028201666 0.1897631 0.11516354
0000b0 89 3f 0e bd 08 17 db 3d 81 b5 ce bd c1 95 88 bc
       -0.03472856 0.10697752 -0.10093213 -0.01667297
0000c0 bc f8 0d 3c 3e f7 a8 3d 36 59 5f be ae de 0c bc
       0.00866526 0.08250283 -0.21811375 -0.008598013
0000d0 31 1f a3 be d2 9a e1 bd 34 84 02 be c6 e9 7a 3d
       -0.31859735 -0.11015858 -0.12745744 0.0612581
0000e0 9b 5d 94 be d5 92 20 3c 28 bb 0f 3d b6 42 8c bb
       -0.28977665 0.0098006325 0.035090595 -0.0042804135
0000f0 d6 cd a8 bd 0a 65 a3 bd 2f a6 02 3e f7 ed 67 3d
       -0.08242385 -0.07978256 0.12758707 0.056623425
000100 c1 8a 4c 3c 14 81 55 bd 34 bc f3 bd 9f 98 ab 3e
       0.012484253 -0.05212505 -0.11901131 0.33514878
000110 54 41 47 be 48 1e 3c be 5c 98 20 be c4 21 e9 3e
       -0.19458514 -0.18370926 -0.1568312 0.45533574
000120 67 b9 e5 3d 5b 4f 09 3f 15 9d 92 3e a4 6f 15 3e
       0.11217003 0.5363671 0.2863547 0.14593369
000130 9e 6d d3 bd ea 5f 8d bd d0 de 2c be c9 d6 10 be
       -0.10323642 -0.0690306 -0.16881871 -0.14144434
000140 57 22 fb bd 08 54 99 3d f4 a6 e1 bd ca 84 c6 3e
       -0.12262409 0.07486731 -0.11018172 0.38773185
000150 7f 2f 2b 3c 3f 7b a4 be 42 b9 64 be 24 82 0f 3e
       0.010448336 -0.3212528 -0.22336295 0.14014488
000160 40 34 2d 3e dd e2 52 3e ca a5 3b 3e 58 49 54 3d
       0.16914463 0.20594354 0.18324962 0.05182776
000170 5c 3c 08 be 54 c0 00 be bc 39 06 bd 7b a3 93 bb
       -0.13304275 -0.12573367 -0.032769904 -0.0045055724
000180 22 7e 2e 3d e7 08 fe be b3 9a 58 be e4 38 5c bd
       0.04260076 -0.49616167 -0.21152763 -0.053765193
000190 b7 78 0a be 6c 30 33 be ea df 46 be 2d 5b 3e bd
       -0.13522612 -0.1749894 -0.19421354 -0.04647367
0001a0 e2 7a eb bd cf c5 37 be 62 d4 8c 3d 00 ed 3d be
       -0.114980474 -0.17946552 0.06876446 -0.1854744
0001b0 3d f0 1f 3e c4 17 e6 bd aa 79 fa 3c f9 2b 10 be
       0.15618987 -0.11235002 0.030575592 -0.14079274
0001c0 17 09 73 bd 42 8e 2e 3e cf 88 36 be 9e 13 b0 bd
       -0.05933484 0.17046455 -0.17825626 -0.08597492
0001d0 a4 b3 cf bd f6 e5 20 be 01 44 e9 bc fb 4d d9 3d
       -0.101416856 -0.15712723 -0.02847481 0.10610577
0001e0 07 c6 2f bd 76 62 f5 3d 25 d1 76 be 51 98 0f 3d
       -0.042913463 0.119816706 -0.2410322 0.03505737
0001f0 49 27 94 3d 48 46 ca bd 4e 22 06 3c 2e 80 08 be
       0.072340555 -0.09876686 0.00818689 -0.13330147
000200 e0 a0 31 3e 4b 58 1e bd 06 27 1e bd 24 04 c3 3d
       0.17346525 -0.03865842 -0.038611434 0.09522274
000210 3b c1 b7 be 43 ad 9e be 12 57 e7 3d 41 bd 38 be
       -0.3588961 -0.30991563 0.11295904 -0.18040945
000220 2e 88 0b 3f f2 79 32 3e 10 00 1d bf de 4c a7 3e
       0.5450467 0.17429331 -0.6132822 0.32675833
000230 b1 44 fb bd e8 95 bd bb 21 a8 19 be 99 82 c8 3d
       -0.12268961 -0.0057856925 -0.15005542 0.097905345
000240 48 ba 09 be f3 11 1e bd 60 a4 2b be cf f4 27 3e
       -0.13449967 -0.038591336 -0.16761923 0.16401981
000250 62 03 13 3e cb 4c da 3e ff d3 a4 3e 45 82 c8 be
       0.14356759 0.42636713 0.3219299 -0.39161888
000260 40 cd 34 3e d4 3a 84 3e 79 44 5f bc d7 1b be be
       0.17656422 0.25826132 -0.013627165 -0.37130615
000270 7d 0e 55 3e 41 06 92 be 27 80 43 be b2 1e 97 3d
       0.20806308 -0.28520396 -0.19091855 0.073789015
000280 bc 23 9f bd a1 1c 4a bd 8f 5f 40 be 7f 6e 26 3e
       -0.07770488 -0.04934371 -0.18786453 0.16253088
000290 96 7c a2 be 3d 45 91 3e 75 57 0d bf 35 68 0c be
       -0.31735677 0.28373137 -0.55211574 -0.13711627
0002a0 1c 58 aa 3e e2 3a 2d 3e 47 aa 36 bd 40 58 ea be
       0.33270347 0.16916993 -0.044595983 -0.45770454
0002b0 1b b1 35 be dc 68 30 be ea 9f 25 3e 4a 4a e1 3c
       -0.17743342 -0.172275 0.16174284 0.027501244
0002c0 33 ec af bd 64 48 f4 bd bc 76 f7 bc 89 80 06 3e
       -0.08589973 -0.1192787 -0.030207984 0.1313497
0002d0 11 55 d4 bd a0 cb d9 3e 40 bd 8e 3d 42 8c 0b 3f
       -0.10367788 0.42538166 0.0696969 0.5451089
0002e0 9d 6c cf bd 16 71 d1 3c c0 27 42 bd 14 b2 22 bf
       -0.10128138 0.025566619 -0.04740119 -0.63552976
0002f0 a2 5e ed bd f3 51 d5 bd cc 22 a9 be f7 c6 00 be
       -0.115903154 -0.10416021 -0.3303436 -0.12575899
000300 70 9e 27 be 08 63 25 bd ce e1 9d 3d 3a 9f 84 3e
       -0.16369033 -0.040377647 0.077090845 0.2590273
000310 30 e3 b9 3e 27 1b d9 3d 77 c5 06 3f 47 34 17 3f
       0.36306143 0.10600882 0.5264506 0.59064144
000320 1d 86 f4 bd 5f ae 5a be 81 e4 f0 bd a1 de f0 be
       -0.119396426 -0.2135558 -0.11762334 -0.47044852
000330 82 1d 42 be 64 9e 81 bf 53 47 fc bd 2c 2e d2 3d
       -0.18956569 -1.0126462 -0.123182915 0.10262713
000340 8b 43 28 be 98 99 09 bd 38 6b 98 3d 2f 8d 18 bc
       -0.16432016 -0.033593744 0.07442325 -0.009311005
000350 bb 76 02 3e 27 ba cc bd cf 3a 08 bd a5 01 84 3e
       0.12740605 -0.09996443 -0.03325921 0.25782505
000360 c8 ce fa be 57 c7 33 3e 21 2a 1c be d4 2a 8d 3e
       -0.48985887 0.17556511 -0.15250446 0.27571738
000370 6c 75 1d 3d 34 cf 14 3e cf 63 41 be b5 92 4b 3d
       0.03844206 0.14532167 -0.1888573 0.049700458
000380 bb 26 80 3d b7 5d a0 3d 4f 64 58 3d aa cf d1 bd
       0.06257387 0.07830375 0.052830037 -0.10244687
000390 79 9e e6 3e 58 d7 9e be 6a ed be 3e ec 5f b1 3d
       0.4504278 -0.3102367 0.37290508 0.08660874
0003a0 dc 23 b0 3d 0c 59 1c be b3 fa da bd 9a 42 31 be
       0.0860059 -0.15268344 -0.10692348 -0.17310563
0003b0 94 ba 49 3d 65 8f 0e 3e b7 67 7d 3d f2 78 2d be
       0.0492502 0.13921888 0.06186649 -0.16940668
0003c0 5a 1e 35 3d 02 b7 30 3d 5b c8 37 3e 11 ee a3 bc
       0.0442184 0.04314328 0.17947523 -0.02001098
0003d0 dc ff 86 bd 6d 1c 07 be 25 ea 6a bc f2 34 a9 bd
       -0.0659177 -0.13194437 -0.014338051 -0.08262052
0003e0 d9 5e 43 3d 1e ee 04 3e fc 8e 3e be f9 98 04 be
       0.047697876 0.1298146 -0.18609232 -0.1294898
0003f0 f7 51 43 be 43 8c a7 bd 4f 05 d3 bd 1e bc d5 bd
       -0.19074236 -0.0818105 -0.10303747 -0.10436271

bias f4 [128]
000000 dd 4a 9a bd 36 00 94 bd b6 b8 c2 bd 3d ed 1f be
       -0.0753381 -0.07226603 -0.09507887 -0.15617843
000010 91 fb 75 bd bf 2a 63 be 75 67 ba bd af 7a a0 bd
       -0.060054366 -0.22184275 -0.09101764 -0.078359
000020 e2 f0 e4 bd 70 a4 c1 bc 18 f1 88 bd 2d c0 75 bd
       -0.11178757 -0.02363798 -0.0668661 -0.059997726
000030 7a 4c 73 bd f6 ad 8f bd db f8 75 bd f0 7b 21 3e
       -0.059399106 -0.07015602 -0.06005178 0.15769935
000040 25 fb 75 bd 4f e1 67 3e b0 4f 0e 3e 6d 69 72 bd
       -0.060053963 0.22644542 0.13897586 -0.059182573
000050 ee 98 74 bd 61 6b 38 be ae 07 74 bd fa 95 4a be
       -0.059716158 -0.18009712 -0.059577636 -0.19783774
000060 da 5c 8c 3d ce 07 eb bd 11 62 58 bd 8f b3 96 bc
       0.068536475 -0.11476098 -0.0528279 -0.018396167
000070 39 ff 35 bc d6 fa 75 bd e1 e0 f0 bd 40 0c 76 bd
       -0.011108213 -0.06005367 -0.11761642 -0.060070276
000080 c9 42 b5 be fd fa 75 bd 01 45 01 bd ed 9c 76 bd
       -0.35402516 -0.060053814 -0.031559948 -0.06020825
000090 05 f1 bb 3c 90 f6 75 bd 52 bf 8f bd 1a 52 6f be
       0.022942076 -0.060049593 -0.07018913 -0.23371163
0000a0 4d cb 6c bd 3d a7 47 be 38 f9 75 bd 84 ca d4 bc
       -0.05781107 -0.1949739 -0.060052127 -0.025975473
0000b0 d6 2d f2 bd 0d f3 ee bd 00 0b f0 bd 22 fa 75 bd
       -0.11825149 -0.11667452 -0.11720848 -0.060053
0000c0 b4 c5 66 bd 41 76 7e bd 2d 5a ac bd 72 8b 72 bd
       -0.05634089 -0.062124494 -0.08415637 -0.059215017
0000d0 33 e6 6a bd ed 81 b9 3d 54 fa 75 bd 81 87 77 bd
       -0.05734844 0.090579845 -0.060053185 -0.06043196
0000e0 54 29 b3 be 0f 52 67 bd f7 f1 75 bd f2 3b 11 bf
       -0.34992468 -0.05647474 -0.06004521 -0.56732094
0000f0 b5 25 3d be 9c 73 6d bd 70 60 98 be ea b8 de 3c
       -0.18471415 -0.05797158 -0.29761076 0.027187783
000100 c5 dd 5d be 47 1b 76 bd 84 a0 09 be a7 dc ad bd
       -0.2166663 -0.060084607 -0.13440138 -0.08489352
000110 db 5b ec bc fc 2e 53 be 60 f5 2f bd 9e fa 75 bd
       -0.028852394 -0.20623392 -0.042958617 -0.06005346
000120 eb fe 1d bd b3 f7 83 3d 53 fb 75 bd 42 3a 7f bd
       -0.038573187 0.06443729 -0.060054135 -0.06231142
000130 9a 5e 75 3d 7c a7 32 3e da 6e df bd fb fb 75 bd
       0.059904672 0.17446703 -0.10909815 -0.06005476
000140 74 37 b2 bc f4 fa 75 bd 7e 24 05 be 31 1c c6 be
       -0.021754958 -0.06005378 -0.13002202 -0.38693383
000150 77 7e cb 3c c1 76 14 bd 34 0b fa b9 54 6b 7a bd
       0.024840577 -0.036246065 -0.00047692063 -0.061137512
000160 b5 64 8f bd 11 76 d2 bd ec d9 46 bd 23 fa 75 bd
       -0.0700163 -0.10276426 -0.04854767 -0.060053002
000170 48 95 70 3d c8 72 2a bd 01 ba 5a bd fb fe e6 3d
       0.058736116 -0.04161337 -0.053400043 0.112791024
000180 c6 65 4d bd 24 c9 7a bd f8 1a 75 bd 0c ad 09 be
       -0.050145887 -0.06122698 -0.059840173 -0.13444918
000190 2c 86 2d bd 56 f5 75 bd 07 c5 57 bd 16 09 c6 bd
       -0.042364284 -0.060048424 -0.052678134 -0.09669702
0001a0 a2 f1 af be d7 fd 5a bd 63 26 77 be e6 f2 6d bd
       -0.3436404 -0.053464737 -0.24135737 -0.058092974
0001b0 fa 93 b6 bd dc d5 75 bd 61 a4 73 bd 07 99 97 bd
       -0.08914943 -0.060018405 -0.059482936 -0.074022345
0001c0 ce fb 75 bd 9b c3 75 bd 72 c8 79 bd a1 76 02 3d
       -0.060054593 -0.060000997 -0.060982175 0.031851415
0001d0 09 82 03 bd a9 70 7b be 35 5e bf 3d 66 38 af bd
       -0.032106433 -0.24554695 0.093441404 -0.08555679
0001e0 e0 eb a4 3e 92 1b 02 bd 59 8c 41 3e 9b 62 9d bd
       0.32211208 -0.031764574 0.18901195 -0.07684823
0001f0 13 36 84 bd c9 2f 1d 3e bb 88 ab bd fd ef 98 be
       -0.06455626 0.1535026 -0.08375689 -0.29870597

weight f4 [128, 128]
000000 d9 6e 22 bc 76 c7 e5 bd f0 28 c4 3e 29 b9 a2 3d
       -0.009914123 -0.11219685 0.38312483 0.07945473
000010 16 c3 9c be 46 18 e4 3d c7 84 85 3c c8 fc dc 3c
       -0.3061759 0.11137442 0.016298665 0.026976004
000020 04 4c 6b 3c 6e 2d 95 3d 27 6e 34 3e 7b 70 14 bd
       0.014361385 0.07284056 0.17620145 -0.036240082
000030 aa fe 0c bd 17 f9 8a bd 08 c1 80 3d 05 55 7a 3d
       -0.034422554 -0.06785791 0.06286818 0.061116237
000040 eb 28 06 3e 85 8e 2d 3e bc 45 c5 bd 24 d0 44 3d
       0.13101546 0.16948898 -0.096324414 0.04805006
000050 95 7a 19 3d 09 55 f8 bb c6 65 8c 3e 4a 23 d6 bf
       0.03747042 -0.0075784964 0.27421397 -1.6729519
000060 4b e6 b2 3d c2 b7 0f 3e 03 9d 10 3e 8e 25 10 3e
       0.08735331 0.14034942 0.14122395 0.14076826
000070 61 95 39 bf 79 2d 8b be 91 50 42 3c ca b8 06 be
       -0.7249356 -0.2718313 0.011860029 -0.13156429
000080 72 13 06 3e de 39 c3 be 28 69 f8 bc f2 b1 91 3d
       0.13093355 -0.38130087 -0.03032358 0.071140185
000090 99 bd d2 3e 8e 9e 8f be 44 86 b9 be b6 bb fe 3d
       0.41160277 -0.28050655 -0.3623525 0.12438147
0000a0 80 1e 80 bd 52 94 cb 3e 51 f6 c5 3d e4 2e 0a be
       -0.062558174 0.39761597 0.09666122 -0.1349445
0000b0 94 f6 81 3c cb d5 0f bb 5c 23 16 3c d4 c7 68 ba
       0.015864648 -0.00219475 0.009163704 -0.00088798744
0000c0 36 9b fd 3b 2f 4f 9d be e4 22 19 be 7a fe f8 3d
       0.00773945 -0.30724475 -0.14954716 0.121579126
0000d0 72 d7 f8 bc 76 61 36 bd 64 0c b5 3e 6e a5 ea be
       -0.03037617 -0.04452654 0.35361016 -0.45829338
0000e0 1a b6 ac 3d 18 e0 a7 be c1 fc 14 3d 8d be 3e bd
       0.084331706 -0.32788157 0.036373857 -0.046568442
0000f0 22 59 87 bc 4b 54 a0 3c 8d bb 91 bd 09 ff 4f 3e
       -0.016521994 0.019571444 -0.071158506 0.20312132
000100 0b 70 78 3d fa 81 d4 be ae 61 02 be c9 e6 90 3d
       0.060653728 -0.41505414 -0.12732574 0.07075269
000110 20 b7 c1 bd 42 85 09 bf ed 27 84 3d 8d b3 34 3f
       -0.094587564 -0.5371896 0.06452928 0.7058647
000120 fd 9a a2 bd e7 9c b0 3d d3 a1 99 bd 6d ab 38 bf
       -0.07939718 0.08623677 -0.07501569 -0.72136575
000130 97 2d 54 bd 77 44 04 3d 68 86 4f 3e 3b 86 58 bd
       -0.05180129 0.032291856 0.20266116 -0.052862387
000140 90 3f ef 3d 12 ba e4 3c 61 bb 34 3e 1e b5 f6 3e
       0.116820455 0.027920756 0.17649604 0.48185056
000150 8a b4 84 bd d7 30 f7 bd e7 5d 62 bb 09 91 02 3e
       -0.064797476 -0.12069862 -0.0034540833 0.12750639
000160 45 58 9a bd 1d 3a e3 3c a6 dd 56 bd b2 b6 66 3d
       -0.07536367 0.027737672 -0.052457474 0.056326576
000170 58 3d da bd 0a d7 1c 3e c7 4c 28 3d a8 c5 9f bc
       -0.10656232 0.15316406 0.041088846 -0.01950343
000180 b2 42 a9 3e ab 21 cf 3e a5 3e e1 bd 1a 2c 0a 3e
       0.33058697 0.40455374 -0.109982766 0.13493386
000190 92 2c 29 bd 83 ee 9d be 4a 79 e6 bd d8 ff 37 bd
       -0.04130227 -0.30846033 -0.11253603 -0.044921726
0001a0 d0 81 ee 3d 29 16 8a 3e 1f aa be 3c 85 75 6b 3e
       0.116458535 0.26970032 0.02327448 0.22994049
0001b0 db fa b5 3d cb cb 80 3d d1 aa d3 3d 2b 54 58 bd
       0.088857375 0.062888704 0.10335315 -0.052814644
0001c0 cc 86 fb 3d b9 37 d9 3d bf ad 84 bf 2b 2f 4c 3d
       0.1228157 0.106063314 -1.0365523 0.04984967
0001d0 d5 d4 2d bd ba 53 0b 3e ed 11 2b 3d ae 7a db be
       -0.0424393 0.13606158 0.041765142 -0.42867035
0001e0 0f c9 ac bd 9d fc b2 3e 76 bd 0b 3f 58 0e e4 bc
       -0.084367864 0.34958354 0.5458597 -0.02783887
0001f0 03 ad eb 3d c8 70 74 bd c4 e1 a1 3d 38 28 ab 3c
       0.11507609 -0.05967787 0.079043895 0.020893201
000200 e9 b9 ec bb 9b 07 f2 3d 8b 0a 38 bd 93 d8 09 bd
       -0.0072243107 0.11817857 -0.04493193 -0.033653807
000210 9a 78 27 bd bd 09 03 be 38 59 55 bd 8f e3 cf bd
       -0.0408865 -0.12796684 -0.05208704 -0.10150825
000220 99 b3 15 be 40 e4 3e be 85 39 81 3d cd 28 5b bd
       -0.14619292 -0.18641758 0.06309799 -0.053505708
000230 74 36 39 bd 79 c4 e8 3d 41 a8 0a be 9f 5d 33 bd
       -0.045217946 0.11365599 -0.13540746 -0.043790456
000240 f6 84 db bd d6 08 7d 3d a1 b0 ed bd 1b 62 c6 3d
       -0.1071872 0.061776005 -0.11605955 0.09686681
000250 02 08 56 3d 42 63 04 3e 08 3d 88 bd ce 64 17 3d
       0.05225373 0.12928489 -0.06652266 0.03696137
000260 f0 34 65 bd 6d c7 7c 3d a5 12 39 bb 62 15 89 bd
       -0.05595869 0.061713625 -0.0028239873 -0.066935316
000270 fa e4 d2 bc 54 7e 14 3c 3f a2 09 3d 84 9f 11 be
       -0.02574395 0.009063322 0.033601996 -0.14221007
000280 98 3a 2f 3d 45 40 f1 bd 24 a0 65 bd 2a b8 09 be
       0.04278049 -0.117798366 -0.056060925 -0.1344916
000290 6b 64 aa bd d6 d5 05 3d 0d 10 1a be ae c6 fa 3a
       -0.083199345 0.032674633 -0.15045185 0.0019132697
0002a0 1f 3d ec bd 97 36 73 3d 9b ac ce 3d 5f e7 dc 3c
       -0.115350954 0.059378233 0.10091516 0.026965795
0002b0 50 13 cd bd d6 ce 3d bb 52 8d 13 3e 0c 6a 2c 3c
       -0.10013449 -0.0028962395 0.14409378 0.01052333
0002c0 7e 1b 32 3c 8e f9 1f bd d8 60 84 3d f8 8b e6 3d
       0.010870812 -0.039056353 0.06463784 0.11257166
0002d0 6e 46 bb bd d0 59 9b bd e5 fa 06 be c4 fd 59 bd
       -0.09144293 -0.0758549 -0.13181646 -0.053220525
0002e0 a4 98 bc bd 6e f7 31 be 75 48 05 be 4d 1d 99 bd
       -0.092088014 -0.17379543 -0.13015921 -0.07476292
0002f0 25 b8 f7 3c e4 bd 02 3e f9 cc ad bd 56 c6 02 be
       0.030239174 0.1276775 -0.08486361 -0.12770972
000300 46 79 81 3b 33 d0 9b bd 7b dc a4 3c ae 23 06 3e
       0.0039512245 -0.0760807 0.020124665 0.13099548
000310 fc 32 61 3d 86 05 1f be e1 1c dd bc 05 c4 e4 bd
       0.054980263 -0.15529451 -0.02699131 -0.111702
000320 46 0b 0f 3e b4 8a 78 bd 37 2e 12 bd ef 07 21 3c
       0.13969144 -0.060679153 -0.035688605 0.009828552
000330 b9 45 0d bd 99 46 4e 3d 57 2d 07 be 4e 6a 17 be
       -0.03449032 0.050360296 -0.1320089 -0.14786646
000340 81 46 33 bd 90 38 e5 bd 29 95 77 3b b8 60 b9 bd
       -0.04376841 -0.11192429 0.0037778115 -0.09051651
000350 46 3b d4 bd bd 16 95 bd c3 1a cc 3d 89 dd ac 3d
       -0.10362868 -0.072797276 0.09966042 0.08440692
000360 6d 3d 69 3b 21 86 f0 3d 4a 34 d7 bd 2c fa f1 3d
       0.003558959 0.11744333 -0.1050802 0.118152946
000370 bf 41 18 be be 80 11 bd c2 ff b8 bd 66 34 96 3c
       -0.1486883 -0.03552317 -0.09033157 0.018335532
000380 00 01 1c bd b1 34 33 be f8 dd 82 3d 43 4c fa 3d
       -0.03808689 -0.17500569 0.063899934 0.12221577
000390 33 e4 1f ba 4f b9 aa bd 56 d6 67 bd d2 57 e6 bd
       -0.0006099373 -0.08336126 -0.05660089 -0.11247219
0003a0 07 61 1c be ea b2 76 bc 17 ce bd bd 0e cf f0 bd
       -0.15271388 -0.015057305 -0.09267824 -0.117582425
0003b0 e5 58 ad bd 21 73 e7 bd 4c 09 ea bd f2 75 be 3d
       -0.08464221 -0.11301256 -0.114275545 0.0929984
0003c0 19 94 ac bd 24 d2 08 3e 58 98 70 bd 1f 52 37 bd
       -0.08426685 0.13361412 -0.058739036 -0.04475605
0003d0 6c 44 10 3e 41 ee de bd e9 7a 08 bc 36 91 f4 bd
       0.14088601 -0.10885287 -0.008330085 -0.11941759
0003e0 27 25 28 bd 63 0f 8f bd e6 5a 4c bd c3 1e ac bd
       -0.041051056 -0.06985357 -0.049891375 -0.08404305
0003f0 41 b3 01 bd df 19 23 3d 4b 9f ae 3d ea 29 0b bc
       -0.03166509 0.039819594 0.085264765 -0.00849388

bias f4 [128]
000000 dd aa b4 bd a2 4f 4a bd 6d 8c 82 bd 46 bd 89 3d
       -0.08821652 -0.04939235 -0.0637444 0.06725554
000010 c0 f7 03 3e 59 ef 8a bd b8 b0 80 3e da 83 76 bd
       0.12887478 -0.06783933 0.25134826 -0.060184337
000020 27 52 76 bd 94 0f 78 bd df 27 7a bd 1d be 28 bd
       -0.06013694 -0.06056173 -0.06107318 -0.04119693
000030 17 f3 8d 3e f4 b3 7b 3d d4 8f 28 3e 53 e9 65 bd
       0.27724525 0.061450914 0.16461116 -0.05613072
000040 fa 94 a0 be 15 fc 75 bd 86 1a b0 be 6a 6c 2c 3e
       -0.3136366 -0.060054857 -0.34395236 0.16838232
000050 17 1b 0c 3e a1 5b 0e be 2c 97 3b 3e c2 61 74 3d
       0.13682209 -0.13902141 0.18319386 0.05966354
000060 6e d9 8c bd 86 4e e9 bd e0 f7 75 bd 7f 88 a7 3d
       -0.06877409 -0.1139193 -0.060050845 0.081803314
000070 d2 e6 7a bd dc 56 cd bd 65 9b ba bd f7 b1 15 3d
       -0.061255284 -0.10026333 -0.091116704 0.036546674
000080 70 80 40 3d d4 bf 06 3e 41 14 3b 3e 0d fc 75 bd
       0.046997488 0.13159114 0.18269445 -0.060054827
000090 fa 4f 91 bd de 81 50 be 29 e3 76 bd b6 92 2c be
       -0.070953324 -0.2036204 -0.06027523 -0.16852841
0000a0 44 ff 41 bd b7 df a5 bc ef 49 6b bd e6 db 7c bd
       -0.04736258 -0.020248277 -0.057443555 -0.06173315
0000b0 c9 59 76 bd 45 4e e5 3d b8 10 b9 bd 59 19 09 bd
       -0.06014422 0.11196569 -0.09036392 -0.03347144
0000c0 df 2b 06 3d d8 36 b1 be c3 bf 47 be a8 ad f5 3c
       0.032756682 -0.34612155 -0.19506745 0.029990032
0000d0 35 db bd 3b 3b 1f 10 3c f9 e8 13 3e d3 1c 95 bd
       0.005793954 0.008796508 0.14444341 -0.072808884
0000e0 29 59 c8 be a7 61 54 bd 5e 5b ba bd 99 10 12 bd
       -0.39130524 -0.05185094 -0.09099458 -0.03566036
0000f0 48 78 7d bd 8f 54 c5 be f8 e0 3a 3e 01 30 40 3e
       -0.061882287 -0.38541076 0.18249881 0.18768312
000100 91 f0 9c bd 62 7d 91 be 7f d9 ec bd 01 72 97 3e
       -0.07663072 -0.28415972 -0.115649216 0.29579166
000110 e4 6e 9a bd a5 be a9 bd 31 bb 2f 3e c6 db 13 bd
       -0.07540682 -0.08288316 0.17161252 -0.036098264
000120 3f ac 15 be 16 fc 75 bd 6f c9 2c be 12 8a ae be
       -0.14616488 -0.06005486 -0.16873716 -0.34089714
000130 9c a4 76 bd 92 2d 08 3d 9d 05 36 be 12 fb 4f 3e
       -0.060215577 0.033246584 -0.17775579 0.2031062
000140 ff 93 34 3e 09 f4 3a bd aa ad b9 3c 2e dd 77 bd
       0.17634581 -0.045642886 0.022665817 -0.060513668
000150 c6 1b 77 bd a7 84 7d bd 09 07 75 bd c4 63 b0 bd
       -0.06032922 -0.061894085 -0.059821162 -0.08612779
000160 29 eb c0 bd ae 50 1a bd 73 c0 14 3e 88 b1 69 bd
       -0.09419853 -0.0376746 0.14526539 -0.057054073
000170 f4 fb 75 bd c9 ef 15 be 41 a6 60 3e 1f c3 cc bd
       -0.060054734 -0.14642252 0.21938421 -0.09998154
000180 0a c4 81 bd bd 01 b4 bb 2b 96 76 bd bd ba 8f bd
       -0.063362196 -0.0054933713 -0.060201805 -0.070180394
000190 e7 a1 6c be 22 dd ae bd e1 37 e0 bd f1 97 13 3d
       -0.23108636 -0.085382715 -0.10948158 0.036033574
0001a0 30 63 0a 3e e6 bd 87 bd b3 a6 bc bd 75 78 21 3e
       0.135144 -0.06628017 -0.09211483 0.15768607
0001b0 7f 62 b9 3d 64 c7 be 3d 07 89 01 3c bc 5d 8a bc
       0.0905199 0.093153745 0.007906205 -0.0168904
0001c0 97 82 77 bd d0 a6 f0 3d f1 d4 14 be d3 c8 e4 3b
       -0.060427275 0.11750567 -0.14534356 0.006981948
0001d0 e1 40 e1 bc b0 e1 7a bd 69 97 56 be 2b fe b0 bd
       -0.027496757 -0.06125039 -0.20956196 -0.08642229
0001e0 6e 46 90 bd 2f 62 34 bd e7 20 a5 bd 75 45 97 bd
       -0.070446834 -0.044038948 -0.08062916 -0.07386295
0001f0 84 1d 16 3e 24 6a aa bd 6d 82 db bd 28 a1 4e 3e
       0.14659697 -0.08321026 -0.10718236 0.20178664

weight f4 [128, 128]
000000 df cb 05 be d9 a2 25 bd 88 a5 ba 3c 7e 85 f9 3c
       -0.13066052 -0.040438507 0.02278401 0.030459162
000010 a8 a4 54 3e 30 8b d4 3d de 32 76 3e 42 1b c8 3e
       0.20765936 0.103781104 0.24042842 0.39083296
000020 3c 6f fb bd 78 5c 0d 3d 4b ce 93 be 45 85 ca bd
       -0.12277076 0.034512013 -0.28868327 -0.098887004
000030 e3 57 29 bd dc 5b 64 bd 3d 81 0b 3d fd f3 ae 3e
       -0.04134358 -0.055751666 0.034058798 0.34170523
000040 21 1f 98 3d 03 25 bc bf 98 1b c2 be be 0d 23 3e
       0.07427812 -1.4698795 -0.37911677 0.15923211
000050 33 ec 20 3e 59 ae 43 bd af 67 1f 3d 1e 5d 67 3e
       0.15715103 -0.047773693 0.03891724 0.22594115
000060 a7 fb 76 be 0c 2b 45 3d df 6e 62 be e4 56 c5 3e
       -0.24119435 0.048136756 -0.22112606 0.38542855
000070 02 c9 f9 3d 16 59 39 bd c9 fe f2 bd 6e 54 82 3c
       0.12196542 -0.045250975 -0.11865003 0.0159094
000080 3d 6b 36 3e c5 9f b9 bd 1c 0f 25 bd 8b 95 32 3e
       0.17814346 -0.09063677 -0.040297613 0.17439859
000090 22 7a 02 bf 44 de ed 3d 5b e3 02 3c 4f 3b 50 bd
       -0.5096761 0.116146594 0.007988776 -0.05083781
0000a0 3a 82 33 3e b3 94 aa bd 61 8b d6 3d e1 65 c8 bd
       0.17530146 -0.083291434 0.10475803 -0.09785057
0000b0 14 7f e2 3e 08 ed ac 3d 39 c8 0b 3e e7 b7 0e bd
       0.44237578 0.084436476 0.13650598 -0.03484335
0000c0 76 ba 03 3d f9 d8 38 bd ff ff 88 3b b6 06 17 bd
       0.032160245 -0.045128796 0.0041809077 -0.036871634
0000d0 c0 a3 2b 3d 09 f0 87 bd ca e1 9e 3d d1 56 49 bd
       0.04190421 -0.0663758 0.077579096 -0.04915506
0000e0 b0 62 4b bd fc 19 9c bd 57 db b7 bc 4a 5f f3 3d
       -0.049654663 -0.076221436 -0.022443457 0.11883409
0000f0 28 32 c7 3d e1 60 a8 3d c2 a5 cd bd e4 19 47 3d
       0.097263634 0.08221603 -0.100413814 0.048608676
000100 e4 4c c1 3d 7b ea 3c 3e 6d 37 17 bc f1 a3 00 3e
       0.09438494 0.18448822 -0.009229523 0.12562539
000110 c6 d8 05 3f 08 32 b6 3e 6c 57 0c 3e 56 11 26 3e
       0.52283895 0.35585046 0.13705224 0.1621755
000120 1f 39 1c 3e 5c ff 99 bc e4 58 d4 bc 72 8b 69 3d
       0.15256165 -0.018798523 -0.025921293 0.05701775
000130 7c e7 34 3e 79 fa 12 3f 45 59 b6 bd 0d bb 20 3c
       0.1766643 0.5741344 -0.089037456 0.009810221
000140 d5 22 bc 3e ab 5d 1c 3e ca 6b 08 bd c2 cf 70 bd
       0.36745325 0.15270106 -0.03330592 -0.058791883
000150 a3 64 ea 3d 29 f9 0f 3e 1e 35 2a bf 61 82 e8 3c
       0.11444976 0.14059891 -0.664873 0.028382482
000160 b7 89 c0 3d f3 2a 1b bd e6 1c 98 3c f4 ae 02 bd
       0.09401267 -0.037882756 0.018568467 -0.03190513
000170 fe f6 b5 be 8a ef 31 3d f5 67 83 bd aa e8 6e be
       -0.35540003 0.043441333 -0.064163126 -0.23330942
000180 7d 21 eb bd 6d 59 b9 bd 8e be 38 be 5c 86 b1 3c
       -0.11480997 -0.0905026 -0.18041441 0.021670513
000190 1f b0 32 3e 61 24 0c 3d 3f 27 db 3d 4f a7 12 3e
       0.17449997 0.03421438 0.10700845 0.14321636
0001a0 a4 81 07 be a3 1c ae 3d 6a af 30 bf f4 4c db bb
       -0.13233048 0.08501556 -0.6901766 -0.006692523
0001b0 01 5f 05 3e ca 33 2c 3e 4b 0b 1d 3e 24 24 3e be
       0.13024522 0.16816631 0.15336339 -0.18568474
0001c0 97 db bb 3c e7 4d ed 3d f1 cd 1a 3c 6a b4 0e 3e
       0.022931857 0.11587124 0.009448514 0.1393601
0001d0 cd 40 ec 3e f6 8d 36 3f f5 0b e4 3e 2c da dd 3d
       0.4614319 0.71310365 0.44540372 0.108326286
0001e0 03 41 6f be 5f 01 bf bd 07 a1 ae bf 27 e9 f3 be
       -0.23364644 -0.093264334 -1.3642892 -0.4763882
0001f0 8a 30 51 3e b2 76 52 bf fa f2 2d 3d f2 c3 c0 3e
       0.20428672 -0.82212365 0.04246805 0.37649494
000200 25 45 cd bd f5 b3 16 3e bb 43 bd 3d 9b 16 fc 3d
       -0.10022954 0.14717086 0.09241434 0.12308999
000210 73 8d 79 bd 0a 98 16 3e f3 55 5b 3c 45 bd 82 3c
       -0.060925912 0.14706436 0.013387191 0.015959391
000220 d4 54 a1 3d 8b e5 cc bd a1 5b c4 3d e2 3e da bd
       0.07877508 -0.10004719 0.09587789 -0.10656525
000230 41 68 ea 3a 59 28 8a bd 36 94 5e bd 2e ff c3 3c
       0.0017883853 -0.06745977 -0.054340564 0.02392539
000240 67 15 d8 bd 9b e3 29 bc b2 bb ec bd f1 a8 5b bd
       -0.10550957 -0.010369207 -0.115592375 -0.053627912
000250 2b dc c2 3d 9e 1b ae bd 09 62 ac 3d 0c af e9 3c
       0.0951465 -0.08501361 0.08417136 0.028525852
000260 e1 1b fb bd 86 0c 5c 3c 4b ea 06 bd 9a dd 09 be
       -0.12261177 0.01343072 -0.032938283 -0.1346344
000270 9b 75 39 bd 4e ed fc 3d f8 a3 30 bd 84 f6 b8 3d
       -0.045278173 0.1234995 -0.043125123 0.09031394
000280 2d da 90 3d 11 d7 f6 bd 58 74 36 bd 42 1f 17 3e
       0.07072864 -0.120527394 -0.044544548 0.14758018
000290 40 e2 66 be 2d 6d a0 3d d4 5e 4d 3d c6 86 66 bd
       -0.22547245 0.07833324 0.050139263 -0.056280874
0002a0 bc 7a 38 3e 2b 3a e5 bd ad 8f 92 bb f8 e8 17 3d
       0.1801557 -0.11192735 -0.004472694 0.03708741
0002b0 6e ec bd bd 8b c2 4c bd b9 fa a3 bd 34 b2 83 bc
       -0.09273611 -0.049990218 -0.08006806 -0.016076185
0002c0 88 fc 08 3e 93 e4 d3 bd a7 aa f8 bd ce b9 31 bd
       0.13377583 -0.103463314 -0.12141924 -0.043390088
0002d0 88 ec 18 be 08 14 68 bd cf a8 e5 bd 73 b1 cd bb
       -0.1493398 -0.05665973 -0.11213838 -0.006277257
0002e0 4e ef 61 bd 5c 53 97 bd 3a 01 2d 3c 47 13 8b bb
       -0.05515986 -0.073889464 0.0105593745 -0.0042442414
0002f0 6a f8 ea 3b d5 3c a6 3d 18 55 ee ba c7 fd c2 bd
       0.0071707265 0.081170715 -0.0018183319 -0.095210604
000300 34 ad cc bd 50 c5 42 bd 95 d7 9c bd d2 92 03 be
       -0.099939734 -0.047551453 -0.076583065 -0.12848976
000310 a4 47 f8 bd 25 95 cc bd 21 e3 01 be 37 93 fc bd
       -0.12123039 -0.099893846 -0.12684299 -0.123327665
000320 f5 71 ba bd 48 c1 dc bd 86 3b 42 3e b7 a7 b1 bc
       -0.09103767 -0.10779053 0.18968019 -0.021686418
000330 51 96 3b 3d 39 46 fd bd eb f4 a6 bc 98 07 36 3e
       0.04579765 -0.123669095 -0.020380458 0.17776334
000340 a7 73 66 bd 65 67 ab 3c 33 68 23 3e d8 7b fb 3d
       -0.05626264 0.020923326 0.15957718 0.12279481
000350 b1 8a 67 3d 47 0d 77 be d7 15 f4 bd 70 74 07 bd
       0.05652875 -0.24126159 -0.11918228 -0.033070028
000360 95 c4 29 bd 13 87 33 3c 44 9e 6a bc df 9c 0d be
       -0.04144724 0.010957497 -0.01431996 -0.13829373
000370 cd 62 08 be 8a 8d 18 bd 82 45 42 be 23 69 e8 bd
       -0.1331894 -0.037244357 -0.18971828 -0.11348178
000380 7b 64 83 bd f1 3c 0a bd d0 18 91 3d 48 9e f7 3d
       -0.064156495 -0.033749525 0.07084811 0.12090737
000390 fa c4 fd 3c 73 1c 18 3e 0b 4e 6d bc 74 84 a4 bc
       0.030977715 0.14854603 -0.014483939 -0.02008269
0003a0 79 43 e9 3d e7 02 1d 3a cd dd c7 bd 57 ab ad bd
       0.113898225 0.0005989507 -0.09759102 -0.08479946
0003b0 36 e1 14 3e 43 8d 8a bc 1f 44 03 be 70 7b 26 be
       0.14539036 -0.016913062 -0.12818955 -0.16258025
0003c0 a2 16 09 3d bd 96 f4 3d 76 c7 93 3d 16 0b 33 bd
       0.03346885 0.119428135 0.072157785 -0.043711744
0003d0 9f a5 05 be f6 fd ba bd 85 b7 4f be 7a eb ad 3d
       -0.1305146 -0.091304705 -0.20284851 0.08492179
0003e0 df 31 ec bd fe 74 dc 3d be ae 3c be 7c ed 21 bc
       -0.1153295 0.10764502 -0.18426034 -0.009883281
0003f0 0f 96 52 3d c6 5b 8a 3b 86 29 37 3e 0a 9e f0 3d
       0.05141264 0.004222366 0.17886934 0.117488936

weight f4 [8, 128]
000000 34 b1 11 3e 45 fe db bc 75 5d d4 3d 6e bd 57 be
       0.14227754 -0.026854644 0.10369388 -0.21068355
000010 7d 8f ac 3d 0d 9c 06 bd cf 60 80 be 85 51 80 3d
       0.08425806 -0.032863665 -0.2507386 0.062655486
000020 01 bf d9 3c 5a b0 c1 3d 90 63 10 3d 1e ff 44 3e
       0.026580336 0.094574645 0.0352512 0.19237944
000030 2d 43 35 be 66 a5 a6 3c 08 14 a9 be 66 80 81 bd
       -0.17701407 0.02034254 -0.33023095 -0.06323318
000040 d2 50 20 be 46 ca a3 3d 7d de 23 3f b6 af 4f bd
       -0.1565583 0.07997565 0.64011365 -0.05070468
000050 f7 77 5b 3d 76 98 18 b7 bb 8b 38 3c b8 6c 1e be
       0.053581204 -9.095404e-06 0.011263783 -0.1547116
000060 0c ba fb 3d c4 0f 19 be 06 5d c0 bd c5 4d e7 3c
       0.12291345 -0.1494742 -0.09392743 0.028235326
000070 5c a1 ae bc f4 c3 38 be 8e c5 d0 bd 62 3d 86 bd
       -0.021317177 -0.180435 -0.101939306 -0.065546766
000080 12 1d 85 3a ed d2 da bd 86 5b 9f bd fc 97 6d bc
       0.0010155758 -0.10684762 -0.077811286 -0.014501568
000090 6c 29 f0 3d 94 3e 03 3e 58 af b8 bc 8d 2c 69 3e
       0.117266506 0.1281684 -0.022544548 0.22770901
0000a0 78 b6 e0 bc c1 38 1e 3e 6a ac 11 3d 01 a1 2c 3d
       -0.027430758 0.15451337 0.035564817 0.042145733
0000b0 39 41 61 bc 3b 10 18 bc d2 a8 8c bf 0a 26 91 3d
       -0.01374846 -0.009281213 -1.098902 0.070873335
0000c0 a8 7e 10 be 85 ae 6f be 6c 0b 6a be e6 9a f5 bd
       -0.14110816 -0.23406418 -0.2285592 -0.11992435
0000d0 06 37 4f bc 1f 7d 2c be 76 2a 7c bd 9a ba 2a 3e
       -0.012647396 -0.16844605 -0.06156393 0.16672745
0000e0 fe ef eb bd d2 e8 e6 bd 7f 40 b3 3b 5a 13 47 3e
       -0.11520384 -0.11274876 0.005470335 0.19440976
0000f0 f3 7b 86 3d 52 6b d8 bd a5 2b 3c bc 32 ba 1e 3e
       0.0656661 -0.10567345 -0.011485015 0.15500715
000100 03 fb 71 3e 40 ce ad bd d1 97 79 3c 4b 74 e1 bd
       0.2363091 -0.08486605 0.01523395 -0.11008509
000110 c1 07 a8 3c 8e af 56 bd 29 2d 8b be 96 da 24 3d
       0.02051151 -0.052413516 -0.27182892 0.040247522
000120 e2 2f a7 3e 8e 13 20 3c e9 65 cc be ce d3 4a 3c
       0.3265372 0.009770287 -0.399215 0.0123796
000130 f6 fe d5 bb f0 4a 0a 3e 49 a4 31 3d c3 fe b5 be
       -0.006530638 0.13505149 0.043369565 -0.3554593
000140 86 c2 b4 bc 8c 02 8c bd 2b 21 9f 3c fa 69 f3 3d
       -0.022065412 -0.06836423 0.019424995 0.11885448
000150 3e 6a 4e 3c a6 71 de 3d 97 9f be 3c e6 2b 16 3d
       0.012598572 0.108615205 0.023269458 0.03666296
000160 2d 50 45 3e ce 6e 92 bd b5 0c 4b 3d 21 1d 56 bd
       0.19268866 -0.071500406 0.049572665 -0.052273873
000170 15 2d eb 3c af d2 33 3e 9b 55 19 3d 10 bc 0d 3d
       0.02870802 0.17560838 0.037435155 0.03460318
000180 3d 66 e7 3d da a2 38 3e c0 44 e8 3d 5e a7 df 3d
       0.11298797 0.18030873 0.11341238 0.10920595
000190 7d bf ad bc 98 e1 82 3e b6 b0 ad bc 5a 90 80 be
       -0.021209473 0.2556274 -0.021202426 -0.25110132
0001a0 7d f9 09 be c4 8d 03 3d e7 32 02 3e e1 82 38 3d
       -0.13474078 0.03211762 0.1271473 0.04504669
0001b0 35 a7 39 bc 9c 9a 08 3d e8 91 7e 3e 5c 1b fa 3d
       -0.011331369 0.033350572 0.24860346 0.1221225
0001c0 28 4c 45 3d 77 e9 26 be 15 57 e7 bd 2c 66 85 3c
       0.04816833 -0.16299997 -0.112959065 0.01628407
0001d0 55 2a 78 3e 85 37 f6 3d a2 3f 04 3e 00 95 1b 3d
       0.24234898 0.12022308 0.12914899 0.037983894
0001e0 e7 10 7c 3b 43 06 09 3f 8f be 4f bb 80 74 9e 3d
       0.0038462223 0.5352518 -0.0031699275 0.07737064
0001f0 a7 de 98 3d 20 67 ad bc 57 50 78 3b 42 10 33 bf
       0.074643426 -0.021167338 0.0037889683 -0.6994668
000200 2e a2 06 bc c7 ab 11 3d 22 b4 da bc e2 75 ab 3e
       -0.008217378 0.03556421 -0.026697222 0.33488375
000210 86 89 77 3e 65 16 ae bc b5 e8 a5 3e d1 f8 0a 3e
       0.24173555 -0.021250913 0.32404104 0.13571478
000220 75 1f 4b 3d 2d c2 8c 3d 04 4e 0a 3d 04 ff 21 bd
       0.049590547 0.068729736 0.033765808 -0.039549842
000230 65 fc 89 be e4 2d c6 bd 28 16 5f 3d 7b 00 9d bd
       -0.26950374 -0.09676722 0.05446449 -0.07666107
000240 5c b1 e6 3e f1 54 17 3d 23 23 c2 3d 3e c0 ca 3e
       0.4505719 0.03694624 0.09479358 0.39599794
000250 86 fb e7 3c 54 9c 3a be 47 df 0a 3c d6 dc 23 3e
       0.028318178 -0.18223697 0.008476085 0.16002211
000260 c2 af c9 bc 45 3a 90 3d b9 4d 19 3d 87 5d 93 3e
       -0.02461994 0.07042364 0.037427638 0.28782293
000270 a4 03 7e 3d 8c 1e dd be bb 6e 05 3d d4 fb 67 3e
       0.06201519 -0.43187368 0.032576304 0.22654659
000280 41 aa 41 be d9 0a d0 bd f3 a1 be 3e ec 62 70 3d
       -0.18912603 -0.10158319 0.37232932 0.05868809
000290 49 28 e3 3d 13 e2 2e be cf 4a 9c 3d 4a 2e 37 3e
       0.11091668 -0.17078428 0.07631456 0.17888752
0002a0 04 e3 d4 3b 6e 07 95 3d ce 0a 5b 39 16 ba e8 3d
       0.006496789 0.07276808 0.00020889493 0.11363618
0002b0 18 71 1a 3d 02 3e 42 bd f5 e1 50 3c ec 06 d6 3c
       0.03770551 -0.047422417 0.012749185 0.026126347
0002c0 36 fa 1b be e7 e3 f5 bd 36 a8 7b 3e 53 80 9b 3d
       -0.15232167 -0.120063595 0.24575886 0.07592835
0002d0 81 17 32 be df 0a 07 bf 75 33 3b be 75 3e 36 3d
       -0.17391779 -0.5275096 -0.18281348 0.044493157
0002e0 fe 0c 0b 3d a4 a2 bf 3c 5f 74 cd be 49 a4 a4 be
       0.033947937 0.023392983 -0.40127847 -0.3215659
0002f0 d2 01 bd 3c ce 66 51 be 39 97 c9 3e 82 5e 1e 3e
       0.023072157 -0.20449373 0.39373186 0.1546574
000300 09 ad a3 bd 8d 17 c8 bd 0b ff a7 bd 46 97 22 3d
       -0.07991988 -0.09770117 -0.082029425 0.039695047
000310 55 e4 5a 3d 48 50 37 3d f3 80 3d 3e 2f f4 72 bc
       0.05344041 0.044754297 0.18506221 -0.014828726
000320 d2 0e f8 bc 6e df 48 bc 33 03 50 3e 09 f8 e3 bd
       -0.030280504 -0.012260301 0.2031372 -0.11131293
000330 f7 68 53 3c 74 03 c9 3d ef 01 de 3d f0 9a a8 be
       0.012903444 0.09815112 0.108402126 -0.32930708
000340 3c 14 e8 3d 05 73 11 bd b0 24 86 3c 91 e7 8e 3d
       0.113319844 -0.03551008 0.016374916 0.069777615
000350 b3 4e c0 3b 70 c6 bb 3d da 46 9c 3d df 4d 6c 3d
       0.0058687567 0.09168708 0.07630701 0.05769145
000360 dd 83 fc bc 71 d9 ef bd 6c d6 0c be 7d 48 bc bd
       -0.030824596 -0.117113955 -0.1375367 -0.091935135
000370 26 e8 9c 3d 36 65 b0 bd 05 43 32 bc 26 e3 0c 3d
       0.07661466 -0.086130545 -0.0108802365 0.034396313
000380 f1 3d 49 3d 32 9e 7b be 0f 55 55 bb 8c 64 11 bd
       0.049131338 -0.24572065 -0.003255192 -0.03549628
000390 0b 2f b6 be 32 44 ae 3d f6 80 85 bd 13 9f 78 be
       -0.35582766 0.08509101 -0.06518738 -0.24279432
0003a0 43 3e 2d be 01 3b 80 ba eb b0 0b 3f 7a 93 aa bd
       -0.16918282 -0.000978321 0.5456683 -0.0832891
0003b0 72 80 1e 3e 67 e6 8a bd c9 ee 3a 3e 2d f8 c6 bc
       0.15478685 -0.06782227 0.18255152 -0.024288261
0003c0 16 8b 8e bc ea 54 a3 3e 99 26 11 be 62 3f a8 be
       -0.017400306 0.31900722 -0.1417488 -0.32860857
0003d0 f4 2a 09 bf 03 0a 2d 3d 68 eb ff bd 58 7c 54 3a
       -0.53581166 0.042245876 -0.12496072 0.0008105687
0003e0 71 b2 b6 3c 0c 54 85 be fb 2e de 3d 9d 96 99 bc
       0.022301884 -0.26040685 0.108488046 -0.018748576
0003f0 df f2 b7 3c 0d c8 b8 3d 64 10 ab bc 7c c0 77 bd
       0.022454677 0.09022532 -0.02088184 -0.0604863

bias f4 [8]
000000 b9 f5 19 bd 2e 5f c7 3c 45 4b 90 3d d2 29 35 bd
       -0.037587855 0.024337377 0.070456065 -0.044229336
000010 5b 92 7e 3d 23 87 ab 3d 6e 6c a6 3b e1 2e 02 3e
       0.062151294 0.08375385 0.005078844 0.12713195
