imitation_learning/logs/run_20240527203430/checkpoints/ckpt_60000.pt (torch, 15656 bytes, 4 tensors)

bias f4 [32]
0	0x3e832cfe	0.25620264
1	0x3e38c662	0.18044427
2	0x3cca33d2	0.024682913
3	0x3d817b4d	0.06322346
4	0x3ec16d2f	0.37778613
5	0x3dedbdcc	0.116084665
6	0x3edb6a93	0.42854747
7	0xbdd266f7	-0.10273545
8	0x3e6889f0	0.22708869
9	0xbe8af5de	-0.27140707
10	0x3db5f744	0.08885053
11	0xbc4e7fe3	-0.012603733
12	0x3deb4242	0.11487247
13	0x3ecb8d73	0.39756355
14	0xbe424d7b	-0.18974869
15	0x3e39964b	0.18123738
16	0xbd817dc6	-0.063228175
17	0xbd4f3ca7	-0.050594952
18	0x3ea62d70	0.3245654
19	0x3d3f984a	0.046776094
20	0x3ee68ac2	0.4502774
21	0x3ee02531	0.43778375
22	0x3d599ffe	0.053131096
23	0x3cbe113e	0.023201581
24	0xbdfb4fe4	-0.12271097
25	0xbdfcfa04	-0.12352374
26	0xbe3e2c6c	-0.18571633
27	0xbe23ea43	-0.16007333
28	0xbcf774d3	-0.030207073
29	0xbe04329d	-0.12909932
30	0xbd9da652	-0.07697739
31	0xbec37027	-0.38171503

weight f4 [32, 10]
0	0x3dcb1778	0.09916586
1	0x3f009650	0.5022936
2	0xbe887f77	-0.26659748
3	0xbeb26a1f	-0.3484659
4	0xbcd6f198	-0.026238248
5	0xc003f649	-2.061907
6	0x3d45ec0a	0.048320808
7	0x3f13e4cd	0.57771
8	0x3f768a54	0.9630482
9	0x40390688	2.8910236
10	0xbffd886d	-1.9807259
11	0x3fdca6e3	1.723843
12	0x3f299277	0.6623911
13	0x3f7998b1	0.97498614
14	0xbe838c89	-0.25693157
15	0x3ea62705	0.32451645
16	0x3f9c61f9	1.2217399
17	0x3e891ba0	0.2677889
18	0xbf2bdf76	-0.6713785
19	0xbedf1728	-0.43572354
20	0x3f99c7fa	1.2014153
21	0xbffa4a3f	-1.9553908
22	0xbf56fc0e	-0.83978355
23	0xbef06ca7	-0.46957895
24	0xbf371cd6	-0.71528375
25	0xbec34627	-0.3813946
26	0x3f5e3be2	0.86810124
27	0xbdb673f3	-0.08908834
28	0x3efa25fa	0.488571
29	0xbe4105d4	-0.1884988
30	0x3e87918c	0.2647823
31	0x4013d5dd	2.3099282
32	0xbe964aad	-0.29353848
33	0xbf544de8	-0.82931376
34	0xbf062faf	-0.5241651
35	0xbe499a12	-0.1968768
36	0x3fb8f68d	1.4450241
37	0x3e74108a	0.23834434
38	0xbbf374ec	-0.0074297097
39	0x3fb7da3e	1.4363477
40	0xbf05a2ae	-0.52201355
41	0xbea2ec75	-0.31821027
42	0xbed55b03	-0.41671
43	0x404ca252	3.1974072
44	0xbe94ee43	-0.2908803
45	0x40a7ff0c	5.2498837
46	0xc04c170e	-3.1889071
47	0xc0414853	-3.0200393
48	0x3f6eaf8b	0.9323661
49	0x3fddaae9	1.7317783
50	0xbf05b72d	-0.5223263
51	0xbfe7a5ed	-1.8097512
52	0xbf6ffb6d	-0.9374302
53	0x3fcb9f14	1.5907922
54	0xbedce66c	-0.43144548
55	0xbe8dfa2b	-0.27729926
56	0x3ed8b9a0	0.4232912
57	0x3ee90770	0.45513487
58	0x40053159	2.081137
59	0x3f54ec02	0.8317262
60	0xbf837f7e	-1.0273283
61	0xc00667f3	-2.1000946
62	0x3e76348c	0.24043483
63	0x3f828271	1.0196058
64	0xbf5f48e2	-0.87220585
65	0xbe187d62	-0.1489158
66	0x3f9d50a4	1.2290235
67	0x3dc5fe93	0.09667697
68	0xbeba0c80	-0.36337662
69	0x3f97450c	1.1817946
70	0x3f1b796f	0.6073217
71	0xbede2600	-0.43388367
72	0xbe79390d	-0.2433817
73	0x403e3a29	2.9722998
74	0x3de46606	0.11152272
75	0xbf9c0ac8	-1.219079
76	0xc04164b0	-3.0217705
77	0xc024f65b	-2.5775363
78	0x3fa9de36	1.3270938
79	0x4001c89d	2.0278695
80	0x3efa238c	0.48855245
81	0x3f89f851	1.0778905
82	0x3ee4b224	0.4466716
83	0x3f8a183f	1.0788649
84	0x3f7650b3	0.9621689
85	0xbdd77aba	-0.10521455
86	0xbeb24524	-0.34818375
87	0x3ef6d333	0.48208007
88	0x3e1b9f4e	0.15197489
89	0xbeb42393	-0.3518339
90	0x3fa17ab6	1.2615573
91	0xbfb7e5e9	-1.4367038
92	0xbe2121ff	-0.15735625
93	0x3ea2ae4e	0.3177361
94	0x3eb24ba4	0.34823334
95	0x3e1551c9	0.1458198
96	0xbf39dcf0	-0.7260275
97	0xbe6c8e64	-0.23101193
98	0xbf3c9403	-0.7366335
99	0x3e80b734	0.25139773
100	0xbf93770b	-1.1520704
101	0x3e14b884	0.14523512
102	0xbe683491	-0.22676302
103	0x3f4b3a03	0.79385394
104	0x3f0b0725	0.54307777
105	0x3f7830d0	0.9694948
106	0xbf4cfb45	-0.80070907
107	0xbf03a513	-0.5142376
108	0x3fe12297	1.7588681
109	0x3ef67f86	0.48144168
110	0x3ee4704a	0.4461692
111	0x3f094320	0.5361805
112	0xbe82fa12	-0.25581414
113	0x3f0e8789	0.5567556
114	0x3f0307b4	0.5118363
115	0x3f0750eb	0.52857846
116	0xbe928512	-0.2861715
117	0xbfe196aa	-1.7624104
118	0xbfd8c11d	-1.6933933
119	0xbf511eee	-0.8168782
120	0xbb76fc83	-0.003768713
121	0xbeee01ea	-0.46485835
122	0x3dad3473	0.084572695
123	0x3e966ed2	0.29381424
124	0xbea7ef11	-0.3279958
125	0x3f0e3c80	0.55561066
126	0x3ee2caec	0.44295442
127	0x3d6e3306	0.05815413
128	0x3fdf60bc	1.7451396
129	0x3fcf709c	1.6206241
130	0xbeaab5b8	-0.33341765
131	0x3f0a67bc	0.54064536
132	0xbcf2bca0	-0.029630959
133	0xbec16ef1	-0.37779954
134	0xbe592692	-0.2120612
135	0xbf5f3f22	-0.8720571
136	0xbf27d150	-0.6555376
137	0xbf88b96d	-1.0681587
138	0xbf54cb62	-0.8312284
139	0x3eb3dad8	0.35127902
140	0x3e1443ed	0.14479037
141	0xbf5c77f4	-0.86120534
142	0x3f981497	1.1881284
143	0xbe1cbcc4	-0.15306383
144	0xbd4fa488	-0.05069402
145	0x3fa60ac4	1.2972035
146	0x3f22ed59	0.63643414
147	0x3e7afc5e	0.24510333
148	0xbeee3cf5	-0.46530882
149	0xbf208f0a	-0.6271826
150	0x3f964b01	1.1741639
151	0x400f3a94	2.2379503
152	0x3d71363d	0.058889616
153	0xbede2fe4	-0.43395913
154	0xbdcbea87	-0.09956842
155	0xbeeec888	-0.46637368
156	0x3f1111e8	0.5666795
157	0x3e89a46d	0.2688326
158	0x3eb293f3	0.348785
159	0xbeda73a7	-0.4266636
160	0x3db7e3c6	0.08978991
161	0xbe822045	-0.25415245
162	0x3d87df1c	0.066343516
163	0xbe830d7d	-0.25596228
164	0xbe93d6de	-0.28874868
165	0xbdaa41fd	-0.083133675
166	0xbd23d2ca	-0.039995946
167	0x3e757990	0.23972154
168	0x3e7d02f3	0.24708156
169	0xbd0ad17f	-0.033891197
170	0xbe256e81	-0.16155435
171	0x3e2a8e97	0.16655956
172	0xbac536c1	-0.0015046225
173	0x3d8e8b33	0.06960144
174	0xbea4e4ae	-0.3220572
175	0x3db90151	0.09033454
176	0xbd148973	-0.036263894
177	0x3e31277e	0.17300221
178	0xbaa4eeb3	-0.0012583345
179	0xbea916c2	-0.33025175
180	0xbf217e46	-0.630833
181	0xbfd1237a	-1.6338952
182	0xbf7db1fd	-0.99099714
183	0x3fb412d3	1.4068245
184	0x3f234a91	0.63785654
185	0x3f2e8266	0.6816772
186	0x3f47e425	0.78082496
187	0xbf2455bd	-0.64193326
188	0xbe44a1a4	-0.19202286
189	0xbe77fa68	-0.24216616
190	0x3eacf5d4	0.33781302
191	0x3f350163	0.7070524
192	0xbed4c26f	-0.4155459
193	0xbfea39d5	-1.8298899
194	0x3d965def	0.07342135
195	0x3fa941d9	1.322322
196	0x3e3e20f2	0.18567255
197	0xbf26dd3e	-0.6518134
198	0xbf882531	-1.063635
199	0xbf137102	-0.5759431
200	0x3d8410c9	0.06448514
201	0xbfd47d91	-1.660082
202	0x3dd61c65	0.104546346
203	0x3fbe7e27	1.4882249
204	0x3f501900	0.81288147
205	0xbee43181	-0.44569018
206	0xbf93f7c6	-1.155999
207	0xbe77c6f6	-0.24196991
208	0xbedea742	-0.43486983
209	0xbec304d1	-0.38089612
210	0xbeb953b9	-0.36196688
211	0xbdef99a8	-0.116992295
212	0x3e6a2a3f	0.22867678
213	0xbe305a31	-0.17221905
214	0xbf067c0e	-0.5253304
215	0x3facc260	1.3496819
216	0xbead466d	-0.33842793
217	0xbe2711d7	-0.16315399
218	0x3f91ba52	1.1384985
219	0xbe97e6ba	-0.29668218
220	0x3e2bab06	0.16764459
221	0xc0318cb5	-2.774213
222	0x3efe8464	0.4971038
223	0xc02b31a8	-2.6749058
224	0x3efd33eb	0.49453673
225	0xbec8916a	-0.39173442
226	0xc02d7993	-2.7105453
227	0x3f339698	0.7015166
228	0xbfb1207e	-1.3838041
229	0xbf3beb79	-0.7340618
230	0xbdc024b9	-0.09382004
231	0xc00bd13a	-2.1846452
232	0x3e52180e	0.20516989
233	0x3f9bf7ea	1.2185032
234	0xbef516e3	-0.47869024
235	0x3e63ac58	0.22233713
236	0x3f5a51e0	0.8528118
237	0xbeea1f04	-0.45726788
238	0xbe8edab6	-0.27901238
239	0x3bda0b65	0.0066541904
240	0x3f8f9a74	1.121901
241	0xbf63e154	-0.890157
242	0xbf64ff1c	-0.89451766
243	0xbeec814f	-0.46192405
244	0x3f2db844	0.6785929
245	0xbe4d3dee	-0.20043156
246	0x3eceb953	0.40375766
247	0xbeb2970a	-0.3488086
248	0x3e867c0b	0.26266512
249	0x3f057932	0.52138054
250	0x3e450de0	0.19243574
251	0xbeb287f1	-0.3486934
252	0x3da74d88	0.08169085
253	0xbdbd1c83	-0.09233954
254	0xbd24673a	-0.040137507
255	0x400f7ada	2.2418733

bias f4 [8]
0	0xbe8750a5	-0.26428714
1	0xbe749c36	-0.23887715
2	0x3e4d1705	0.20028313
3	0xbdc8d454	-0.098061234
4	0x3d23bf32	0.03997726
5	0xbd684952	-0.05671055
6	0xbe99c6c4	-0.3003446
7	0x3dcd685c	0.100296706

weight f4 [8, 32]
0	0xbd875116	-0.06607263
1	0x3f092839	0.53577
2	0xbeccd8da	-0.40009195
3	0x3e6bf383	0.23042111
4	0xbe8e99cf	-0.27851722
5	0xbe152bba	-0.14567462
6	0xbf71b0c3	-0.9441034
7	0x3e8457e5	0.25848308
8	0xbf2555d2	-0.64584076
9	0xbcc41101	-0.02393389
10	0x3dd7e564	0.105418
11	0xbee06d81	-0.43833545
12	0x3e7fb81e	0.24972579
13	0x3e3383f1	0.175308
14	0x3d308855	0.043098766
15	0x3f2ad30b	0.66728276
16	0x3c44204d	0.011970592
17	0x3c19a41e	0.0093775075
18	0x3deebf1c	0.11657545
19	0xbca6c5db	-0.020358017
20	0x3f7c4a17	0.9855055
21	0xbe5b8874	-0.21438771
22	0xbe612f95	-0.21990807
23	0x3c571c3c	0.01312929
24	0xbdcf1000	-0.10110474
25	0x3dc01ab5	0.09380094
26	0xbdf446d7	-0.11927574
27	0xbe4722ce	-0.1944687
28	0x3e79bebe	0.24389169
29	0xbe53a92c	-0.20670003
30	0x3e447393	0.19184713
31	0x3e1780d1	0.14795233
32	0xbf6798e0	-0.90467644
33	0x3ffe82e2	1.9883692
34	0x400db45d	2.2141335
35	0x3f826d92	1.0189688
36	0x40a00081	5.0000615
37	0x4057011a	3.3594422
38	0xbe78d77d	-0.24300952
39	0xc061c46c	-3.5276136
40	0xbf0c9a55	-0.5492299
41	0x3f5ef84d	0.87097627
42	0xbfe4fd66	-1.7889831
43	0x3f272d58	0.65303564
44	0x3f4edd7e	0.8080672
45	0xbf904d2a	-1.1273549
46	0x3ec99db8	0.39378142
47	0x3e85dfc6	0.26147288
48	0xbe793348	-0.24335968
49	0xbcd0bfdd	-0.025482113
50	0xbf46ec5b	-0.777044
51	0x3e8a08c7	0.26959822
52	0xbf14e667	-0.58164066
53	0x4004f1e1	2.077263
54	0x3f3b236e	0.73100936
55	0xbfd8dd04	-1.6942449
56	0xbf6d243d	-0.9263342
57	0x3eb52dc9	0.35386494
58	0x3f40074c	0.75011134
59	0xbeb39ecd	-0.35082093
60	0xbdafdf80	-0.08587551
61	0x3e92f0d5	0.28699365
62	0xbe438c60	-0.19096518
63	0x3f79ab0d	0.9752663
64	0x3e90bcfd	0.28269187
65	0xbdaaa4d7	-0.08332222
66	0x3ec4d3e1	0.384429
67	0x3eaa6ae8	0.33284688
68	0xbfab01e3	-1.3359951
69	0xbeceb945	-0.40375724
70	0x3e072beb	0.13200347
71	0x3f721010	0.9455576
72	0x3f0e1998	0.555078
73	0xbe36e0db	-0.17859213
74	0x3e6c07f8	0.23049915
75	0x3f5f1a8b	0.87149876
76	0xbee2411a	-0.44190294
77	0xbd5f6f33	-0.054549407
78	0xbe62544a	-0.22102466
79	0xbf51dd66	-0.8197845
80	0xbdf93065	-0.12167434
81	0x3e384224	0.1799398
82	0xbec28d10	-0.37998247
83	0x3f14ff8c	0.58202434
84	0xbf6a29e0	-0.91470146
85	0xbe6fdaef	-0.2342336
86	0x3f3d715f	0.74001116
87	0x3f23dfe6	0.64013517
88	0xbf0bca0a	-0.5460516
89	0xbf1bb87d	-0.6082838
90	0xbe73c85e	-0.23806903
91	0x3ef64852	0.4810205
92	0xbee73cf3	-0.45163688
93	0x3f477df0	0.7792654
94	0x3d323df6	0.04351612
95	0x3e6fe356	0.23426566
96	0x3f9d2f71	1.2280103
97	0x3fc4578d	1.5339218
98	0x3fd2db35	1.6473147
99	0xbfc6f49f	-1.5543402
100	0x3efb8592	0.49125344
101	0xbfa717c0	-1.3054123
102	0xc024bb28	-2.573923
103	0xbf312ebe	-0.6921195
104	0x3f090bf0	0.5353384
105	0x3f43d00d	0.76489335
106	0x3e2d10bb	0.16900913
107	0x3ec4fffb	0.38476548
108	0xbf2b4d73	-0.66915053
109	0xbf525bcd	-0.82171327
110	0x3e99f358	0.3006847
111	0xbef6a9a2	-0.48176295
112	0x3ec64aba	0.38728887
113	0x3eaa4de6	0.33262557
114	0x3f0d0e8a	0.5510031
115	0xbf48f7ef	-0.78503317
116	0xbf969b84	-1.176621
117	0x3f13e22b	0.5776698
118	0xbe2a086a	-0.16604772
119	0xbf9e25ba	-1.2355263
120	0x3f70ce48	0.9406476
121	0xbf3ace0d	-0.7297066
122	0x3f8456f8	1.0339041
123	0x3d0383ae	0.032108
124	0x3f0a5c58	0.54047155
125	0xbf5726b0	-0.8404341
126	0xbe88c9bc	-0.2671641
127	0xbfc5cf5a	-1.5453904
128	0xbf851b33	-1.0398926
129	0xbe7cf51e	-0.2470288
130	0x3e1146a1	0.14187099
131	0x3f8ad01c	1.084476
132	0xc01c5cce	-2.4431643
133	0xbf3f0c5d	-0.7462824
134	0x3f54680b	0.82971257
135	0x3fd61ce7	1.672757
136	0x3f434394	0.7627499
137	0xbdd7e678	-0.10542005
138	0x3ef9e679	0.4880865
139	0xbe3766e2	-0.1791034
140	0x3f2912f6	0.6604456
141	0x3fb06331	1.3780271
142	0xbf80b025	-1.0053755
143	0xbf4fbe5b	-0.81149834
144	0xbd0f09ac	-0.034921333
145	0x3bf7cb15	0.007562051
146	0xbf450cca	-0.7697264
147	0xbde29e97	-0.11065405
148	0xbdcdad45	-0.10042814
149	0xbf816de4	-1.0111661
150	0x3f37b5a4	0.71761537
151	0xbeb1b971	-0.34711793
152	0xbdd09120	-0.101839304
153	0x3f8d4c0c	1.1038833
154	0xbe609a14	-0.21933776
155	0xbe6fff24	-0.23437172
156	0xbd0b32ee	-0.033984117
157	0x3e77ab5f	0.24186467
158	0x3d8188dd	0.06324933
159	0xbf7ab394	-0.97930264
160	0xbf5c6f88	-0.86107683
161	0xbf426c38	-0.7594638
162	0xbfe5aeef	-1.794401
163	0x3feca7e1	1.8488733
164	0x3f989c42	1.1922686
165	0x3fc98781	1.5744478
166	0x40069bdf	2.1032636
167	0xbf236dce	-0.63839424
168	0xbf01b1fc	-0.5066221
169	0xbfad7e03	-1.3554081
170	0xbf416e92	-0.7555934
171	0x3dca086d	0.09864888
172	0xbfb7b3e3	-1.4351772
173	0xbf8a71aa	-1.0815938
174	0xbeb8d24f	-0.36097953
175	0x3f8a2e21	1.0795327
176	0x3e99a343	0.3000737
177	0x3e781bdc	0.24229378
178	0xbe810df0	-0.25205946
179	0x3f1c9e26	0.61178815
180	0xbebb2b42	-0.3655644
181	0x3f95f878	1.1716452
182	0x3fedc183	1.857468
183	0xbf242991	-0.64125925
184	0x3d982f00	0.074308395
185	0x3f6068bf	0.8765983
186	0x3de1ccd1	0.11025394
187	0xbf89cbd8	-1.0765333
188	0x3e722ed1	0.23650672
189	0xbd4a46d2	-0.049383946
190	0xbcb90a51	-0.022587927
191	0x3fc61d01	1.5477601
192	0x3f53217f	0.82472986
193	0xbe3c2ad1	-0.18375708
194	0xbf7317ad	-0.94958
195	0xbe25d936	-0.1619614
196	0xbf238fa9	-0.63891083
197	0xbe3919d3	-0.18076257
198	0x3f15669f	0.5835971
199	0xbd03f114	-0.032212332
200	0xbdb4d9ce	-0.088306054
201	0xbf77f9c2	-0.96865475
202	0x3f40ace7	0.7526383
203	0x3f90be50	1.1308079
204	0xba88a2a2	-0.0010424445
205	0x3f438198	0.7636962
206	0x3f2c8bc5	0.6740077
207	0xbe2109d4	-0.15726405
208	0x3e769b5f	0.24082707
209	0x3e20f6f6	0.15719208
210	0xbec846b6	-0.39116448
211	0x3d65c274	0.056093648
212	0xbf651e5d	-0.89499456
213	0xbde8a57d	-0.113596894
214	0x3f55b83d	0.8348425
215	0x3f124c5f	0.57147783
216	0x3f478fc7	0.7795376
217	0xbf90511c	-1.1274753
218	0xbd224552	-0.03961689
219	0x3f8b9e6c	1.0907722
220	0xbf510def	-0.81661886
221	0x3eba3251	0.36366513
222	0x3ccce56b	0.025011739
223	0xbf6df289	-0.92948204
224	0x38b568a1	8.650241e-05
225	0xb71d6fed	-9.383989e-06
226	0xb8814e24	-6.165754e-05
227	0xb885d413	-6.381436e-05
228	0x39cc2c6e	0.00038943015
229	0xb8d20d36	-0.00010016041
230	0x373ec29b	1.1370193e-05
231	0xb99c8d7d	-0.00029860056
232	0xb7b37de8	-2.1397092e-05
233	0xb8fcd1ff	-0.00012055411
234	0xb8998dca	-7.322019e-05
235	0x382d90b3	4.1381176e-05
236	0x393c3615	0.00017949224
237	0xb87b8119	-5.9963295e-05
238	0x385a6cd5	5.2076608e-05
239	0x36cae6d2	6.04694e-06
240	0xbeb6e734	-0.3572327
241	0xbe1784be	-0.14796731
242	0x3865747d	5.4706343e-05
243	0x3909cfbb	0.00013142724
244	0xb7e35e72	-2.7104488e-05
245	0x37c8c78b	2.3934777e-05
246	0x373046f0	1.0506934e-05
247	0xb85ac5b0	-5.215936e-05
248	0x38a1c5df	7.7139346e-05
249	0xb8de6b56	-0.00010605778
250	0x374661f7	1.1824529e-05
251	0xb7f062da	-2.865626e-05
252	0x37727053	1.4450477e-05
253	0x36ad2086	5.159588e-06
254	0x3e55f9ca	0.20896068
255	0x37e87222	2.7709702e-05
