imitation_learning/logs/run_20240527203430/checkpoints/ckpt_22000.pt (torch, 15656 bytes, 4 tensors)

bias f4 [32]
00000000: 47be 6d3e 00d1 393d 9077 053d 449c 593d
00000010: dea3 823e 0d1e 053d 72f2 013e 9c2b b9bd
00000020: e3a9 113e ac58 ddbd 2d22 783d 256b 99bd
00000030: 297a 693d b27c a23e ab86 cdbd e9a3 c43c
00000040: c67d 81bd a73c 4fbd 2614 6b3e 7302 aa3c
00000050: 8a7c 7c3e 274f b03e 0834 e7bc 7ebe bb3d
00000060: 89ee d0bc ff64 f2bc d0db 1cbe 3f90 6e3c
00000070: 8afd bf3d 137a 81bd 52a6 9dbd 80b2 21be
0.23217116 0.045365334 0.032584727 0.053127542 0.25515646 0.03249936 0.12690142 -0.09041521
0.14224963 -0.108079284 0.060579468 -0.07491139 0.057001267 0.3173576 -0.100354515 0.02400394
-0.063228175 -0.050594952 0.22956905 0.020753121 0.24656883 0.34435388 -0.028223053 0.09167193
-0.025504367 -0.029589174 -0.15318227 0.014560758 0.093745306 -0.06322112 -0.07697739 -0.15790749

weight f4 [32, 10]
00000000: b472 213d 6bc7 023e 233c 49be 178f 223f
00000010: 882e 963b accc 7dbf 0090 343d 2a8e 44bd
00000020: 6856 963f 6dab 1340 0870 b9bf b46b f63f
00000030: a295 233f 618e 0d3f dab8 82be 1712 713f
00000040: 175b 313f a403 583f 5af6 efbe 0ad6 10be
00000050: 1539 863f 9582 06c0 ffd1 04bf 0174 0c3e
00000060: b448 32bf b12c 1abf d507 3d3f 8dc7 c4be
00000070: 70e2 363f de4e debd aa8e 5ebd 9d18 1540
00000080: 9dbb d0bd b2b6 14bf 7969 e9be 7ef0 013e
00000090: 7ee3 b03f ddfb 9f3d 26ab e03d ad31 913f
000000a0: e327 bfbd 6aa4 b7be 15f4 3dbe 855e 1440
000000b0: 8f11 bbbe 078e 6240 0d1c 27c0 7d37 3fc0
000000c0: afe3 813f 964e cf3f 7174 f2be 52f1 f1bf
000000d0: 83b6 1bbf 19e1 c33f f33c c6be c8c5 babe
000000e0: ca88 b23e 78f0 8a3e 6b6e fa3f a767 e83e
000000f0: 75a1 0fbf 2227 10c0 a265 d43d af2f b63e
00000100: 0cf1 26bf c2a6 b53b 5799 603f 5176 e03e
00000110: f5e5 043d 77a6 143f 00bc f73e 7317 febe
00000120: a7ff 79be 77fb 0e40 1799 013e 5de1 08be
00000130: 0d52 11c0 9cc7 19c0 93fb a73f 2ec2 f73f
00000140: 5321 1a3e 5484 fe3e c597 613e cd62 2c3f
00000150: 785d 193f debf f33b 6cc6 9fbe 4ad9 0d3f
00000160: 5d75 863e 6bbb c63d b014 763f 5b5e a3bf
00000170: 8e7f 0ebe c2a8 febe 320e 363e 1f72 723e
00000180: 107b f6be 066c 16be dff1 49bf a39c c73d
00000190: 5c73 f5be f437 003f e38e e5be c5ab 83bf
000001a0: 051f 013f 4ee6 e0bd 6d42 36bf 45b8 dbbe
000001b0: 5197 703f bfdd 4c3f a676 c83e c1d2 c73e
000001c0: bfd9 8cbd 052a ecbe 70fa c43e 8ec1 123f
000001d0: 2b4e 8bbe 8d71 cfbf 279f e2bf ef74 bfbe
000001e0: 2e81 3ebd 95be a9be 8a68 853e 4d90 e33e
000001f0: 61a8 9fbe 4160 373f 4f95 db3e ef42 143d
00000200: 1383 d33f a7b4 b83f 9874 9dbe 9e4a 023f
00000210: a141 393e 6a95 adbc d97d 38be 906a 4fbf
00000220: 436d 28bf fc4d 2bbf d05e 54bf 303a e83e
00000230: 3e31 c43e 14de b63d 6312 bc3e ea4e 82bd
00000240: f31f f23a 6630 913e 3a9f 153f c0ea 57be
00000250: 13b0 aebe 007e 75bc 88c9 413f 9460 a93f
00000260: be5b 433d 8b78 1cbf 5567 833c b9c4 6ebf
00000270: 05ca df3e eabc d53d 684b 6bbd 6afb b93d
00000280: c6e3 b73d 4520 82be 1cdf 873d 7d0d 83be
00000290: ded6 93be fd41 aabd cad2 23bd 9079 753e
000002a0: f302 7d3e 7fd1 0abd 816e 25be 978e 2a3e
000002b0: c136 c5ba 338b 8e3d aee4 a4be 5101 b93d
000002c0: 7389 14bd 7e27 313e b3ee a4ba c216 a9be
000002d0: cba5 debe c282 14bf 1688 cfbe ce3d 923f
000002e0: b8da 013f 841e f63e a93a 1e3e 6ea6 78be
000002f0: dc58 cf3e cb41 abbe 7b57 b83e c06f 8e3e
00000300: a606 46be 5711 94bf 3e1a 76bd 45e5 253f
00000310: 35d8 293f 7da1 57be 3c88 e9be 6a66 5cbe
00000320: 3dc5 853d eb88 a7bf 1f19 9b3d bb51 a63f
00000330: 0bd1 eb3e 347b 25be 9b4f 31bf ea85 053c
00000340: bd0e aebe 4185 a3be 7f14 7ebe afb2 b2be
00000350: 7b98 b8bd 49c8 e1bd f8ef bebe 877b ca3f
00000360: 36e5 31be 1d69 90bd 7577 533f 393b c3be
00000370: 8ff4 6e3d caec a3bf ac01 88bc b184 32c0
00000380: 88a2 b53e 5c54 fcbd 3660 debf e979 5d3f
00000390: d1e6 a9bf c13d 0bbf 00f4 22be 35d5 dbbf
000003a0: 73e5 ba3d be41 673f a51b d3be 9af7 403e
000003b0: 8995 383f 56be efbe 91fa b6be 6e26 72bd
000003c0: 0c35 653f 1fdd 2fbf 461a fbbe 3a54 00bf
000003d0: 00c5 043f 5069 383d 9704 383e 187b 74be
000003e0: 480c 113f 1304 123f db7a 953d 80fe a7bd
000003f0: 0fce 2dbd 9c7d 44bf 7a6d 5ebc ed62 b93f
0.03941603 0.12771384 -0.19651847 0.6349959 0.0045831837 -0.9914043 0.04408264 -0.04798714
1.1745119 2.307338 -1.4487314 1.9251618 0.63900197 0.5529538 -0.25531656 0.9416823
0.6927962 0.84380555 -0.4686764 -0.1414415 1.048617 -2.10172 -0.5188293 0.13716127
-0.69642186 -0.60224444 0.73840076 -0.38433495 0.71439266 -0.108548865 -0.054335274 2.3296273
-0.101920344 -0.5809127 -0.45588282 0.12689397 1.3819425 0.07811711 0.10970144 1.1343285
-0.0933378 -0.35867625 -0.18550141 2.318269 -0.36536834 3.5399187 -2.611087 -2.9877617
1.0147609 1.6195858 -0.47354463 -1.890177 -0.60825366 1.5303069 -0.38718376 -0.3647902
0.34869987 0.27136588 1.9564947 0.4539158 -0.5610574 -2.2523885 0.103709474 0.35583255
-0.6521156 0.0055435607 0.8773398 0.43840268 0.032445867 0.58066505 0.4838562 -0.49627265
-0.2441393 2.2340982 0.12656055 -0.1336722 -2.270633 -2.4028082 1.3123649 1.9356134
0.15051775 0.49710333 0.22030552 0.6733826 0.59908247 0.007438644 -0.3120607 0.5540968
0.26261416 0.09703716 0.96125317 -1.276317 -0.13915846 -0.49738127 0.17778853 0.23676346
-0.48140764 -0.14689645 -0.7888469 0.09746673 -0.47939575 0.5008538 -0.44835576 -1.0286795
0.5043796 -0.10981427 -0.7119511 -0.42914024 0.9398089 0.8002586 0.39153022 0.3902798
-0.06877469 -0.46125808 0.3847232 0.5732659 -0.27208075 -1.6206528 -1.770482 -0.373939
-0.046509914 -0.33153215 0.2605632 0.4444603 -0.3118315 0.71631247 0.4288735 0.036196645
1.6524376 1.4430131 -0.30753016 0.50895107 0.18091442 -0.02118941 -0.18016757 -0.81021976
-0.6579172 -0.6691587 -0.8295717 0.45356894 0.3831882 0.08929077 0.36732778 -0.06362708
0.0018472656 0.28357238 0.58446085 -0.21085644 -0.3411871 -0.014983654 0.7569814 1.3232598
0.047694914 -0.61121434 0.016040483 -0.93268925 0.43708816 0.10436423 -0.05744496 0.090811566
0.08978991 -0.25415245 0.066343516 -0.25596228 -0.28874868 -0.083133675 -0.039995946 0.23972154
0.24708156 -0.033891197 -0.16155435 0.16655956 -0.0015046225 0.06960144 -0.3220572 0.09033454
-0.036263894 0.17300221 -0.0012583345 -0.33025175 -0.43485865 -0.5801202 -0.40533513 1.1425111
0.50724363 0.48070157 0.15452065 -0.24282238 0.40497482 -0.33448634 0.36004242 0.27819633
-0.19338474 -1.1567792 -0.06008362 0.6480296 0.6634553 -0.21057697 -0.4561175 -0.21523443
0.06531761 -1.3088659 0.07573151 1.2993692 0.46057925 -0.1616028 -0.69262093 0.008149603
-0.3399562 -0.31937602 -0.24812506 -0.3490195 -0.09013458 -0.110245295 -0.37292457 1.5818948
-0.17372593 -0.07051299 0.8260415 -0.3813112 0.058338698 -1.2806637 -0.01660236 -2.7893488
0.35475564 -0.12320778 -1.7373111 0.86514145 -1.3273565 -0.54391104 -0.15913391 -1.7174441
0.09125795 0.9033469 -0.4123203 0.18844453 0.7210317 -0.46824902 -0.35738042 -0.05911868
0.8953407 -0.6869678 -0.49043483 -0.5012852 0.518631 0.04502231 0.17970501 -0.23875082
0.56659365 0.57037467 0.072988234 -0.08202839 -0.04243284 -0.76754165 -0.013575906 1.4483315

bias f4 [8]
00000000: 5293 d0bd 98b8 20be d0ab 1f3d b25f dbbc
00000010: 4952 a6bd 065d babd 32f2 4cbe 3db7 b73d
-0.10184349 -0.15695417 0.038982213 -0.02677903 -0.081211634 -0.09099774 -0.20014265 0.08970497

weight f4 [8, 32]
00000000: 0ac9 d7bd d5b2 ec3d 5d46 e7be b4e5 d03e
00000010: fbfa 19be 8966 023e 73ef 56bf dc3a 8c3e
00000020: 585f f9be d7c0 1d3e 7a9b 80bc 5d40 06bf
00000030: 4ef0 8c3e 9605 703e eb68 20be 301a dc3e
00000040: 4d20 443c 1ea4 193c ac39 4c3e 1b88 90bd
00000050: e6c1 6b3f 98ab a9be aef6 e2be bf5e 24be
00000060: e5b1 e0bc 6127 1a3e 6bfc 76bd 5ad1 92ba
00000070: 5013 573e 4e8a 4dbe 9373 443e 7963 1b3e
00000080: b982 5abf 754d ba3f e8f3 c43f cebc 993f
00000090: f6a4 9340 6bce 0f40 599e 68be aca8 4fc0
000000a0: 0094 13bf def6 483f 8444 a7bf f614 103f
000000b0: 9733 723f f97a 70bf cade 0e3e 8341 9b3e
000000c0: 4833 79be ddbf d0bc de5d 0fbf 5ee9 1d3e
000000d0: 749f f2be 0459 993f 37e0 2c3f a70d a9bf
000000e0: 5404 1cbf 4228 8f3d bb25 213f 96e2 e9be
000000f0: 2b5f 85be eb86 fa3e 608c 43be d860 393f
00000100: db03 4c3e 727a c33c 9a22 d23e dbf3 0b3f
00000110: e079 27bf 4192 99be 6465 bc3d 4851 313f
00000120: 1943 a73d c893 b9bd 6b0b 97bd 4713 443f
00000130: 8a65 22bf 8e6b 60bd b5eb 0c3c 617b eebe
00000140: 6530 f9bd 2442 383e 9188 5cbe b7c5 083e
00000150: a2b3 adbe 0409 053e e971 943e 6e5f 943e
00000160: 78c9 24bf 4eba 9cbe 0e76 debd 4a99 293e
00000170: f348 edbe a3d8 603f f63d 323d 1073 8d3e
00000180: 5dd0 6a3f f16a b33f 61a5 f23f beb8 4bbf
00000190: f31b 68bd fcd8 11c0 ab19 fdbf 97a9 37bf
000001a0: ac32 df3e 25cc 283f 5741 363f 858e c13e
000001b0: 1804 2abf f896 a2bf d71c c9be 209e e4be
000001c0: ba4a c63e e64d aa3e f425 993d f76f 3fbf
000001d0: e14f 6bbf 320a d53e 965d 103f b768 bcbf
000001e0: db87 103f b8dc 15bf 8440 6b3f 3f5b babc
000001f0: 784b 1e3f 8ecb e6be bcc9 88be fa17 ccbf
00000200: 461c 49bf fe2f 84be bf34 ffbc 16b6 673f
00000210: fc16 f3bf 9584 cbbe 44d8 993d 2a4c bc3f
00000220: 22e2 e23e 90b9 bebc bb9e e53e 063a fbb8
00000230: bc8f 243f 8f5b 9a3f f6f4 bbbe 0170 0fbf
00000240: ac09 0fbd 15cb f73b f167 b9be c09e 48be
00000250: e387 b2bb 576a 83bf 6d2f 753e 6719 bdbe
00000260: 6d4a 25bd efc2 403f 7eb2 91be 44c1 473e
00000270: 47a1 5dbd 41b7 803e dd88 813d b759 08bf
00000280: 3afa 35bf b628 46bf 66c7 03c0 3046 f93f
00000290: 5fba f33f 97f4 ee3f 5da9 ca3f fc8f 81bf
000002a0: 4c23 08bf c52d 4fbf 455c 0dbf f12e 033e
000002b0: 49b4 9ebf c4a4 2fbf 1d92 9f3e b0ea 643f
000002c0: 43a3 993e dc1b 783e abcd cebd 9f06 be3e
000002d0: e218 bdbe f114 153f 4f4a bc3f b7e6 2cbe
000002e0: 61de 133e cb38 f13e 5c58 fa3d 472e 32bf
000002f0: 30e3 f93c 490c 2e3e 510a b9bc 3670 753f
00000300: 6d05 b63e db67 01be dc5d 23bf 22a0 10bd
00000310: 1ede 4cbf 9940 2dbe b60a 303f 13b1 003e
00000320: 0734 37be 8cb8 35bf 8e08 193f 5c57 673f
00000330: 56bf 233b c761 1e3f 4c47 8c3e c138 17be
00000340: 5f9b 763e f6f6 203e 5d05 5ebe b3ac 4a3e
00000350: c02e c7be 0eed af3e 9abc 2a3f cdb6 3d3e
00000360: 9eaa f43e 5d36 03bf ad13 c23c 719a b63e
00000370: 97d3 53bf 505a a53e 6be5 cc3c d807 38bf
00000380: 71da 0a3a 8a67 3e3b c128 4cb9 b837 8cb8
00000390: 57ba ba3b 28d6 f1ba d42a d1ba 8df2 5abb
000003a0: 3514 cf3b 5030 eeba 2f43 4b3a 8819 bc3a
000003b0: 59f4 66bb b1f1 8e3a 4fdf 17bb dc78 78ba
000003c0: 34e7 b6be be84 17be 6feb 393c a6df 5e3c
000003d0: 8cc7 533b 93af 633b 3df9 75bb 7d1f 4e39
000003e0: 9dba 843a 358f 82ba b947 363a 707a 8bbc
000003f0: 7b38 8db9 600e e73a caf9 553e e9fe 893a
-0.10536392 0.11557547 -0.4517087 0.4080025 -0.15037148 0.12734427 -0.8395912 0.27388656
-0.48705554 0.15405594 -0.015699137 -0.5244196 0.27527088 0.23439631 -0.15665023 0.4298873
0.011970592 0.0093775075 0.19943875 -0.0705721 0.9209274 -0.33138728 -0.44328827 -0.16051768
-0.027428577 0.15054084 -0.06029932 -0.0011201308 0.21003461 -0.2007229 0.19184713 0.15174665
-0.85355717 1.4554888 1.5386934 1.2010744 4.613887 2.2469738 -0.22716655 -3.24467
-0.57647705 0.7850169 -1.3067784 0.56281984 0.9460997 -0.9393764 0.13952175 0.3032342
-0.24335968 -0.025482113 -0.56002605 0.15421054 -0.47387278 1.198029 0.67529625 -1.3207291
-0.60944104 0.069901004 0.629482 -0.45680684 -0.2604917 0.4893106 -0.19096518 0.72413397
0.19923346 0.023862097 0.41042024 0.5466897 -0.6542034 -0.29994395 0.09199026 0.6926465
0.08167095 -0.0906139 -0.07375225 0.76591915 -0.63436186 -0.054790072 0.008601119 -0.46578506
-0.12167434 0.1799398 -0.21536471 0.13356672 -0.3392611 0.1299172 0.28993157 0.28979057
-0.64369917 -0.3061089 -0.10862361 0.16562381 -0.46344718 0.8783056 0.04351612 0.27626848
0.9172419 1.4017011 1.895672 -0.7957877 -0.05666728 -2.2788687 -1.9773458 -0.7174315
0.43593347 0.659365 0.7119345 0.37804046 -0.66412497 -1.2702322 -0.39279816 -0.4465189
0.38728887 0.33262557 0.07477942 -0.7478022 -0.9191876 0.4160934 0.563928 -1.4719456
0.564573 -0.58539915 0.9189532 -0.022748588 0.61833906 -0.45077175 -0.2671641 -1.5944817
-0.78558767 -0.25817865 -0.031153081 0.90512216 -1.8991389 -0.3974959 0.075119525 1.4710743
0.4431315 -0.023281842 0.44847664 -0.000119794204 0.6428182 1.2059191 -0.36710328 -0.5603028
-0.034921333 0.007562051 -0.36212113 -0.19591808 -0.005448328 -1.0266827 0.23943873 -0.36933443
-0.04035418 0.75297445 -0.2845649 0.19507319 -0.054108884 0.25139812 0.06324933 -0.53261894
-0.7108494 -0.7740587 -2.0590453 1.9474545 1.9041251 1.8668393 1.5832936 -1.0122066
-0.5317886 -0.80929214 -0.5521892 0.12810875 -1.2398769 -0.6861079 0.31166163 0.89420605
0.3000737 0.24229378 -0.10097822 0.37114426 -0.36933047 0.5823508 1.4710177 -0.16884886
0.144403 0.47113642 0.122238845 -0.69601864 0.03050384 0.16996874 -0.022587927 0.95874345
0.35551015 -0.12637274 -0.63815093 -0.035308965 -0.80026424 -0.16919173 0.68766344 0.12567548
-0.1789094 -0.7098472 0.5977868 0.90367675 0.0024985871 0.61867946 0.27398145 -0.14767744
0.24082707 0.15719208 -0.21681733 0.19792442 -0.38902855 0.34360546 0.66694033 0.18526764
0.4778642 -0.51254827 0.023691023 0.35664704 -0.82744735 0.32295465 0.025011739 -0.7188697
0.00052968325 0.0029053413 -0.00019470138 -6.686099e-05 0.005698483 -0.0018450664 -0.0015958198 -0.0033408732
0.0063195475 -0.0018172357 0.00077538466 0.0014350871 -0.0035240857 0.001090577 -0.0023173874 -0.00094784587
-0.3572327 -0.14796731 0.011347636 0.013603127 0.0032314984 0.0034742102 -0.003753259 0.00019657421
0.0010126416 -0.0009960892 0.00069534365 -0.017026156 -0.00026935697 0.0017628185 0.20896068 0.001052824
