imitation_learning/logs/run_20240527203430/checkpoints/ckpt_16000.pt (torch, 15656 bytes, 4 tensors)

bias f4 [32]
000000 87 a3 2a 3e ab dc 38 3d c2 f4 c8 3c d2 e0 4f 3d
       0.16663943 0.04513232 0.024530772 0.050751515
000010 27 ab 64 3e 9d 23 04 bd 74 35 f8 3d c1 2f 90 bd
       0.22330914 -0.032260526 0.121195704 -0.07040358
000020 46 1a cc 3d 0e 9f aa bd ae 73 67 3d 1b 4a 91 bd
       0.09965949 -0.083311185 0.056506805 -0.070942126
000030 f9 bd 39 3d 4f d0 8c 3e bd 0a 9b bd 94 5f a4 3b
       0.045347188 0.27502677 -0.075704075 0.0050162766
000040 c6 7d 81 bd a7 3c 4f bd cf 35 39 3e 78 7c 29 3c
       -0.063228175 -0.050594952 0.18086933 0.010344617
000050 e7 61 37 3e 15 07 a0 3e 06 47 8c bd 6d 27 f4 3d
       0.1790844 0.31255403 -0.06849484 0.11921582
000060 3e 26 0c bc 48 63 b5 bc e8 24 03 be 42 0e cb 3b
       -0.0085540395 -0.022142068 -0.12807047 0.006196768
000070 83 d4 ba 3d 2b b0 61 bd 52 a6 9d bd 11 86 e1 bd
       0.09122565 -0.055099647 -0.07697739 -0.11011899

weight f4 [32, 10]
000000 2a 35 27 3d 46 ed bb bb d5 f3 f2 bd 86 45 4d 3f
       0.040822186 -0.0057350723 -0.118629135 0.8018421
000010 2f a6 3c 3d e1 1b 4f bf e7 65 27 3d 3b d1 ed bd
       0.046056923 -0.80901915 0.040868666 -0.11612173
000020 3b 4f 90 3f 61 e7 0f 40 5e 14 aa bf 48 36 eb 3f
       1.1274179 2.2484972 -1.3287466 1.837594
000030 6b 2e 08 3f b4 cf dd 3e a0 ac 6f be a8 a4 5d 3f
       0.5319583 0.43322527 -0.23405695 0.8657937
000040 dd 22 0e 3f bf 37 5f 3f 59 fa ad be 29 1d 80 bc
       0.5552195 0.87194437 -0.33980063 -0.015638905
000050 95 53 76 3f 8e ae 02 c0 fb 3a c4 be e6 e3 82 3e
       0.96221286 -2.041904 -0.3832625 0.25564498
000060 56 ea 26 bf de 62 37 bf f3 db 24 3f df 66 ec be
       -0.6520132 -0.71635234 0.64398116 -0.46172234
000070 13 99 3d 3f 92 49 ec bd dc 84 fa bd d0 e3 0e 40
       0.740617 -0.1153747 -0.12232372 2.2326546
000080 3f c7 49 bd e9 56 e8 be ad a5 d8 be e2 9b 1e 3e
       -0.04926228 -0.45378807 -0.423139 0.15489152
000090 b6 d0 a0 3f 30 33 93 3d e6 8d 17 3e 65 74 63 3f
       1.2563694 0.071874976 0.14800224 0.8884948
0000a0 af 72 0f 3d bb a0 d5 be ad 4e d8 bd 06 f1 03 40
       0.03502148 -0.4172419 -0.10561881 2.061586
0000b0 0e 48 c6 be 93 d8 2e 40 d9 8c 18 c0 e5 a6 33 c0
       -0.38726848 2.7319686 -2.3835967 -2.8070614
0000c0 e9 9e 7c 3f b4 d8 c3 3f 20 6b e4 be 88 11 06 c0
       0.9867998 1.5300508 -0.4461298 -2.09482
0000d0 5a f0 08 bf 7d 56 ca 3f d4 c5 90 be 57 dd a8 be
       -0.5349175 1.5807644 -0.2827593 -0.3298137
0000e0 3c ce 79 3e 6d 29 3c 3e b1 e8 e1 3f 23 16 91 3e
       0.24395078 0.18375178 1.7649137 0.283372
0000f0 39 bd f5 be a5 fa 05 c0 a9 d8 d0 3d da 52 9d 3e
       -0.47995928 -2.0934231 0.10197575 0.30727273
000100 09 d5 15 bf 3d 07 f2 3d d6 82 42 3f 99 18 df 3e
       -0.5852819 0.11817787 0.7598089 0.43573454
000110 a9 d9 0e 3e 2e 92 de 3e f0 e4 bf 3e fc 83 c2 be
       0.13950218 0.434709 0.37479353 -0.3799132
000120 c2 38 8c be a3 18 f0 3f 39 a5 1d 3e 20 5b bf 3d
       -0.27387053 1.8757519 0.15395059 0.093435526
000130 f1 10 f4 bf ab b6 18 c0 2b ea ab 3f a3 e4 f0 3f
       -1.906767 -2.3861492 1.3430837 1.8819774
000140 85 a3 a3 3d 06 05 a1 3e 5d 33 8b 3e b3 2b 08 3f
       0.07990173 0.31449145 0.27187625 0.5319168
000150 59 68 07 3f 77 46 4d 3e db 61 8f be 17 a1 fc 3e
       0.52893597 0.20046411 -0.28004345 0.49341652
000160 9f ba 5a 3e 91 c1 ea 3c 4a 84 5d 3f 34 00 a3 bf
       0.21360253 0.028656753 0.8652998 -1.2734437
000170 63 73 0b be 66 48 15 bf 8b 9d 23 3e d2 8d 18 3e
       -0.13618235 -0.58313596 0.15978067 0.1489785
000180 f5 4b dc be 8e 03 9c bd 15 31 32 bf e1 da ee 3d
       -0.430267 -0.076178655 -0.69606143 0.116628416
000190 50 54 d0 be ed 43 0e 3f a7 7e e2 be 68 15 a6 bf
       -0.40689325 0.55572397 -0.44237253 -1.2975283
0001a0 b9 0b f9 3e b3 1b dd bd 6d 00 30 bf a5 87 34 be
       0.48641756 -0.10796299 -0.6875065 -0.1762987
0001b0 19 da 45 3f d9 2d 57 3f 27 04 bb 3e e0 fe 60 3e
       0.77285916 0.8405433 0.36526605 0.21972227
0001c0 15 3d 79 bd c1 e3 58 bf 36 e3 be 3e 00 10 f8 3e
       -0.060849268 -0.84722525 0.37282723 0.48449707
0001d0 6f a1 8d be 3d 33 b8 bf cf d1 c4 bf af 03 6a be
       -0.27662227 -1.4390637 -1.5376529 -0.22852968
0001e0 1d 1e 22 bd b4 80 99 be 39 aa aa 3e b9 53 d1 3e
       -0.0395795 -0.29981005 0.33332995 0.40884188
0001f0 ae 73 a2 be c2 15 48 3f 5c 8d c6 3e 76 13 58 3d
       -0.31728882 0.781582 0.38779724 0.052752934
000200 cc 91 c9 3f 1d 9d af 3f 60 e6 85 be 75 1c e6 3e
       1.5747619 1.3719822 -0.26152325 0.44943586
000210 a8 d3 13 3e 89 a8 f8 3e 55 d3 17 be 7a a7 66 bf
       0.14436209 0.48566082 -0.1482671 -0.900993
000220 57 68 34 bf 69 15 27 bf 17 14 55 bf d9 57 ec 3e
       -0.7047171 -0.65267044 -0.8323378 0.46160772
000230 a1 b7 cc 3e c4 ea 96 3e e9 02 ae 3e 4d 39 6c bb
       0.39983848 0.29475987 0.33986595 -0.0036044896
000240 08 b5 8c 3c 52 6c 66 3d 8d 01 0f 3f 21 f9 63 be
       0.017176166 0.056255646 0.5586174 -0.22263004
000250 11 a1 a8 be a3 09 e8 3d 38 b3 1e 3f 62 b4 8b 3f
       -0.32935384 0.11329963 0.61992216 1.0914423
000260 11 6b 38 3d 8e f2 22 bf d6 b3 fc 3b 21 e2 70 bf
       0.04502398 -0.6365136 0.007711868 -0.94095045
000270 a4 18 cb 3e 6a a8 00 3e 7e 3f 7b bd 29 5e a5 3e
       0.39667237 0.12564245 -0.061339848 0.322984
000280 c6 e3 b7 3d 45 20 82 be 1c df 87 3d 7d 0d 83 be
       0.08978991 -0.25415245 0.066343516 -0.25596228
000290 de d6 93 be fd 41 aa bd ca d2 23 bd 90 79 75 3e
       -0.28874868 -0.083133675 -0.039995946 0.23972154
0002a0 f3 02 7d 3e 7f d1 0a bd 81 6e 25 be 97 8e 2a 3e
       0.24708156 -0.033891197 -0.16155435 0.16655956
0002b0 c1 36 c5 ba 33 8b 8e 3d ae e4 a4 be 51 01 b9 3d
       -0.0015046225 0.06960144 -0.3220572 0.09033454
0002c0 73 89 14 bd 7e 27 31 3e b3 ee a4 ba c2 16 a9 be
       -0.036263894 0.17300221 -0.0012583345 -0.33025175
0002d0 75 5a b7 be 30 1b bd be a9 0f 80 be d0 b5 68 3f
       -0.358112 -0.36934805 -0.25011948 0.90902424
0002e0 22 a6 f4 3e 8a ae a2 3e cb 5f 91 3d e9 7d 98 be
       0.47783 0.31773788 0.07098349 -0.29783562
0002f0 5c cc e3 3e fa e3 b8 be c4 4d bd 3e db 67 30 3e
       0.4449185 -0.36111432 0.36973393 0.17227118
000300 68 22 08 be f8 c3 69 bf e3 69 9c bd 79 6b b8 3e
       -0.13294375 -0.9131465 -0.07637384 0.36019495
000310 9e 55 2e 3f e7 46 21 be 05 0b c3 be 00 bd 86 be
       0.6809939 -0.15749703 -0.38094345 -0.2631607
000320 b6 79 73 3d 33 3b 92 bf ed 63 88 3d 74 20 94 3f
       0.059442244 -1.1424316 0.06659684 1.1572404
000330 fd ba ba 3e bf e4 ad bc 3d f3 0c bf b7 98 97 3d
       0.36470786 -0.021227239 -0.5505865 0.07402175
000340 3d 83 d6 be 5a 2f d5 be d1 fb 86 be b8 26 a4 be
       -0.41897002 -0.4163769 -0.26363996 -0.3206079
000350 7f b1 11 be 40 52 cd bc c1 1e b6 be 56 0f c0 3f
       -0.14227866 -0.025063634 -0.35570338 1.500468
000360 76 a6 10 be fc 02 2d bd fa f0 43 3f 75 27 d4 be
       -0.14126 -0.042239174 0.76539576 -0.41436353
000370 25 74 f0 3d 46 3c 75 bf 93 c4 6e be 24 5c 23 c0
       0.11740903 -0.95795095 -0.23317175 -2.5524988
000380 66 65 9d 3e f2 9e d0 3d 4f 54 bf bf b2 2c 54 3f
       0.30741423 0.101865664 -1.4947604 0.828807
000390 4f 40 a9 bf e9 51 f1 be f6 71 6f be 72 5b ce bf
       -1.322275 -0.47132805 -0.23383316 -1.6121657
0003a0 9c db 7c 3b 6d d7 35 3f 78 b7 bf be 5a 23 24 3e
       0.0038583046 0.7103184 -0.37444663 0.1602911
0003b0 86 19 2b 3f 30 37 b6 be 6d 21 e1 be 6e b1 b4 bb
       0.6683582 -0.3558898 -0.43970814 -0.0055143153
0003c0 19 57 44 3f 67 39 2b bf 1e b9 d5 be 57 8d 0f bf
       0.766954 -0.66884464 -0.41742796 -0.5607504
0003d0 f7 7c fc 3e 07 65 74 3d be c2 f5 3d fa ed 6c be
       0.4931409 0.05966666 0.12000035 -0.23137656
0003e0 bf 5e f4 3e 07 50 18 3f d6 08 c5 3c fe ba 9b bd
       0.47728536 0.5949711 0.024052065 -0.07604025
0003f0 8f 02 a0 bd 21 56 69 bf 56 0c 28 3b eb a5 a6 3f
       -0.07812988 -0.9114705 0.0025642118 1.3019384

bias f4 [8]
000000 76 ed 97 bd 82 49 bf bd 41 a9 d9 3c d2 f2 b4 bc
       -0.07418339 -0.093401924 0.026569964 -0.022088442
000010 16 9d b9 bd dc 33 8f bd 9b d3 19 be 1a 67 82 3d
       -0.09063165 -0.06992313 -0.15022127 0.06367321

weight f4 [8, 32]
000000 16 1f f8 bd e6 b0 ca 3d 9d e5 f6 be 71 40 d4 3e
       -0.12115304 0.09897022 -0.48222056 0.41455415
000010 f5 8c 87 be 10 5e 47 3e 09 7e 4e bf 44 0b c1 3e
       -0.2647473 0.19469476 -0.80661064 0.37703907
000020 ab 0b e0 be 2c ff 9d 3e 12 dc 4d bd e4 09 ff be
       -0.43758902 0.30858743 -0.050258704 -0.49812233
000030 62 a3 68 3e 34 11 bd 3e 75 b1 e9 bd 4f d9 a7 3e
       0.22718576 0.36927187 -0.114108 0.3278298
000040 4d 20 44 3c 1e a4 19 3c 5b 55 57 3e 26 09 9d bd
       0.011970592 0.0093775075 0.21028654 -0.076677606
000050 c5 6c 4c 3f 70 44 bf be 9a 4d 03 bf 72 dd 7e be
       0.7985347 -0.373569 -0.51290286 -0.24889162
000060 18 ed 02 3c ba b8 34 3e fb 7f 4a bd da 30 fd 3c
       0.007991098 0.17648593 -0.049438458 0.030907083
000070 0f c7 14 3e f1 95 4a be 93 73 44 3e d7 fa 80 3e
       0.1452906 -0.1978376 0.19184713 0.25191376
000080 da 1a 62 bf 5f b2 aa 3f d6 80 ad 3f 4e f3 99 3f
       -0.8832222 1.3335685 1.3554943 1.2027376
000090 09 7e 85 40 3f c7 e1 3f 7f e4 fb bd 8f d8 48 c0
       4.171635 1.763893 -0.122994415 -3.1382177
0000a0 46 24 0a bf b3 50 3e 3f 66 5a 98 bf e5 e4 01 3f
       -0.539616 0.7434189 -1.1902587 0.5073989
0000b0 14 bb 70 3f 63 1e 4b bf 77 06 af 3d d4 9c c1 3e
       0.9403546 -0.7934324 0.08546155 0.37814963
0000c0 48 33 79 be dd bf d0 bc 4b 1d 00 bf b9 aa c1 3d
       -0.24335968 -0.025482113 -0.500447 0.09456391
0000d0 4f 3d d4 be 71 8f 86 3f ac 7b 2a 3f bd ac 9c bf
       -0.41453025 1.0512525 0.6659496 -1.2240216
0000e0 5f cf 03 bf 4a 54 c7 3b 57 9f 0d 3f 47 43 cd be
       -0.514883 0.006083046 0.5532126 -0.4009039
0000f0 37 39 8c be c1 b9 bf 3e 60 8c 43 be a7 f5 13 3f
       -0.273874 0.37446406 -0.19096518 0.5779671
000100 49 4f 7f 3e 08 1c 23 3c 50 71 c2 3e 97 66 08 3f
       0.24932589 0.009955414 0.37977076 0.5328154
000110 a0 c5 f0 be 7b d9 c6 be 93 49 95 3d 13 92 00 3f
       -0.47025776 -0.388378 0.07289424 0.5022289
000120 6a 94 f2 3c 6d 1b cb bd 64 87 d4 bc fe 7d 1f 3f
       0.029611785 -0.099173404 -0.025943466 0.62301624
000130 1b b4 23 bf 32 8b 38 bd 51 79 75 bd 88 0d a3 be
       -0.63946694 -0.045054622 -0.05993015 -0.3184626
000140 65 30 f9 bd 24 42 38 3e ad 3c 01 be 11 91 d5 3c
       -0.12167434 0.1799398 -0.12620802 0.02607015
000150 f0 91 57 be 31 83 05 3d 9d b1 86 3e d6 b5 8d 3e
       -0.21051764 0.032595817 0.26307383 0.27677792
000160 20 7c 19 bf 39 75 4f be c6 9b 9b bd d1 0f f6 3d
       -0.59955025 -0.2025956 -0.07598071 0.120147355
000170 34 f0 dc be f0 67 55 3f f6 3d 32 3d 69 97 cf 3d
       -0.4315201 0.8336172 0.04351612 0.10136301
000180 47 f9 59 3f f2 2d a3 3f 1e ef d3 3f 02 5b 15 bf
       0.8514599 1.2748396 1.6557348 -0.5834199
000190 89 9d 48 be 6b 86 1d c0 c2 e9 e4 bf be 40 31 bf
       -0.19591345 -2.4613292 -1.7883837 -0.69239414
0001a0 b1 87 da 3e 38 23 23 3f 09 c4 48 3f dd 08 f3 3e
       0.4268165 0.63725615 0.78424126 0.474677
0001b0 01 1f 1d bf 7d 42 a1 bf 39 ef d5 be d0 b8 e4 be
       -0.61375433 -1.2598416 -0.41784075 -0.4467225
0001c0 ba 4a c6 3e e6 4d aa 3e ff 0a 83 3c 9a 94 41 bf
       0.38728887 0.33262557 0.015996454 -0.75617373
0001d0 e5 d2 51 bf 96 c0 f8 3e 64 1e 32 3f d2 b3 ac bf
       -0.81962425 0.4858443 0.6957762 -1.3492377
0001e0 d1 87 f8 3e f2 f0 21 bf 6e bf 46 3f 9e b8 17 bd
       0.4854112 -0.6325828 0.7763585 -0.0370413
0001f0 27 eb 04 3f 14 36 cb be bc c9 88 be 75 bb b1 bf
       0.51921314 -0.39689696 -0.2671641 -1.3885332
000200 d8 1f 18 bf 56 49 5c be f6 1e c7 bd c6 6d 50 3f
       -0.5942359 -0.2151235 -0.09722702 0.814175
000210 39 8a c6 bf 56 a8 cd be 24 56 a7 bd 85 69 97 3f
       -1.5510932 -0.40167493 -0.08170727 1.1829077
000220 1c 3d cc 3e 3e 95 50 3c a7 b7 c1 3e 75 da ad 3d
       0.39890373 0.012730895 0.37835428 0.08488933
000230 95 03 24 3f f4 e5 89 3f b6 f0 ae be 12 52 ef be
       0.64067966 1.0773301 -0.34168023 -0.46742302
000240 ac 09 0f bd 15 cb f7 3b 9d 58 a0 be d7 6c 11 be
       -0.034921333 0.007562051 -0.31317607 -0.14201675
000250 71 d7 d7 3c 60 6b 75 bf 2e 7a b0 3d d0 df 94 be
       0.026347848 -0.95866966 0.08617054 -0.29077005
000260 fd 88 51 bd fa 76 2c 3f e7 07 d0 bd b9 b4 6d 3e
       -0.051156033 0.67369044 -0.10157757 0.23213471
000270 4f 93 d0 bd db 67 3f 3e dd 88 81 3d 4a f3 00 bf
       -0.10184347 0.18691961 0.06324933 -0.5037123
000280 a8 d2 46 bf 27 27 2e bf 64 f6 fa bf 63 8d d1 3f
       -0.77665186 -0.6802849 -1.9606442 1.6371273
000290 a5 90 00 40 a6 42 ec 3f dc 04 a8 3f 7c 2d 98 bf
       2.0088284 1.845784 1.3126483 -1.1888881
0002a0 62 6c f9 be f8 05 24 bf f5 29 16 bf cb a9 ec 3d
       -0.48715502 -0.6407161 -0.5865777 0.11555823
0002b0 f8 35 93 bf e5 2e 2e bf 8c 57 b1 3e ec e4 66 3f
       -1.1500845 -0.68040305 0.34637105 0.9019306
0002c0 43 a3 99 3e dc 1b 78 3e e3 5b 32 bd d0 3d ca 3e
       0.3000737 0.24229378 -0.04354466 0.39500284
0002d0 bf b6 bb be e9 c6 b8 3e e5 7b a8 3f 9d 01 18 bd
       -0.36662862 0.36089256 1.316281 -0.037110914
0002e0 87 5f 4a 3e a2 f2 da 3e 09 fd 77 3e ee fa 19 bf
       0.19763003 0.4276324 0.24217619 -0.60148513
0002f0 45 70 50 bd 9d b7 31 3e 51 0a b9 bc 21 97 41 3f
       -0.05088832 0.17355199 -0.022587927 0.7562123
000300 34 7b 8b 3e 9e b0 e9 bd 13 9e 1e bf c2 4c b1 bd
       0.27242434 -0.1141064 -0.6195995 -0.086572185
000310 1d 68 66 bf f5 75 5a be b5 a5 2f 3f fd b0 4f 3e
       -0.90002614 -0.2133406 0.68612224 0.2028236
000320 80 ac 23 be 0e 34 25 bf b1 1d 17 3f c5 83 48 3f
       -0.15983772 -0.64532554 0.5902968 0.78326064
000330 de 50 63 bc d3 84 2c 3f e5 5b 77 3e b3 05 93 bd
       -0.013874261 0.67390174 0.24156149 -0.071788214
000340 5f 9b 76 3e f6 f6 20 3e 58 f1 31 be ad 4f 0c 3e
       0.24082707 0.15719208 -0.17377222 0.13702269
000350 eb fc 95 be 4a 42 cb 3e 92 01 0c 3f f1 a0 32 3e
       -0.29294524 0.39699012 0.54689896 0.17444207
000360 a5 fb e5 3e 26 39 a6 be c5 15 f5 bc 18 6a 82 3e
       0.44918552 -0.32465476 -0.029917607 0.25471568
000370 2a 2c 4e bf 29 14 9b 3e 6b e5 cc 3c ce e3 3a bf
       -0.8053614 0.30288818 0.025011739 -0.7300385
000380 3d d9 a7 bb 2b a2 b6 3c f6 b7 41 3b 75 0c 4c bc
       -0.0051223324 0.022294125 0.0029559112 -0.012454142
000390 09 fc 4b 3c 14 37 7d bb 01 9c 9d bc cd 14 bf bb
       0.012450227 -0.0038637565 -0.019239428 -0.005831337
0003a0 00 44 f9 3c 40 fa 22 bc c2 7b 52 3c 36 0e a5 3b
       0.030427933 -0.00994736 0.012846889 0.0050370945
0003b0 51 af 40 bc 1f d4 57 3b af c8 a2 bc 1f c8 5c 3c
       -0.011760549 0.003293283 -0.019871084 0.013475447
0003c0 34 e7 b6 be be 84 17 be ee 17 87 3d 37 81 73 3d
       -0.3572327 -0.14796731 0.06596361 0.0594494
0003d0 ec ae 4a 3b 25 8a 0c 3c fb a4 ca ba 13 4e 3f 3c
       0.0030927015 0.008577858 -0.0015460545 0.011676329
0003e0 e9 55 51 bb 20 2d b1 3b 71 e0 e9 3a 4a a4 de bd
       -0.0031942076 0.0054069906 0.0017843378 -0.108711794
0003f0 f9 83 73 39 59 2b 3e bb ca f9 55 3e 8f d9 21 bb
       0.0002322345 -0.0029017536 0.20896068 -0.0024696325
