logs/test/checkpoints/ckpt_20000.pt (torch, 329126 bytes, 6 tensors)

weight f4 [256, 51]
-0.12434621 -0.039339304 0.08796517 0.022541542 0.0124686435 0.07757154 -0.0800113 -0.98863065
-1.0950444 -0.469884 -0.519729 -0.08258641 -0.14744335 0.44560134 -0.6280729 0.08738478
0.05939086 0.06597964 -0.045818277 0.06341641 0.008521359 0.010610799 -0.083388485 -0.1260259
0.10474109 0.03858083 0.117981635 -0.21796034 -0.2653737 -0.0074347407 0.1817566 0.38853857
0.09129464 -0.08108545 -0.08436093 0.023819046 -0.09203571 0.036871575 -0.100392126 0.14024392
-0.08081287 0.02115081 0.19554527 0.13427174 -0.0029912007 0.052299283 -0.089366466 0.35431486
0.10225597 0.032583024 -0.1448852 -0.093348905 -0.091702946 -0.0914584 0.11256112 -0.05984867
0.058476742 0.0039957133 0.9711808 0.9958949 -0.15030706 0.52399915 0.0038035142 0.73076385
-0.121634446 0.82954973 -0.55676496 0.2569654 0.10827225 -0.0713217 0.06908956 -0.026717572
-0.099325776 -0.11455288 0.04155147 0.03740086 -0.0022400944 -0.1435567 0.10413957 -0.13024236
-0.05290308 -0.07940404 -0.6339997 0.004243202 -0.111321844 0.035622604 -0.13605171 -0.060179643
-0.072058015 -0.0016103903 -0.05362615 -0.3099445 0.0019722264 0.17212927 -0.11006768 0.10557079
0.14968196 0.063700736 -0.4603696 -0.06516961 -0.053369083 0.1386907 -0.057331186 -0.1359331
0.11308414 0.0024139595 -0.028298615 -0.018227708 0.06475034 1.0033234 0.8602496 0.13472183
0.50639045 -0.5176756 0.69991624 0.45330843 0.35002202 0.63304365 0.11586187 0.2554483
-0.116703115 -0.05691312 0.07286953 -0.04864187 0.06821753 0.07957916 -0.0554722 0.14359045
0.022310328 0.07258551 -0.33138502 -0.036039412 0.057955995 -0.6309868 -0.07889918 0.043231398
0.035948724 0.017538182 -0.07476324 0.010981762 0.20823577 0.035194207 -0.08501986 -0.04343861
0.07618293 -0.027166292 0.04535452 0.122664884 -0.065021455 -0.5964594 0.069370724 0.10657037
0.09828428 -0.22108087 0.039086055 0.04064418 -0.09382786 -0.10033132 -0.043180116 0.06517975
-0.87620217 -0.87066644 0.016903542 0.038419258 -0.22941174 -0.3191947 -0.81874937 -0.036396254
0.061016638 -0.44826084 -0.29936138 0.080670394 0.08138175 -0.07346691 -0.100449175 -0.115324326
-0.107972436 0.13597268 -0.14500566 0.04042838 0.06929781 0.11337041 -0.027694682 0.18112339
0.92485505 -0.24467322 0.16492434 -0.06456172 -0.073223025 0.061232828 -0.092126 -0.16336037
-0.037200104 -0.02793687 0.08415385 0.120972 -0.17520535 -0.15712805 -0.24633417 0.09977116
-0.034401488 -0.24446063 0.004464342 -0.10586266 -0.08345042 0.036915846 0.017594455 0.09928531
0.0040411414 0.044330027 0.06961787 -0.8880017 -1.07389 -0.4091317 -0.41355288 -0.19427285
-0.38979462 -0.48241135 -0.4657381 -0.20738992 0.3196137 -0.33981663 0.0395817 0.03000175
0.025192332 -0.13228728 0.013282384 0.11273752 0.003874295 -0.0070945187 -0.19887184 0.061691
-0.051928427 0.07813926 0.035171025 0.45252135 0.23363844 -0.15068421 0.11964549 0.027362034
0.11966964 0.08655952 -0.070957206 -0.24182124 0.07910602 0.023315918 -0.079127744 -0.031400092
0.015939401 -0.11059795 -0.070325516 0.19882531 0.058293946 0.02537805 -0.08711165 0.08577112
00000000: 3aa9 febd 4022 21bd 1527 b43d 0aa9 b83c
00000010: 4849 4c3c d4dd 9e3d f7dc a3bd e616 7dbf
00000020: 6a2a 8cbf a394 f0be f60c 05bf 1023 a9bd
00000030: 64fb 16be dc25 e43e 63c9 20bf cbf6 b23d
00000040: d543 733d 5520 873d f2ab 3bbd 76e0 813d
00000050: 2c9d 0b3c ebd8 2d3c 95c7 aabd ef0c 01be
00000060: 7f82 d63d ef06 1e3d 5ba0 f13d ff30 5fbe
00000070: 10df 87be 209f f3bb 671e 3a3e 87ee c63e
00000080: aff8 ba3d 2110 a6bd 6cc5 acbd 2920 c33c
00000090: 387d bcbd a606 173d 639a cdbd 1a9c 0f3e
000000a0: 3881 a5bd 7744 ad3c 053d 483e 887e 093e
000000b0: 0508 44bb c637 563d c405 b7bd c268 b53e
000000c0: 946b d13d c775 053d c95c 14be b62d bfbd
000000d0: c1ce bbbd 8b4e bbbd 7286 e63d e123 75bd
000000e0: 4f85 6f3d 79ee 823b 4e9f 783f f8f2 7e3f
000000f0: 18ea 19be cf24 063f 6144 793b 5713 3b3f
00000100: 7b1b f9bd 5f5d 543f 2688 0ebf f890 833e
00000110: d7bd dd3d 1d11 92bd d47e 8d3d cfde dabc
00000120: 506b cbbd b39a eabd e031 2a3d a531 193d
00000130: 8cce 12bb 8700 13be 2047 d53d 415e 05be
00000140: e6b0 58bd 969e a2bd ce4d 22bf 8f0a 8b3b
00000150: b5fc e3bd 02e9 113d 2451 0bbe ee7e 76bd
00000160: 2793 93bd bb13 d3ba 18a7 5bbd 0cb1 9ebe
00000170: 7840 013b a842 303e 2a6b e1bd 8035 d83d
00000180: 3a46 193e 8875 823d 90b5 ebbe a577 85bd
00000190: 8a99 5abd ef04 0e3e 1bd4 6abd 0c32 0bbe
000001a0: a898 e73d 8533 1e3b 7fd2 e7bc 4652 95bc
000001b0: d49b 843d e76c 803f 5139 5c3f 85f4 093e
000001c0: cea2 013f 6386 04bf b62d 333f 0b18 e83e
000001d0: 1636 b33e 260f 223f fd48 ed3d 1fca 823e
000001e0: 0b02 efbd bb1d 69bd 9f3c 953d b33c 47bd
000001f0: a2b5 8b3d 66fa a23d d136 63bd 6009 133e
00000200: 26c4 b63c b6a7 943d 4cab a9be 109e 13bd
00000210: 4463 6d3d 5a88 21bf e595 a1bd 6813 313d
00000220: f83e 133d 3cac 8f3c 781d 99bd d9ec 333c
00000230: c23b 553e cd27 103d e41e aebd afec 31bd
00000240: cc05 9c3d d88b debc a9c5 393d ba37 fb3d
00000250: f829 85bd 90b1 18bf 3d12 8e3d 9141 da3d
00000260: 4549 c93d 0663 62be b318 203d 837a 263d
00000270: d228 c0bd 827a cdbd a2dd 30bd f67c 853d
00000280: c94e 60bf ffe3 5ebf 4c79 8a3c 835d 1d3d
00000290: e9ea 6abe 7d6d a3be 8f99 51bf 3d14 15bd
000002a0: 95ec 793d 7282 e5be e545 99be 8536 a53d
000002b0: 7aab a63d d275 96bd 4cb8 cdbd 292f ecbd
000002c0: a720 ddbd 6c3c 0b3e 5d7c 14be 3b98 253d
000002d0: 03ec 8d3d bf2e e83d f5df e2bc 6978 393e
000002e0: 4dc3 6c3f 9e8b 7abe ede1 283e ef38 84bd
000002f0: f4f5 95bd 46cf 7a3d 8eac bcbd f147 27be
00000300: 235f 18bd dddb e4bc db58 ac3d 2bc0 f73d
00000310: 0869 33be 2de6 20be 063f 7cbe d254 cc3d
00000320: 93e8 0cbd e353 7abe 9d49 923b 86ce d8bd
00000330: 0ee8 aabd 1235 173d 3f22 903c 1956 cb3d
00000340: 8d6b 843b 6793 353d d093 8e3d 1454 63bf
00000350: 3a75 89bf b679 d1be 34bd d3be 76ef 46be
00000360: 2993 c7be 9ffe f6be 3975 eebe 065e 54be
00000370: 68a4 a33e 72fc adbe 6c20 223d 3bc6 f53c
00000380: 2660 ce3c 5176 07be 5b9e 593c eee2 e63d
00000390: e2e7 7d3b 2379 e8bb 0fa5 4bbe b4af 7c3d
000003a0: e7b2 54bd 7a07 a03d 7e0f 103d e1b0 e73e
000003b0: ea3e 6f3e f64c 1abe b208 f53d 5826 e03c
000003c0: 5b15 f53d 1e46 b13d 0352 91bd fd9f 77be
000003d0: 5602 a23d 0601 bf3c ba0d a2bd 629d 00bd
000003e0: 5993 823c 2e81 e2bd d306 90bd dd98 4b3e
000003f0: a2c5 6e3d a1e5 cf3c 9867 b2bd c5a8 af3d

bias f4 [256]
0.009979282 0.030213898 -0.11229308 -0.024084395 -0.00050442555 -0.1413727 -0.0106110955 -0.05985717
-0.11336805 0.08124334 -0.004248144 0.07263648 -0.14843994 -0.10678014 -0.15997228 -0.040287916
0.043272678 -0.12605849 -0.17182434 -0.12842725 -0.040846627 -0.08765257 -0.1190343 -0.12260515
0.0357216 0.065565266 0.023085847 -0.09410586 0.069488764 0.070095465 0.03685289 -0.040046323
-0.12128076 -0.014385752 -0.08066564 -0.06902769 -0.043637574 -0.049312588 0.041359525 -0.0646774
0.06610396 -0.028536635 0.021133324 -0.10631346 0.0031644667 -0.036570337 -0.11491223 -0.01982462
-0.051717654 0.023712363 0.09728994 -0.15671553 -0.087394446 -0.014296679 -0.113538206 0.114398964
-0.117260024 0.08077079 -0.047243454 0.070565715 0.036479454 0.0903033 0.086825214 -0.09358652
-0.051299207 -0.045648895 -0.060531948 0.08186048 0.029587576 -0.11698089 0.060277883 -0.11171013
-0.05350818 0.034067526 -0.17710523 -0.1378441 0.0567822 0.022554807 0.115809925 -0.011086932
0.04760746 0.13832192 -0.12937842 0.10123504 -0.0106353955 0.097233325 0.08476906 -0.027802192
0.020790651 -0.1072852 0.0696882 -0.023523416 0.042038556 -0.0075992653 -0.11335093 0.07023245
-0.1230352 -0.056678813 0.008118202 -0.09731315 -0.013478113 -0.06855476 -0.129327 -0.041355453
-0.00085361156 0.08422396 -0.045289278 0.12467234 0.08247017 0.05216506 -0.023108458 0.13437507
0.09666734 0.08098723 -0.12617572 -0.1181322 0.041231472 0.046582088 0.03410477 -0.033093765
0.08953141 -0.055566523 -0.022785187 0.07476824 -0.12360645 0.02142211 -0.06498822 -0.096122
-0.17213732 -0.109504476 0.0555717 0.060233496 -0.14109206 -0.123116404 -0.05698996 -0.10857923
0.05732922 0.1237725 0.03738572 0.108650774 0.020856323 -0.14881688 0.09714636 0.029464325
0.015863953 -0.003239411 0.055613782 -0.12718485 -0.07640897 -0.13200615 0.15455644 -0.01472667
-0.09815675 -0.07996446 0.115439035 0.021564975 -0.0016038343 0.1281137 -0.016232992 -0.102635175
-0.12383996 0.00176826 0.0031885486 -0.03344808 -0.052817818 0.03034137 -0.13470747 -0.09660139
-0.12370986 -0.10808355 -0.066762485 0.052686706 -0.041704543 0.0382926 -0.06231496 0.06466311
-0.17283557 0.023645252 0.049855962 0.089629054 -0.086967476 -0.12454267 -0.029735843 -0.0484559
0.07469731 -0.02831312 0.02303938 0.052511893 -0.051040474 -0.12789972 0.044306412 0.064528935
-0.0015200456 -0.0006177508 0.10773343 0.064486325 0.14593256 0.01444101 -0.11397868 -0.1371782
0.06111128 -0.024440147 0.026671251 -0.014946618 0.07350665 0.09686315 -0.023365134 -0.08647528
0.0385807 0.12306626 -0.06523984 0.12301416 -0.027626418 0.12749253 0.054868776 -0.103163674
0.046562534 0.10730206 -0.14688149 -0.12249021 0.02459342 -0.10373426 0.020338647 -0.07446432
0.089033216 0.026392348 0.088868394 0.049885698 -0.09205715 -0.07915646 -0.13350248 -0.08238852
0.011639405 -0.0739609 -0.10609823 0.0843383 -0.1271527 -0.103517026 0.06573305 0.08140458
-0.08440772 0.019469986 -0.10488553 -0.105618775 0.017982263 -0.063771725 0.022360584 0.057548057
0.075705394 -0.033358674 0.12847024 -0.010589594 0.035487697 -0.10177574 -0.07486986 -0.07261748
00000000: 2480 233c 2383 f73c eaf9 e5bd a34c c5bc
00000010: 6d3b 04ba 01c4 10be 29da 2dbc cb2c 75bd
00000020: 822d e8bd e962 a63d 0434 8bbb 6fc2 943d
00000030: a400 18be 8caf dabd c6cf 23be f104 25bd
00000040: b13e 313d 7a15 01be b8f2 2fbe 6f82 03be
00000050: cb4e 27bd 3183 b3bd 41c8 f3bd 6918 fbbd
00000060: d050 123d 1547 863d 881e bd3c 93ba c0bd
00000070: 2050 8e3d 368e 8f3d 0ef3 163d 9d07 24bd
00000080: 0c62 f8bd 38b2 6bbc 0734 a5bd 645e 8dbd
00000090: 50bd 32bd fffb 49bd 9b68 293d 9675 84bd
000000a0: 8361 873d a9c5 e9bc cb1f ad3c dfba d9bd
000000b0: f162 4f3b c7ca 15bd 1a57 ebbd 3e67 a2bc
000000c0: e4d5 53bd 6e40 c23c f33f c73d 097a 20be
000000d0: dcfb b2bd 9e3c 6abc b886 e8bd 014a ea3d
000000e0: 0626 f0bd 286b a53d 5a82 41bd c284 903d
000000f0: 7b6b 153d f0f0 b83d 6bd1 b13d 4aaa bfbd
00000100: 1e1f 52bd 56fa 3abd 59f0 77bd 78a6 a73d
00000110: a561 f23c ad93 efbd f1e5 763d 48c8 e4bd
00000120: 652b 5bbd 648a 0b3d 135b 35be 0127 0dbe
00000130: 7494 683d dcc4 b83c c12d ed3d f7a5 35bc
00000140: 0a00 433d 43a4 0d3e c77b 04be 5154 cf3d
00000150: 1540 2ebc 4422 c73d 679b ad3d 6cc1 e3bc
00000160: 2851 aa3c 58b8 dbbd b0b8 8e3d 2eb4 c0bc
00000170: 9f30 2c3d 4203 f9bb 8824 e8bd 08d6 8f3d
00000180: e1f9 fbbd 0b28 68bd 3502 053c 1e4c c7bd
00000190: 4ed3 5cbc 7066 8cbd 4c6e 04be 5664 29bd
000001a0: e7c4 5fba 9d7d ac3d 4081 39bd 3654 ff3d
000001b0: 1fe6 a83d 08ab 553d f34d bdbc 9e99 093e
000001c0: 87f9 c53d a2dc a53d 3534 01be 4bef f1bd
000001d0: 55e2 283d dccc 3e3d 71b1 0b3d 548d 07bd
000001e0: 3e5c b73d b999 63bd 00a8 babc 1720 993d
000001f0: 6125 fdbd 6c7d af3c 8b18 85bd 9cdb c4bd
00000200: c444 30be e243 e0bd 279f 633d 66b7 763d
00000210: 707a 10be 7424 fcbd 4e6e 69bd ca5e debd
00000220: 0bd2 6a3d 707c fd3d c521 193d 4c84 de3d
00000230: e1da aa3c 7463 18be acf4 c63d 2b5f f13c
00000240: 1ff5 813c 4c4c 54bb 47cb 633d bf3c 02be
00000250: 4e7c 9cbd 9f2c 07be 0b44 1e3e 2248 71bc
00000260: 6806 c9bd 68c4 a3bd 4d6b ec3d 08a9 b03c
00000270: c037 d2ba 3d30 033e 0dfb 84bc 6432 d2bd
00000280: ce9f fdbd f6c4 e73a f8f6 503b db00 09bd
00000290: 7f57 58bd 778e f83c c1f0 09be f3d6 c5bd
000002a0: 985b fdbd e95a ddbd c5ba 88bd 04ce 573d
000002b0: 62d2 2abd b4d8 1c3d f93d 7fbd 186e 843d
000002c0: cffb 30be b0b3 c13c c435 4c3d 708f b73d
000002d0: 011c b2bd 3a10 ffbd 9598 f3bc b279 46bd
000002e0: e7fa 983d ebf0 e7bc 15bd bc3c b616 573d
000002f0: d10f 51bd 25f8 02be a47a 353d bf27 843d
00000300: 443c c7ba 8ef0 21ba 58a3 dc3d 6811 843d
00000310: 586f 153e fc99 6c3c a76d e9bd 7178 0cbe
00000320: d24f 7a3d b436 c8bc ab7d da3c a9e2 74bc
00000330: a88a 963d 3060 c63d 3d68 bfbc f419 b1bd
00000340: cc06 1e3d 2a0a fc3d 779c 85bd d9ee fb3d
00000350: cc50 e2bc 678d 023e 15be 603d 7a47 d3bd
00000360: 5bb8 3e3d 2fc1 db3d 1a68 16be 26dc fabd
00000370: 2478 c93c a172 d4bd 3c9d a63c c080 98bd
00000380: 0c57 b63d c434 d83c a200 b63d f254 4c3d
00000390: 7688 bcbd c81c a2bd e0b4 08be 50bb a8bd
000003a0: 34b3 3e3c d078 97bd 074a d9bd 8fb9 ac3d
000003b0: 5134 02be bc00 d4bd 0d9f 863d 72b7 a63d
000003c0: f4dd acbd 857f 9f3c 3ace d6bd a84e d8bd
000003d0: 8a4f 933c c09a 82bd 8b2d b73c 83b7 6b3d
000003e0: 6e0b 9b3d 1ba3 08bd b48d 033e fa7f 2dbc
000003f0: 8c5b 113d cd6f d0bd 5f55 99bd 79b8 94bd

weight f4 [256, 256]
0.01711896 -0.06579162 0.030882027 0.049562432 -0.028542846 0.03042822 -0.027364068 0.012105934
-0.055388853 -0.046190277 0.0055632815 -0.044975042 -0.027751014 0.0025154357 -0.03863284 -0.0045567486
-0.046257947 -0.035994537 -0.022396231 0.027631104 -0.023620037 0.026860453 0.0004792884 0.016764961
0.0021484373 0.057791553 0.010038111 -0.029631928 -0.033164524 -0.03209133 -0.018507304 0.024060624
0.010545686 -0.0348982 0.014695271 0.015322186 -0.020081436 0.014811717 -0.004690738 0.01885046
-0.0035418156 -0.044854335 -0.052484393 0.0009146705 -0.016694201 0.033213716 -0.023467254 0.049043924
-0.012069449 0.040947318 0.04333689 0.015780019 0.038552955 0.047913708 -0.010737143 -0.013180129
-0.0026381984 -0.01978681 -0.04879606 -0.030527668 -0.040134624 -0.02352929 -0.055132307 -0.005947873
-0.047560763 -0.005986728 -0.019894311 0.062266327 -0.055132307 -0.00020393729 -0.022667974 -0.0011489827
0.010046599 -0.058488518 -0.03919597 -0.057989992 0.027781285 -0.061463844 0.0561533 0.0039055024
-0.03551323 0.02689779 0.0052301567 -0.03538657 0.029986711 -0.0056518167 -0.021208696 0.047924906
-0.0008261204 0.0015435591 -0.039551504 0.022860136 -0.009088412 0.028734196 -0.008468195 0.011881311
0.0006667466 0.037503995 -0.0077971295 -0.027867327 0.036042172 -0.024396762 -0.01056793 -0.060267854
0.0012423024 -0.011552867 0.046920747 -0.02167201 -0.024931394 -0.053414732 -0.04997641 -0.0016405657
0.036581807 0.026065841 0.041565865 -0.046393134 0.03418071 -0.009744017 0.02878859 -0.011968747
0.007325433 -0.056688044 -0.0060468297 0.034515582 -0.006307355 -0.009902095 0.0058805346 0.0046847314
0.036627404 0.024591153 0.0006933138 0.008421047 0.051583916 0.056500375 -0.013616763 0.0299903
0.030690046 0.006564074 0.043591745 -0.029004933 0.018867522 -0.02125264 -0.048179287 0.021472411
-0.039117604 -0.005411342 0.0032577836 -0.041141726 -0.037191145 0.059003398 0.002421339 -0.010526389
-0.027764045 0.016523993 0.049722947 0.015361683 -0.01406774 0.029063376 -0.031562857 0.034628794
0.015325442 -0.0034777373 -0.059731524 0.0019521341 0.003870912 -0.017664248 -0.025959844 0.006379813
-0.027120695 -0.05865371 -0.010113992 -0.040366963 -0.062597886 0.05625366 -0.05367545 0.031752586
-0.02075171 -0.023836143 -0.052151848 -0.0019173645 0.056184992 0.031682216 -0.018354386 -0.01568827
-0.02174065 0.021120772 -0.008379018 0.018900827 0.023749858 -0.048836302 -0.04701 0.010707308
-0.042620905 0.0057390677 -0.004017994 -0.0006263794 0.016894124 -0.049411554 -0.028326593 -0.0023506954
-0.066861734 -0.01814511 -0.011060639 0.04804571 -0.059159573 0.012314421 0.0070413444 -0.0037768409
0.03956783 -0.05736095 0.03595244 0.028255556 -0.051616684 -0.0601659 0.033152897 -0.01692798
-0.04866007 0.03313835 -0.016608499 -0.044965886 0.046226893 0.0034437873 0.015223481 -0.011700131
-0.013486691 -0.047666848 0.03655593 -0.050873287 0.018829793 0.036864996 -0.021782255 -0.051217712
-0.06159793 0.014409178 -0.05976715 -0.062273435 -0.013123621 -0.059250847 -0.036261156 0.0037483894
0.029225707 -0.058350854 0.010732044 -0.02667124 -0.038528174 0.0010221153 -0.026839737 -0.04259053
-0.035089552 -0.031085212 -0.051053748 0.012551568 0.04366376 -0.06225331 0.0033266693 -0.05594723
00000000: 103d 8c3c c2bd 86bd 4efc fc3c fa01 4b3d
00000010: b0d2 e9bc 9a44 f93c 9c2a e0bc f857 463c
00000020: 6cdf 62bd 0432 3dbd 304c b63b c037 38bd
00000030: 1856 e3bc 02da 243b 783d 1ebd c750 95bb
00000040: f978 3dbd 026f 13bd 4d78 b7bc a05a e23c
00000050: cf7e c1bc 740a dc3c 0049 fb39 ac56 893c
00000060: cccc 0c3b d6b6 6c3d e476 243c a8be f2bc
00000070: 86d7 07bd 3372 03bd a19c 97bc c91a c53c
00000080: d0c7 2c3c 6af1 0ebd 6fc4 703c e809 7b3c
00000090: d381 a4bc d8ac 723c c3b4 99bb 486c 9a3c
000000a0: ce1d 68bb 2eb9 37bd e0f9 56bd 80c6 6f3a
000000b0: 47c2 88bc 1b0b 083d 663e c0bc 48e2 483d
000000c0: f0be 45bc 60b8 273d 0682 313d 1945 813c
000000d0: b4e9 1d3d 2a41 443d d8ea 2fbc 78f1 57bc
000000e0: a0e5 2cbb f317 a2bc 61de 47bd 2915 fabc
000000f0: 3464 24bd 7fc0 c0bc 6ad2 61bd 60e6 c2bb
00000100: 13cf 42bd 502c c4bb 65f9 a2bc fa0a 7f3d
00000110: 6ad2 61bd 00d8 55b9 30b2 b9bc 7699 96ba
00000120: 7e9a 243c a891 6fbd f48b 20bd ea86 6dbd
00000130: 9495 e33c 83c1 7bbd 0101 663d 75f3 7f3b
00000140: 5276 11bd c158 dc3c bc61 ab3b 82f1 10bd
00000150: b1a6 f53c e032 b9bb dcbd adbc e84c 443d
00000160: 0090 58ba 4051 ca3a c200 22bd 2e45 bb3c
00000170: 90e7 14bc fa63 eb3c 2fbe 0abc d5a9 423c
00000180: 9bc8 2e3a ca9d 193d 107f ffbb 054a e4bc
00000190: f5a0 133d b8db c7bc 1c25 2dbc 6ddb 76bd
000001a0: c0d4 a23a 3c48 3dbc f82f 403d 8089 b1bc
000001b0: ec3c ccbc 68c9 5abd 10b4 4cbd 4008 d7ba
000001c0: ced6 153d 0888 d53c f840 2a3d ba06 3ebd
000001d0: 1201 0c3d 5fa5 1fbc 0dd6 eb3c 9018 44bc
000001e0: 300a f03b b931 68bd 7c24 c6bb 3660 0d3d
000001f0: eead cebb 663c 22bc 80b1 c03b 6082 993b
00000200: 9e06 163d 6373 c93c 80bf 353a 6ef8 093c
00000210: a849 533d f06c 673d d818 5fbc 38ae f53c
00000220: b169 fb3c 7217 d73b 428d 323d c19b edbc
00000230: 1090 9a3c 041a aebc a557 45bd e9e6 af3c
00000240: c839 20bd a051 b1bb 8a80 553b 3a84 28bd
00000250: be55 18bd 8cad 713d 54af 1e3b e076 2cbc
00000260: 6c71 e3bc 535d 873c 4aaa 4b3d 92af 7b3c
00000270: 617c 66bc 5116 ee3c 0e48 01bd ecd6 0d3d
00000280: 9017 7b3c c0ea 63bb 0ba9 74bd c0de ff3a
00000290: 20af 7d3b 9db4 90bc bda9 d4bc c00d d13b
000002a0: 382c debc df3e 70bd 28b5 25bc d457 25bd
000002b0: 5233 80bd 3d6a 663d cada 5bbd 000f 023d
000002c0: 7dff a9bc 0444 c3bc 2d9d 55bd 1450 fbba
000002d0: 3c22 663d 36c5 013d f05b 96bc b084 80bc
000002e0: 7319 b2bc 7805 ad3c 2648 09bc e8d5 9a3c
000002f0: 108f c23c 9308 48bd 8f8d 40bd b46d 2f3c
00000300: 4293 2ebd ca0e bc3b 60a9 83bb 9c33 24ba
00000310: 8c65 8a3c c563 4abd 2c0d e8bc 200e 1abb
00000320: ceee 88bd 0ea5 94bc af37 35bc 94cb 443d
00000330: 4f51 72bd 6dc2 493c 14bb e63b e084 77bb
00000340: e011 223d 51f3 6abd de42 133d 3278 e73c
00000350: 046c 53bd 8570 76bd 55cb 073d 8cac 8abc
00000360: c84f 47bd 14bc 073d 8c0e 88bc 262e 38bd
00000370: 6958 3d3d 2ab1 613b e86b 793c e8b1 3fbc
00000380: 48f7 5cbc 503e 43bd acbb 153d 8260 50bd
00000390: f040 9a3c c0ff 163d b370 b2bc aac9 51bd
000003a0: 1c4e 7cbd 7914 6c3c 66ce 74bd 6e12 7fbd
000003b0: 7504 57bc 04b1 72bd 9486 14bd 8aa7 753b
000003c0: c06a ef3c 4e01 6fbd 74d5 2f3c a57d dabc
000003d0: b8cf 1dbd 80f8 853a 02df dbbc 6873 2ebd
000003e0: 10ba 0fbd 6aa6 febc bc1d 51bd 18a5 4d3c
000003f0: c5d8 323d 54fd 7ebd 4004 5a3b ec28 65bd

bias f4 [256]
-0.024579085 0.0526554 -0.08719144 -0.036078937 0.03807805 -0.06582284 -0.0053293672 -0.013682347
-0.00844583 0.0034747976 0.02099716 -0.02416572 -0.120008305 -0.05623081 -0.071678095 0.042104963
-0.011406348 0.04329762 -0.05077294 0.019149069 -0.036676787 -0.029115237 -0.053595684 -0.013116039
-0.0703688 -0.07138145 -0.059822455 -0.044149425 0.15347122 -0.08530657 -0.03832914 0.020873284
-0.031814624 0.075889125 0.065583445 -0.036212727 -0.02868726 -0.080321714 -0.069399685 -0.018086538
-0.02306117 -0.043878064 0.009882333 -0.010992624 -0.057062108 -0.04672877 -0.0033822034 -0.11259921
-0.012753101 -0.100275315 0.050712883 0.038826395 0.014739063 -0.062156297 -0.024757467 -0.07307693
-0.113938674 0.009558948 -0.0661352 -0.0669566 -0.036338292 0.0046570124 -0.051034585 -0.014088384
0.024646206 -0.022136068 -0.014182358 -0.016230829 -0.038048677 -0.07217526 -0.038135424 -0.043949936
-0.03522624 -0.039156634 -0.034917776 0.011973991 0.012199479 0.07037825 -0.011221209 -0.050553206
0.048110016 -0.049247578 0.112943724 0.019155804 0.0461901 -0.02610463 -0.07402828 0.018829765
-0.045097005 -0.047074385 -0.045170173 -0.08206935 -0.093424626 0.07792952 0.02335439 -0.014445115
-0.061111573 -0.0534581 -0.049338434 -0.043708142 -0.012823824 -0.01626945 0.0696851 0.0027362634
0.128021 -0.00022345291 -0.025328437 -0.068917304 -0.060203496 -0.0854879 -0.045417022 -0.070099436
-0.039848812 -0.08570742 -0.082379356 -0.0064548426 -0.00017761132 -0.009721047 -0.028004646 -0.010382481
0.006959838 -0.002439756 0.0055992682 -0.0011958458 -0.05326901 -0.009617775 -0.036544275 -0.058016673
-0.0022661625 -0.012478315 -0.024416145 -0.007283984 0.031365328 -0.006383902 0.023973856 -0.029656636
0.08972889 0.05818594 -0.057138663 -0.024373766 -0.019710572 -0.05298098 -0.06506853 -0.15951934
0.07829691 -0.13809595 -0.020794654 -0.08075222 0.13262576 -0.07912825 -0.060806822 -0.04218707
-0.039837644 0.053728886 0.010101448 -0.07718827 -0.01958334 0.00042893394 0.015055324 -0.045127768
0.056185115 -0.07534569 -0.024676533 0.038823135 -0.08370817 0.008427242 0.0028644337 -0.056591634
-0.10165905 -0.052809402 -0.10470026 -0.064456604 -0.053272642 -0.065559715 -0.038546104 -0.036506254
0.103971384 0.092857644 -0.026041688 -0.016756237 -0.005876326 -0.07050102 -0.05014102 -0.0688246
-0.0016449023 0.1397387 0.07026156 -0.08093976 0.031368647 -0.0924829 -0.051333517 -0.027752269
-0.07397328 0.018925324 -0.0036965432 -0.07651627 0.05897473 -0.049659308 0.010459663 0.0058196587
-0.061160687 -0.03850726 -0.07886005 -0.038078457 0.0080769295 0.08516363 -0.05601889 -0.069024496
-0.03393228 -0.018995432 -0.006672746 0.027201388 -0.002909851 -0.06308013 0.19047451 0.038846742
0.0087293135 -0.107736275 0.015804205 -0.082836576 -0.06878823 0.026337741 -0.03273788 -0.0232367
-0.07148781 -0.040206354 0.011878167 -0.048845943 -0.053563282 0.013626945 -0.025636218 -0.26916173
-0.059413888 -0.05651869 0.029215842 -0.015239715 0.010053334 -0.06822483 0.04318294 -0.07340616
-0.016834218 -0.049887694 -0.022865593 -0.050088912 -0.008958513 -0.059986442 -0.011272026 -0.03191665
-0.34397933 -0.048942175 -0.06333538 -0.1886464 -0.024129132 0.0440108 0.018909447 -0.025038075
00000000: 145a c9bc 30ad 573d 6d91 b2bd 82c7 13bd
00000010: bbf7 1b3d 20ce 86bd f9a1 aebb ec2b 60bc
00000020: 6160 0abc 6eb9 633b 3c02 ac3c 30f7 c5bc
00000030: eac6 f5bd 4752 66bd f7cb 92bd 4176 2c3d
00000040: b1e1 3abc d858 313d 49f7 4fbd 82de 9c3c
00000050: 663a 16bd 1483 eebc 2687 5bbd a8e4 56bc
00000060: 841d 90bd 7030 92bd 6408 75bd 07d6 34bd
00000070: 8f27 1d3e 36b5 aebd 04ff 1cbd 73fe aa3c
00000080: 0d50 02bd c26b 9b3d 9d50 863d cc53 14bd
00000090: 8b01 ebbc b67f a4bd 6c21 8ebd 382a 94bc
000000a0: c7ea bcbc 7cb9 33bd 82e9 213c 681a 34bc
000000b0: f5b9 69bd ab66 3fbd f5a7 5dbb 6a9a e6bd
000000c0: 62f2 50bc 255d cdbd 50b8 4f3d 6d08 1f3d
000000d0: 1c7c 713c 9a97 7ebd 2cd0 cabc 5ca9 95bd
000000e0: ae58 e9bd 229d 1c3c e471 87bd 8b20 89bd
000000f0: 76d7 14bd da99 983b a409 51bd f7d2 66bc
00000100: d7e6 c93c b356 b5bc 1f5d 68bc 84f6 84bc
00000110: eed8 1bbd 9fd0 93bd e433 1cbd d904 34bd
00000120: 6449 10bd b562 20bd f105 0fbd 8f2e 443c
00000130: 53e0 473c 7922 903d 29d9 37bc e110 4fbd
00000140: 020f 453d d4b7 49bd 0a4f e73d a2ec 9c3c
00000150: d531 3d3d 61d9 d5bc 249c 97bd e140 9a3c
00000160: a3b7 38bd 12d1 40bd 5c04 39bd fa13 a8bd
00000170: 6955 bfbd 8399 9f3d b551 bf3c 34ab 6cbc
00000180: 2150 7abd e1f6 5abd 1917 4abd 4f07 33bd
00000190: 041b 52bc 8247 85bc 10b7 8e3d e252 333b
000001a0: f017 033e af4e 6ab9 957d cfbc 8424 8dbd
000001b0: f197 76bd 4814 afbd 3307 3abd 4b90 8fbd
000001c0: 8238 23bd 5f87 afbd 82b6 a8bd 2583 d3bb
000001d0: 2d3d 3ab9 0745 1fbc 006a e5bc 481b 2abc
000001e0: 5a0f e43b 50e4 1fbb 117a b73b edbd 9cba
000001f0: 9b30 5abd df93 1dbc 73af 15bd e4a2 6dbd
00000200: e683 14bb d971 4cbc 5e04 c8bc 7dae eebb
00000210: ee78 003d 0d30 d1bb d264 c43c 79f2 f2bc
00000220: c8c3 b73d 6154 6e3d 3b0a 6abd 7eab c7bc
00000230: 1178 a1bc 9602 59bd a642 85bd 0a59 23be
00000240: 215a a03d 0669 0dbe 8d59 aabc 6b61 a5bd
00000250: 0ccf 073e fe0d a2bd 9310 79bd 59cc 2cbd
00000260: cc2c 23bd d212 5c3d 8b80 253c e214 9ebd
00000270: 3e6d a0bc 8ae2 e039 9baa 763c e5d7 38bd
00000280: 5d22 663d d74e 9abd 7126 cabc 0205 1f3d
00000290: 306f abbd 6a12 0a3c 39b9 3b3b a1cc 67bd
000002a0: 9f32 d0bd ac4e 58bd 176d d6bd d301 84bd
000002b0: 6a34 5abd 2c44 86bd 85e2 1dbd 9587 15bd
000002c0: f3ee d43d 262c be3d 6155 d5bc 6044 89bc
000002d0: 328e c0bb d762 90bd ac60 4dbd e9f3 8cbd
000002e0: c399 d7ba a917 0f3e 4be5 8f3d bfc3 a5bd
000002f0: 697c 003d ad67 bdbd 1843 52bd ba58 e3bc
00000300: 4e7f 97bd 4809 9b3c b441 72bb 90b4 9cbd
00000310: 7d8f 713d 8f67 4bbd 025f 2b3c d6b2 be3b
00000320: a183 7abd cab9 1dbd 6181 a1bd 28f8 1bbd
00000330: 1955 043c 456a ae3d 1074 65bd b75c 8dbd
00000340: 93fc 0abd 4f9c 9bbc 0da7 dabb 72d5 de3c
00000350: 33b3 3ebb 2830 81bd c00b 433e c31d 1f3d
00000360: 6505 0f3c d6a4 dcbd d277 813c 39a6 a9bd
00000370: d8e0 8cbd 3fc2 d73c 2818 06bd e45a bebc
00000380: 3368 92bd 6baf 24bd a59c 423c af12 48bd
00000390: 2c65 5bbd 8d43 5f3c 0c03 d2bc 91cf 89be
000003a0: fa5b 73bd 2480 67bd 1056 ef3c ffaf 79bc
000003b0: bdb6 243c 76b9 8bbd 98e0 303d f855 96bd
000003c0: eae7 89bc 0a57 4cbd a050 bbbc 082a 4dbd
000003d0: bac6 12bc 58b4 75bd 4eae 38bc 08bb 02bd
000003e0: 0f1e b0be 9777 48bd fbb5 81bd 862c 41be
000003f0: 75aa c5bc ab44 343d fce7 9a3c a61c cdbc

weight f4 [8, 256]
0.060243793 -0.009335664 0.010920323 -0.0061025126 -0.009454278 0.049297493 0.055103578 0.016772708
0.027483702 0.047154248 0.0050286455 0.0047767204 -0.039997473 0.05432596 -0.010899459 -0.046651185
0.021679515 0.054065786 0.022725713 0.028102295 0.026335107 0.02726896 -0.008303289 0.0084475
-0.021065466 -0.048220303 -0.04758366 -0.016705729 0.007606627 -0.013837731 -0.055122495 -0.011519708
0.024331372 0.0009156826 0.021815192 0.0032311403 0.045269154 -0.023940794 -0.0010492607 0.006754328
0.05043615 -0.052338324 -0.045488846 -0.0034715063 -0.03285454 -0.005066791 0.028985245 -0.0625301
-0.025308264 -0.0031684178 0.009772662 0.026408454 0.011420659 0.008383807 -0.027932057 0.022676904
0.0041735307 0.005407479 0.049437217 -0.018406875 -0.03288754 -0.024095124 0.016195536 0.04036192
-0.020171797 0.00728661 -0.026635198 0.0057575163 -0.014756393 0.027126538 -0.004038208 0.036272187
-0.007595046 -0.010990079 0.0025436762 -0.008229105 0.097132534 0.0035680933 -0.025363173 0.013870073
0.086707555 0.018107792 -0.009129984 -0.03470703 -0.00039078193 0.05291717 -0.035788864 0.021053936
0.01030071 0.03444237 -0.05148244 0.038581707 -0.01373381 -0.09208317 -0.018337542 -0.009612053
0.03623394 -0.00973406 -0.010705613 -0.012993282 -0.027498508 0.040498555 0.009127389 0.039574564
0.010741262 -0.034396473 -0.00975114 -0.011310563 -0.018685753 -0.026202384 -0.0016282523 -0.04313875
-0.034024313 0.004782168 -0.0004834984 0.053977963 -0.015801793 0.015280445 -0.04838375 0.027772684
-0.058426145 0.03867501 -0.0042922646 -0.023576183 0.026501827 0.009292768 -0.018077772 0.05744812
-0.0072904835 0.009758026 0.010792721 -0.032707985 0.08810079 0.025754541 0.012854808 -0.017343307
0.052785564 -0.050758507 -0.119873144 -0.06947201 0.00066045596 0.05009159 -0.023371758 0.007131868
-0.011751159 -0.005518225 -0.021145985 0.0032167677 -0.01619285 0.03493601 0.00020917504 -0.010999959
-0.027031815 0.027295722 -0.0069074454 -0.039076634 -0.038592495 0.04388686 -0.038986217 0.061821558
-0.013708759 -0.068843745 -0.044361535 0.0322894 0.032720856 0.025071815 -0.024424614 0.026076071
0.0014754076 0.037486717 0.03262699 -0.065419056 0.044101905 -0.050676905 -0.014995264 0.0130847525
-0.035432406 0.02921065 -0.028174987 -0.0068211197 0.059402447 0.049732387 0.019312777 -0.05088396
0.04310187 0.010345399 0.0076852194 0.001114152 -0.07463505 -0.0457224 0.0019121858 -0.02041225
0.06094483 0.003466684 0.01838214 -0.02347103 -0.045028687 -0.039735366 -0.056309752 0.053572144
-0.01838831 -0.009886716 0.034922644 0.042632967 0.005214407 0.011681346 0.042417713 0.02133799
0.013085817 0.09807886 -0.05612215 -0.06688887 0.017279692 -0.020570263 -0.0008611167 -0.046773713
0.0013691837 0.0012225042 -0.035388146 -0.02635811 0.0018880652 -0.034221187 0.06383957 -0.049933743
-0.0238128 -0.056729924 0.03655344 -0.04251117 -0.00029046976 -0.023831883 0.03003834 -0.007054688
-0.016740594 0.0028215535 -0.005379925 0.035745006 0.07499914 0.023067744 0.029226739 0.00850584
-0.009108056 0.0015961996 0.067587726 0.004892674 -0.01234821 -0.13043483 0.008498127 -0.005656778
-0.0024927566 -0.011857299 0.061318953 0.04599017 -0.025799768 0.09121438 -0.013097408 0.001108535
00000000: 32c2 763d 9df4 18bc 28eb 323c 96f7 c7bb
00000010: 1ee6 1abc 2bec 493d 4ab4 613d eb66 893c
00000020: 8025 e13c d024 413d 56c7 a43b 0986 9c3b
00000030: 64d4 23bd e684 5e3d a593 32bc 5015 3fbd
00000040: 3d99 b13c 1674 5d3d 462b ba3c c936 e63c
00000050: b9bc d73c 2763 df3c 850a 08bc 6267 0a3c
00000060: 7c91 acbc a782 45bd 15e7 42bd 74da 88bc
00000070: 0341 f93b a7b7 62bc 20c8 61bd 28bd 3cbc
00000080: 9652 c73c 6b0a 703a c6b5 b23c 8ac1 533b
00000090: 266c 393d 7c1f c4bc 5987 89ba 6953 dd3b
000000a0: 2396 4e3d b660 56bd 8352 3abd 3682 63bb
000000b0: 7b92 06bd 5307 a6bb 7772 ed3c c80f 80bd
000000c0: 4753 cfbc 3ba5 4fbb 841d 203c 8b56 d83c
000000d0: b71d 3b3c 3c5c 093c c5d1 e4bc eac4 b93c
000000e0: 1dc2 883b 3931 b13b ae7e 4a3d 04ca 96bc
000000f0: 16b5 06bd 2363 c5bc 80ac 843c 8a52 253d
00000100: 533f a5bc 84c4 ee3b 0f32 dabc 8ca9 bc3b
00000110: ccc4 71bc 7938 de3c f252 84bb 2592 143d
00000120: dddf f8bb bb0f 34bc ceb3 263b 5ed3 06bc
00000130: 6ced c63d acd6 693b 6ec6 cfbc 4d3f 633c
00000140: bb93 b13d cb56 943c ee95 15bc f528 0ebd
00000150: dde1 ccb9 adbf 583d 5897 12bd 4e79 ac3c
00000160: 4fc4 283c 7113 0d3d 40df 52bd da07 1e3d
00000170: c603 61bc 1a96 bcbd 9d38 96bc df7b 1dbc
00000180: 0a6a 143d 9b7b 1fbc 9866 2fbc c6e1 54bc
00000190: 8d44 e1bc d0e1 253d 0b8b 153c f018 223d
000001a0: 1efc 2f3c 51e3 0cbd 3fc3 1fbc f14f 39bc
000001b0: dd12 99bc 62a6 d6bc 156b d5ba 42b2 30bd
000001c0: 145d 0bbd bcb3 9c3b 0f7e fdb9 ff17 5d3d
000001d0: c372 81bc d55a 7a3c 0a2e 46bd 8a83 e33c
000001e0: 4150 6fbd b069 1e3d 20a6 8cbb d722 c1bc
000001f0: 5c1a d93c b240 183c d617 94bc b84e 6b3d
00000200: 02e5 eebb 21e0 1f3c f4d3 303c cff8 05bd
00000210: 306e b43d 30fb d23c f99c 523c 8d13 8ebc
00000220: ad35 583d 27e8 4fbd 0d80 f5bd 5747 8ebd
00000230: 7322 2d3a d72c 4d3d 2176 bfbc 72b2 e93b
00000240: ef87 40bc 3ad2 b4bb 583a adbc 68d0 523b
00000250: dea6 84bc 1019 0f3d ff55 5b39 2c39 34bc
00000260: d371 ddbc 479b df3c da57 e2bb d20e 20bd
00000270: 2a13 1ebd b5c2 333d 03b0 1fbd 9a38 7d3d
00000280: b49a 60bc f3fd 8cbd 71b4 35bd e441 043d
00000290: 4e06 063d 6863 cd3c 2116 c8bc 7c9d d53c
000002a0: 7762 c13a ac8b 193d e1a3 053d 6dfa 85bd
000002b0: 33a4 343d 9692 4fbd b2ae 75bc 6e61 563c
000002c0: 9221 11bd 2c4b ef3c 3bcf e6bc b383 dfbb
000002d0: fb4f 733d 30b4 4b3d d435 9e3c b36b 50bd
000002e0: 968b 303d c07f 293c 4bd4 fb3b bd08 923a
000002f0: 43da 98bd 6947 3bbd 4fa2 fa3a 9737 a7bc
00000300: 49a1 793d 4e31 633b 2496 963c 5146 c0bc
00000310: 0070 38bd 8dc1 22bd 0ea5 66bd 776e 5b3d
00000320: 15a3 96bc e4fb 21bc 0c0b 0f3d e89f 2e3d
00000330: 9edd aa3b 1e63 3f3c 32be 2d3d 02cd ae3c
00000340: e565 563c 92dd c83d 57e0 65bd 08fd 88bd
00000350: 248e 8d3c f882 a8bc 90bc 61ba cb95 3fbd
00000360: 2e76 b33a 6f3c a03a 29f3 10bd f7ec d7bc
00000370: f578 f73a 842b 0cbd 52be 823d 5387 4cbd
00000380: 1013 c3bc a35d 68bd 0fb9 153d 3120 2ebd
00000390: 314a 98b9 153b c3bc f712 f63c 032b e7bb
000003a0: 9223 89bc d0e9 383b 154a b0bb 5b69 123d
000003b0: 2699 993d 91f8 bc3c ea6c ef3c 145c 0b3c
000003c0: f539 15bc 9237 d13a 6f6b 8a3d b952 a03b
000003d0: 2650 4abc b590 05be ba3b 0b3c 7e5c b9bb
000003e0: 845d 23bb 1e45 42bc 9529 7b3d 3060 3c3d
000003f0: 095a d3bc 9bce ba3d 8396 56bc 434c 913a

bias f4 [8]
-0.0096101845 0.02923861 -0.0024016502 0.038337786 0.008870544 0.007691379 -0.007060884 -0.10781154
00000000: 0974 1dbc cf85 ef3c 0165 1dbb 1508 1d3d
00000010: c255 113c f707 fc3b fd5e e7bb 4ccc dcbd
