logs/test/checkpoints/ckpt_2000.pt (torch, 329116 bytes, 6 tensors)

weight f4 [256, 51]
-0.09380867 -0.0008518264 0.038823593 -0.00702693 0.075380564 0.109958135 -0.008103159 -0.36346933
-0.47008032 -0.19188657 -0.20175849 0.014612287 0.13436437 0.19719332 -0.23068725 0.06368213
-0.030404467 0.12098438 -0.0844435 0.063416794 0.008521359 0.049235445 -0.083388485 -0.1260259
0.10474109 0.1079197 0.09685249 -0.068903714 0.0871283 0.029140538 0.10742315 0.23568909
0.055126693 0.006187328 -0.033511475 -0.0449888 -0.017305538 0.07040009 -0.036254324 0.13214199
-0.050693985 0.007220094 0.033141997 0.09509455 0.018444033 0.085319564 0.044600185 0.039608594
0.036788534 0.09796975 -0.09367231 -0.07054694 -0.07158602 -0.10046333 0.09254998 -0.047359146
0.07880017 0.03085614 0.36294538 0.39240155 -0.09770788 0.052958354 -0.03820417 0.16690616
0.11302273 0.26222613 -0.21439439 0.097101495 -0.009769191 -0.089234255 0.06908906 -0.026717572
-0.081413396 -0.11455288 0.04155147 0.03740086 0.010388777 -0.09613543 0.030584827 -0.057757314
-0.028204223 -0.09472789 -0.2823569 0.00802884 -0.10083408 0.047712784 -0.14431962 -0.09115113
-0.05320935 -0.00033497406 -0.019756297 -0.17486468 0.03446936 0.14061274 -0.05322567 0.14675947
-0.042941373 0.060880862 0.02448256 -0.06498363 -0.07573521 0.13683581 -0.03692165 -0.11042944
0.110510595 -0.035517875 -0.04608661 0.016803982 0.07993649 0.47376686 0.33566904 0.02361552
0.15518871 -0.23504615 0.21832907 0.17257266 0.13120769 0.23443131 0.032030363 0.019431736
-0.14549734 -0.056912586 0.07286953 -0.019847412 0.06821753 0.07957916 -0.0554722 0.07091171
0.05352012 -0.028917858 -0.1317104 -0.0011877104 0.07598262 -0.19046168 -0.09050807 0.03988047
0.07326501 0.056418005 -0.101786494 0.061621837 0.15658128 0.051354084 0.01963839 -0.09028372
0.10380306 -0.12339805 0.06045945 0.1033812 0.003440858 -0.20531018 0.09658565 0.09074818
0.125842 -0.16586702 0.08195755 -0.05152329 -0.122042656 0.024189815 -0.01178163 0.13905072
-0.35758352 -0.3606109 0.044014197 -0.10853082 -0.17696 -0.17290525 -0.3873858 -0.15781045
0.09304618 -0.25139228 -0.23680028 0.04693716 0.08138203 -0.07346691 -0.06671684 -0.115324326
-0.107972436 0.13597268 -0.14584649 -0.0045112553 0.07423847 -0.038358472 -0.0016054892 0.07138256
0.24328814 -0.08361453 0.008336661 -0.026614156 0.038375046 -0.009361419 -0.050719902 -0.14590368
-0.09314483 0.0023337917 0.07677662 0.11130312 -0.11140708 -0.12396497 -0.015884012 -0.08981805
0.14979422 -0.14944308 -0.05481761 -0.06725444 0.040844418 0.051548276 -0.038844142 0.07832829
0.07560152 0.06364061 0.1359224 -0.25100324 -0.43717974 -0.2214314 -0.09836127 -0.001654441
-0.055636376 -0.25340146 -0.23481761 -0.07884198 0.093694955 -0.15174428 0.020196004 0.030002126
0.025192332 -0.112902254 0.013282384 0.11273752 0.003874295 -0.04475161 -0.11476927 0.09990651
-0.0143807065 0.092923366 -0.06443709 0.21144867 0.16030389 -0.13223645 0.12704511 0.0045619598
0.072456844 0.09085601 -0.108979 -0.15454352 0.05856568 -0.043612197 0.0047710496 -0.053405635
0.028039796 -0.06402689 -0.03347771 0.087736584 0.036972918 -0.025159094 -0.07568355 0.11388457
00000000: c31e c0bd 1a4d 5fba 7d05 1f3d 2942 e6bb
00000010: 2061 9a3d bb31 e13d 1dc3 04bc a718 babe
00000020: 5eae f0be ea7d 44be c799 4ebe 6068 6f3c
00000030: d096 093e 0ced 493e 4739 6cbe c76b 823d
00000040: ca12 f9bc a9c6 f73d b7f0 acbd aae0 813d
00000050: 2c9d 0b3c 1bab 493d 95c7 aabd ef0c 01be
00000060: 7f82 d63d 0105 dd3d 995a c63d 641d 8dbd
00000070: 5270 b23d 23b8 ee3c ab00 dc3d 7b58 713e
00000080: 87cc 613d 12bf ca3b 5443 09bd 2d46 38bd
00000090: 58c4 8dbc ec2d 903d 6a7f 14bd 3b50 073e
000000a0: 7fa4 4fbd 8a96 ec3b e7bf 073d eec0 c23d
000000b0: f117 973c 06bc ae3d afae 363d 9f3c 223d
000000c0: 93af 163d 5da4 c83d 45d7 bfbd ea7a 90bd
000000d0: b19b 92bd b8bf cdbd d88a bd3d aafb 41bd
000000e0: fc61 a13d 04c6 fc3c fad3 b93e dbe8 c83e
000000f0: 121b c8bd dcea 583d fa7b 1cbd 73e9 2a3e
00000100: 7678 e73d 8142 863e 348a 5bbe 26dd c63d
00000110: f50e 20bc 73c0 b6bd 917e 8d3d cfde dabc
00000120: 11bc a6bd b39a eabd e031 2a3d a531 193d
00000130: b035 2a3c a7e2 c4bd 088d fa3c ef92 6cbd
00000140: 8b0c e7bc b200 c2bd 1591 90be 658b 033c
00000150: 1982 cebd 7b6e 433d 86c8 13be 72ad babd
00000160: 0cf2 59bd 759f afb9 f5d7 a1bc ba0f 33be
00000170: be2f 0d3d c9fc 0f3e 2903 5abd 1d48 163e
00000180: 4be3 2fbd 365e 793d a68f c83c 2316 85bd
00000190: 101b 9bbd b01e 0c3e 283b 17bd d528 e2bd
000001a0: 6153 e23d 317b 11bd 50c5 3cbd 81a8 893c
000001b0: beb5 a33d 9291 f23e d0dc ab3e 5675 c13c
000001c0: cae9 1e3e f0af 70be a891 5f3e e3b6 303e
000001d0: 4f5b 063e c30e 703e 4532 033d 4e2f 9f3c
000001e0: 41fd 14be 2c1d 69bd 9f3c 953d 0a97 a2bc
000001f0: a2b5 8b3d 66fa a23d d136 63bd 293a 913d
00000200: ea37 5b3d 25e5 ecbc 17df 06be f3ac 9bba
00000210: c79c 9b3d 6308 43be 4c5c b9bd b459 233d
00000220: f70b 963d 9116 673d 7075 d0bd 2e67 7c3d
00000230: d856 203e a958 523d b0e0 a03c ace6 b8bd
00000240: b396 d43d 1eb8 fcbd 54a4 773d 86b9 d33d
00000250: 0580 613b d53c 52be b3ce c53d 2fda b93d
00000260: badc 003e 0bd9 29be 5cd9 a73d 160a 53bd
00000270: 80f1 f9bd b829 c63c bd07 41bc 5063 0e3e
00000280: 3015 b7be fea1 b8be 3b48 343d 6845 debd
00000290: 0135 35be 130e 31be 6e57 c6be 1099 21be
000002a0: ff8e be3d 7db6 80be c67b 72be 2e41 403d
000002b0: 9fab a63d d275 96bd d7a2 88bd 292f ecbd
000002c0: a720 ddbd 6c3c 0b3e c858 15be 27d3 93bb
000002d0: 570a 983d c61d 1dbd 476f d2ba 0531 923d
000002e0: 8720 793e 183e abbd 7e96 083c ee05 dabc
000002f0: 272f 1d3d a360 19bc acbf 4fbd c667 15be
00000300: b7c2 bebd 87f2 183b 0f3d 9d3d e4f2 e33d
00000310: 6529 e4bd 59e1 fdbd 301f 82bc 87f2 b7bd
00000320: a863 193e 9b07 19be 6e88 60bd b2bc 89bd
00000330: 7a4c 273d 4924 533d 091b 1fbd 956a a03d
00000340: f8d4 9a3d 0256 823d 3e2f 0b3e 7f83 80be
00000350: 06d6 dfbe eabe 62be a271 c9bd d4d9 d8ba
00000360: f8e2 63bd d6bd 81be 0774 70be e777 a1bd
00000370: 24e3 bf3d da62 1bbe 1772 a53c 05c7 f53c
00000380: 2660 ce3c 4c39 e7bd 5b9e 593c eee2 e63d
00000390: e2e7 7d3b 774d 37bd 270c ebbd c99b cc3d
000003a0: 0e9d 6bbc 9b4e be3d 98f7 83bd 0086 583e
000003b0: b426 243e fe68 07be 1d18 023e 7e7c 953b
000003c0: 4164 943d b712 ba3d 6230 dfbd a840 1ebe
000003d0: 91e2 6f3d b4a2 32bd 7756 9c3b debf 5abd
000003e0: b7b3 e53c 8820 83bd ec1f 09bd 3daf b33d
000003f0: ea70 173d 721a cebc faff 9abd 503c e93d

bias f4 [256]
0.04860394 0.048126582 -0.083498836 0.009648215 0.01888126 -0.1157656 -0.020739863 -0.05985717
-0.065996416 0.12782376 0.010826048 0.10161075 -0.14843994 -0.11106398 -0.117199294 -0.053294484
0.049317967 -0.12077458 -0.123088054 -0.12842725 -0.042533204 -0.07400147 -0.12478621 -0.12260515
0.062314276 0.065565266 0.0395711 -0.09410586 0.10861439 0.12026405 0.063329995 -0.003791193
-0.12128076 -0.014385752 -0.023759764 -0.06902769 0.022771126 -0.007848611 0.077908434 -0.00069828663
0.096884646 0.0015145008 0.087868065 -0.08844479 0.005975372 0.020049477 -0.07816074 0.009002523
-0.051717654 0.07687229 0.12132473 -0.13295598 -0.07404243 -0.0022990312 -0.05324536 0.111509636
-0.1050109 0.08151111 -0.04782765 0.096374825 0.09682121 0.1081898 0.09034077 -0.09358652
-0.024716066 -0.045648895 -0.03420823 0.08186048 0.03079373 -0.11698089 0.085815184 -0.08527474
-0.038795784 0.09869064 -0.14417428 -0.1378441 0.07695447 0.02568648 0.12745593 -0.0072150184
0.04760746 0.1410513 -0.0966067 0.104808174 0.018149689 0.097233325 0.08476906 -0.027802192
0.020790651 -0.1072852 0.10564601 0.039017573 0.04381543 0.016112342 -0.09784012 0.0931955
-0.08664359 -0.047432505 0.03765916 -0.088758275 0.009878483 -0.06453908 -0.07918375 0.004055352
-0.00085361156 0.07847951 -0.045289278 0.085370995 0.08247017 0.086891405 -0.0056536505 0.13437507
0.11529661 0.07860194 -0.12617572 -0.0805909 0.041231472 0.040179327 0.104830906 -0.033093765
0.09875448 -0.03530058 -0.024652047 0.07476824 -0.08464172 0.043201547 -0.06498822 -0.096122
-0.113529876 -0.098005645 0.0555717 0.070421785 -0.122564726 -0.11710849 -0.075169496 -0.10857923
0.09923766 0.11888416 0.03738572 0.12469353 0.0380635 -0.14152063 0.123374626 0.051218994
0.0001430626 0.029842893 0.111446865 -0.12718485 -0.031540565 -0.13200615 0.14498524 -0.010552367
-0.09815675 -0.07492021 0.115439035 0.057294995 0.023965957 0.14226781 -0.016232992 -0.058310427
-0.12383996 0.00176826 0.020567346 -0.045116704 -0.052817818 0.07887692 -0.061188668 -0.09091989
-0.12370986 -0.0806541 -0.039520368 0.05774682 -0.016408045 0.045632534 -0.019643547 0.090356044
-0.12842955 0.05165076 0.06100773 0.10547589 -0.061627705 -0.12454267 -0.013794964 -0.041722074
0.07862811 -0.02831312 0.0042765155 0.11205588 -0.046935093 -0.10749092 0.107511215 0.07885572
-0.0015200456 0.04973453 0.10773343 0.103230946 0.13659152 0.05183722 -0.07102298 -0.1371782
0.09793765 0.0066441693 0.020471431 -0.0004874943 0.08717736 0.114626765 -0.0003968583 -0.08647528
0.080867186 0.14442359 -0.060564626 0.11459759 -0.021852091 0.13953322 0.076427 -0.103163674
0.059275363 0.12819499 -0.10777649 -0.09720433 0.05494857 -0.08974477 0.020338647 -0.07446432
0.089033216 0.03387809 0.110058755 0.010845167 -0.07539095 -0.048552014 -0.1223953 -0.08159977
0.014311195 -0.07213943 -0.12497787 0.119001 -0.120708376 -0.09213316 0.0594202 0.079549216
-0.08440772 0.044704612 -0.11392415 -0.099838175 0.017982263 -0.063771725 0.052140735 0.064461105
0.07590647 0.04103412 0.12847024 -0.010589594 0.071792774 -0.080624655 -0.06289031 -0.07261748
00000000: ed14 473d 6120 453d 7001 abbd 8c13 1e3c
00000010: dfac 9a3c 8416 edbd a5e6 a9bc cb2c 75bd
00000020: 2129 87bd 3be4 023e bd5f 313c 4c19 d03d
00000030: a400 18be 8375 e3bd 2f06 f0bd 514b 5abd
00000040: a301 4a3d aa58 f7bd 9715 fcbd 6f82 03be
00000050: 4c37 2ebd 158e 97bd ea8f ffbd 6918 fbbd
00000060: 413d 7f3d 1547 863d 4e15 223d 93ba c0bd
00000070: 3971 de3d 004d f63d 28b3 813d aa75 78bb
00000080: 0c62 f8bd 38b2 6bbc d6a3 c2bc 645e 8dbd
00000090: 838a ba3c 7697 00bc 758e 9f3d 390d 37ba
000000a0: 756b c63d 3782 c63a 2cf4 b33d 8b22 b5bd
000000b0: 0ecd c33b cd3e a43c bd12 a0bd 517f 133c
000000c0: e4d5 53bd 386f 9d3d 1a79 f83d 9d25 08be
000000d0: 8fa3 97bd 58ab 16bb ce17 5abd 2a5f e43d
000000e0: f40f d7bd 4cef a63d ede6 43bd 2a60 c53d
000000f0: 334a c63d 9d92 dd3d 9504 b93d 4aaa bfbd
00000100: 5979 cabc 56fa 3abd ee1d 0cbd 78a6 a73d
00000110: 2243 fc3c ad93 efbd dfbf af3d 86a4 aebd
00000120: 54e8 1ebd 511e ca3d 6ca2 13be 0127 0dbe
00000130: 4e9a 9d3d 746c d23c cf83 023e f66b ecbb
00000140: 0a00 433d c16f 103e bcd9 c5bd aba5 d63d
00000150: a8ae 943c 4422 c73d 679b ad3d 6cc1 e3bc
00000160: 2851 aa3c 58b8 dbbd ef5c d83d e4d0 1f3d
00000170: cf77 333d 08fe 833c 6760 c8bd 48dd be3d
00000180: 3272 b1bd 9648 42bd 7e40 1a3d e6c6 b5bd
00000190: 5cd9 213c 112d 84bd 172b a2bd c2e2 843b
000001a0: e7c4 5fba deb9 a03d 4081 39bd fdd6 ae3d
000001b0: 1fe6 a83d 1ff4 b13d 4242 b9bb 9e99 093e
000001c0: a120 ec3d 0efa a03d 3534 01be d70c a5bd
000001d0: 55e2 283d 1493 243d 96b1 d63d 548d 07bd
000001e0: ca3f ca3d 5797 10bd 17f3 c9bc 1720 993d
000001f0: a358 adbd 1bf4 303d 8b18 85bd 9cdb c4bd
00000200: 5a82 e8bd 2fb7 c8bd 279f 633d 4c39 903d
00000210: 3703 fbbd 93d6 efbd 77f2 99bd ca5e debd
00000220: 1d3d cb3d 8a79 f33d c521 193d 525f ff3d
00000230: 79e8 1b3d c9ea 10be d6ab fc3d 02cb 513d
00000240: 1303 1639 1579 f43c 413e e43d bf3c 02be
00000250: ae30 01bd 9f2c 07be 0377 143e d6e3 2cbc
00000260: 6806 c9bd c46f 99bd 4d6b ec3d 28ae 6a3d
00000270: 4154 c43c a7ae 113e 0dfb 84bc ead6 6ebd
00000280: ce9f fdbd f6c4 e73a da7c a83c 4bcc 38bd
00000290: 7f57 58bd 398a a13d f8a0 7abd 3534 babd
000002a0: 985b fdbd fa2d a5bd 1ce0 21bd ee87 6c3d
000002b0: 2a6a 86bc 2ee9 3a3d 81eb a0bc 970c b93d
000002c0: 0983 03be bf8f 533d 3ee3 793d be03 d83d
000002d0: 556d 7cbd 3a10 ffbd 4604 62bc c4e4 2abd
000002e0: c607 a13d ebf0 e7bc 0322 8c3b 8e7d e53d
000002f0: 033f 40bd 3324 dcbd d72e dc3d 1c7f a13d
00000300: 443c c7ba 6fb6 4b3d 58a3 dc3d bf6a d33d
00000310: a6de 0b3e 4453 543d 7f74 91bd 7178 0cbe
00000320: 8993 c83d 55b7 d93b b4b3 a73c 6196 ffb9
00000330: 0b8a b23d 70c1 ea3d 6b11 d0b9 f419 b1bd
00000340: b29d a53d c7e3 133e 9d12 78bd 24b2 ea3d
00000350: 2803 b3bc cce1 0e3e c285 9c3d 7a47 d3bd
00000360: b9ca 723d 8c45 033e ecb9 dcbd 1013 c7bd
00000370: c011 613d 1bcc b7bd 3c9d a63c c080 98bd
00000380: 0c57 b63d c1c3 0a3d 7c66 e13d edaf 313c
00000390: 9266 9abd 7ade 46bd 63aa fabd c81d a7bd
000003a0: 8179 6a3c d6bd 93bd 66f4 ffbd ccb6 f33d
000003b0: f435 f7bd 4fb0 bcbd 9862 733d b3ea a23d
000003c0: f4dd acbd 2f1c 373d 1151 e9bd f577 ccbd
000003d0: 8a4f 933c c09a 82bd 8691 553d 2f04 843d
000003e0: da74 9b3d 6513 283d b48d 033e fa7f 2dbc
000003f0: 1708 933d 8a1e a5bd a3cc 80bd 79b8 94bd

weight f4 [256, 256]
0.02257917 -0.05946891 0.035092764 0.049562432 -0.02709955 0.037651166 -0.027364068 0.012105934
-0.055388853 -0.044478156 0.0055632815 -0.042815343 -0.027751014 0.0034666806 -0.03863284 -0.0040496066
-0.04489129 -0.032018103 -0.020508967 0.027631104 -0.020460963 0.026860453 0.0004792884 0.016764961
0.007577248 0.057791553 0.015982851 -0.029631928 -0.033164524 -0.023937106 -0.017482981 0.030249268
0.010545686 -0.0348982 0.022851422 0.015322186 -0.017044783 0.014811717 0.0032251552 0.027658261
0.0029404014 -0.04167887 -0.048230484 0.0009146705 -0.016083129 0.042838298 -0.017108396 0.04930295
-0.012069449 0.040947318 0.04333689 0.020619176 0.03984662 0.047913708 -0.010737143 -0.013180129
-0.0026381984 -0.019453734 -0.039635018 -0.02888915 -0.040134624 -0.019668616 -0.055132307 -0.005947873
-0.043080695 -0.005986728 -0.01631447 0.062266327 -0.055132307 -0.00020393729 -0.022667974 0.0056124777
0.014702179 -0.050685547 -0.038895927 -0.057989992 0.0361161 -0.055919856 0.06112232 0.004401557
-0.03551323 0.029608376 0.009303726 -0.03538657 0.032447293 -0.0056518167 -0.021208696 0.047924906
-0.0008261204 0.0015435591 -0.039551504 0.035569556 -0.0062134936 0.031963967 -0.0013822019 0.012129217
0.0055387616 0.037503995 -0.0077971295 -0.025175795 0.041424878 -0.023913667 -0.0021539405 -0.05795929
0.0012423024 -0.010130212 0.046920747 -0.02167201 -0.024931394 -0.053414732 -0.04997641 -0.0016405657
0.04676661 0.026065841 0.041565865 -0.046393134 0.03418071 -0.008189902 0.032044202 -0.011968747
0.007325433 -0.053577542 -0.0031054989 0.034515582 -0.0016800165 -0.0067014694 0.0058805346 0.0046847314
0.044176698 0.027725242 0.0006933138 0.010754928 0.051583916 0.060190506 -0.013616763 0.0299903
0.03413052 0.01051762 0.043591745 -0.028440729 0.018867522 -0.02125264 -0.041771732 0.026811354
-0.039117604 -0.005411342 0.005593665 -0.041141726 -0.030801542 0.059003398 0.007265292 -0.010526389
-0.027764045 0.020678498 0.049722947 0.017693274 -0.010158159 0.033629842 -0.031562857 0.034628794
0.015325442 -0.0034777373 -0.059717916 0.0019521341 0.003870912 -0.016772084 -0.020791978 0.006379813
-0.027120695 -0.051533394 -0.010113992 -0.033907555 -0.057354555 0.058056064 -0.045859277 0.03769218
-0.012296058 -0.019318871 -0.05021944 0.0011817813 0.056184992 0.031682216 -0.016718104 -0.01568827
-0.019648649 0.021120772 -0.008024976 0.026866712 0.023749858 -0.043069184 -0.043804176 0.013260089
-0.042620905 0.013127476 -0.004017994 0.0051984563 0.016894124 -0.04779882 -0.028326593 -0.0023506954
-0.05876912 -0.017967522 -0.009022787 0.04804571 -0.057586603 0.012926839 0.013140723 -0.0037768409
0.03956783 -0.053887285 0.038517937 0.030694462 -0.051616684 -0.057064593 0.03785085 -0.01692798
-0.042753384 0.03313835 -0.016608499 -0.044965886 0.052974395 0.0106239095 0.015223481 -0.011700131
-0.013486691 -0.04756742 0.0434227 -0.050873287 0.023386896 0.04008604 -0.0210929 -0.051217712
-0.06159793 0.014941953 -0.05976715 -0.0602585 -0.01007852 -0.05798302 -0.036261156 0.006557107
0.029225707 -0.056416303 0.012283802 -0.02433189 -0.038528174 0.0010221153 -0.019042209 -0.04259053
-0.032300003 -0.026854105 -0.051053748 0.012551568 0.049643323 -0.06225331 0.0107265115 -0.05594723
00000000: f4f7 b83c ac95 73bd 6ebd 0f3d fa01 4b3d
00000010: e0ff ddbc 1c38 1a3d 9c2a e0bc f857 463c
00000020: 6cdf 62bd ba2e 36bd 304c b63b 245f 2fbd
00000030: 1856 e3bc 4031 633b 783d 1ebd 90b2 84bb
00000040: eedf 37bd 6a25 03bd 6c02 a8bc a05a e23c
00000050: c09d a7bc 740a dc3c 0049 fb39 ac56 893c
00000060: 904a f83b d6b6 6c3d 78ee 823c a8be f2bc
00000070: 86d7 07bd c017 c4bc 7838 8fbc 50cd f73c
00000080: d0c7 2c3c 6af1 0ebd e832 bb3c e809 7b3c
00000090: 80a1 8bbc d8ac 723c 205d 533b 9493 e23c
000000a0: c0b3 403b 76b7 2abd 548d 45bd 80c6 6f3a
000000b0: c4c0 83bc 3677 2f3d e826 8cbc e4f1 493d
000000c0: f0be 45bc 60b8 273d 0682 313d 8ce9 a83c
000000d0: 3636 233d 2a41 443d d8ea 2fbc 78f1 57bc
000000e0: a0e5 2cbb 705d 9fbc 5458 22bd f0a8 ecbc
000000f0: 3464 24bd 1420 a1bc 6ad2 61bd 60e6 c2bb
00000100: 6275 30bd 502c c4bb eca5 85bc fa0a 7f3d
00000110: 6ad2 61bd 00d8 55b9 30b2 b9bc e0e8 b73b
00000120: 68e1 703c a69b 4fbd 5651 1fbd ea86 6dbd
00000130: 7aee 133d 380c 65bd 665b 7a3d f03a 903b
00000140: 5276 11bd 448d f23c a86e 183c 82f1 10bd
00000150: 74e7 043d e032 b9bb dcbd adbc e84c 443d
00000160: 0090 58ba 4051 ca3a c200 22bd 62b1 113d
00000170: 909a cbbb a6ec 023d 002b b5ba a0b9 463c
00000180: 807e b53b ca9d 193d 107f ffbb 783d cebc
00000190: 22ad 293d 98e6 c3bc 2029 0dbb b866 6dbd
000001a0: c0d4 a23a 30f9 25bc f82f 403d 8089 b1bc
000001b0: ec3c ccbc 68c9 5abd 10b4 4cbd 4008 d7ba
000001c0: 588e 3f3d 0888 d53c f840 2a3d ba06 3ebd
000001d0: 1201 0c3d f02e 06bc c840 033d 9018 44bc
000001e0: 300a f03b 2074 5bbd a085 4bbb 3660 0d3d
000001f0: 0034 dcba 0098 dbbb 80b1 c03b 6082 993b
00000200: a0f2 343d 0c20 e33c 80bf 353a 7035 303c
00000210: a849 533d 528a 763d d818 5fbc 38ae f53c
00000220: 72cc 0b3d 1852 2c3c 428d 323d 88fc e8bc
00000230: 1090 9a3c 041a aebc d618 2bbd 7ca3 db3c
00000240: c839 20bd a051 b1bb 104b b73b 3a84 28bd
00000250: 8453 fcbc 8cad 713d b011 ee3b e076 2cbc
00000260: 6c71 e3bc f465 a93c 4aaa 4b3d 7cf1 903c
00000270: 686e 26bc 72bf 093d 0e48 01bd ecd6 0d3d
00000280: 9017 7b3c c0ea 63bb c69a 74bd c0de ff3a
00000290: 20af 7d3b 9c65 89bc f053 aabc c00d d13b
000002a0: 382c debc ae14 53bd 28b5 25bc a6e2 0abd
000002b0: 9cec 6abd 32cc 6d3d f0d6 3bbd 1e63 1a3d
000002c0: 6875 49bc 9c42 9ebc e6b2 4dbd 00e6 9a3a
000002d0: 3c22 663d 36c5 013d 68f4 88bc b084 80bc
000002e0: 34f6 a0bc 7805 ad3c 307b 03bc 9417 dc3c
000002f0: 108f c23c 5069 30bd 026c 33bd d840 593c
00000300: 4293 2ebd a014 573c 60a9 83bb d057 aa3b
00000310: 8c65 8a3c b2c8 43bd 2c0d e8bc 200e 1abb
00000320: e4b7 70bd a030 93bc 50d4 13bc 94cb 443d
00000330: eedf 6bbd 18cb 533c 304c 573c e084 77bb
00000340: e011 223d eab8 5cbd fcc4 1d3d f472 fb3c
00000350: 046c 53bd 90bc 69bd 7e09 1b3d 8cac 8abc
00000360: 2c1e 2fbd 14bc 073d 8c0e 88bc 262e 38bd
00000370: aefb 583d e80f 2e3c e86b 793c e8b1 3fbc
00000380: 48f7 5cbc 0ed6 42bd 00dc 313d 8260 50bd
00000390: e095 bf3c 4231 243d 04cb acbc aac9 51bd
000003a0: 1c4e 7cbd 18cf 743c 66ce 74bd 9ed1 76bd
000003b0: 6020 25bc 9a7f 6dbd 9486 14bd 00dd d63b
000003c0: c06a ef3c c814 67bd 0042 493c ac53 c7bc
000003d0: b8cf 1dbd 80f8 853a 68fe 9bbc 6873 2ebd
000003e0: 024d 04bd 24fd dbbc bc1d 51bd 18a5 4d3c
000003f0: cc56 4b3d 54fd 7ebd 40be 2f3c ec28 65bd

bias f4 [256]
-0.009116121 0.033971675 -0.068604015 0.025923729 0.020546973 -0.06582284 0.026567567 0.043215476
0.020329997 0.03949578 0.05662752 -0.008937276 -0.027463458 -0.043252513 -0.071678095 0.017183108
0.0349097 0.061999556 -0.025498675 0.033068784 -0.011259848 0.0082286345 -0.047260027 -0.007928208
0.014161506 -0.06859319 -0.02119139 0.040078152 -0.009008557 -0.061217144 -0.018175393 0.06116669
0.054790873 0.010574761 0.060975224 0.03406015 0.00045082855 0.0049431645 0.007887909 0.0077455672
0.00914857 -0.01807767 0.04436369 0.04358299 -0.034713667 -0.012399938 0.050315216 -0.040127225
0.0038522356 -0.046215273 0.0020879894 0.070128664 0.038634796 -0.040204242 -0.021417912 -0.005498553
0.008686396 0.06567778 -0.035920136 -0.032708567 -0.036338292 0.06529236 -0.020825531 -0.04462558
-0.031094007 -0.035306294 -0.014182358 -0.008339911 -0.0106634805 -0.032682218 0.00077120104 -0.0070955013
0.013833665 0.052496754 -0.02048083 -0.045981467 0.037048206 0.050305396 0.0031663713 -0.009211266
0.052677985 0.0003768894 0.014596594 0.06343198 0.07653254 0.01312702 -0.03934671 0.03207098
0.04581317 -0.035330564 -0.010666209 -0.06629047 -0.021958942 0.06910943 0.054104287 0.057989653
-0.051765904 0.013232891 -0.004876241 0.059741125 0.05117997 0.023404045 0.025508923 -0.029115928
-0.023691215 0.056259587 -0.021469032 0.030796846 -0.031851955 -0.04954286 0.023251811 -0.040942118
-0.023284262 0.03712662 -0.041257028 0.02599064 0.04094138 0.018338183 -0.028004646 -0.016862476
0.069649 0.074420206 0.05806728 0.024946392 -0.020472791 0.040256266 -0.0017079513 -0.058016673
0.04501149 0.017103842 0.0020090637 0.05249683 0.046376977 0.05723568 0.05694938 0.004399386
0.04292056 0.04530728 -0.028478129 0.003294746 0.0151045825 0.00068019034 -0.03955582 -0.026555542
0.055368952 -0.020819874 0.003927462 -0.060608663 0.04462795 -0.07912825 -0.0507603 -0.013041109
0.032913312 0.026004903 0.018263834 -0.03172034 0.02599453 0.040909685 0.035801172 -0.01611651
-0.046955302 0.008688984 -0.011549074 0.055886265 -0.058937408 0.05076405 0.025381045 -0.056591634
-0.04003895 0.0031154852 -0.016742887 -0.064456604 -0.041447338 0.0042335093 0.028945142 0.04937635
0.052427623 0.072755694 0.01510775 -0.0040778765 -0.020136768 -0.036883086 -0.0032283573 -0.06526953
0.06306205 0.04047509 -0.010402755 -0.050006267 0.055641394 -0.061100356 -0.051333517 -0.008254028
-0.04616251 -0.04066848 0.014454163 -0.0022184714 -0.0015827902 -0.030366115 0.03141399 0.037435587
-0.043373138 -0.0068880636 -0.00021723821 -0.016903598 0.043940403 0.02711691 -0.045802917 0.018273411
-0.04599863 0.005543885 0.022341 0.04802395 0.017993782 -0.022408439 0.057578295 0.060795985
-0.00773104 -0.036282208 0.008410012 -0.05363702 -0.057296507 0.052845832 0.018407555 -0.0232367
-0.04142894 0.0049328953 0.011878167 -0.021152876 0.0016400758 -0.02940019 -0.011209927 -0.026090808
0.0032419064 0.05383461 0.060552027 -0.02428674 0.010053334 -0.028719796 0.03697533 -0.058368675
-0.013545421 -0.024967916 -0.010617862 -0.025673278 0.028593048 0.009950028 -0.00080112944 0.0019192966
-0.023992134 -0.012831219 -0.03697455 0.027925912 0.0008539483 0.047735777 0.035504583 0.05070888
00000000: c85b 15bc e225 0b3d 4380 8cbd 005e d43c
00000010: 2052 a83c 20ce 86bd 3aa4 d93c b602 313d
00000020: 188b a63c 54c6 213d 42f2 673d a76d 12bc
00000030: 0cfb e0bc 8c29 31bd f7cb 92bd 97c3 8c3c
00000040: 79fd 0e3d 3ff3 7d3d 99e2 d0bc 2273 073d
00000050: 3a7b 38bc 65d1 063c bb93 41bd 51e5 01bc
00000060: a905 683c 967a 8cbd 9199 adbc fd28 243d
00000070: a098 13bc d4be 7abd 90e4 94bc ec89 7a3d
00000080: 656c 603d c341 2d3c 28c1 793d a882 0b3d
00000090: 2f5d ec39 45fa a13b 4a3c 013c 87ce fd3b
000000a0: e2e3 153c 9f17 94bc b3b6 353d 1484 323d
000000b0: eb2f 0ebd 1c29 4bbc 5417 4e3d 725c 24bd
000000c0: ca75 7c3b 3a4c 3dbd a6d6 083b 9e9f 8f3d
000000d0: 853f 1e3d 34ad 24bd 9e74 afbc 352d b4bb
000000e0: 6351 0e3c 1282 863d fe20 13bd 6bf9 05bd
000000f0: 76d7 14bd 00b8 853d 4e9a aabc 50c9 36bd
00000100: dcb8 febc 559d 10bd 1f5d 68bc 1fa4 08bc
00000110: e1b5 2ebc cadd 05bd 6d2a 4a3a 6181 e8bb
00000120: 99a6 623c d606 573d 6ac7 a7bc 1057 3cbd
00000130: dcbf 173d 080d 4e3d e582 4f3b daea 16bc
00000140: dfc4 573d 3d99 c539 8d26 6f3c a0e8 813d
00000150: 18bd 9c3d b612 573c 042a 21bd dc5c 033d
00000160: 97a6 3b3d c8b6 10bd 53c1 2ebc 4cc3 87bd
00000170: 3de3 b3bc 3f89 8d3d 759c 5d3d 8f86 6d3d
00000180: 7c08 54bd c5ce 583c e0c8 9fbb 1cb3 743d
00000190: 17a2 513d d7b9 bf3c 17f8 d03c 8784 eebc
000001a0: 1414 c2bc 7470 663d d3df afbc ab49 fc3c
000001b0: 3277 02bd 74ed 4abd 957a be3c ecb2 27bd
000001c0: a3be bebc 1512 183d 21fd 28bd 53ea d43c
000001d0: 26b2 273d f539 963c 006a e5bc 2d23 8abc
000001e0: 23a4 8e3d 9f69 983d f5d7 6d3d 605c cc3c
000001f0: 8eb6 a7bc c1e3 243d 56dd dfba e4a2 6dbd
00000200: f85d 383d 5b1d 8c3c 7faa 033b ea06 573d
00000210: c9f5 3d3d f66f 6a3d c143 693d b928 903b
00000220: 78cd 2f3d 2094 393d f74a e9bc aaec 573b
00000230: 3679 773c cd4e 323a 4905 22bd 028b d9bc
00000240: 8eca 623d 718e aabc f0b1 803b ca40 78bd
00000250: cccb 363d fe0d a2bd 08ea 4fbd 60aa 55bc
00000260: 1cd0 063d 3c08 d53c 099e 953c 30ed 01bd
00000270: 7bf2 d43c ea90 273d 40a4 123d c506 84bc
00000280: 3454 40bd 3e5c 0e3c 5438 3dbc ffe8 643d
00000290: 5a68 71bd f7ed 4f3d e9eb cf3c a1cc 67bd
000002a0: e2ff 23bd 2b2d 4c3b 6128 89bc d301 84bd
000002b0: afc4 29bd 40b9 8a3b 5d1e ed3c db3e 4a3d
000002c0: 59be 563d f000 953d 7f86 773c b59f 85bb
000002d0: ddf5 a4bc b812 17bd d992 53bb 08ac 85bd
000002e0: ad26 813d 35c9 253d 5170 2abc 5fd3 4cbd
000002f0: 3be8 633d 5e44 7abd 1843 52bd e73b 07bc
00000300: e614 3dbd fe93 26bd 27d1 6c3c c663 11bb
00000310: a075 cfba 5cc2 f8bc f5ab 003d 0f56 193d
00000320: 08a8 31bd 44b5 e1bb 70ca 63b9 6a79 8abc
00000330: dafa 333d 4824 de3c d79b 3bbd 1fb2 953c
00000340: 0f69 3cbd 7aa9 b53b 7904 b73c c3b4 443d
00000350: b267 933c e791 b7bc 38d7 6b3d 3605 793d
00000360: aa54 fdbb a79c 14bd 26ca 093c 7eb2 5bbd
00000370: beaf 6abd df74 583d 71cb 963c e45a bebc
00000380: 64b1 29bd 20a4 a13b a59c 423c cc48 adbc
00000390: d0f7 d63a abd8 f0bc d7a9 37bc 64bc d5bc
000003a0: 2a76 543b ae81 5c3d 6705 783d fcf4 c6bc
000003b0: bdb6 243c c745 ebbc 7273 173d fe13 6fbd
000003c0: 9ded 5dbc 8489 ccbc 8bf6 2dbc c450 d2bc
000003d0: f83b ea3c 7105 233c e302 52ba e890 fb3a
000003e0: 278b c4bc 083a 52bc a072 17bd e2c4 e43c
000003f0: 80db 5f3a 9786 433d 416d 113d 1db4 4f3d

weight f4 [8, 256]
0.059199415 -0.011539397 0.01136944 0.035704266 -0.004645437 0.049297493 0.057967592 -0.006419078
0.049754232 0.055664487 -0.0069816797 0.012381489 -0.050372403 0.07864235 -0.010899459 -0.035788707
-0.04059498 0.086413726 0.004343762 0.06822092 0.028776089 0.014194463 -0.0027034848 0.04081157
-0.050149027 -0.04028272 -0.0007683182 -0.04227907 0.014849774 -0.010298476 -0.049322378 0.017106466
0.02239986 -0.028032573 0.050508305 0.043687582 -0.0074130427 -0.0481802 -0.009040114 0.012316383
0.05696591 -0.05067043 -0.039653722 0.018661166 -0.042220462 0.01140468 0.06188925 -0.0478175
0.00064583094 -0.0013599563 0.01918042 0.020729832 0.045870364 -0.039164938 0.00065207976 0.062228672
0.04800837 0.049474142 0.062276877 0.011907536 -0.03288754 -0.08960423 0.0048929993 0.06669745
-0.036268115 -0.042032342 -0.026635198 0.0012232442 -0.011651352 0.043215424 -0.022808261 0.046851467
0.04221203 -0.054373488 0.06526965 0.005345543 0.045748137 0.019228084 -0.019609159 0.024103085
0.067402 0.05197105 0.018691178 -0.034726545 0.012550915 0.08536631 -0.029941868 0.026280124
-0.0019427936 0.050984785 -0.047708303 0.039564196 -0.023857309 -0.08186439 -0.049054142 -0.024627458
0.0533285 -0.05222864 0.012600355 -0.0457733 -0.021305826 0.051972777 -0.024583949 0.056837432
0.024192069 -0.02981989 -0.008638895 -0.018662259 -0.014137884 -0.018201137 0.0138549 -0.04618436
-0.03480878 0.018051002 0.006494352 0.04052101 0.01386794 0.035288487 -0.04838375 0.024327474
-0.04938962 0.080661155 0.04022514 -0.028606335 0.03539907 -0.028712433 -0.014255096 0.05744812
-0.046031184 0.017403789 0.01570039 -0.030892236 0.07851212 0.025564479 0.0053286185 0.04481398
0.020362427 0.0025400198 -0.041001786 -0.062370084 -0.003525271 0.058743402 -0.020200843 0.0125292195
-0.034084655 0.00363439 -0.021681705 0.00964462 -0.06457181 0.03493601 -0.0192922 -0.010582276
-0.02763306 0.02630748 0.013307178 -0.078027196 -0.01494716 0.08547557 -0.040938143 0.0659846
-0.0521988 -0.082721524 -0.032452513 0.04230341 0.038161412 0.03745112 -0.023013348 0.026076071
0.02945653 0.042095993 0.032671258 -0.065419056 0.04861812 -0.14788115 -0.043922056 0.028102746
-0.05542199 0.060294013 -0.021210337 -0.007006052 0.023858603 0.047094267 -0.030649979 -0.054551095
0.038313173 -0.015918577 -0.027962172 0.033138573 -0.045586217 -0.0512019 0.0019121858 -0.021071726
0.061028123 0.0399978 0.016234683 -0.0142677855 0.04292572 -0.0415343 -0.024481991 0.05394472
-0.0016432357 -0.014403193 0.042399522 0.052303765 0.0049119135 0.02143262 0.048215277 -0.018727843
0.01662321 0.09684555 -0.06114042 -0.0330903 0.012097529 0.011011237 0.011717152 -0.060431935
-0.022533556 0.021314686 -0.008485402 -0.028090164 -0.009718359 -0.062471826 0.059489243 -0.049933743
0.017511027 -0.05927806 0.03655344 -0.04560977 0.013901827 -0.037305318 -0.0231976 0.027866626
-0.0054124948 -0.06664497 -0.05086509 0.031182192 0.07499914 0.0014354337 0.060631663 -0.02722589
-0.032202024 0.0016152561 0.08966444 0.019545726 0.0038844347 -0.08590859 -0.083143085 -0.021001056
0.06773674 -0.038606323 0.064593665 0.06945183 0.0018870607 0.07918592 -0.012421407 -0.012094278
00000000: 167b 723d bd0f 3dbc e346 3a3c a33e 123d
00000010: c038 98bb 2bec 493d 6d6f 6d3d 2157 d2bb
00000020: 18cb 4b3d 7200 643d 93c6 e4bb bbdb 4a3c
00000030: 4b53 4ebd 3e0f a13d a593 32bc 2e97 12bd
00000040: ec46 26bd aef9 b03d 1e56 8e3b 69b7 8b3d
00000050: d5bb eb3c e58f 683c f32c 31bb 082a 273d
00000060: 1169 4dbd 7eff 24bd f668 49ba d12c 2dbd
00000070: 774c 733c f0ba 28bc 4306 4abd dc22 8c3c
00000080: e97f b73c 91a4 e5bc cce1 4e3d c0f1 323d
00000090: 1ce9 f2bb 9a58 45bd fc1c 14bc a8ca 493c
000000a0: 1655 693d cc8b 4fbd f16b 22bd 4ddf 983c
000000b0: 5def 2cbd b2da 3a3c 957f 7d3d 48dc 43bd
000000c0: fb4c 293a 9040 b2ba 4220 9d3c 9cd1 a93c
000000d0: 90e2 3b3d 6a6b 20bd 55f0 2a3a 7ee3 7e3d
000000e0: 6da4 443d 66a5 4a3d 0a16 7f3d d317 433c
000000f0: 16b5 06bd 6c82 b7bd 7455 a03b ac98 883d
00000100: e08d 14bd 1b2a 2cbd 0f32 dabc 4455 a03a
00000110: 50e5 3ebc a802 313d 64d8 babc 53e7 3f3d
00000120: 86e6 2c3d bcb6 5ebd 18ac 853d aa29 af3b
00000130: 6662 3b3d 3784 9d3c 63a3 a0bc d573 c53c
00000140: 0f0a 8a3d 99df 543d 3e1e 993c 6c3d 0ebd
00000150: 5aa2 4d3c 88d4 ae3d a648 f5bc 6a49 d73c
00000160: 56a5 feba 6cd5 503d c869 43bd 110e 223d
00000170: 6770 c3bc 84a8 a7bd ffec 48bd 86bf c9bc
00000180: fc6e 5a3d b3ed 55bd b871 4e3c c97c 3bbd
00000190: 8e89 aebc 68e1 543d 4764 c9bc 5ece 683d
000001a0: 722e c63c d848 f4bc 278a 0dbc 98e1 98bc
000001b0: 95a2 67bc 8d1a 95bc aaff 623c d02b 3dbd
000001c0: a793 0ebd b2df 933c 93ce d43b 5cf9 253d
000001d0: 5b36 633c a98a 103d 0a2e 46bd 694a c73c
000001e0: c54c 4abd ad31 a53d 1ec3 243d d557 eabc
000001f0: 9dfe 103d 5636 ebbc 358e 69bc b84e 6b3d
00000200: 328b 3cbd 6492 8e3c 1b9e 803c b711 fdbc
00000210: f6ca a03d 996c d13c b19b ae3b dd8e 373d
00000220: 1bcf a63c 7676 263b 7df1 27bd c677 7fbd
00000230: 3c08 67bb ec9c 703d 3d7c a5bc 5b47 4d3c
00000240: 5a9c 0bbd f22e 6e3b d59d b1bc 7804 1e3c
00000250: 3a3e 84bd 1019 0f3d ad0a 9ebc 4861 2dbc
00000260: ba5e e2bc c982 d73c 5a06 5a3c b9cc 9fbd
00000270: efe4 74bc d10d af3d c1ae 27bd ef22 873d
00000280: 69ce 55bd e769 a9bd edec 04bd 5746 2d3d
00000290: 244f 1c3d 5866 193d 7d86 bcbc 7c9d d53c
000002a0: d24e f13c d96c 2c3d 4cd2 053d 6dfa 85bd
000002b0: cb23 473d 286e 17be 9de7 33bd bb37 e63c
000002c0: 2b02 63bd dbf6 763d 4dc1 adbc 0693 e5bb
000002d0: 1e73 c33c ebe5 403d aa15 fbbc f870 5fbd
000002e0: 46ee 1c3d ad67 82bc ed10 e5bc 50bc 073d
000002f0: 9db8 3abd 15b9 51bd 4fa2 fa3a 9d9e acbc
00000300: a0f8 793d bcd4 233d 99fe 843c 6ec3 69bc
00000310: e1d2 2f3d df1f 2abd 758e c8bc 24f5 5c3d
00000320: d761 d7ba 5ffb 6bbc 1fab 2d3d 793c 563d
00000330: 1ef4 a03b 7693 af3c 627d 453d 226b 99bc
00000340: 662d 883c f656 c63d 616e 7abd b289 07bd
00000350: b734 463c 7a68 343c 4cf9 3f3c 7a87 77bd
00000360: 4b98 b8bc 239c ae3c 5b06 0bbc 581d e6bc
00000370: c139 1fbc 75e2 7fbd feaa 733d 5387 4cbd
00000380: 4973 8f3c 8dcd 72bd 0fb9 153d 4fd1 3abd
00000390: 7dc4 633c 76cd 18bd e508 bebc 8d48 e43c
000003a0: 4c5b b1bb 287d 88bd ea57 50bd cc71 ff3c
000003b0: 2699 993d 2a25 bc3a e858 783d d408 dfbc
000003c0: 45e6 03bd 00b7 d33a fda1 b73d 5c1e a03c
000003d0: 0092 7e3b d8f0 afbd ec46 aabd 680a acbc
000003e0: 8fb9 8a3d aa21 1ebd af49 843d c33c 8e3d
000003f0: 4057 f73a 3a2c a23d 2883 4bbc 1427 46bc

bias f4 [8]
-0.061559733 0.004015108 0.007048533 0.06247192 -0.044204388 -0.02056903 -0.03784091 -0.03178743
00000000: 0f26 7cbd 2b91 833b 61f7 e63b 8ee2 7f3d
00000010: a90f 35bd 6280 a8bc 12ff 1abd 8933 02bd
